Algorithms/shawn/loss/exp/fc_11.batch.pth (torch_old, 252279 bytes, 8 tensors)

fc.0.weight f4 [160, 226]
000000 8d 16 69 bd ed 7c 03 3d 05 3b a5 3c 06 cd 47 3d
       -0.05690627 0.03210156 0.020169744 0.04877951
000010 b9 1d 85 3d 12 e5 6b 3c 22 a2 0c 3d 2a b1 33 3d
       0.0649981 0.014397876 0.03433431 0.04387013
000020 09 fe 86 bd fc 11 b8 bc 0b 93 45 bd 48 0a d4 bc
       -0.06591422 -0.022469513 -0.048235934 -0.025883809
000030 76 30 b8 3b 8f ac 6f bd 06 87 67 bd 06 42 1b 3d
       0.0056210114 -0.058514174 -0.056525253 0.03790476
000040 7a 1d c9 3c f6 fc 4c 3b b5 61 1f 3d d3 b8 62 3c
       0.024550188 0.0031278706 0.03891154 0.013838011
000050 18 88 47 3d 6b 91 83 3d ef fc 76 3d 42 57 23 3d
       0.048713773 0.06424221 0.06029981 0.039878137
000060 ac ac 84 3d 96 d5 90 bc 9c a0 59 3b af 72 80 bc
       0.06478247 -0.01767997 0.0033207303 -0.015679685
000070 b4 10 a4 bb bf e8 2c bd f4 b7 67 bd 54 62 34 3d
       -0.005006874 -0.04221415 -0.056571916 0.044039086
000080 4e 66 36 3d d1 f6 ad bc 85 ab 27 bd e6 38 51 bb
       0.04453116 -0.021235855 -0.04093506 -0.0031924783
000090 0c 3c c4 3b 95 41 2b bd 84 57 4e 3d 19 dd c2 3c
       0.0059886035 -0.04181059 0.05037643 0.023787068
0000a0 d9 24 37 bc 9e 41 77 3d 0c b7 73 bd dd 07 d5 3c
       -0.011178219 0.06036531 -0.05950074 0.026004726
0000b0 f4 b5 4c 3d 4d 87 8c 3c 07 b6 46 bd 10 1d 71 bc
       0.04997821 0.01715436 -0.04851344 -0.014716402
0000c0 aa 8e 38 3d ac e5 b6 bc 39 b2 62 bd e8 2b 5a bc
       0.04505793 -0.022326313 -0.055345748 -0.013316132
0000d0 60 5c 93 ba b1 46 34 3b 21 44 06 3d 44 77 35 bc
       -0.001124274 0.0027507956 0.032779817 -0.011075798
0000e0 b3 70 e7 3b ec 98 2c 3d b4 d1 86 3c d6 ac 37 3d
       0.0070629953 0.042138025 0.016457416 0.044842564
0000f0 6c e2 7a bc 70 98 1f bc 7c 81 d6 bc fb 67 aa 3b
       -0.015312772 -0.009740934 -0.02618479 0.0052003837
000100 a3 34 7c 3d 70 c6 84 3d bd 26 04 bd b3 58 98 bc
       0.061573636 0.064831614 -0.032263506 -0.018596983
000110 64 e4 08 3d 7f 8a 17 bd 1d a3 41 bd 5c ae 39 3d
       0.033420935 -0.036997315 -0.047274698 0.045332298
000120 06 8a ec bc c2 27 81 bc df 5b 15 3c 9e 4f 79 bd
       -0.028874408 -0.015766028 0.009116142 -0.060866944
000130 a5 29 40 3d 3d 88 76 bd 4d 52 11 3d b1 06 52 3d
       0.046914715 -0.06018852 0.03547888 0.051275913
000140 17 87 40 bd 2d ad 7e 3d 4c 63 4a bd 8a e6 7a 3d
       -0.04700383 0.062176872 -0.049411103 0.061255015
000150 17 0e 52 bc 9a 94 32 3d 1f e7 44 3d 3e 83 87 bd
       -0.012820742 0.04359875 0.048071977 -0.06616829
000160 15 66 66 3c 81 e9 46 3d 6a ef 3c 3d e5 78 63 bd
       0.014062424 0.04856253 0.04612676 -0.055535216
000170 ee fe 57 3c d1 71 21 3d 0d 2f 2f 3d be 61 2c 3d
       0.013183339 0.039415184 0.04276948 0.0420854
000180 ed 97 cb 3a a7 d2 39 bd 08 0a fc bb 29 f3 07 bd
       0.0015532948 -0.04536691 -0.0076916255 -0.03319088
000190 55 c4 38 3d 24 68 40 bd 5e 16 64 bd 48 4e 15 bd
       0.04510911 -0.046974316 -0.055685394 -0.036451608
0001a0 b9 f9 1e 3d 36 3d ab bc 54 44 10 3d c0 7b 42 bb
       0.038812373 -0.020903211 0.035221413 -0.0029675812
0001b0 ff c3 97 3c 2b e9 4d bc 97 76 5b bc bc 7f 2d 3d
       0.018526075 -0.012567799 -0.013394973 0.042358145
0001c0 4f 54 a1 3c 50 0d 36 3d 7b 20 d5 bb 2c 5c 07 bd
       0.019693522 0.04444629 -0.006504116 -0.033046886
0001d0 64 50 1f 3c a1 9f 17 bc de 6f 3c bd 5e e0 40 bd
       0.009723756 -0.009254367 -0.046005122 -0.047088973
0001e0 d7 33 1f bd 02 26 61 3d 6e ac 14 bd ef f5 6d 3c
       -0.038867798 0.054967888 -0.036297254 0.014523967
0001f0 5a 38 ec 3c a0 b1 f4 bc ba 9a da 3c 92 2c 74 3d
       0.028835464 -0.029869854 0.026685107 0.059612818
000200 de 54 10 3c 62 ca b9 3c 3b b3 5a bd af 70 47 3d
       0.008809296 0.022679511 -0.053393584 0.048691448
000210 c1 f1 2b bb 35 61 82 bd 64 a3 36 3c f5 8c 32 3c
       -0.0026236626 -0.06366197 0.011147354 0.010897865
000220 6a 0a 5e bd b3 c6 67 bc 51 06 3a 3d 48 1e 08 3c
       -0.05420915 -0.014146495 0.04541618 0.008308001
000230 d5 42 db bc a6 c5 c2 bc b8 9c a6 3b 47 cc 29 3d
       -0.026765266 -0.023775887 0.0050846003 0.04145458
000240 8f e7 26 3d b7 ae d1 3c 95 a8 7e bc 66 2b f3 bc
       0.040748175 0.025596006 -0.015543123 -0.02968378
000250 26 bf 38 ba 38 c6 64 bd 38 fd 84 3d 39 71 c0 3c
       -0.00070475263 -0.0558531 0.0649361 0.023491489
000260 af 36 07 3c be 71 4f bd fd cf ea bc 91 d7 24 bd
       0.008252784 -0.050645582 -0.02866363 -0.040244643
000270 91 1d 9c bc c3 da 3e bc bd 38 9b bc 5b 94 e1 bc
       -0.019057067 -0.011648837 -0.018947953 -0.027536562
000280 90 4b 32 3d e0 64 be bc 6e 2a b4 3c e1 5b 56 bb
       0.043529093 -0.02324146 0.021992888 -0.0032708573
000290 1b 29 02 bc 36 51 bf bb 7c ee 0f b9 53 31 85 bc
       -0.007944371 -0.0058385385 -0.00013726385 -0.016258871
0002a0 82 bb 84 bd d4 36 15 3d 34 6c cb 3c bc 53 95 3c
       -0.06481077 0.03642924 0.024831869 0.018228404
0002b0 e9 ee 66 bd be 24 dd 3c a7 f9 77 bd 62 41 40 bd
       -0.056380186 0.02699506 -0.06054082 -0.046937354
0002c0 8d a6 86 3d 4e d0 7d 3d 6e 67 39 3c 3f ab 0b ba
       0.06574736 0.061966233 0.011316163 -0.0005327947
0002d0 4a d4 37 bc 1a e9 ca 3c d9 d3 31 bd 7b 15 d7 3c
       -0.011220047 0.024769355 -0.043414924 0.02625536
0002e0 f2 7d 6b bc ed 91 9c 3c 63 f0 3d bc bb be 4f bd
       -0.014373289 0.019112552 -0.011592957 -0.050719004
0002f0 45 23 2b 3d 0c af 2e 3d 59 36 e2 bc 9d 6f b4 3c
       0.041781683 0.042647406 -0.027613806 0.022025878
000300 2b b1 9b bc 21 6a d0 3c b0 b6 e9 bc b6 33 32 bc
       -0.019005379 0.025441231 -0.028529495 -0.010876587
000310 df d3 5b bd 44 dd a3 3a 54 c7 52 bc d7 e9 ee bc
       -0.053668853 0.0012501855 -0.012864906 -0.029164238
000320 94 10 13 3d 03 b4 ea 3c 4f 78 ca bc b9 c4 45 bd
       0.035904482 0.02865029 -0.02471557 -0.048283312
000330 d1 ab 19 3c 57 98 45 3d f9 10 02 bd dd 37 6c 3d
       0.009379343 0.048240986 -0.031754468 0.057670463
000340 a5 4b 55 bd 88 70 b2 bc f3 25 45 bd 40 30 0a 3b
       -0.052074093 -0.021782175 -0.048131894 0.0021085888
000350 c4 46 1d 3d b2 ee 77 3d 90 7c 2f 3d 8f 6a 20 3d
       0.038397565 0.060530372 0.0428434 0.039164122
000360 47 dc 2c 3c ea 65 69 3d 55 fb 57 bd 6e 0d 7d 3c
       0.010550565 0.05698196 -0.052729923 0.015445096
000370 e0 c5 2e bb bd ce 87 3d 5a 53 0e 3d 59 2f 63 bc
       -0.0026668236 0.06631229 0.03474746 -0.013866269
000380 81 a9 13 bc 96 32 53 3d 38 10 d2 3c 1d 37 1f bd
       -0.009012581 0.051561914 0.0256425 -0.03887092
000390 58 37 e0 3c 05 d8 6a bb 7c ee 2d bd 04 a2 82 bd
       0.02737014 -0.0035834324 -0.042463765 -0.06378558
0003a0 22 18 1a 3d 3a f9 ab bc de 35 6a 3c 16 5e 61 3d
       0.03762067 -0.020992864 0.0142950695 0.055021368
0003b0 98 24 41 3d de 98 08 3d 58 d5 1e 3d 95 a7 2e bc
       0.04715404 0.03334891 0.03877768 -0.010660072
0003c0 9a 2e ed 3a 55 13 25 3d 82 c6 54 bd 14 61 6a bd
       0.0018095553 0.04030164 -0.051947124 -0.057221487
0003d0 e0 bf 64 3d 2b ef 5b 3d 44 f5 8c bc b4 5d 50 bb
       0.05584705 0.053694885 -0.017206796 -0.0031794133
0003e0 e1 df cd 3c 68 de a4 bc 73 51 01 3d 8b 32 34 3d
       0.025131168 -0.020125583 0.031571817 0.043993514
0003f0 c0 9d d3 3c 17 2b 3f bd 6c 9e 84 bd 90 0c 67 3a
       0.025832057 -0.046671953 -0.06475529 0.00088138226

fc.0.bias f4 [160]
000000 f4 8c 24 bd a9 e7 84 bd 80 19 6c 3d fe a7 aa bc
       -0.040173486 -0.06489498 0.057641506 -0.020832058
000010 a0 55 70 3d 90 27 16 bd f0 70 e5 bc bf d9 34 3d
       0.05867541 -0.036658823 -0.028007954 0.04415297
000020 b0 d0 02 bd c9 fa 3d 3d 01 68 67 3d 48 62 5d 3d
       -0.0319373 0.046381745 0.05649567 0.054048806
000030 41 e0 4a 3d ef 55 21 bd 52 5b 5f bd 2b cf 33 3d
       0.04953027 -0.039388593 -0.05453045 0.043898743
000040 c7 97 86 3d 2c 6c 71 3c a3 4f 62 bc 33 ec bf 3c
       0.06571918 0.014735263 -0.013812932 0.023428058
000050 50 f0 a6 bc 55 80 b4 3c 08 50 22 bc b1 8a cd bc
       -0.020378262 0.02203385 -0.009906776 -0.025090547
000060 cb 11 70 bc 42 60 41 3c f5 9c 23 3d 6a ef 83 3d
       -0.01465268 0.011802735 0.039944608 0.06442149
000070 40 05 a3 bc bf 6c 1f 3c e8 bc 6a bd c3 ad 33 bd
       -0.019899964 0.009730517 -0.05730906 -0.043866884
000080 46 cd 16 3d 1e c2 7f bd 1b e3 f2 3a b2 d6 ec bc
       0.036816858 -0.062440984 0.0018530817 -0.028910968
000090 68 51 c7 3c 3c 50 7d bb bd b0 ec 3c 62 78 54 3d
       0.02433081 -0.003865256 0.02889287 0.05187262
0000a0 29 97 25 3d a0 39 81 3d b7 43 83 bc 9b 20 14 bd
       0.04042736 0.06309819 -0.0160235 -0.036163907
0000b0 c0 5c 13 bd a1 32 c2 bc 67 3d 03 3c b1 45 8f ba
       -0.035977125 -0.023705782 0.008010245 -0.0010930804
0000c0 22 33 29 3d 3d 42 84 3d 0c 22 31 3d 3e 59 50 bd
       0.04130853 0.064579464 0.04324536 -0.050866358
0000d0 96 c3 1e bd 2d 0d 7f bd 05 78 45 3d e2 ca ca bc
       -0.038760744 -0.062268425 0.048210163 -0.024754945
0000e0 77 3b 3c 3d a9 1f 47 bc a6 2e 3c bd b8 50 fb 3c
       0.045955148 -0.012153544 -0.045942925 0.030678138
0000f0 ff 65 59 bd e4 c4 65 bd 87 03 90 3c 64 ea 8c bc
       -0.053075787 -0.056095973 0.017579807 -0.01720161
000100 17 75 29 bb 28 e2 1f bd 81 0c 1d bd 78 48 79 3d
       -0.0025857145 -0.03903404 -0.038342003 0.060860127
000110 bc 0b 74 bd 03 2a 7b bd 76 26 75 bd 77 36 6c 3d
       -0.059581503 -0.061319362 -0.059851132 0.05766913
000120 3b 38 c2 bc d5 77 6a 3b 20 48 e3 bc 4d 43 c1 3c
       -0.023708453 0.0035776992 -0.027744353 0.023591662
000130 13 40 40 bd 87 da 02 bd ac 42 99 39 a0 e7 14 3d
       -0.046936106 -0.031946685 0.00029232108 0.036353707
000140 8f b0 05 bc 20 55 11 3d 05 95 e2 bc f0 53 1f 3d
       -0.008159771 0.035481572 -0.027658949 0.03889841
000150 38 b1 64 3c 2d 83 9e bb 21 f9 82 3d c3 38 e2 3b
       0.013958268 -0.0048374147 0.06395174 0.006903739
000160 44 13 11 3d 33 9d 5f 3d 78 03 86 3c f3 89 69 bd
       0.035418764 0.054593276 0.016359076 -0.057016324
000170 9c cd 3f 3c e0 09 08 3d df 94 c0 bc 73 10 35 bd
       0.011706736 0.033212543 -0.023508487 -0.04420514
000180 df 28 a9 3b 81 0f 02 bd 3e 54 20 3d 28 09 81 3d
       0.005162343 -0.031753067 0.03914284 0.063005745
000190 ac cb 5c 3c 82 e6 a3 bc 6b f2 60 3d 65 1c 74 bd
       0.0134762935 -0.020007376 0.054918688 -0.05959739
0001a0 11 6d 49 3c cf 96 46 bd fe 91 5c bc df 14 7f bc
       0.01229407 -0.048483666 -0.013462542 -0.015568941
0001b0 39 de 3e 3d 07 98 36 bd f8 3f 1a bd 39 5d 35 3c
       0.046598647 -0.04457858 -0.03765866 0.011069589
0001c0 de a9 a8 3c 85 53 ae 3c 87 88 17 bd d6 f5 51 3d
       0.020588811 0.02128006 -0.036995437 0.051259838
0001d0 5c fb a5 3c 69 02 88 3d 32 7f 4e 3d f7 2e 01 3c
       0.020261459 0.06641085 0.05041427 0.007884732
0001e0 f6 b0 80 bd 8d 3c a5 3c 09 ed d0 3c 90 de ba 3b
       -0.062837526 0.020170474 0.025503652 0.005702801
0001f0 45 96 83 3d de d9 fa 3c c9 87 85 bc 8d 0a 09 3d
       0.06425146 0.030621465 -0.016300099 0.033457328
000200 36 d8 be bc 4e 22 cb 3c 82 5c 88 3d f6 34 4c 3d
       -0.023296457 0.024796631 0.066582695 0.049855195
000210 3c 90 1f bd 9d 9e 05 bd 23 23 2f 3d 22 41 69 3d
       -0.038955912 -0.03262197 0.04275812 0.05694688
000220 3b 7c 7f bd 9b 09 f7 3c 31 67 54 bd 3d dd fa bc
       -0.062374335 0.030155947 -0.051856223 -0.030623073
000230 98 6f 79 bc 40 15 68 3d 1b 7f 40 bd 51 3d 49 bd
       -0.01522436 0.05666089 -0.046996217 -0.04913074
000240 88 21 eb 3c 25 ed 33 3d 8f b0 7d bd 07 3a 28 3d
       0.028702512 0.04392733 -0.061935958 0.041070964
000250 51 c1 86 bd 11 03 10 bd c0 23 a8 3b 6d 4e 69 bd
       -0.06579841 -0.035159174 0.005131215 -0.05695956
000260 b8 2a 7f bd 52 16 4a 3d 35 bb d9 3c 9e 2a 1e bc
       -0.0622966 0.049337693 0.026578525 -0.009653715
000270 15 16 86 3d f6 78 5d 3d 72 ea 5b 3d a6 ec cb 3b
       0.065471806 0.054070435 0.05369038 0.006223279

fc.2.weight f4 [100, 160]
000000 1b fe 37 3d c2 b0 48 3d 12 30 73 bd cd 4d 8a bd
       0.04492007 0.048996694 -0.059372015 -0.067531206
000010 7f 6c 34 3d 80 cf 20 3d aa 4f a2 3c ec 5e 82 3d
       0.044048782 0.039260387 0.019813377 0.06365761
000020 8f 53 07 bd 5b 42 62 3d d0 63 4f bd 90 eb 26 3d
       -0.033038672 0.055239063 -0.050632298 0.040751994
000030 92 97 04 bb b9 13 3d 3d 60 66 82 3b e5 02 d5 3b
       -0.0020231945 0.046161387 0.003979489 0.006500589
000040 96 dd 5b bd be e6 3f 3c 6a 6d 1f bd fc 03 69 3d
       -0.053678118 0.011712728 -0.038922705 0.056888565
000050 3c 0d 24 3d a3 49 a1 bd ec 7d 8f bd 7e 53 79 ba
       0.040051684 -0.07875373 -0.070064396 -0.00095110375
000060 3a d7 cd 3c b0 8a 0d bc aa c1 28 3c 32 35 c0 bc
       0.025127042 -0.008639023 0.010300079 -0.023462866
000070 d1 21 7e bd 99 f3 77 3d 8d 79 88 3c 5d cd 0a bd
       -0.06204397 0.060535047 0.016659522 -0.033887256
000080 3c 3e 6d 3d d6 6a 43 3d d7 48 86 bd 3b 92 54 3d
       0.05792068 0.04770931 -0.06556862 0.05189727
000090 47 0f 93 bd 75 8c 91 3d f8 f9 17 3d 9f 32 fa bc
       -0.07180648 0.07106868 0.037103623 -0.030541716
0000a0 b9 cf 82 bc ea 2a 18 3d e9 82 22 bd 97 a5 9d bc
       -0.01596819 0.0371503 -0.039675627 -0.019243998
0000b0 ef 0e 45 bd 44 f4 1e bd b7 e5 3c bd c6 57 96 bd
       -0.048109945 -0.03880717 -0.04611751 -0.0734096
0000c0 41 d5 fa 3c 2b e3 04 3d 72 5e be bc 2a f6 bd 3c
       0.030619266 0.032443207 -0.023238394 0.02318867
0000d0 d6 37 7f 3c a0 d2 3d 3d dd af d2 bc c8 53 57 3d
       0.015577277 0.046343446 -0.025718624 0.052570134
0000e0 db 11 bc bc d9 b7 03 3d c3 92 1c 3d a4 f2 30 3d
       -0.022957733 0.032157753 0.0382259 0.04320015
0000f0 e0 d7 0f 3d 04 26 85 bd 2c fb 68 3c f0 36 ac 3c
       0.035117984 -0.065013915 0.01422004 0.02102229
000100 1f 80 90 bd 01 ca 1f 3c 4e 38 d2 bc 71 9a 46 3c
       -0.07055687 0.009752751 -0.025661614 0.012121783
000110 6c dc 18 bc 76 ce 73 bd f2 ee 17 bd 49 77 04 3d
       -0.009329896 -0.05952307 -0.03709311 0.03234032
000120 0e 45 31 3d 1a f6 0a bd f8 57 26 3d 0e 6b 8e bc
       0.043278746 -0.033926107 0.040611237 -0.017385032
000130 87 3e da 3b 05 bc 88 3d ed 4f 33 bd cf 19 22 bd
       0.006660286 0.06676487 -0.043777395 -0.039575394
000140 e3 cf 94 bd 8c cd 6c 3d ac 74 49 bd e1 f4 15 3d
       -0.07266214 0.057813212 -0.049183533 0.036610488
000150 e8 b4 34 3d f6 b9 34 3c b0 80 96 3d 02 5d 8e bc
       0.04411784 0.011030665 0.07348764 -0.017378334
000160 2b 4e eb bc 3b ce 1e 3c 21 48 10 bd 26 8f 89 3d
       -0.028723797 0.009692724 -0.035225037 0.067167565
000170 1d dc 27 3d 96 eb 5a 3d cd 8d 07 bd a3 75 3f 3d
       0.0409814 0.05344733 -0.033094216 0.046743046
000180 62 e1 eb bc b2 be 9c 3d 9f b2 07 bd 28 78 9a 3d
       -0.028793994 0.0765356 -0.03312933 0.07542449
000190 e5 ce fd bc 33 d3 0d bd 58 b3 8c bd df fd ec bc
       -0.030982444 -0.034625243 -0.068701446 -0.028929649
0001a0 ba 6f 55 bd 24 bc 3d bd 7b a9 81 bd aa bd 98 bd
       -0.052108504 -0.046322003 -0.06331154 -0.074580505
0001b0 a5 51 4f bd 39 53 99 3d 9d 8d 43 bd 07 30 a0 3d
       -0.05061497 0.074865766 -0.047742475 0.078216605
0001c0 f2 63 86 bd 90 a8 61 bd b8 2d 96 3d 45 c9 4c bd
       -0.06562032 -0.055092394 0.07332939 -0.049996633
0001d0 72 5b 22 bd 41 56 9c bb 92 cf 92 3c 70 ae 90 bd
       -0.03963799 -0.0047710245 0.017921243 -0.07064521
0001e0 b1 36 2c 3b c9 8f 3e bd 78 2b 4d bd a1 c5 d6 bc
       0.0026277716 -0.046523843 -0.050090283 -0.026217284
0001f0 ee b1 65 bd d3 12 87 3d c3 13 80 bd af 38 35 3d
       -0.05607789 0.06595387 -0.06253769 0.04424351
000200 1c eb 98 3d 71 b8 3d 3d 02 d0 71 3d ee f4 9f 3c
       0.074667186 0.046318475 0.059036262 0.019525971
000210 7d cb 69 bd e5 e7 0e 3d 13 1d 8c bc 2d 69 96 3c
       -0.057078827 0.03488912 -0.017103707 0.018360699
000220 90 91 ce bc 09 aa 20 bc ae a9 86 3d 7b f7 d4 bc
       -0.025215894 -0.009806165 0.065753326 -0.025996914
000230 8e a1 98 bd a1 34 c2 38 57 75 39 bc 9d d1 74 bc
       -0.07452689 9.260444e-05 -0.01131948 -0.014942554
000240 9a 76 84 bd fc 9b 5e 3d a0 10 26 3d 6e b7 95 bd
       -0.06467934 0.054347977 0.0405432 -0.07310377
000250 3c 56 3a 3c de 51 8c bd 7e b7 8c bd 72 10 83 3d
       0.011373099 -0.068515524 -0.06870936 0.06399621
000260 f5 07 71 bd 96 55 4c bd cd a4 98 3d 16 5f 9f bd
       -0.05884548 -0.04988631 0.07453308 -0.07781808
000270 9f 04 de 3c 20 8c 93 bc 58 96 9b bd 6d 3a 2d 3d
       0.027101813 -0.018011153 -0.07597035 0.042292047
000280 13 e6 3c bd 36 69 ab bc 11 51 0c bd cc 02 28 bd
       -0.046117853 -0.020924192 -0.034257 -0.041018292
000290 57 ec 74 bd 5c ac 50 3d c1 64 89 bd ca a4 68 bd
       -0.059795704 0.050945625 -0.067086704 -0.05679778
0002a0 60 45 1f 3d 38 93 bf bc be 31 8f 3d 7e 34 81 3c
       0.03888452 -0.023385629 0.069919094 0.0157721
0002b0 b8 5c 58 3d 3c 83 9b 3d 6e 64 88 3d 5e 99 69 3c
       0.0528228 0.0759339 0.066597804 0.014257757
0002c0 1a c4 1d bd e0 b9 33 3d ae 0a 73 3d 90 b5 8d 3d
       -0.038517095 0.043878436 0.059336357 0.06919396
0002d0 40 a3 90 3d 69 5c 9d 3d 20 e5 4f 3d 79 6e d1 bc
       0.070623875 0.076836415 0.05075562 -0.025565373
0002e0 1c 84 81 3c e9 5c 5b 3d cd f4 e2 3b cb 58 05 3d
       0.015810065 0.053555403 0.006926155 0.032555383
0002f0 9d 82 a6 bc 09 32 93 bd a7 28 1a bd ea be 69 3d
       -0.020325953 -0.07187278 -0.037636425 0.057066835
000300 db 53 30 3b cb 7a 96 bc 7d bd be bc 5b 52 79 bc
       0.002690545 -0.0183691 -0.023283714 -0.015217389
000310 53 8e a1 3d 26 56 26 bd 4a 5e bc bc 12 67 0b 3d
       0.07888474 -0.0406095 -0.02299418 0.034033842
000320 ef 0c 97 3d a9 73 2e 3d b9 28 8d bd 8a 7c 94 bb
       0.07375514 0.04259077 -0.06892533 -0.004531448
000330 6d 54 31 3d 5b 25 f5 3b 8f 9d 58 bd b6 6d 8b 3c
       0.043293405 0.0074812598 -0.052884635 0.017020088
000340 04 be 04 3d 0c a1 40 3d 97 8e 37 3b 2b 37 93 3c
       0.032407776 0.047028586 0.0028008574 0.017970642
000350 10 80 6c 3b e5 c0 d5 bc 7e 22 3f 3d 67 1c b6 3c
       0.0036087073 -0.026092956 0.046663754 0.02223034
000360 f8 c0 19 3d 6e 0e 58 bd 72 0d dc 3c 98 02 00 3d
       0.037537545 -0.052748136 0.02686188 0.031252474
000370 6c 31 12 bd b5 47 59 3c 70 73 89 bd dc 9a bf bc
       -0.035691664 0.013261725 -0.06711471 -0.023389272
000380 bb 15 ea 3c dd bb 38 bd 84 70 79 3d ea 96 4d 3d
       0.028574815 -0.045101035 0.06089832 0.05019275
000390 c0 05 7c bc ed 03 19 3d 1b 70 a6 bc 67 66 35 bd
       -0.01538223 0.03735726 -0.020317128 -0.04428711
0003a0 1b 1d 8a bd ea d6 d7 3c a8 e0 7e bd 49 43 81 bc
       -0.06743833 0.026347596 -0.062225968 -0.015779154
0003b0 62 a6 89 bc ac 78 24 bd 26 37 c4 bb c1 c4 4d 3c
       -0.01680297 -0.040154144 -0.0059880195 0.012559117
0003c0 99 f8 8a 3d 68 41 90 3d 10 5c e0 3c 83 f7 8e 3b
       0.067856975 0.07043725 0.027387649 0.004363002
0003d0 a4 4b 7a bc 3a cc 28 3d 40 df 4a 3d d3 08 90 bd
       -0.015276823 0.04121039 0.049529314 -0.07032933
0003e0 c7 4c 6d 3d 14 60 92 3d 10 9c 6c 3c f5 c1 1e 3d
       0.05793455 0.07147232 0.014441505 0.03875919
0003f0 12 73 57 bd d9 21 82 3d d2 23 63 ba 46 57 94 bd
       -0.052599974 0.06354112 -0.00086647004 -0.072432086

fc.2.bias f4 [100]
000000 04 91 38 bd be bb 98 3b b0 8c 2c 3d d4 9c 80 bd
       -0.045060173 0.0046610525 0.042126358 -0.062799126
000010 b9 7b 91 bd e9 8f a3 bc c4 0b 02 3d 14 8e 52 3d
       -0.07103676 -0.019966083 0.0317495 0.051405028
000020 5d d4 dd bb bc bf 7e bd 02 5d 1f 3b 27 72 19 3d
       -0.0067697004 -0.06219457 0.0024316912 0.03746238
000030 66 f3 5d 3c f5 ed 5e 3d b8 dc a0 3c 62 87 74 bb
       0.0135468 0.054426152 0.019636497 -0.003731214
000040 6b cc 65 bd 66 ae 5d bd f8 41 b7 3c f9 4c 12 3d
       -0.05610315 -0.054121397 0.022370324 0.035717938
000050 b6 38 9f bc 18 55 94 3d e0 69 f5 bc a7 12 34 3c
       -0.019436222 0.07242793 -0.029957712 0.010990775
000060 b5 63 5a 3d 74 88 dc bc 96 f4 57 3a 25 60 92 3d
       0.053317744 -0.026920535 0.0008238045 0.07147244
000070 63 49 88 3c c5 59 ed bc 05 af 26 3d 4b f7 1e 3d
       0.016636556 -0.02897347 0.040694255 0.038810056
000080 4f bb ca bc b0 0a b4 3b 1d 9b a0 bc 38 ca 78 bd
       -0.024747519 0.005494438 -0.019605214 -0.060739726
000090 7b fc 89 bc dc 51 8e bd c0 7d 98 3d 4e 46 5f 3d
       -0.016844025 -0.06949207 0.0744586 0.054510407
0000a0 66 5e 88 3d d9 62 40 bd 16 4b 33 bc f0 85 f5 bc
       0.0665863 -0.04696927 -0.010943195 -0.029971093
0000b0 b2 6a cb bc d6 a8 47 3d f6 0c 1e bd ce eb a0 bd
       -0.02483115 0.048745 -0.03858658 -0.07857476
0000c0 7b f0 29 3d c9 e0 03 bd 4b 60 78 3d 66 91 79 3d
       0.041489106 -0.032196794 0.060638707 0.06092968
0000d0 cd ca e4 3c d5 07 ab 3c dc 57 7e bd 7e ba 0f 3d
       0.027928734 0.020877758 -0.062095508 0.035089962
0000e0 5c e6 94 3d ec 61 d5 bc b1 86 84 bd 23 37 3f 3d
       0.072705 -0.02604767 -0.06471003 0.04668344
0000f0 b3 6c 57 bd a0 98 5c bd 4a bd 03 3d c5 6f 07 bc
       -0.052593898 -0.053856492 0.032162942 -0.008266394
000100 b6 ae 1b bc 29 f5 6a bd ad 25 73 bd 6a 41 6d 3d
       -0.009502104 -0.05736271 -0.059362102 0.05792371
000110 5a 1c 91 bd 05 d3 25 bd 92 6d 60 bc dd c5 08 bd
       -0.07085486 -0.040484447 -0.013697999 -0.033391822
000120 64 3c 6a 3d cd c4 fd 3b 3c be 35 3d 6e a9 89 bb
       0.0571865 0.0077444077 0.044370875 -0.004201106
000130 0c e5 91 3d 4d d4 11 3b f2 53 54 bc cd 3a 17 bc
       0.07123765 0.0022251785 -0.012959467 -0.009230328
000140 68 bb 62 bc e1 ca 36 bd f8 0f e9 bc 75 db 52 bd
       -0.013838626 -0.044627074 -0.028449997 -0.05147882
000150 4d 12 91 3c ae f2 e1 bb ac 96 69 3c a1 0d f3 3c
       0.017708922 -0.0068953848 0.014257114 0.029669585
000160 05 c6 f3 3c ab f8 3f bd 2f db 89 3d bd 4e 33 3d
       0.029757509 -0.046868008 0.06731259 0.043776263
000170 b3 03 85 3c ab 64 76 bc 41 30 ae 3c 03 43 3c bd
       0.016237115 -0.01503865 0.021263244 -0.045962345
000180 30 6c 6f bd 3c 7e 87 bd 14 16 f4 bc 84 ce f3 3c
       -0.058452785 -0.06615874 -0.029795684 0.02976156

fc.4.weight f4 [100, 100]
000000 b6 7b 74 3d 3a 50 0e 3d 5a e7 a7 3d 18 71 fa bc
       0.059688292 0.03474448 0.08198424 -0.030571505
000010 f5 f8 b9 bd ea 02 af bd e4 2b 55 bd 7c fd 8d 3d
       -0.09080688 -0.08545478 -0.05204381 0.06933114
000020 21 4b c6 3d 72 71 99 bc 19 78 36 3d 2c c3 aa bd
       0.096822985 -0.018730853 0.044548128 -0.08338007
000030 4f c7 68 bc f5 e5 9e 3d dd 5c 05 bb 58 5c 5d bd
       -0.014207675 0.077587046 -0.002034954 -0.054043144
000040 59 20 b4 3d 8e 79 07 bd 0f 8a bc bd aa 0c 25 3d
       0.08795232 -0.033074908 -0.0920602 0.04029528
000050 24 d9 94 3c 82 45 4d bd 51 53 e6 3b c9 4b 2a bc
       0.018169947 -0.050115116 0.007028975 -0.010394045
000060 3a 11 5c bd 57 50 c2 bd d0 cf 17 3d e6 9f 69 3c
       -0.053727366 -0.0948798 0.03706342 0.014259314
000070 54 c9 92 3d 15 06 78 3d 5c 76 48 bd f4 d5 97 3c
       0.071673065 0.060552675 -0.048941 0.018534638
000080 d2 b4 80 3d 94 a7 13 3d 62 88 31 3d 86 42 ec 3b
       0.06284489 0.036048487 0.043342955 0.0072100786
000090 40 6f a0 3b 18 9b 88 bd f9 19 f2 3c 40 f0 12 bd
       0.0048960745 -0.06670207 0.0295534 -0.03587365
0000a0 c2 c3 2b bd 93 73 0f bd 66 b2 8a bc 15 d6 24 bc
       -0.041934736 -0.03502233 -0.01693077 -0.010060807
0000b0 cb 41 07 3d 53 e4 a9 3d d5 2c 63 3d 2e 92 e6 3c
       0.03302173 0.082955025 0.055462677 0.028145876
0000c0 b5 38 c5 3d df 49 5d 3d 9e bd 9d 3c d2 66 a3 bd
       0.09629957 0.054025527 0.019255456 -0.07978596
0000d0 01 69 1b 3d 24 2a ca bd 60 a9 b0 3d b6 7b 8e 3d
       0.037941936 -0.09871319 0.08626056 0.0695719
0000e0 6f 33 60 bd 41 47 96 3d d8 16 3d bc 8f 8f d5 bc
       -0.05473655 0.07337809 -0.011541091 -0.02606943
0000f0 16 18 00 3d 0c c9 c3 bd 52 1c 3e bd 04 d2 a6 bc
       0.03127297 -0.09559831 -0.046413727 -0.020363815
000100 d5 58 8a bd 5e d4 10 3d e3 34 0e bd 81 ce bd bc
       -0.067552246 0.03535878 -0.034718405 -0.023169758
000110 9a 9e ba 3b 39 f0 c7 bb 16 b3 33 3d c6 fc 29 bc
       0.0056951763 -0.006101635 0.04387196 -0.010375207
000120 88 49 ee bb 85 12 9e bc d2 00 b5 3d 38 f4 9d bd
       -0.007271949 -0.01929594 0.08838047 -0.07712597
000130 17 c2 a9 bb 7a ca 56 bd ad db 9a bd 48 20 27 bd
       -0.005180608 -0.05243919 -0.07561431 -0.04080227
000140 f0 37 58 3c 3c e4 bb 3d 10 10 a0 bc 43 30 d5 3c
       0.01319693 0.091743916 -0.01953891 0.02602399
000150 9b d2 7d 3d 2d 59 af bd 63 79 4f bd 88 d7 26 bd
       0.061968427 -0.08561931 -0.050652873 -0.04073289
000160 c7 d3 b6 bd b6 a5 d1 bc 9a e8 88 3d 35 40 bc bd
       -0.08927112 -0.025591712 0.0668499 -0.09191934
000170 c3 e8 50 bd e6 c4 86 bd cd 7a c0 bd 36 92 11 3d
       -0.05100323 -0.06580524 -0.093984224 0.03553983
000180 a0 b2 c3 3b a8 10 b8 bd 69 e2 86 bd 19 b8 45 3d
       0.0059722215 -0.08987552 -0.06586153 0.048271272
000190 d2 f4 07 3d e7 fe 82 3d d2 aa 11 3d a0 5d b3 bd
       0.033192463 0.06396275 0.035563298 -0.08758092
0001a0 68 4b 97 3c 67 3b 34 bd 87 cf 76 bd 4f 9a a1 3d
       0.018468574 -0.044001963 -0.060256507 0.0789076
0001b0 97 a5 62 bd 35 03 a7 bd 8e 1c 30 3d 4a 73 31 bd
       -0.0553337 -0.081549086 0.042995982 -0.04332284
0001c0 2a cb 20 3d a4 eb e7 3c 73 11 81 3d 8d f7 51 bd
       0.039256252 0.028310604 0.06302156 -0.051261473
0001d0 4e f2 18 3d 92 b9 27 3d a7 ac bd 3d 70 e2 70 3c
       0.037340455 0.040948458 0.092614464 0.014702424
0001e0 d7 95 7b bd b2 58 35 3d 93 4a b3 bd 0a e7 12 bd
       -0.061422195 0.04427404 -0.08754458 -0.035864867
0001f0 a1 24 be 3d 18 16 28 3c 50 d9 95 3b dc e7 d7 3c
       0.0928433 0.010259174 0.004573025 0.026355676
000200 cd 46 6a bd fe 18 29 3d 02 a4 61 3d 39 f4 8e 3d
       -0.057196427 0.0412836 0.05508805 0.069801755
000210 7e 5e 6a 3d 6b dc c3 bd b7 5f 8c 3d b0 cc a3 bd
       0.05721902 -0.09563526 0.06854194 -0.079980254
000220 28 af a6 bc 9e 7a 29 3d aa 98 36 bd 61 0c c2 3d
       -0.020347193 0.041376702 -0.044579186 0.09475017
000230 b8 a2 b1 bc dd 32 92 bd 7a f7 79 3d 28 2d 4c 3c
       -0.021684036 -0.07138608 0.061027028 0.012461938
000240 70 75 79 bc 72 dc 85 bd 7d 86 98 bd 6a f8 57 bd
       -0.015225753 -0.06536187 -0.074475266 -0.05272714
000250 82 21 14 3d 0b a2 bc bd 98 11 87 bc bc 35 f6 3c
       0.036164768 -0.09210595 -0.016487882 0.03005492
000260 0c 5e 0e bd a8 18 2c bc 05 60 82 3d 60 c5 e0 3b
       -0.03475766 -0.010503925 0.063659705 0.0068594664
000270 00 e0 7c 3c ce 6f 3b 3d 47 1e cc bd b0 f2 17 bc
       0.015434265 0.045760922 -0.099667124 -0.00927417
000280 a5 85 90 bd 86 1a 6a 3d a0 45 77 bd 82 53 1e 3d
       -0.07056741 0.0571542 -0.060369134 0.038653858
000290 77 50 76 bd 94 8f b1 3c 46 51 7d 3d a2 9a 55 3d
       -0.06013533 0.021674909 0.061845087 0.052149422
0002a0 de 8c 1d 3d 8c 58 9f 3c 5a 7f 19 bd 48 cc 84 bd
       0.03846442 0.019451402 -0.037474968 -0.06484276
0002b0 c2 3f 70 3d 80 be 38 3c 10 e6 41 3c ac 0b c4 3c
       0.058654554 0.0112758875 0.011834636 0.023931347
0002c0 20 f0 83 3c fa ba 0c bd 50 c0 36 bd 92 ab 88 bd
       0.016105711 -0.034358002 -0.044616997 -0.066733494
0002d0 f6 eb 80 bd 29 8f c4 3d 8a 74 6b 3d c0 10 3f bc
       -0.06295006 0.09597618 0.057484187 -0.011661708
0002e0 42 4a 13 3d 00 07 6f ba 39 65 aa 3d 40 a5 97 bd
       0.03595949 -0.00091181695 0.08320088 -0.07404566
0002f0 60 ac f4 3b b5 eb 9a bd 60 81 5c bb 55 de b3 3d
       0.0074668378 -0.07564489 -0.003364645 0.08782641
000300 c6 88 84 bd d6 57 84 bd 4a 9b 21 bd 81 ff bb 3d
       -0.064714 -0.06462066 -0.039454736 0.09179593
000310 88 c0 c0 3c f1 c3 bf 3d d0 57 62 bd ec d6 e4 bc
       0.023529306 0.09363545 -0.055259526 -0.027934514
000320 14 d1 cb bd 74 1f c0 3c f5 5a 86 bc 1d 31 ca bc
       -0.09951988 0.023452498 -0.016400794 -0.024681622
000330 8b bf 9e 3d 4d 3f aa bc 38 f5 ba bd 5f 5d a4 bd
       0.07751378 -0.020782137 -0.09128803 -0.080256216
000340 a4 f8 f8 bb 58 f8 45 3c 4d 4b a4 bd 47 30 9c 3d
       -0.0075979996 0.012083136 -0.08022175 0.07626396
000350 c9 b9 31 bc 7b 13 52 3d 9c 8e 13 3c b0 eb 92 3d
       -0.010847517 0.05128811 0.009006169 0.0717386
000360 04 28 25 3d 85 a1 09 3d a4 51 3f 3d 0f a4 4d 3c
       0.040321365 0.033601303 0.046708718 0.012551322
000370 39 d0 6b bd b5 83 93 bd 56 df 4e 3b 9c d7 10 bd
       -0.057571623 -0.072028555 0.0031566224 -0.03536187
000380 d8 4d b0 bd 92 ef 3e 3d c7 f3 8f bc f6 f8 4a 3d
       -0.086085975 0.04661519 -0.017572297 0.049553834
000390 d3 1a a0 bd fc d6 6f 3c 83 0a f8 ba 14 68 4e 3c
       -0.07817616 0.014638659 -0.0018924031 0.012598056
0003a0 c5 2a b5 3d 8c b6 bb 3d 4e c9 e6 bc 90 8a a8 bd
       0.08846048 0.091656774 -0.028172161 -0.08229554
0003b0 f8 8e 84 3d 1b 8c 9f 3d 63 20 72 3d c1 22 8f 3d
       0.064725816 0.07790395 0.059112918 0.06989051
0003c0 b7 88 e2 bc 8b 98 ac bd 5b 60 c8 bd c8 7c cc bd
       -0.027653081 -0.08427533 -0.09784003 -0.09984738
0003d0 93 fb bf bc 34 02 3d 3d 7e b4 d2 3c 2a 3c 72 bd
       -0.02343539 0.04614468 0.025720831 -0.05913941
0003e0 41 15 59 3d 8c fd 99 bd 92 7b a4 bd a7 ad 79 bd
       0.052998785 -0.07519063 -0.08031382 -0.060956623
0003f0 d9 66 4d bd b4 98 c5 3d 8f ab ab 3c 88 de 30 3d
       -0.05014691 0.096482664 0.020955829 0.043180972

fc.4.bias f4 [100]
000000 65 5c 91 3c f7 d4 c3 bd 89 ac a9 3b b4 43 81 3d
       0.017744252 -0.09562104 0.0051780385 0.063117415
000010 c2 51 92 3d 50 6c 5a 3a 13 67 7f 3d e2 1a 98 bd
       0.071445 0.000833218 0.06235416 -0.074270025
000020 a5 9f 1e 3d 91 1e aa 3c 4e 59 3e 3d d8 92 39 3b
       0.038726468 0.020766528 0.046471886 0.0028316285
000030 51 52 6a 3d e7 ed b3 3d ba 7e 72 bd 38 41 cc bd
       0.05720741 0.08785611 -0.059202887 -0.09973377
000040 36 25 50 3d 15 36 3e bd 18 3a 18 3a 13 2a b8 3d
       0.050816737 -0.046438295 0.00058069965 0.089924
000050 1d 2c ca 3d fc 6a 07 3d 56 e4 0b 3c 9a 1c 0b bc
       0.09871695 0.033061013 0.008538326 -0.008490706
000060 23 fb 8b bd a8 de 4f 3d f9 75 2e bd a9 85 6b bd
       -0.0683501 0.05074945 -0.042592976 -0.057500515
000070 4c d1 60 3d 9c e7 a6 3c 67 fe 25 bd de 92 5d 3d
       0.0548871 0.020374112 -0.04052582 0.05409514
000080 d4 91 88 bd 08 46 c4 3d cc 8e 27 bd fd 3f b5 3d
       -0.066684395 0.0958367 -0.040907666 0.088500954
000090 af 96 ce bc 1e b5 71 bd ba eb 95 bd 52 de 92 3d
       -0.025218336 -0.059010617 -0.07320352 0.071713105
0000a0 da b7 fc 3c ff 72 b0 3d 60 f7 7f bd e9 c1 82 bd
       0.030849386 0.08615684 -0.062491775 -0.06384642
0000b0 a7 ab 53 3d ac 64 3e 3d c2 5b b5 3d aa 60 9e bd
       0.051677372 0.046482727 0.08855392 -0.07733281
0000c0 a5 0f 29 bd 8f 27 8f 3d f7 5c 52 bd 00 e1 9b 3d
       -0.041274685 0.06989967 -0.05135819 0.07611275
0000d0 cb c6 b5 bd 97 e8 ea bc 97 d3 b7 bd 72 0c 10 3d
       -0.088758074 -0.02867536 -0.089759044 0.03516812
0000e0 30 cc ba bd 37 24 ad bd 70 c2 ae 3d 86 11 1a bd
       -0.09120977 -0.08454173 0.0853318 -0.037614368
0000f0 df ed 01 3d 6a 2b 47 3c 00 d0 49 bc 5a 43 e4 bc
       0.031720992 0.012156347 -0.0123176575 -0.027864147
000100 da 85 d8 3c ff 26 18 bd 23 62 ad 3d 35 4a f0 3b
       0.026431013 -0.037146565 0.08465984 0.007333065
000110 88 e6 41 3b 00 94 a7 bb be 3b 55 3d 88 91 b2 bd
       0.002958687 -0.0051140785 0.052058928 -0.08719164
000120 b0 77 7f bd 98 e7 b5 bd e7 35 82 3d 38 e1 81 3c
       -0.062370002 -0.088820636 0.06357937 0.015854463
000130 63 17 b5 3d 54 9c 30 3d c9 a1 2b bd 29 f4 a0 3d
       0.08842351 0.043117836 -0.041902337 0.0785907
000140 5f 0e 97 3d d2 1f 27 3d 92 9d c8 3d e2 8e 37 bd
       0.07375788 0.04080183 0.09795679 -0.044813998
000150 72 23 68 3d 18 77 5f bd 9c e9 89 3d f4 6c 70 bd
       0.05667443 -0.054556936 0.067340106 -0.058697656
000160 d5 ec 94 3d 27 5f 4d bd 26 1a c4 3d ed c2 80 3d
       0.072717346 -0.050139572 0.095753 0.06287179
000170 5e 7d 65 bd 7d 3d 2c bd 18 0f 9f 3d 16 c6 ba bc
       -0.056027763 -0.042050827 0.07766551 -0.022799533
000180 7e 3c cb ba ca c7 a1 bd 4a ff 91 bd cd a9 4b bc
       -0.0015505699 -0.07899435 -0.07128771 -0.01243062

fc.6.weight f4 [2, 100]
000000 24 1c 82 bd e0 be e2 bc 7a 22 99 bd 30 2d 9f 3c
       -0.06353024 -0.027678907 -0.07477279 0.019430727
000010 ed 83 51 3d a4 84 bd 3d 50 d9 af bc 95 af 97 bd
       0.051151205 0.09253815 -0.021465927 -0.074065365
000020 e0 8e 37 bd d4 ad 53 bd a1 a5 80 3d 04 6c 8e 3d
       -0.04481399 -0.051679447 0.06281591 0.06954196
000030 01 9e 20 bc c7 51 b9 bd 7e ff 35 3d d5 6e c2 3d
       -0.009803296 -0.09048801 0.04443311 0.09493796
000040 b6 bd 8b bd 8e 5d 9d 3d 6b 45 83 3b d2 8d 2e bb
       -0.06823294 0.0768386 0.004006078 -0.0026634824
000050 a4 88 f1 bc 3a 1b e1 3c e3 2f 84 3d e5 1d cf bd
       -0.0294841 0.027478803 0.06454446 -0.10113124
000060 16 0e 7b 3d 39 68 9f 3c eb d9 ec 3c d1 8f c9 3a
       0.06129273 0.019458877 0.028912505 0.0015377944
000070 5f fc a6 bc fc 66 36 3d b5 3b 1e 3d b4 ab 30 3d
       -0.020384012 0.044531807 0.03863116 0.0431325
000080 b7 96 ca 3d d4 ad 7c 3d ea 4c 4d 3d 9d be b6 bc
       0.09892028 0.061689213 0.05012218 -0.022307688
000090 15 1a 58 bd 2e 7b 52 3d 10 55 02 3c 9c 57 85 3d
       -0.05275925 0.051387005 0.007954851 0.06510851
0000a0 76 4c 03 bd 1c 7f 51 3d d7 94 2b bd ef be c0 bc
       -0.03205534 0.05114661 -0.04188999 -0.023528544
0000b0 02 4f 7a 3d fb 4b 61 3d ac b2 21 3d 77 7d 3c bd
       0.061110504 0.0550041 0.039477035 -0.04601809
0000c0 db 8c 24 bb eb 59 6c 3d a0 7e c3 bb ea 25 ab bd
       -0.002510837 0.05770294 -0.0059660226 -0.08356841
0000d0 92 4c 08 3d 33 de c1 3d 54 9d a9 3c 6c ac e1 3c
       0.03327615 0.09466209 0.020704903 0.027548037
0000e0 13 06 4c bd e0 41 10 bd 78 fe 62 3d 7a 7d da 3b
       -0.04981048 -0.035219073 0.05541846 0.00666779
0000f0 66 4e b9 3d 8e a1 5c 3d ae a3 ac bd 41 76 af 3d
       0.090481564 0.053865008 -0.08429657 0.08567477
000100 b4 ae 61 3d 76 2e 88 bd 67 73 0a bc 1e d8 52 3d
       0.05509825 -0.06649487 -0.008450366 0.051475637
000110 30 39 9c 3d 20 b8 c7 3d 42 34 43 bd b0 d8 c0 3b
       0.07628095 0.09751916 -0.04765726 0.005885206
000120 7d d9 79 bd 3d 31 86 bd 51 80 ae bd 1f 0a 01 bd
       -0.06099843 -0.0655236 -0.08520568 -0.031503793
000130 6a 73 f4 bc a5 6e 37 3d fe 14 89 3d 70 a2 15 3d
       -0.02984019 0.044783253 0.06693457 0.036531866
000140 d0 f4 bc bd b2 f9 8b 3d 6f b4 5b ba ae 82 cc bc
       -0.09226382 0.06834735 -0.0008381074 -0.024964657
000150 cf 6c 07 3d 77 b6 b6 3d c2 34 b0 bd 34 a8 d2 3c
       0.033062752 0.08921521 -0.08603813 0.025714971
000160 03 1a ba bd b2 98 cc bc 78 52 a0 bd c9 2f c8 bd
       -0.090869926 -0.024975155 -0.0782823 -0.09774739
000170 32 d9 1d 3d ec c3 ce 3c e3 66 be bd 97 e9 a8 bd
       0.03853721 0.025239907 -0.09296968 -0.08247679
000180 0e 8b 20 3d 7b 72 9e 3d b8 f3 83 bd 3c 02 b1 3d
       0.039195113 0.07736679 -0.0644297 0.08643004
000190 37 18 a7 3d ce cc 3c 3d 42 dc 1b 3d 5a 3b bd bd
       0.081589155 0.046093754 0.03805185 -0.09239836
0001a0 4d 66 ac 3d 97 46 a4 bd 25 43 9e 3d a6 70 16 bd
       0.0841795 -0.080212764 0.077276506 -0.036728524
0001b0 2e b3 8b bd 91 d1 90 3d 0f 22 a7 3d c1 f8 87 3c
       -0.06821285 0.070712216 0.08160793 0.016598107
0001c0 f3 fb bd bd 22 bf 5e bc 8e af 3a 3d 44 8f f1 3c
       -0.09276571 -0.013595374 0.04557758 0.02948726
0001d0 6b fb c7 3d 13 14 24 bd 73 3d dc bc 34 68 a1 3d
       0.09764751 -0.040058207 -0.02688477 0.07881203
0001e0 11 12 95 3c d7 b6 9a 3d 8b 4a 32 bd 56 5e a6 bd
       0.018197091 0.07554405 -0.04352812 -0.08123462
0001f0 68 11 88 bb e4 43 c0 3d c8 7d 98 bd 55 71 88 bc
       -0.0041524656 0.09387949 -0.07445866 -0.016655603
000200 5b 57 3d 3d 01 46 1f 3d 3d fb 2b bd 1d bf 92 bd
       0.046225887 0.03888512 -0.041987646 -0.07165358
000210 e0 1d f6 bb f5 42 b7 3d 1e a6 99 bd 59 7e e1 3c
       -0.0075108856 0.08948318 -0.075023875 0.027526068
000220 d7 89 f3 bb 06 fa 0b bd b6 45 0e 3d 9e a1 db 3c
       -0.0074322033 -0.034173988 0.03473445 0.026810464
000230 60 40 a1 bc b5 cf 72 3b f5 4a 97 bd 79 dc 6c bd
       -0.019684017 0.0037050073 -0.07387344 -0.057827447
000240 fe a7 ad 3d bc d4 50 bd d9 9c 91 bd 4c b6 80 bd
       0.084793076 -0.05098413 -0.071099944 -0.0628477
000250 95 b7 8e bc a6 5c 84 bd 30 73 9b bb 48 dc 2d 3d
       -0.017421523 -0.06462984 -0.004743956 0.042446405
000260 22 c8 99 bd 98 37 8c bc aa d1 2b bd 35 a7 5d 3d
       -0.075088754 -0.017116353 -0.041947998 0.05411454
000270 20 ff ba bc 2a af 32 bd 70 99 83 bb b1 88 bf 3c
       -0.022826731 -0.04362408 -0.004016094 0.02338061
000280 31 bb 05 3c c3 5f 65 bd cf b6 b4 3d 06 fc 34 3d
       0.008162306 -0.05599953 0.088239305 0.04418566
000290 53 a1 9b bd 66 a5 99 bc 5a c6 c9 bb 54 0a cb 3d
       -0.075991295 -0.018755626 -0.0061576786 0.09914079
0002a0 15 a7 ab bc b3 d8 6a bd 25 9b b0 3d 13 d7 b3 3d
       -0.020953694 -0.057335567 0.086233415 0.087812565
0002b0 40 6e 3f 3c a2 9f 1c 3d fd 1a 47 3d d3 9f 88 bb
       0.0116840005 0.038238175 0.048609722 -0.004169443
0002c0 f5 84 f3 bc 2f 7b ba bc 7f 9b d0 bc 82 dd fe 3c
       -0.029726485 -0.022763817 -0.025464771 0.031111483
0002d0 b3 77 44 bc ea 08 93 bc c3 ea 7a 3d d3 77 c1 bd
       -0.011991429 -0.017948586 0.061259042 -0.09446683
0002e0 7d f9 9b bd 51 c0 9f 3d f0 81 82 bd e2 73 12 3d
       -0.076159455 0.07800353 -0.0637244 0.035755046
0002f0 3d 55 b2 bb 58 59 37 bd f6 c2 e9 3c 8f 75 4d 3d
       -0.00544229 -0.04476294 0.028535347 0.05016094
000300 99 d9 a5 3d 10 8e bb 3d a6 80 7f bd 3f 64 c9 bd
       0.08098144 0.09157956 -0.062378548 -0.098335735
000310 b6 43 a7 bd 72 29 55 3d 62 c1 6a 3d 70 b1 a8 3a
       -0.08167212 0.05204148 0.05731333 0.0012870263

fc.6.bias f4 [2]
000000 9a 7c d6 bd 95 3e de 3c
       -0.104729846 0.02712945
