Algorithms/shawn/loss/exp/fc_10.batch.pth (torch_old, 152964 bytes, 6 tensors)

fc.0.weight f4 [160, 226]
00000000: d81a 063d cba1 153d 1e4c 48bd a921 78bd
00000010: 2695 483d ba50 3bbd eb96 1ebd 3e03 84bd
00000020: f476 c93c 7540 cf3c 4e3a 6a3c 52ac 543c
00000030: e96e bdbc 20e1 313d ac9a 0e3d 489b e5bb
00000040: 92bf 503d bcbb 16bd a8db 84bd 305f 7cbd
00000050: 7e50 0fbd 6c3d f13c 4c7f 84bb e898 173c
00000060: c0c2 9bbc 95ac 1bbd c352 543d 9fe5 bdbc
00000070: d424 943c a024 e43b 18cc b53b e0fa 87bc
00000080: 26e9 2f3c adc6 053b 29d0 993c 2dd1 243c
00000090: 4a5f 733d b59f 033d 7a1c e2ba 6401 7cbc
000000a0: dd4a bcbc 10ac 633d cc8d efbc d665 e63c
000000b0: 2a00 cd3b 206f 0dbd e15e f039 3de1 223d
000000c0: 5808 843d baba 0e3d 4201 5e3d 7314 373d
000000d0: 8dc7 f83c bd50 6b3c 77dc 74bd 9db6 3bbd
000000e0: 9dec 9a3c 0385 2c3d 1d95 a0bc 3057 32bd
000000f0: 0347 b03c 20d7 01bd ec2a 44bd 9047 85bd
00000100: e044 e73c c763 89bc 4bbe 80bd fe6b 773d
00000110: 3f2f 203d 6e2d 093d 8df0 ccbc 9b8f 6f3d
00000120: ff7f 1dbc e573 9dbc 8445 52bd ab97 40bc
00000130: 23e6 903c cc49 5cbc 18e5 753a ee6c 0c3d
00000140: 39d5 48bb b5fe 203b 7981 7cbd 0f2e 063c
00000150: b5f1 febc a9cd 833d 79e0 073d bfeb 2e3b
00000160: 4e69 79bd 7e86 f6bc 21ee 4dbc 6582 f63c
00000170: 7b3c 623d cfd3 34bd 580f 0abd eb1d 46bd
00000180: 00e1 05bd 2828 3d3d 7eb9 20bd f106 103d
00000190: 45c7 4c3d 444a 0cbc 6ffd aa3b c8e7 78bd
000001a0: 7225 3ebd cc51 e63c dbbd 463d 2210 c5bc
000001b0: 7361 e0bc 5313 083d 0427 b43c 4200 763d
000001c0: 2286 f53c 1379 83bd 42ed 153d 6ce6 23bd
000001d0: 14c8 37bd 9fa7 393d 9c1b 143b b415 08bd
000001e0: 3a99 18bc 2b47 eb3c fb6f 753c 9c7b 8c3a
000001f0: 424b 4fbd 35f0 5abd 12e3 1c3c f8f9 7dbc
00000200: 56e8 233d 6271 4bbd 134a 2abd 2e74 a7bc
00000210: 2b64 efba c85f 3abc 31b8 783b 1c45 723d
00000220: a9f6 55bd 29e9 8c3c c3df 34bd 6da4 5c3d
00000230: 1fb7 813d 6f99 e83c e4e3 55bd 3659 1abd
00000240: a4e7 7cbd 57fb 1d3d 93be c6ba 9d19 c03c
00000250: b07e 1cbc e2f3 63bd d340 4cbd b78f 0bbb
00000260: 0e4e b53c 4c5d dd3b 5ecb 0ebd 612d 5f3a
00000270: 2597 2c3d 59a8 21bd cc2d 62bd 02ec 233d
00000280: ca4d 70bb 3176 663d 7209 2a3d b7d4 8539
00000290: 431a 8cb9 5cf7 053d 7bc1 c73c 949a 02bd
000002a0: c8e1 65bd 1d46 fbbb ebf8 363d 2bd5 223d
000002b0: 5229 673d 7aa9 06bd bf15 17bd 6c56 6dbb
000002c0: 39ea 74bc 72b3 4bbd cd4d 87bd 4158 38bc
000002d0: 3485 9dba edab c1bc 30df 2c3d d963 46bd
000002e0: 41bd 21bd c150 96bc 9919 c2bc fb0a e53c
000002f0: c01d 41bc 8500 6c3d bf60 64bd 709c 87bd
00000300: f0c2 7e3c f21e 07bc 602b 9c3b 743a 71bd
00000310: e8bc 6bbd 78d3 863d c0fb 0abc 2e28 e93c
00000320: 8081 bfbb 27bf 16bd e05c 32bd da05 2dbd
00000330: 6039 083c 7777 23bd 913f c4bc f41e 2e3d
00000340: f453 30bd e600 36bd 0746 423d 4c82 023d
00000350: 3450 76bd 3e14 36bd 8d32 38bc c20a 15bc
00000360: af76 64bd e33e 6e3b 1bd0 11bd 6676 7d3d
00000370: bf1c 2fbd 01a3 2fbd 6f5c 30bd 5387 303a
00000380: eccf 6fbd 3842 5abd 4700 1cbd ceb5 0a3c
00000390: f19d 1dbd 64c0 cbbc d5fb 833b ecb2 1e3d
000003a0: d0de 3d3d 8f20 31bd c846 6f3d 1ebe 6c3d
000003b0: 9d86 09bd 6712 163d 15cc 41bc 53be 383d
000003c0: 7003 0e3d dd8f 633d 2af9 26bd 0978 3b3c
000003d0: a440 e6bc 3010 823d c596 ad3c a98d 8b3c
000003e0: e00d 6dbd 0ce8 33bd 2031 bf3c bcbe 11bd
000003f0: 637c 893c 0a20 81bd 0e0e 873d 7bc2 5bbd
0.032740444 0.03653125 -0.048900716 -0.060578976 0.048970364 -0.045731284 -0.038718145 -0.06445931
0.024592854 0.02529929 0.0142961275 0.0129805375 -0.023124175 0.043427587 0.034815475 -0.0070070364
0.050963946 -0.03680013 -0.064872086 -0.061614215 -0.034988873 0.029448234 -0.0040434953 0.009252764
-0.019013762 -0.038006384 0.05183674 -0.023180781 0.018083967 0.006962374 0.0055480115 -0.016599119
0.010736739 0.002041261 0.018776016 0.010059637 0.059417047 0.03213473 -0.0017250918 -0.015381191
-0.022984916 0.055584013 -0.029242419 0.028124731 0.006256123 -0.034529805 0.00045847057 0.039765585
0.06446904 0.034846045 0.05420042 0.044697236 0.03036859 0.014362511 -0.059780564 -0.04582845
0.018911654 0.042119037 -0.019602353 -0.04354018 0.021518236 -0.0316993 -0.047892496 -0.0650779
0.028231084 -0.01677121 -0.062862955 0.060405724 0.039107557 0.03349059 -0.025017047 0.058486562
-0.009613036 -0.019220302 -0.051335827 -0.01175491 0.017687863 -0.013445329 0.0009380146 0.03428357
-0.0030644669 0.002456588 -0.061646912 0.008189692 -0.031121114 0.06435711 0.03317306 0.0026690809
-0.060891442 -0.030093428 -0.012568981 0.030091474 0.05523346 -0.04414731 -0.03370604 -0.048368376
-0.03268528 0.046180874 -0.0392394 0.03516287 0.049994726 -0.008562628 0.0052182 -0.06076792
-0.04642243 0.028115176 0.048520904 -0.024055544 -0.027390217 0.033221554 0.02199126 0.06005884
0.029971186 -0.064195774 0.03660322 -0.04001467 -0.044868544 0.04532587 0.0022599464 -0.033223823
-0.009313876 0.028720459 0.0149803115 0.0010717991 -0.05060888 -0.053451736 0.009575622 -0.015501492
0.040016495 -0.049668677 -0.04157455 -0.020441141 -0.0018264105 -0.011375375 0.0037951584 0.05914794
-0.052237187 0.017201023 -0.04415871 0.053867746 0.06333756 0.028393475 -0.052219287 -0.037682734
-0.061744347 0.038569774 -0.0015162997 0.023449713 -0.009551689 -0.055652507 -0.04986651 -0.0021295378
0.022131946 0.0067555066 -0.034861915 0.0008513537 0.04213633 -0.03946719 -0.055219457 0.040019996
-0.003666746 0.05626506 0.041512914 0.00025526222 -0.00026722447 0.032706603 0.02438425 -0.0318857
-0.056123525 -0.0076682703 0.04467098 0.039754074 0.05643589 -0.03287647 -0.036885973 -0.0036214842
-0.014948421 -0.04973168 -0.06606636 -0.01125151 -0.0012017847 -0.02364155 0.042205036 -0.048435066
-0.039487127 -0.018349053 -0.023693847 0.027959337 -0.011786878 0.057617683 -0.055756327 -0.06621635
0.015549406 -0.008247124 0.004765913 -0.058893636 -0.057553202 0.06583303 -0.008482873 0.028461542
-0.005844295 -0.03680339 -0.043545604 -0.04224191 0.0083144605 -0.039908852 -0.023956092 0.042509988
-0.043048814 -0.04443445 0.047430065 0.031862542 -0.06013508 -0.0444529 -0.011242521 -0.009096803
-0.055777248 0.0036353401 -0.035598855 0.06188049 -0.042752024 -0.042880062 -0.0430569 0.0006734032
-0.0585479 -0.053285807 -0.038086202 0.008466197 -0.038480703 -0.024872012 0.0040278235 0.038744852
0.04635507 -0.04324394 0.05841711 0.057798497 -0.033575643 0.036638644 -0.011828442 0.045103382
0.034671247 0.05555712 -0.040764965 0.011442193 -0.028106995 0.06350744 0.021190057 0.017035322
-0.05787456 -0.04392247 0.023338854 -0.03558229 0.016782945 -0.06304939 0.065944776 -0.053652268

fc.0.bias f4 [160]
00000000: b1eb 17bd 0a8e 3e3d c582 34bc 7b01 2fbd
00000010: 53b7 ee3b 9843 163c 9d71 81bd 6bcc 68bd
00000020: 0fde 39bb 0bb0 533c 8ffd 28bc c563 23bc
00000030: 1fe9 33bd 1988 c9bb 30bb e33c ae0e fc3c
00000040: 348e ea3b 477b 853c aded 6a3d 5d9b 843d
00000050: be2c 25bd 1d3f 08bd 0c3d d1bc 4248 513d
00000060: fceb 63bd fbd1 c5bb 2c09 3e3d d78f 043c
00000070: b958 5abd 4210 a73c b412 743d 022d fe3c
00000080: ef31 69bd e727 12ba 0af0 3e3c a0e0 fc3c
00000090: b2dd 833d f36b 903c e650 09bc 08e2 313d
000000a0: 9aec 27bc a62d e93a 7e91 42bd 4d6a 473d
000000b0: 87aa adbc d48a 2d3d 14d1 193d 990b b9bb
000000c0: 3728 3dbc ffda 693c 4e31 b43b 5ba4 003d
000000d0: d921 1a3d eb84 d4bc b4fa 183d acd5 debc
000000e0: 7701 62bd f969 403d 9536 2b3d 3fae d83c
000000f0: 02fe 603c 637e eb3c 5260 2abd 8469 8b3c
00000100: 1023 09bd be7e 0cbc dbcc 38bd 3430 603d
00000110: adb6 133d 80d6 babb adde af3c 4ebd 3f3d
00000120: 198d ffbc 1147 17bd cdba 86bd 2a0f 21bd
00000130: c994 83bd cb7a 27bd 3a3f 4cbd bb18 543d
00000140: fc3a b4bc 53b2 0b3d 820d 233c e550 8abc
00000150: 9829 64bd eb7f 873d a51f 9d3c 93f3 0b3d
00000160: 0700 53bd 6745 6cbd 038f 103d fb67 22bd
00000170: 4380 643d 86f7 6fbb a023 6f3d 93f6 23bd
00000180: 5e62 89bd 1bc2 cd3c 1a72 063d e398 483c
00000190: f61f 34bc 1c16 43bd 0f01 7b3d 274b 363c
000001a0: bd30 3bbb 811e 6ebd 5766 193d ed47 c13c
000001b0: ed91 ea3b d867 3fbc c86f 453d 27fa 123b
000001c0: c397 38bb 0f27 763d 8b33 693c 5dad b2bb
000001d0: 6fff 233d a808 5f3c a7c5 4e3d 2e12 37bd
000001e0: a6fd d33c 356a 5e3a 225f 3e3c d8a6 293c
000001f0: adc1 813c 605d f5bb 1fbe ce3c c34c 11bd
00000200: 3dc3 653d 3d25 05bd d024 e0bc 473b ce3b
00000210: 0250 8bbc 5325 d43c 0ad2 56bc 5d8d 53bd
00000220: 4dbd 273d aa44 7f3d 15dd 293d d1fb 33bd
00000230: a483 f9bc dc78 1e3d 3509 06bd 0847 1f3d
00000240: 8ae3 a7bc c571 7f3d d318 2b3b 1ddd e83c
00000250: d4bc 3ebc aa61 cd3c c58b bb3c e533 183d
00000260: 21e7 813d c920 54bd f80a 7cbd 0602 813d
00000270: 5376 a0bc 16f7 20bd 5e22 59bd fb26 02bc
-0.037090007 0.046522178 -0.011017506 -0.04272602 0.0072850375 0.009171389 -0.06320498 -0.056835573
-0.0028361117 0.01292039 -0.010314359 -0.009972517 -0.043923493 -0.0061502573 0.027799219 0.030768719
0.007158065 0.016294135 0.05735557 0.06474946 -0.040325873 -0.033263315 -0.025541805 0.0510943
-0.055644974 -0.0060369945 0.046395466 0.008090935 -0.05330727 0.020393495 0.05958815 0.03102732
-0.056932386 -0.0005575404 0.011653909 0.030868828 0.064387694 0.0176296 -0.008381104 0.04342845
-0.010249281 0.0017790094 -0.047502033 0.04868536 -0.021199478 0.042368725 0.037552908 -0.0056471345
-0.0115452325 0.014273404 0.0054990416 0.03140674 0.037629936 -0.025942286 0.037348464 -0.027201496
-0.05517718 0.046976063 0.0418001 0.026450275 0.013732435 0.02874679 -0.041595764 0.017018087
-0.033480704 -0.00857514 -0.04511724 0.05473347 0.036062885 -0.00570184 0.021468485 0.046811394
-0.03119521 -0.03693301 -0.06578598 -0.039321102 -0.06424863 -0.04088859 -0.049864985 0.051781397
-0.022000782 0.03410561 0.009951951 -0.016884277 -0.05570373 0.06616195 0.019180128 0.034167837
-0.051513698 -0.057683375 0.035292637 -0.039649945 0.055786382 -0.0036616041 0.058383584 -0.040030073
-0.06708215 0.02511697 0.03282366 0.012243482 -0.010993948 -0.047628507 0.061280306 0.011126316
-0.0028562986 -0.05813456 0.037451115 0.023593867 0.007158509 -0.011682473 0.048202306 0.0022426934
-0.002816663 0.060095843 0.01423348 -0.0054527954 0.040038522 0.013612904 0.050481465 -0.044695072
0.025877785 0.0008484454 0.011619361 0.01035472 0.015839422 -0.007487938 0.025237141 -0.035473596
0.056094397 -0.032506216 -0.027361304 0.0062936875 -0.017005924 0.025896704 -0.013111601 -0.051648486
0.040952016 0.062321343 0.041470606 -0.043941323 -0.030458279 0.03868948 -0.032723624 0.0388861
-0.020494241 0.06236436 0.0026107326 0.028425748 -0.0116417 0.025070984 0.022893796 0.037158865
0.063429125 -0.05178908 -0.061533898 0.06299214 -0.019587671 -0.03929814 -0.05301129 -0.007943864

fc.3.weight f4 [10, 160]
00000000: 9e3d 803c d31c 79bd c661 d13c 178d 703d
00000010: 0418 873d 5bd2 42bd bd6d 7c3d f966 76bd
00000020: 8e3d 833d 5e61 833d 7be7 b3b8 f95e 7c3d
00000030: 901d dbbc d002 663d 1c61 773d e298 9c3c
00000040: 6b39 21bd c9be ca3c d0cc 433d 4a4a 03bd
00000050: 3b5c 403d 5615 fc3c 1548 6cba 7127 c33c
00000060: 1e60 84bc dcdf 8b3d 500b 183d 742e 2d3d
00000070: 348f 6e3d be6e 72bd 1f01 72bd 3c7c d73b
00000080: 24f7 d03b 2ea2 38bc 2549 493d 3e92 2ebd
00000090: ad31 043d 880c f5bc ac73 25bd b523 f7bc
000000a0: eb56 b03c e0d4 f73c 1ada 3ebb 2c03 8cbc
000000b0: bf47 963d b124 32bc 4ac3 5c3d 096e 6cbd
000000c0: 90a5 343d 51eb 94bd 4f39 9fbb 5568 9fbd
000000d0: 0994 d2bc 4a59 c9bc 1ea6 9c3d 6a4c e9bc
000000e0: 6a86 8d3d 59c7 86bd 8b9b eb3c 918d 59bd
000000f0: 14df 78bd 007d bdbb 69ae 673a 2bbf 7dbd
00000100: 6db4 a53c 9579 31bd 4ddc bdbc b595 163d
00000110: b093 f53c 676b 8dbd 8c29 8f3d 29fe b0bc
00000120: 631a babc af28 673d f269 2dbd 3390 813d
00000130: 572b cebc 81d5 3ebd 8a8d 92bd fe75 2d3d
00000140: 185d 523b 9cb6 4cbd b3ff 693c 2261 913c
00000150: 832e 843d a09e 423d 067c eebc 96f5 863d
00000160: 292f 213d 0fb1 e03b e99a d7bc 4b79 823d
00000170: 46d4 ca3c 93f9 6d3c 2cd3 363d d6b0 6c3d
00000180: cb41 ab3c cd75 8a3a 6126 5f3d ab63 9d3d
00000190: 58a6 d8bc 26e9 513d 2aa1 6a3c 8917 98bb
000001a0: 2015 4bbb cca6 983d 0036 fdbc 36b8 713d
000001b0: 5b0f 7f3c f3fc a1bc 347d 71bd f82d a0bc
000001c0: 05d3 a13c 2341 833c 4b5d 9fbd 6a3a 2c3b
000001d0: b6cd 443d 0ccd 61bd 1cfc 8b3d 0569 803d
000001e0: 7e40 8abd 7792 91bd 2857 ff3b bfcf d7bb
000001f0: 6ca0 3abd bfeb 8f3d 5197 de3c d3b0 8cbd
00000200: 69e7 0fbd 2281 a1bd d057 45bd d90d ce3c
00000210: ab38 7a3d 043e 68bd 1764 873d 19d2 d0bc
00000220: ddc5 a3bc 45b2 be3a 4eea 2e3b 2ff9 353c
00000230: 45bc 88bd 92a9 6c3d a663 25bd cb93 9dbd
00000240: f841 1ebd 09a0 1bbd aeea 0b3c 6d20 803d
00000250: d8ef fd3b 00db 9c3c f569 e739 c641 893d
00000260: 06b8 7f3d c67a a23c 4290 5dbd 2cd4 903d
00000270: 4756 04bd fc29 6f3d 9533 8dbd 7bfa 15bc
00000280: c054 843d 0a03 bb3c 801b b43c 793e c73b
00000290: 7619 b23c 24ca 56bd bd2e 2b3d 9ab2 a2bc
000002a0: e29a 97bd f381 b4bc ba6d 43bd 8063 8ebd
000002b0: b615 843d 4fef 043c dd8d 8fbc c956 4f3c
000002c0: 6d6d 64bd 8d82 31bd ef34 803c 087f 86bd
000002d0: a309 3f3d 8ce8 a8bc dde0 9cbd 2112 6d3d
000002e0: 1b57 81bd 788e 243c 6c55 81bd d209 86bd
000002f0: d9a9 033b 3749 533d d021 b63b 163d a5bb
00000300: 7d5e a6bc eb2b dcbc 2747 553d 51b9 3dbc
00000310: c149 6bbd c624 8ebd 01f3 9dbd 4efa 5bbc
00000320: 2319 9cbc ef75 f8bc 8248 df3b e74d 79bd
00000330: cf6a 053c d3d2 733d 581c 39bd a008 533d
00000340: 5346 85bd 1bd2 89bc 5ee6 733c 232a 97bc
00000350: 0b64 473d 901f 98bd 980f f5bc f2be 8d3d
00000360: b073 e1bc a4c4 93bd 1bfa b33c a34e b33c
00000370: 73b0 413d 2de8 8cbd 7051 f73c 32d7 47bd
00000380: fd54 7dbd 0083 8fbd 0384 6abc ea7e 5c3d
00000390: ba7a b3bb a357 0b3d 5b94 9d3d d40a 1e3d
000003a0: a724 57bc fa29 8d3d 22ba d538 0513 4d3d
000003b0: bade c73c ab90 77bd 5d6e 98bc 7acd 15bd
000003c0: 4e30 1abc c2a1 f63c a3d7 81bd d591 2ebd
000003d0: a938 d0bc 72f4 703d 3454 abbc a4f7 2bbc
000003e0: f409 ddbc 3b74 9abd 50a3 15bc 54a5 34bd
000003f0: 6422 96bd 5a90 e6bc cd3c 89bc ae36 35bd
0.015654381 -0.060818505 0.025559317 0.058728304 0.065963775 -0.04756389 0.061628092 -0.060156796
0.06408225 0.06415056 -8.578502e-05 0.06161401 -0.026747495 0.056155026 0.060395345 0.019115869
-0.0393614 0.024749177 0.047802746 -0.03205327 0.046962958 0.030771893 -0.00090134266 0.023822518
-0.016159113 0.06829807 0.037120163 0.04228063 0.058242038 -0.059187643 -0.0590831 0.006576089
0.0063771177 -0.011269135 0.04914202 -0.042619936 0.032273937 -0.029913202 -0.040393516 -0.030168394
0.02152582 0.030252874 -0.0029121698 -0.017091356 0.07337903 -0.010873006 0.05389718 -0.057722125
0.044103205 -0.072714455 -0.0048591266 -0.07783572 -0.025705354 -0.02457871 0.07648872 -0.02847882
0.06910403 -0.06580991 0.028760692 -0.053113524 -0.06075962 -0.0057827234 0.000883794 -0.06194989
0.020227635 -0.04332884 -0.023176337 0.036763866 0.02997765 -0.06905251 0.06990346 -0.021605568
-0.02271766 0.056435283 -0.042337365 0.06326332 -0.02516715 -0.046590332 -0.07155903 0.042348854
0.0032098945 -0.049978837 0.014282155 0.017746512 0.06454184 0.047514558 -0.029111873 0.065898106
0.039351616 0.0068570445 -0.026318984 0.06370791 0.024759423 0.014524835 0.044634983 0.05778583
0.020905396 0.0010563672 0.05447996 0.07685026 -0.026446506 0.05124774 0.014320651 -0.0046414775
-0.0030987933 0.07453689 -0.030909538 0.059013568 0.015567626 -0.019773936 -0.058957294 -0.01955317
0.019753942 0.01602227 -0.07781466 0.0026279935 0.048047744 -0.05512719 0.068351954 0.06270031
-0.06750582 -0.07108014 0.0077923723 -0.0065860446 -0.045563146 0.07027387 0.027171763 -0.06869664
-0.0351328 -0.07885958 -0.048179448 0.025153087 0.0610892 -0.056699768 0.066108875 -0.025490807
-0.01999181 0.0014548978 0.002668995 0.011106773 -0.066765346 0.057778902 -0.040378235 -0.07694205
-0.03863713 -0.03799442 0.008539839 0.06256185 0.007749539 0.019147396 0.00044138698 0.067019984
0.062431358 0.019833934 -0.054092653 0.070717186 -0.032308843 0.05838965 -0.06894604 -0.0091539575
0.06461477 0.022828598 0.02198577 0.0060804454 0.021740656 -0.05243887 0.04179262 -0.019860554
-0.074025884 -0.02203462 -0.047712065 -0.06952572 0.064494535 0.008113696 -0.0175237 0.012654969
-0.05576842 -0.043337394 0.01565024 -0.06567198 0.04664005 -0.0206187 -0.07660077 0.057878617
-0.06315442 0.010043733 -0.06315121 -0.06544842 0.002009025 0.051583495 0.00555823 -0.0050426824
-0.020308727 -0.02687641 0.05206981 -0.011579827 -0.057443384 -0.06940608 -0.07712365 -0.0134263765
-0.019054955 -0.030329673 0.0068140635 -0.06086531 0.008143141 0.05952723 -0.045193046 0.051521897
-0.06507554 -0.016823819 0.014886467 -0.01845271 0.048679393 -0.07427895 -0.029914662 0.069211856
-0.027520984 -0.072152406 0.021969846 0.021888083 0.047287416 -0.068802215 0.0301902 -0.04878921
-0.06184863 -0.07007408 -0.014313701 0.053831972 -0.0054772766 0.034019124 0.07694312 0.038584545
-0.013131297 0.06892772 0.000101913014 0.050066967 0.024398196 -0.0604407 -0.018607313 -0.03657291
-0.009410931 0.030106429 -0.063399576 -0.042619545 -0.025417643 0.05882687 -0.020914175 -0.010496054
-0.026982285 -0.075417005 -0.009133175 -0.04410298 -0.07330778 -0.028145004 -0.016752625 -0.0442416

fc.3.bias f4 [10]
00000000: fbb9 c23c 80da 483d 58f1 4cbd 6573 90bc
00000010: 0418 a43d d9be 78bd 8b3a 9e3d 4e7d 40bd
00000020: c71f 3cbd f11f 13bd
0.023770323 0.049036503 -0.05003485 -0.01763315 0.08012393 -0.06072888 0.0772601 -0.0469945
-0.045928743 -0.035919134

fc.6.weight f4 [2, 10]
00000000: 8ce2 9ebd 824d 94be b5c9 56be 28ec 97be
00000010: f7ad e73c d239 953e aa1b 21be 40dc cc3c
00000020: b0ff 0dbd 4e46 fc3d f2b1 e63c 61db 71ba
00000030: 4b8b 4c3e 7a14 5a3e a383 5cbe d2bb 9c3d
00000040: efd3 8abe 9f60 3abe 299d 703e 9971 9abe
-0.07758054 -0.28965384 -0.20975383 -0.2967236 0.028281195 0.29145676 -0.15733209 0.025007367
-0.03466767 0.12318097 0.028161023 -0.00092261104 0.19975011 0.21296874 -0.2153459 0.076530114
-0.27114818 -0.1820092 0.23497452 -0.30164793

fc.6.bias f4 [2]
00000000: cdf2 be3d c6af 723e
0.09323654 0.23699865
