Algorithms/shawn/loss/exp/fc_12.batch.pth (torch_old, 252336 bytes, 8 tensors)

fc.0.weight f4 [160, 226]
000000 d3 a9 d2 bb 9b 1a f6 3c 96 bc b3 bc ec 01 9e 3b
       -0.006428936 0.030041983 -0.02194051 0.0048220064
000010 72 24 7f bd f1 fe 91 3a 4b 98 74 3d c1 69 a1 bc
       -0.062290616 0.00111386 0.05971555 -0.019703748
000020 b9 78 8b 3b 6f 94 02 3d 8e 36 71 3d 6a f0 ec bb
       0.0042563346 0.03187984 0.058889918 -0.007230808
000030 92 52 f7 3c 75 8a 08 3d 51 34 3b 3d 26 8e 6d bd
       0.03019074 0.033335168 0.04570419 -0.05799689
000040 b8 00 5a 3d 66 57 83 3d 22 63 78 bd ea e4 86 3c
       0.05322334 0.06413154 -0.060641415 0.016466577
000050 55 43 f9 bc 6f 3c 44 bd 61 27 30 3d 06 b6 45 bd
       -0.030427614 -0.047909196 0.043006305 -0.048269294
000060 27 15 42 3b 91 a8 f2 bc ce ac aa 3a 05 d6 83 bd
       0.0029614659 -0.029621394 0.001302147 -0.06437305
000070 40 10 08 bd 85 97 4d bd 6e 92 e0 bb 53 11 ce bb
       -0.033218622 -0.05019333 -0.0068533933 -0.0062886863
000080 de 59 bb bb bf 3c a2 bc 7a dc e5 3c 81 b7 54 bd
       -0.0057175 -0.019804357 0.028059233 -0.051932815
000090 74 bf c0 b8 04 a7 48 bd e7 ca 06 bd ec 1f 28 bd
       -9.190934e-05 -0.048987404 -0.032908347 -0.041046068
0000a0 16 65 02 bd f9 f3 b0 bb 52 a7 79 bd 93 51 5b bb
       -0.031834684 -0.0054001776 -0.060950585 -0.003346537
0000b0 3f f1 67 3d bf 40 0b 3c 44 96 7a 3d ca e1 6c 3d
       0.056626555 0.008499323 0.06117846 0.057832517
0000c0 2d af 86 bd 50 a1 44 bd a0 07 50 3d 19 93 71 bd
       -0.06576381 -0.048005402 0.05078852 -0.058978174
0000d0 18 0f 49 3d 8e 85 7f bd 40 7f 5c 3b ee 4a 75 bd
       0.04908666 -0.062383227 0.0033645183 -0.05988591
0000e0 1c df 71 3b fe 22 10 3b db 1d 1a bc 26 b8 22 3a
       0.0036906665 0.0021993513 -0.009406532 0.000620725
0000f0 5e 5a 3c 3c aa 78 a3 bb ec 99 8f bc 3d 87 cc 3b
       0.011496155 -0.0049887495 -0.01752945 0.0062417076
000100 22 7c 4e 3d 45 18 67 3d d6 b1 28 bd 51 de 7a 3d
       0.05041135 0.05641963 -0.041185223 0.061247174
000110 01 66 3b bd af 48 b3 bb ff 67 6f 3d 0a c5 f7 3c
       -0.045751575 -0.005471311 0.058448788 0.030245323
000120 5f d5 b9 3c 1b 15 49 bd 4b d5 cd bc a5 9c fb bc
       0.022684751 -0.049092393 -0.02512612 -0.030714342
000130 c7 96 f3 bc f7 3c 41 bd 1b d1 f2 bc 1f 89 f7 bc
       -0.029734982 -0.04717728 -0.029640725 -0.030216752
000140 06 fc 48 3d d0 70 85 bd 18 61 46 bd f1 2f 6a bc
       0.049068473 -0.06515658 -0.04843244 -0.014293657
000150 be 2c 56 bd 81 69 63 bd 3a 74 36 bd ca 8a 5e 3d
       -0.052288763 -0.05552054 -0.044544436 0.05433158
000160 d7 50 14 bd 69 24 84 3c 8a 43 84 bd a0 a5 4c bd
       -0.036209907 0.016130643 -0.064581946 -0.04996264
000170 c1 32 05 3d 66 be 80 3d 71 19 20 bd b2 da 87 3d
       0.032519106 0.062863156 -0.039086763 0.0663351
000180 1d 75 84 bd bb dd d0 3b 66 74 89 3c 17 78 d4 bc
       -0.0646765 0.0063740886 0.016779136 -0.02593617
000190 c1 0d ac 3c 20 21 cd 3c 4d 02 12 3c af 95 03 bb
       0.021002652 0.02504021 0.008911681 -0.0020078232
0001a0 d2 1f 5e bd ff b5 0d 3d 98 59 bf bc 40 2c 1d bd
       -0.054229565 0.034597393 -0.023358151 -0.03837228
0001b0 91 cc 4b bc 28 6a 02 bc 40 2b 47 bd 84 a9 60 3d
       -0.012438909 -0.00795988 -0.04862523 0.054849163
0001c0 c2 f4 6a bd 82 1c 14 3a 35 b3 17 bc 97 82 60 bb
       -0.057362325 0.000565 -0.009259035 -0.0034257525
0001d0 83 07 41 3d 00 21 83 3d 2f 66 f9 bc a7 99 86 3b
       0.047126304 0.064027786 -0.030444233 0.0041076723
0001e0 7e cb 19 bd b1 1a 4f 3d ec c8 57 3c e9 db 80 bc
       -0.03754758 0.050562564 0.013170462 -0.015729861
0001f0 31 47 b4 bc bd 06 4e 3d c5 3f 05 bd 40 bb 0d 3c
       -0.022006603 0.050299395 -0.03253152 0.008650601
000200 22 56 5b bd 37 8c f9 3c 1a ff 86 3d 31 bf 4c bd
       -0.05354894 0.030462367 0.065916255 -0.04998702
000210 be 53 bc bc b1 48 7b bd 0a 76 7d bc 51 1e 84 bd
       -0.02298915 -0.06134862 -0.015470037 -0.06451095
000220 2a af 48 3d 17 05 6a 3d f6 30 f9 3b 64 82 5d bb
       0.048995174 0.05713376 0.0076047136 -0.0033799643
000230 49 c4 12 3d 47 0c 51 3d 27 4f 77 3d fc 70 49 bd
       0.035831723 0.0510371 0.06037822 -0.049180016
000240 11 e0 09 3c bb ee bd 3c 7f a1 92 bb fa 6d 82 3d
       0.008415238 0.023185125 -0.0044748182 0.063686326
000250 f7 fd 66 3d dc 6b 6f bd d1 de d3 bc fe 3f 4f bd
       0.056394543 -0.058452472 -0.025863083 -0.050598137
000260 59 a4 10 3d 6b 64 85 3c ed d3 34 bd 90 67 09 bd
       0.035312984 0.016283235 -0.04414742 -0.03354603
000270 78 a1 b2 bc 8c 9e 5f bd cc 32 a8 3c c5 ba b8 bc
       -0.02180551 -0.05459456 0.020532034 -0.022549996
000280 b1 a5 48 bd 06 fe 61 bd b7 f4 42 3d 2f 16 82 bd
       -0.04898614 -0.055173896 0.04759666 -0.063518874
000290 1f 09 7b 3d f0 dc 3f 3d c9 11 4c bd 21 47 b1 bb
       0.061287995 0.04684156 -0.04982165 -0.0054100906
0002a0 67 dc ea 3c d7 ff 3c 3d 75 72 82 3d 27 ce 7a 3a
       0.02866955 0.046142425 0.06369487 0.0009567462
0002b0 4f 8d bc 3c 74 2d b8 3c 93 ce b0 3a 04 86 67 bd
       0.0230166 0.022482611 0.0013489298 -0.05652429
0002c0 bb 32 48 bd 0a 83 7d bc 94 2f 0b 3d 63 5b 57 bc
       -0.048876505 -0.015473137 0.03398092 -0.013144347
0002d0 5f ee f4 3c 1e 5e 45 3d f0 23 3b bd 14 4e a3 bc
       0.02989882 0.04818546 -0.04568857 -0.019934691
0002e0 48 1c 69 bd 03 ff af bc bf 99 86 3d a5 a3 83 bc
       -0.056911737 -0.021483904 0.065722935 -0.016069243
0002f0 db c6 4b 3d 80 52 af bb bb 6e ac bc ba 4a b6 3c
       0.04975019 -0.005350411 -0.021048894 0.02225243
000300 2f b8 55 3d 0c 89 9e bc 7c a4 16 bb e8 1d 4d 3d
       0.052177604 -0.019352458 -0.0022986224 0.05007735
000310 e6 52 4a 3d 8f c5 82 3d f4 09 2d 3d 0d 56 05 bc
       0.049395464 0.063853376 0.04224582 -0.008138192
000320 dd 6f d0 bc fe 4b 25 bd b2 e1 13 3a db b1 3c bd
       -0.025443966 -0.040355675 0.0005641236 -0.046068054
000330 e2 37 56 3d 8e 9e aa 3c 9c 6d 89 bb 0b 44 18 bd
       0.052299388 0.020827558 -0.0041939747 -0.037174266
000340 71 75 b6 bc 4c 9a 0e bc 8e 38 80 bd 4f db a1 3c
       -0.022272797 -0.008703779 -0.06260787 0.019757895
000350 c7 bc 02 3d 0f 64 1f 3a 39 cd 99 bc ea 11 fb ba
       0.031918313 0.00060802785 -0.018774616 -0.0019155119
000360 16 81 2a 3d 9f ac 9e 3c bc dd da 3c e1 f0 0b bb
       0.041627012 0.019369422 0.02671706 -0.0021353292
000370 80 fb b9 3c 25 8b 61 bc 84 ed 36 bd 5d 2f 4a 3c
       0.022702932 -0.013766085 -0.044660106 0.012340394
000380 22 ee 26 3d 74 da 82 3b 08 d8 04 bd 8f a6 0d 3d
       0.040754445 0.003993327 -0.032432586 0.03458267
000390 17 85 0b 3d d4 d3 aa 38 70 df aa bc 42 2b 28 bd
       0.03406247 8.145688e-05 -0.020858496 -0.04105688
0003a0 a5 22 1f bd 07 02 14 3b 10 71 60 3d c8 88 40 3c
       -0.0388514 0.0022584216 0.054795325 0.011751361
0003b0 33 44 fa bb 05 30 da 3c 53 c6 59 bd df 0d 7c bd
       -0.0076375245 0.026634226 -0.053167652 -0.061536666
0003c0 a8 b6 74 bd b1 ae 3b 3c 75 a6 7f 3d 25 13 2d 3d
       -0.059744507 0.011455224 0.062414605 0.042254586
0003d0 0f 2f 4f bd 13 a6 7f bd 38 6a 18 3b 5e cd b0 bc
       -0.050581988 -0.06241424 0.002325667 -0.021582302
0003e0 3d 9c 17 3d 9e 03 78 bd 6b d1 f7 3c 4b 56 66 3c
       0.037014235 -0.060550325 0.030251225 0.01405866
0003f0 fc 1d a6 bc 51 bf 46 3c 23 f1 19 3d 28 d6 60 bc
       -0.02027797 0.012130574 0.03758348 -0.013722934

fc.0.bias f4 [160]
000000 19 f3 86 3b bf 07 c6 3c 45 e6 b9 bc 68 75 74 bc
       0.004118335 0.024173616 -0.022692809 -0.01492057
000010 1c 9d 5e bd 1f a1 d0 bb ad e2 e5 3c f3 ee 25 3d
       -0.05434905 -0.0063668634 0.028062189 0.040511083
000020 e7 af 2d bd 60 19 a2 bb 5f 78 84 3d bd 98 75 bc
       -0.04240408 -0.0049468726 0.064682715 -0.014990029
000030 ba 6e 5a 3c 42 77 48 bd e9 28 c2 ba 66 08 1f 3d
       0.013332063 -0.048941858 -0.0014813218 0.03882637
000040 0e b9 f6 3c 29 c0 6d bd 26 3d f7 3c 35 ee ce 3c
       0.030117538 -0.058044586 0.030180525 0.02526007
000050 f9 11 1b bc 4e 73 85 3d c4 c5 e8 3b 1c c4 85 3d
       -0.009464734 0.06516133 0.0071036536 0.065315455
000060 cc ad 2a 3c 5c 76 06 bd 88 2e 0e bd c1 29 45 bd
       0.010417413 -0.03282772 -0.034712344 -0.048135523
000070 11 28 b0 3c 20 9a 7f bd 11 b4 d5 bb 73 b0 85 bd
       0.02150348 -0.062402844 -0.0065217097 -0.06527796
000080 37 e4 66 bd 91 e9 c0 3b ef a3 d8 3c f5 4f c5 bc
       -0.056369986 0.0058872183 0.026445357 -0.024085978
000090 61 79 74 3d 37 91 31 3c 5f b1 33 3c 37 4e 0e bd
       0.05968607 0.010837845 0.0109675815 -0.03474256
0000a0 f9 0b a7 3b f6 eb 48 3d 52 cd 3a 3d 97 1c 5b 3d
       0.005097863 0.049053155 0.045605965 0.053494062
0000b0 62 0a 91 bc f0 81 bf 3b d8 91 ca bc 8e 8e a2 bc
       -0.017705146 0.005844347 -0.024727747 -0.019843366
0000c0 60 a8 f9 3c ff cc 54 3c 1b 3f 21 bd b5 cc 42 bd
       0.030475795 0.012988328 -0.039366823 -0.047558505
0000d0 57 68 10 3d 36 86 58 3d de 9f 77 3d ca 15 67 3d
       0.035255756 0.05286237 0.060455196 0.056417264
0000e0 c0 73 21 3d 5d 96 65 3d 97 91 82 bd 2b 82 ba 3b
       0.03941703 0.0560516 -0.06375425 0.0056917868
0000f0 28 13 a6 bc 15 76 e6 3c a9 86 95 3c 83 0d 39 bd
       -0.020272806 0.028132478 0.018252688 -0.0451789
000100 cd 1e e8 3c a7 d0 42 bd 00 a9 28 3d b0 84 81 bc
       0.028335 -0.047562268 0.041176796 -0.01581034
000110 4e d3 a5 bc ef b1 9d bc 1a 17 23 bd c9 97 18 3d
       -0.02024236 -0.019249884 -0.039816953 0.03725413
000120 4e 28 59 bd de a3 36 bd 32 13 25 bc dc cb 16 bc
       -0.053016953 -0.04458987 -0.010075377 -0.009203877
000130 7f 80 00 3d 83 a0 1e 3b 0f 06 dc bb 85 90 af 3c
       0.031372543 0.002420456 -0.0067145894 0.021431217
000140 03 10 e2 3c 92 59 dc bc c3 1c ae 3c 74 8b 6c 3c
       0.027595526 -0.02689818 0.021253949 0.014437545
000150 3d 19 6d 3d 1a cd a4 3c 2d e1 a8 3b 2e cc cc bb
       0.057885397 0.020117331 0.005153796 -0.006249926
000160 3b b3 63 3b 84 fc 19 3d f2 0a 64 bd 4d 88 a3 3c
       0.003474428 0.037594333 -0.0556745 0.019962454
000170 bd e5 82 3d d4 45 5d 3d 72 82 5b 3d 39 e8 0b 3d
       0.06391475 0.05402167 0.0535912 0.03415701
000180 9d 53 24 3d 17 33 a6 3c af 80 6d 3c 1e 4e 42 3c
       0.040118802 0.020288033 0.014496013 0.011859445
000190 f7 2b 4d 3d 54 33 d3 bc d3 6c 57 3d c6 19 67 3d
       0.050090756 -0.025781311 0.052594017 0.056421064
0001a0 c8 fb 2a bd 9c 81 2e bd 3c 9b a2 3a aa 36 86 3d
       -0.041744024 -0.042604074 0.0012405883 0.06553395
0001b0 e7 d5 5c 3d 80 74 33 3c 3b fb 39 bd 0b 0e 91 3c
       0.05391493 0.010953069 -0.045405608 0.017706892
0001c0 a3 46 e3 3c b0 59 4e 3d 04 59 07 3d dd 2a 76 bc
       0.027743643 0.0503785 0.033043876 -0.015024868
0001d0 88 d8 05 3d 9e a4 b2 bc 57 f9 fa 3c c0 46 e9 3c
       0.032677203 -0.021807011 0.030636473 0.028476119
0001e0 e1 e8 3b 3d a1 f4 85 bd 41 75 d5 bc 39 b7 7d bd
       0.045876388 -0.065408 -0.026056888 -0.061942313
0001f0 5b 0e 5c 3c 71 72 86 3c 2f 77 02 bd c8 6a 3e bc
       0.013431157 0.016411992 -0.031851944 -0.011622138
000200 2d eb 72 bd 20 2a a2 bc 28 e9 5f bd ec 09 6f 3d
       -0.059306312 -0.019795477 -0.054665715 0.05835907
000210 3a a0 ab 39 b9 b9 d1 3c c9 4e 69 3d d9 2d 1c 3d
       0.0003273504 0.025601255 0.0569599 0.03812966
000220 5f 0c 37 3d df db 1c 3d bf e6 77 3d 2b 52 4a 3d
       0.044689532 0.038295623 0.06052279 0.049394768
000230 13 2e fd 3c b4 bb 7e bd c9 0c 94 bb 31 12 07 37
       0.030905759 -0.062190726 -0.0045181257 8.050863e-06
000240 5b b1 83 3c c5 08 05 bd 2d 07 25 bd 79 b1 bc bb
       0.01607578 -0.032479066 -0.040290046 -0.005758461
000250 93 fb 91 3b 0c 9a 84 3c 61 e1 9c 3c 0e 1f 79 3d
       0.004455039 0.016186737 0.019150438 0.06082063
000260 4d 98 c3 3c 33 7d 40 3d 48 e3 14 3c e0 52 63 3d
       0.023876334 0.0469944 0.009087391 0.055498958
000270 18 ee 49 bd 70 80 0c bd 19 bb 43 3c 88 34 9c 3b
       -0.04929933 -0.034302175 0.011946463 0.0047670044

fc.3.weight f4 [100, 160]
000000 b3 ad 1d bc f2 96 79 3b 21 4d 93 3d 9d bc 6f bd
       -0.009623933 0.0038084355 0.071924455 -0.058529485
000010 8b 93 95 3d ca 52 b2 3c c1 bc 7a 3d ab 0a 76 3c
       0.07303532 0.021767993 0.061215166 0.015017192
000020 55 17 21 bd 81 6a a9 3c de c0 51 3b 04 83 1d bd
       -0.03932889 0.020680668 0.0032005827 -0.038455024
000030 b3 a2 36 3c 76 d0 24 bd f4 89 61 bd 72 50 7f 3d
       0.011147189 -0.040237866 -0.055063203 0.062332578
000040 29 68 97 3d 41 c5 ca 3c 8d 6d c1 3c 19 29 09 bd
       0.07392914 0.024752261 0.023611808 -0.03348646
000050 8d 4e 11 3d 85 0d 76 bc 04 0e 7c 3d ff c1 f7 bc
       0.035475302 -0.015017872 0.061536804 -0.030243872
000060 0b 79 8f 3d 08 a9 12 bd 6d 81 ee bc b5 a5 4b 3c
       0.07005509 -0.035805732 -0.02911445 0.012429644
000070 98 ce 26 bd 28 52 9e bc 46 40 40 bc 09 9b 12 3d
       -0.040724367 -0.019326285 -0.011734074 0.035792384
000080 08 cf 35 bd da d1 b0 bc 4a 45 d1 bb 47 a6 ed 3c
       -0.044386894 -0.02158444 -0.0063864337 0.029009951
000090 95 73 3b bd 84 40 88 bd b6 a2 4b 3d fe ea 8d 3d
       -0.045764524 -0.066529304 0.04971572 0.06929587
0000a0 9e 74 78 bc c6 40 86 3d 61 74 93 bd 0d 75 96 bd
       -0.015164522 0.06555323 -0.07199932 -0.073465444
0000b0 20 d1 8d 3d 45 a3 7d 3d d3 f1 f2 bc b9 45 6b 3a
       0.06924653 0.061923284 -0.029656326 0.0008974928
0000c0 09 e7 83 3d 38 5e 54 3d d0 c8 a7 bc 13 49 6e bc
       0.06440551 0.051847667 -0.020481497 -0.014543789
0000d0 57 af 9d bd 60 79 bc bc f5 16 9c bd e4 01 dc 3b
       -0.07699459 -0.023007095 -0.07621566 0.0067140926
0000e0 d4 c0 32 bd aa d5 cf bb b7 45 8c 3d ab f0 ac 3b
       -0.043640926 -0.0063426094 0.068492346 0.0052777133
0000f0 a1 02 96 bd 0b 23 78 3d f7 86 aa 3c ff 5f 9f bd
       -0.0732472 0.060580295 0.02081631 -0.07781982
000100 84 20 37 3c fe d2 8c bd 56 97 4f 3d 3e e4 6b bd
       0.011177186 -0.06876181 0.050681435 -0.057590716
000110 53 d8 83 3d 31 b3 4e 3d 96 eb 8b bc a8 9b d5 3b
       0.06437745 0.05046386 -0.01708011 0.0065188
000120 bd f5 98 bd 9d 0b 92 bd f1 df 99 bd 97 75 b6 bb
       -0.07468746 -0.07131121 -0.075134166 -0.005568217
000130 ef e0 97 3c 39 d1 10 bd a6 9e 81 bc fd 4d 9d 3c
       0.018539874 -0.03535578 -0.01582272 0.019202227
000140 19 43 b9 3c 28 76 b5 bc 35 07 6f 3d 44 5a 72 3b
       0.022615002 -0.022151068 0.058356483 0.0036980072
000150 56 4a 97 3c de 94 8d 3d 74 e9 fb 3c da 1a 43 bd
       0.018468063 0.0691316 0.030750968 -0.04763303
000160 ea 88 1d bc 45 7e a9 bc 84 a2 68 3d 58 d3 97 bd
       -0.009615162 -0.020690093 0.056795612 -0.074133575
000170 d6 e3 58 bd a0 9c 08 bc 91 9e 70 3d 9e 47 c1 bc
       -0.052951656 -0.008338124 0.05874497 -0.02359372
000180 1b 28 9d bd 82 c7 7a 3d 85 60 63 3d 09 26 e1 bc
       -0.07673665 0.06122542 0.05551197 -0.027483957
000190 ba 87 cc 3c d8 7a bc 3c 7f 48 09 3b 2a b1 a6 3c
       0.024967063 0.023007795 0.0020947752 0.02034815
0001a0 34 59 81 bc 78 44 17 3d ee 81 1d 3c 5b 14 4b bc
       -0.015789606 0.03693053 0.009613497 -0.01239499
0001b0 13 b9 2f 3b dd 65 9a 3d fe b5 5f bb 85 45 8b 3d
       0.0026813194 0.0753896 -0.0034135575 0.06800369
0001c0 d2 ec 95 3d a1 ba ec bc 04 d4 d8 3c 39 ad 94 bc
       0.073205605 -0.028897585 0.026468284 -0.018149005
0001d0 90 2a 9d bd 17 45 ff 3c cc eb 53 3d ad 1c 7f bc
       -0.07674134 0.031160874 0.051738545 -0.015570802
0001e0 e2 86 63 3d 4e 75 f5 bb a5 c8 8c bd b9 e2 8c 3d
       0.055548556 -0.0074907904 -0.068742074 0.068791814
0001f0 02 2c ee 3b 74 4b 3c bd 1f 7e 28 bd 47 d4 1d bd
       0.0072684297 -0.045970395 -0.041135903 -0.03853252
000200 19 a8 97 bd 0a ca 0f bc 8d 03 cd 3b aa 1a 8f bd
       -0.07405109 -0.008776197 0.006256527 -0.06987508
000210 d7 8d 4f bd a5 1e 3f ba 0d da b7 3c 59 69 14 bd
       -0.05067238 -0.0007290638 0.022442842 -0.03623328
000220 1e 99 be 3c 5e 73 67 3d cb 0d 96 3c b5 af 44 3d
       0.023266371 0.056506507 0.018317124 0.04801913
000230 52 9d 54 3d ed 5e d5 3c a5 1e bf bc 26 47 c3 3c
       0.051907845 0.02604624 -0.023330042 0.023837637
000240 ea ba 7a 3c 8b 70 88 bc e7 f9 6d bd 41 95 9c bd
       0.015303353 -0.016655227 -0.058099654 -0.076456554
000250 25 94 a3 bc e0 0f bf 3b 19 3b 84 3d 7c 72 99 bd
       -0.019968102 0.00583075 0.064565845 -0.07492539
000260 1d 80 63 3d cc 8c 92 bd 8a 1c ba bc 18 87 34 3d
       0.0555421 -0.07155761 -0.022718687 0.044074148
000270 7c a8 4d 3c af ed 85 bd d3 2b 01 bd ef 40 8c 3c
       0.012552377 -0.06539475 -0.031535935 0.017120807
000280 21 39 17 bd 0f 7f 54 bc f4 d9 48 bd a4 4d 64 bd
       -0.036919717 -0.012969746 -0.04903598 -0.055738106
000290 ee 85 25 3b 68 c8 e9 bb 61 5b 91 bd fa 9a 01 3d
       0.002525683 -0.007134486 -0.07097507 0.031641938
0002a0 16 89 80 bd d5 74 1f bd 9a c0 23 3d c8 eb d7 bc
       -0.06276147 -0.03892978 0.0399786 -0.026357546
0002b0 af e6 32 bd 07 34 98 3d ca 95 3a bd e0 bf 62 3d
       -0.04367703 0.074317984 -0.045553006 0.055358768
0002c0 f3 63 1a bd 57 c8 d6 3c 13 fc 02 bd 8c 9a e6 3c
       -0.037692975 0.026218576 -0.031978678 0.028149866
0002d0 82 70 7a 3c dc 5f 9c 3d d9 94 47 bc 7a 62 df 3b
       0.015285613 0.07635471 -0.012181484 0.0068171592
0002e0 30 82 04 bd 19 46 5a 3d a6 01 96 3d bf bd 49 3d
       -0.03235072 0.053289507 0.07324533 0.04925322
0002f0 ff 11 3c 3d 98 c1 53 bd 99 f5 32 bd c4 21 84 3c
       0.0459156 -0.051698297 -0.04369125 0.016129382
000300 a2 cf 8f 3d e6 5b 64 3d 23 89 8d bd d9 d0 99 bd
       0.07022025 0.055751704 -0.069109224 -0.07510538
000310 ef 44 55 3c 06 d2 89 3d b0 12 0a 3c d9 99 7d 3c
       0.013016923 0.06729512 0.008427307 0.015478575
000320 92 4e a0 bd 8e a9 94 3d 3c 38 f8 bb b3 e5 28 3d
       -0.07827486 0.072589025 -0.007575063 0.041234683
000330 50 aa 9e 3d b8 2c d5 3b 67 b5 9c 3d ec bb 66 bd
       0.07747328 0.006505575 0.07651787 -0.05633156
000340 3a 77 95 bd df 79 94 3b a1 fc 72 bd 94 e2 06 bc
       -0.07298131 0.0045311297 -0.059322957 -0.008232731
000350 8c 01 11 bd d1 b0 f8 3c 56 86 7d bd d2 b7 7e bc
       -0.035401866 0.03035775 -0.06189569 -0.015546756
000360 fb 07 92 3d b3 65 69 3d 89 41 9e bd 17 0a 8f bd
       0.071304284 0.056981754 -0.077273436 -0.06984346
000370 9b 3b ef bc 44 95 0d 3d fe a0 17 3c 3a 59 92 bd
       -0.029203227 0.03456618 0.009254692 -0.07145925
000380 ab 9b 60 bc c7 6b 8c 3d 05 b5 9d bc 05 85 9c bd
       -0.013708989 0.068564944 -0.019251356 -0.07642559
000390 70 4c 2d bd 71 ab 8a bd f0 e6 b4 3c d1 f6 49 bd
       -0.042309225 -0.06770981 0.022082776 -0.049307648
0003a0 aa b3 64 bd ea 94 07 bc 01 ff f5 3c 1b bb 7c 3c
       -0.055835404 -0.00827525 0.030028822 0.015425469
0003b0 80 d6 27 3c e1 b1 63 bd ad 52 69 3c ad 48 83 3d
       0.010244012 -0.05558956 0.014240903 0.06410346
0003c0 7b 1f 0b bd 06 c7 6a 3d 89 41 8a 3d 68 9e ea 3c
       -0.03396557 0.05731871 0.06750781 0.028639987
0003d0 ee 43 55 bd fd f7 88 3c c4 ea 88 3d f4 c1 84 3d
       -0.052066736 0.016719813 0.06685403 0.06482306
0003e0 92 f7 0d bd 8a da e1 bc 09 4d 55 bd 6d d0 64 3c
       -0.03465993 -0.027570028 -0.05207542 0.013965708
0003f0 6b a4 c2 3c e0 ee 83 bd 1a 44 57 bb bf 56 2c bd
       0.023760041 -0.06442046 -0.0032846988 -0.042074915

fc.3.bias f4 [100]
000000 a1 3d f0 bc 25 cc 01 3d dd cc 87 bd 6b 34 1a 3b
       -0.029326262 0.031688828 -0.066308714 0.0023529779
000010 86 af 7a 3d 60 d4 50 3d 95 35 64 3d 4d b6 21 3c
       0.06120255 0.050983787 0.055715162 0.009870124
000020 60 51 24 bd 63 03 5d 3c 43 f0 4b 3d 07 11 93 3d
       -0.040116668 0.013489577 0.04978968 0.07180982
000030 c5 f7 3b 3d 7e 6d 54 3d b9 cc c9 3c 9d 9e 15 bd
       0.04589059 0.051862232 0.024633752 -0.03652822
000040 ed 42 ef bc d2 1c 8a bd 37 04 24 3d ee 27 1b 3d
       -0.029206717 -0.06743778 0.040043082 0.037879877
000050 2a b5 02 3d 3e 82 8c 3c 7c e5 95 3c f3 08 0d 3d
       0.031911053 0.017151948 0.018297903 0.034432363
000060 49 bd 13 bd 9a 9d a5 3c 02 be 59 bd 08 d9 94 bd
       -0.03606919 0.020216752 -0.05315972 -0.07267958
000070 e1 3b 4e bd 9c ea 24 bd 84 6d 27 3d 59 59 e3 bc
       -0.050350074 -0.040262803 0.040875927 -0.027752565
000080 20 44 ee 3c 66 26 82 3d 08 f5 99 3d a2 1d 2e bd
       0.029085219 0.0635498 0.07517439 -0.04250873
000090 57 5b ed bc 46 f2 94 3d d7 ca 0c 3c d3 94 81 bd
       -0.028974218 0.072727725 0.008593283 -0.06327214
0000a0 d1 0d d2 bc 3b da 72 3d 3c f5 e5 3c 1b da 70 3d
       -0.025641354 0.059290152 0.028071038 0.05880175
0000b0 c4 d5 d7 bc 45 0f 31 bb 16 de b3 3c 2d fd 83 3b
       -0.026347049 -0.0027017158 0.021956485 0.0040279836
0000c0 77 43 1a 3d 77 cd 1b 3d 61 40 8e bc 84 de 65 3c
       0.037661996 0.038037743 -0.017364683 0.014030103
0000d0 1d f4 8d bd 59 56 12 bd 54 91 9a bd 13 25 ea bc
       -0.069313265 -0.03572688 -0.075472504 -0.028582131
0000e0 5c 34 cf bc 99 22 85 bd 9a 24 ed bc 82 42 a1 bc
       -0.025293522 -0.065007396 -0.028948117 -0.019685034
0000f0 4e f9 95 3c 67 e3 7c 3d 21 05 3c bb 32 98 18 bd
       0.018307354 0.061740305 -0.002868958 -0.03725452
000100 f8 d7 2d 3d 46 40 51 bb dd c5 9e 3c 70 09 9d bd
       0.042442292 -0.003192918 0.019381458 -0.07667816
000110 3c 63 fd 3c a1 5c 69 3c 88 bf 83 3d c0 79 f7 bb
       0.030931108 0.014243276 0.06433016 -0.0075523555
000120 95 ec 57 bd 94 cc 31 bc ce 8f c5 bc 01 97 98 bd
       -0.052715857 -0.010851998 -0.024116423 -0.07450677
000130 f1 41 0d 3b f2 f0 83 3d 7a 49 0f bd 68 f7 e3 bc
       0.0021554197 0.06442441 -0.034982182 -0.027827933
000140 ae 99 4a 3d 6a 1c 9f bd 87 49 90 3d 17 23 02 bd
       0.049462967 -0.077690914 0.07045274 -0.031771746
000150 1f 53 7f 3d 8d e9 87 3d 9f cb a0 bd 8c d4 15 3d
       0.06233513 0.06636343 -0.07851338 0.036579654
000160 53 97 91 bc 0b 41 80 3d 0a 46 09 3d c3 36 33 3d
       -0.017772352 0.06262406 0.03351406 0.043753397
000170 8c 09 10 3d 81 35 42 3c f0 7d 96 3d e6 88 1c bd
       0.035165355 0.011853577 0.073482394 -0.038216494
000180 c9 96 1e 3c 62 66 8e bd 9f b6 73 3c 6b e5 a0 3d
       0.009679505 -0.06953122 0.014875083 0.07856258

fc.6.weight f4 [100, 100]
000000 c8 f7 6c 3d f9 fe 7c bd 81 5e 9b 3c f7 8d 74 3d
       0.05785349 -0.0617666 0.018965961 0.0597057
000010 4a 4f 10 bd d1 31 6f bd af 3b 89 3d 61 90 92 3c
       -0.035231866 -0.058397118 0.06700837 0.01789111
000020 a5 a7 90 3d 7e 6a c4 bd 00 53 93 3d 4f 0d 94 3c
       0.07063226 -0.09590624 0.07193565 0.018072752
000030 0c 13 b4 bd 24 cb 3e 3c 35 0c 32 3d f3 5b 9e 3d
       -0.087926954 0.011645112 0.043468673 0.07732382
000040 9e c3 a4 3d ae 5e 84 bc 17 25 78 3d 7c 91 71 bc
       0.080451235 -0.016158428 0.060582247 -0.014744159
000050 0e d7 72 bd ca e6 ba bd c1 97 a5 3d ea ee 79 3d
       -0.059287123 -0.09126051 0.080855854 0.06101886
000060 99 4f 2d 3d e1 2d a0 3d b2 3a 53 3d fe d2 34 bc
       0.04231224 0.07821251 0.051569648 -0.011036633
000070 4c 43 c8 3b c4 a8 89 3c 69 0f 6b bd 74 0f ca bd
       0.006111538 0.016804107 -0.057387743 -0.09866229
000080 88 cb 8b bd 0c f0 3e 3d 31 9b 18 3d c7 65 02 3c
       -0.0682593 0.046615645 0.037257377 0.007958836
000090 fa 4d 91 bc 80 7b b4 bd 62 7d db bb 89 60 71 bd
       -0.017737377 -0.08812618 -0.0066982964 -0.058929954
0000a0 80 37 f9 3a 7e 09 b0 3d 2c 89 c1 3c 56 80 98 3d
       0.0019013733 0.085955605 0.023624979 0.07446353
0000b0 90 50 59 bd 3e 0f 04 bd 78 3e 18 3d af cf b2 3d
       -0.053055346 -0.0322411 0.03716895 0.08731019
0000c0 3a 3a 2e 3d 6d cf 90 3d f8 ff 04 bd 25 2f 50 bd
       0.042535998 0.07070813 -0.032470673 -0.05082621
0000d0 83 ca 9b 3d 14 4d 8b 3d c1 65 3f bd 9b 4d c7 3d
       0.076069854 0.06801811 -0.0467279 0.09731599
0000e0 95 51 26 3d 2f 2c 92 3c dd 9a cb bd cf c3 b9 3d
       0.040605146 0.017843334 -0.09941647 0.09070551
0000f0 15 ff ec 3c 26 8e fa bc 51 06 98 bd aa f8 74 3c
       0.028930226 -0.03058536 -0.0742308 0.014951864
000100 3c 5e af bd ed 17 a9 3d e3 47 dc bc 3e 82 21 3d
       -0.08562896 0.082565166 -0.026889747 0.03943085
000110 c8 3d c5 3d 1c b2 54 bc 9f cc 27 bb 26 7b e7 3c
       0.096309245 -0.012981918 -0.0025604141 0.028256964
000120 62 68 75 3d c6 00 c0 bd cb 59 a6 bd 83 91 cb bd
       0.059914 -0.093751475 -0.081225954 -0.099398635
000130 d4 2b ab 3c e9 a8 86 bd 87 1c c7 bd 89 66 41 3c
       0.020894922 -0.06575186 -0.09722238 0.011804231
000140 4d 46 8a bd ee aa b5 bc 6d ad 09 bc 7b 7c 2f bd
       -0.0675169 -0.022176232 -0.008403164 -0.042843323
000150 6a 0b 8e 3c 93 4c 3e 3d ea be e1 3c 70 46 ac bd
       0.017339427 0.046459746 0.027556855 -0.084118724
000160 0d 92 a2 bd 32 4d 9b bd 4c e4 39 bd b4 be 8f bd
       -0.07938013 -0.07583083 -0.045383736 -0.070187956
000170 92 61 cf bb 46 bb 0d bb ac 01 4a 3d 09 ab e1 bc
       -0.00632877 -0.0021626516 0.049318 -0.027547376
000180 ee ef 34 3d d7 a5 af bd dc c5 d1 bc c7 6f 52 bd
       0.044174127 -0.08576553 -0.025607042 -0.05137613
000190 9f 51 bb bd d3 c1 03 bd 3e 01 42 3d fc cd 9a bd
       -0.09146427 -0.032167267 0.047364466 -0.0755882
0001a0 14 07 e5 bb f9 da 0b 3c bb 6f 8e bd 1c 26 b7 3c
       -0.006989369 0.008536094 -0.06954905 0.02235704
0001b0 a6 85 8e bd c4 d5 af bd cf d8 c7 3d ea 15 9e bd
       -0.06959085 -0.085856944 0.0975815 -0.077190235
0001c0 a8 6a b6 3c 7c 91 1d ba 49 d8 8f bd ba ff 5e 3d
       0.022267655 -0.00060107536 -0.07023675 0.0544431
0001d0 a7 7a 4f 3d c7 6b 19 bd 96 24 86 3d 8f af 96 3c
       0.05065408 -0.0374563 0.06549947 0.01839426
0001e0 47 af bf bd bd c8 9d 3d 1c ec 9c bd 1a 30 64 3d
       -0.093596034 0.077043034 -0.07662222 0.055709936
0001f0 d1 3a 14 bc b5 63 d3 3b e5 64 48 3a 59 11 6b 3d
       -0.009047226 0.006451095 0.0007644429 0.05738959
000200 e1 7f 3a 3d 59 88 78 bb ad 7d ee bc 78 6a a5 3c
       0.04553211 -0.0037923066 -0.029112661 0.02019237
000210 55 8b c4 3d df 41 81 3d 41 4e 09 3d 73 ba 98 bd
       0.09596888 0.06311392 0.033521894 -0.07457437
000220 b1 2f 8f bd 75 c1 b3 3d f0 05 8e 3d 0e 65 be bd
       -0.06991518 0.087771334 0.06934726 -0.092966184
000230 25 33 35 bd 37 f9 98 bc 42 49 a7 3d 5d f5 e0 bc
       -0.04423823 -0.018673522 0.0816827 -0.027460748
000240 b5 e5 c5 bc 8f 85 1d bd c2 6d b0 3d 95 87 a5 3c
       -0.024157384 -0.03845745 0.08614685 0.020206252
000250 7e 3f 8c bd 0f f5 a2 bd a9 e6 c0 bd 32 ec 9b bc
       -0.06848048 -0.079568975 -0.09418995 -0.019033525
000260 7a 62 b0 bd 9f 10 ca 3d 92 43 19 bd 0c 1a ee bc
       -0.08612533 0.098664515 -0.037417956 -0.029065154
000270 a8 88 91 3b 41 14 4e bd 0e b1 96 bc f7 f5 47 bd
       0.0044413395 -0.050312284 -0.018394973 -0.048818555
000280 c4 d3 4c bc 89 a3 7f bd 37 f1 b0 3d 1c ea c9 3d
       -0.012501661 -0.06241182 0.08639758 0.09859106
000290 4b f2 51 3d a4 bd fa bc 79 63 b4 3d c9 95 82 bd
       0.05125646 -0.030608006 0.088080354 -0.063762255
0002a0 29 a7 9e bd c6 94 6f b9 5a c5 cb bc 81 11 2e 3d
       -0.07746727 -0.00022848239 -0.024874378 0.04249716
0002b0 46 af ae 3d 99 4a 44 bc 6b 96 88 bd 4c 2f 61 3d
       0.085295245 -0.011980676 -0.06669315 0.054976746
0002c0 c2 a1 2b 3d e2 d2 b6 3d 38 3b 9e 3c 6a 61 9c 3d
       0.04190231 0.089269415 0.019315347 0.07635768
0002d0 09 4a 13 bd 35 cb 8e 3d d4 ce ab 3d 6a dc 60 bd
       -0.035959277 0.069723524 0.08389059 -0.054897703
0002e0 95 16 95 bd 59 e2 5c 3d fc 68 63 3d 04 e2 d4 3c
       -0.07279698 0.0539268 0.055520043 0.025986679
0002f0 90 bc ad 3d c9 48 90 bd e2 94 5c 3c 41 18 a7 3d
       0.08483231 -0.07045133 0.013463231 0.08158923
000300 95 62 10 3d cb cc c8 3d c1 b0 81 bd 27 e4 a6 3d
       0.035250265 0.09804686 -0.06332541 0.08148985
000310 5c 65 49 bd c1 6b b8 3d 4a 19 7d bd 15 ea 1a bd
       -0.04916893 0.090049274 -0.061791696 -0.037820894
000320 51 ac a5 3d 76 9d 4c bc c3 6d 28 3d 44 aa a1 3d
       0.08089507 -0.0124887135 0.041120302 0.07893804
000330 57 20 93 3d 7f df c6 3d 8f 41 ab 3d ae 96 9a 3d
       0.07183903 0.09710597 0.08362114 0.07548271
000340 a8 be c7 3d 91 43 70 bd 68 4d 96 bc 1e 4d 8c bd
       0.09753162 -0.058658186 -0.018347457 -0.068506464
000350 54 60 96 3d e5 83 b5 3d 4b 87 b5 bd e7 c5 80 bd
       0.07342592 0.088630475 -0.08863696 -0.06287747
000360 33 73 87 3d a7 8f 1c bd e7 a0 ae 3d a6 e0 89 3d
       0.066137694 -0.038222935 0.085267834 0.067323014
000370 24 dc 28 bd cf c9 ca 3d 72 24 aa 3d 5b 01 ac 3d
       -0.041225567 0.09901773 0.08307733 0.08398696
000380 0a 6e 63 bd ff 8f 8e bc 77 e5 b5 bc a9 a2 3d 3d
       -0.055524863 -0.017402647 -0.022204144 0.046297703
000390 01 5c 5d 3b e7 ba 43 3c 92 e4 72 bc 03 b5 91 bd
       0.0033776762 0.011946416 -0.014825003 -0.07114603
0003a0 e3 69 02 3d a4 83 a5 3d 27 7d dd 3c 6a d3 b1 3d
       0.031839263 0.08081749 0.027037216 0.08682902
0003b0 67 05 a5 bd f9 94 ba 3d 15 f8 19 bd 31 23 45 bd
       -0.08057671 0.091104455 -0.037590105 -0.048129264
0003c0 7f 67 51 bd 1e d5 99 3d f2 ab 8c 3b 45 9c eb 3b
       -0.051124092 0.07511352 0.0042929584 0.0071902596
0003d0 42 f0 33 bd 24 0e a4 bd 35 3d 60 bd 3d 5d 88 bc
       -0.0439303 -0.080105096 -0.05474587 -0.016646022
0003e0 7a e0 97 bd b9 fa b8 bd a1 ed 3e 3d a4 55 bd 3d
       -0.074158624 -0.090321966 0.04661334 0.0924485
0003f0 b9 bf ba 3d 10 a5 91 bd 1a b7 96 3b 7d 5e 3c bd
       0.091185994 -0.07111561 0.004599464 -0.04598855

fc.6.bias f4 [100]
000000 5f 24 30 3d fc 06 47 bc a0 cb 8c bd 56 a1 92 bd
       0.043003436 -0.012147661 -0.06874776 -0.07159679
000010 cc 3e 8b bd 85 ef 77 bd e8 3c c3 bb 0a 50 99 bc
       -0.06799087 -0.060531158 -0.0059581883 -0.018714923
000020 7a 9b a9 bd ce 02 8c 3d e7 ab d6 3c 9e 39 cc 3d
       -0.08281608 0.068364725 0.026205016 0.09971927
000030 07 29 ff bc 5f ff b1 3c b6 6b 6d 3d b7 d4 b0 3d
       -0.031147493 0.021728216 0.05796405 0.08634322
000040 a5 24 c6 bd 5f 04 ae bd 79 ab 60 bd 1b 01 e0 bb
       -0.09674958 -0.084969275 -0.05485103 -0.0068360693
000050 f2 70 aa 3d 5f 2c 41 3d 7a 9e bf bc 26 fd 6c bc
       0.08322324 0.047161456 -0.023390997 -0.014464652
000060 c0 a1 6c bd ce b9 86 3d 6d c9 cb bc fb 3e cc 3d
       -0.057771444 0.06578408 -0.02487632 0.0997295
000070 5e 05 81 3d 9b f8 c6 bd 3b 5c 92 3c a2 f7 80 3d
       0.06299852 -0.097153865 0.017866245 0.06297232
000080 76 ed 6f bd 5d 8b 70 3d c4 3a 83 bd 93 43 11 3d
       -0.05857607 0.058726657 -0.06407693 0.035464834
000090 1d f2 81 3d 9b 99 34 3d 6b 2d bd bb 87 5d 5e bd
       0.063450076 0.044091802 -0.0057732365 -0.054288413
0000a0 4d a6 a8 3d 94 bc 47 bc 98 ba 85 3d b0 80 c5 3d
       0.08234844 -0.012190957 0.065297306 0.09643686
0000b0 c8 7f dc 3b 44 6f 8e 3d cf 8f 0f bd 9d 28 81 3d
       0.0067291 0.06954816 -0.035049256 0.063065745
0000c0 c7 2d 52 bd 39 6f 97 3d 8d 24 bb 3d f4 f6 27 bd
       -0.051313188 0.07394261 0.09137831 -0.041006997
0000d0 6b e2 c6 bd b5 89 05 bd 3b 92 ae 3d 2e 56 95 3d
       -0.097111546 -0.03260203 0.08523985 0.07291828
0000e0 bc 8a e9 3a 36 47 29 3d d0 e9 4e 3c b8 2b 67 3d
       0.0017817835 0.041327678 0.012628987 0.056438178
0000f0 7c 94 6b bc a3 e3 50 3c 50 2d 2e 3d 9d e5 72 bd
       -0.014378663 0.012749585 0.042523682 -0.059301008
000100 91 26 49 bd b2 08 c7 bd a9 04 4b 3a 65 a4 28 3c
       -0.049109045 -0.097184554 0.000774453 0.010293101
000110 a7 46 2b 3d 32 e0 c9 bc de 7c c8 bd 48 74 a5 bd
       0.041815426 -0.024643037 -0.097894415 -0.080788195
000120 ee 8d 61 3d 97 86 83 3c 16 a4 0a bc fb 56 b1 bd
       0.055066995 0.016055388 -0.008461973 -0.08659168
000130 6c c5 a4 3d b0 8b 43 3d cc 5e 2d 3d ff 55 f1 bc
       0.08045468 0.04774064 0.042326733 -0.029459951
000140 7c e3 d9 bc 75 07 39 3c 76 ca 44 3d 80 61 29 bc
       -0.02659773 0.011293282 0.048044644 -0.010338187
000150 47 9d a3 bd 31 12 3e bd cc 89 15 bd c3 41 b5 bd
       -0.07988983 -0.046404067 -0.036508366 -0.08850434
000160 d4 a3 8f bc 4f 1a 48 bd da 43 c1 3d 94 75 b1 3d
       -0.017534174 -0.048853215 0.0943677 0.086650044
000170 2b 87 40 3d 43 92 6f bd 59 7a ec bc 9d 17 6c 3d
       0.047003906 -0.058489095 -0.028866934 0.057639707
000180 d3 de 06 bc d3 7c fc 3b b2 34 07 3d 06 6b 07 3d
       -0.008231836 0.00770531 0.03300924 0.03306105

fc.9.weight f4 [2, 100]
000000 f5 95 af ba 32 23 43 3d b1 41 8b 3d c2 0e 04 3d
       -0.0013396131 0.047640987 0.06799639 0.032240637
000010 0e d1 c7 bd eb 46 18 bd 88 bc 68 bd 71 32 8d 3d
       -0.09756671 -0.037177008 -0.056820422 0.068943866
000020 5e e7 bc bd c8 3c af 3d 3c e6 5e bd a8 f5 a4 bd
       -0.09223817 0.08556515 -0.054418787 -0.08054668
000030 73 a7 88 bd 3a 97 96 bd c6 54 34 3d 0d 6a 0a bd
       -0.066725634 -0.07353063 0.04402616 -0.033792544
000040 f1 3c 8f bd ac ce 4d b9 5b 2b 4e 3d 93 1d f9 bc
       -0.069940455 -0.00019627315 0.050334316 -0.03040961
000050 c6 c0 97 bd c7 c7 bc 3d 11 fb 0a 3d d0 d1 48 bc
       -0.074098155 0.09217792 0.03393084 -0.012257054
000060 98 a2 49 3c 61 4e a1 3c 4d 2a fe 3c bb f0 bb bd
       0.012306832 0.019690694 0.03102603 -0.09176775
000070 4e 68 aa 3d 3a f6 5e 3d 48 49 92 bd 7a 43 06 3d
       0.08320676 0.05443404 -0.071428835 0.032779194
000080 4d 68 6f bd be 6e 39 bd 87 d0 47 3d f8 04 37 3c
       -0.05844908 -0.045271628 0.04878285 0.011170618
000090 62 31 54 3d ae 51 d6 3c 72 ff 33 bd c2 4d 6c bd
       0.051804908 0.026161995 -0.043944784 -0.057691343
0000a0 62 bf d1 bd 08 bc b9 bc 11 ad c8 3d bb 04 ab bd
       -0.102415815 -0.022672668 0.09798635 -0.08350512
0000b0 33 77 93 3d 13 85 4b 3d a2 10 a5 bd a4 c4 49 bd
       0.0720047 0.049687456 -0.08059813 -0.049259797
0000c0 66 06 b7 3d 96 e7 9c bd 93 ae d4 3c b6 e4 ae 3d
       0.08936767 -0.07661359 0.02596215 0.08539717
0000d0 69 ac 28 bd bd f3 89 3c 61 49 93 3d 9f fe 8c 3d
       -0.04118005 0.016839856 0.0719173 0.068845026
0000e0 ab 00 b7 3d e3 b9 26 3d e4 21 57 bd ba 6b 63 bd
       0.08935674 0.04070462 -0.052522555 -0.055522658
0000f0 fb ad 6f 3d c9 85 85 3d a0 89 ab 3d 88 c6 c9 3d
       0.05851553 0.06519658 0.08375859 0.0985232
000100 b7 9e 89 3b 65 4c 39 bd 11 dd a1 3d bb 38 0e 3d
       0.0041998285 -0.04523887 0.07903493 0.03472207
000110 97 b7 b1 bd 85 d4 b5 bc 43 23 4f 3d 59 9d 83 bd
       -0.08677595 -0.022196064 0.050570738 -0.06426496
000120 62 12 d4 bc 47 d3 00 bc a9 60 95 bd cd ee 57 3d
       -0.025887672 -0.007862872 -0.07293827 0.052717973
000130 c9 d6 c1 bd 1a 92 a6 3c 23 7f af 3d 07 48 a6 3b
       -0.09464795 0.020333339 0.08569171 0.0050745043
000140 01 e5 69 bd d5 89 4b bd e1 3a 06 3c a8 a9 3d bd
       -0.05710316 -0.049691994 0.008192749 -0.046304375
000150 f2 80 4a 3c 73 8f 9d bb 9c 98 9c bd 13 b0 88 3c
       0.0123598445 -0.0048083602 -0.076462954 0.016685521
000160 9d dc 09 bd d0 21 98 bc b5 f8 39 bd 56 a6 ba bd
       -0.03365766 -0.01857081 -0.0454032 -0.09113757
000170 f1 f6 8e bc 6e a3 b2 3b 92 1d 98 bc b0 08 6d bd
       -0.017451735 0.0054516112 -0.018568788 -0.057869613
000180 7e b7 92 3c 7b 0f 44 bd 2f 75 a9 3d f5 87 5a bd
       0.017909762 -0.047866326 0.08274304 -0.053352315
000190 c6 e2 2f bd 8b 87 89 bd b1 39 16 3d 08 ec 8e 3d
       -0.042940877 -0.06715306 0.036676113 0.06978613
0001a0 59 2a 87 bd 67 2b 95 ba 42 9c fb bc f8 3e 49 bc
       -0.06599874 -0.0011380733 -0.030714158 -0.012283079
0001b0 e7 32 ab bd 8c 8c c3 3d ec 7a aa bd 52 2a 78 bd
       -0.08359318 0.095482916 -0.08324227 -0.060587235
0001c0 41 93 82 bd 2c 57 03 bc 25 ae b9 bd 4b d7 c9 3b
       -0.06375743 -0.008016389 -0.090664186 0.006159698
0001d0 ab 6e df 3c 62 49 3e 3d 85 79 0d bd f3 7f b4 bd
       0.02727445 0.046456702 -0.03453972 -0.08813467
0001e0 a4 4a 79 3c d4 ae 52 bd b9 0a b1 bd 05 54 06 bd
       0.01521555 -0.05143626 -0.08644623 -0.03279497
0001f0 c7 dd e1 3b 46 54 38 3d 79 4d 32 bd 0a 0d 9e 3d
       0.006892893 0.045002244 -0.043530915 0.07717331
000200 79 5f 74 3d 0c a4 a4 bd 3a 38 b5 3d ba 0c 4c 3d
       0.059661362 -0.08039102 0.08848615 0.049816824
000210 12 b2 c6 bd c7 ff c3 bc 96 5e ab 3d d8 bb 0c 3d
       -0.09701933 -0.023925675 0.0836765 0.03435883
000220 cb 86 41 3d 18 c0 f2 bc e3 18 2b 3d f3 b0 bb 3d
       0.04724769 -0.029632613 0.04177178 0.0916461
000230 86 7f f0 bc f8 6a 8b bc ce 5c ca 3d 45 0c a8 3d
       -0.029357683 -0.01701878 0.09880982 0.08205465
000240 07 0c 88 bd 3a 29 ea 3c b3 89 d9 bc 9a ba cb 3d
       -0.06642919 0.028584111 -0.026554918 0.09947701
000250 5a be 83 3d 40 68 87 3d 77 b8 56 3a d6 cf 93 3c
       0.06432791 0.06611681 0.00081909396 0.01804344
000260 de ec 01 bd 83 5d 86 3d a7 2d 9f bc 93 f7 86 bd
       -0.031720035 0.06560805 -0.019430948 -0.0659019
000270 c5 98 b1 bd 14 f5 b4 3d bc 69 bc 3c 65 6b 17 3d
       -0.086717166 0.088358074 0.022999637 0.036967654
000280 f1 14 75 3d 4b 06 9d 3d 10 a9 26 3d b4 36 a6 3d
       0.059834424 0.07667216 0.040688574 0.081159025
000290 8d 67 bb bd d1 be 98 bc f1 d8 a6 3d ea 42 37 3b
       -0.0915061 -0.018645676 0.08146847 0.0027963468
0002a0 30 08 d8 3c 4c 7e 4f bd f1 1c 2b bd 16 8b 45 3c
       0.026371092 -0.050657555 -0.041775648 0.012057086
0002b0 e5 40 0a bd fc c3 a5 3d f6 ab 9e bd 67 49 65 3d
       -0.033753294 0.08094022 -0.07747643 0.055978205
0002c0 17 92 ba bd eb 47 9b 3d 3e ae d6 bc a7 e8 5a bd
       -0.09109896 0.07582077 -0.026206132 -0.05344453
0002d0 0c e5 34 bd fe 55 2e 3d ea a9 e7 3c f2 e1 5f 3b
       -0.04416375 0.042562477 0.028279264 0.0034161774
0002e0 ae 73 44 bd c9 35 0d 3d 3a ac c9 3d 61 67 a7 bd
       -0.047961883 0.03447512 0.09847303 -0.08174015
0002f0 28 fa 84 3d bf f3 c8 3b 8b e6 85 3d a4 b3 a8 3d
       0.06493026 0.0061325724 0.06538113 0.08237389
000300 07 ae 28 3d 88 ee bc bc c4 e9 60 bd 3f f3 e0 bc
       0.04118159 -0.02306296 -0.054910436 -0.027459739
000310 4b f5 0b 3d df 46 a4 bd 3d 04 10 bd 64 60 3b 3d
       0.034169476 -0.0802133 -0.035160292 0.045746222

fc.9.bias f4 [2]
000000 30 4a 71 bb a4 32 97 3d
       -0.00368179 0.07382706
