Algorithms/shawn/loss/exp/fc_3.batch.pth (torch_old, 211606 bytes, 6 tensors)

fc.0.weight f4 [160, 226]
0	0x3d7040a7	0.058655407
1	0xbd8443d2	-0.06458248
2	0xbd35dc7e	-0.04439973
3	0xbc17d1f1	-0.0092663625
4	0x3c5a53cb	0.013325642
5	0x3d534d19	0.051587198
6	0x3c08b5aa	0.008344093
7	0x3b2f68fb	0.0026765454
8	0x3c02c27a	0.007980937
9	0xbc899e21	-0.016799035
10	0xbb95e0f9	-0.004573938
11	0xbd6cbbb1	-0.057796184
12	0xba1acdda	-0.0005905308
13	0x3d2f1e8c	0.04275374
14	0xbd36e47e	-0.0446515
15	0xbcdbb721	-0.026820721
16	0x3d154a82	0.03644801
17	0xbd40288a	-0.04691366
18	0x3c66ac6b	0.014079194
19	0xbd416b07	-0.04722121
20	0x3c8c7612	0.017146144
21	0xbadca912	-0.0016835055
22	0x3d84e0a9	0.06488163
23	0x3c948440	0.018129468
24	0xbc316e21	-0.010829479
25	0x3d302389	0.04300264
26	0x3d490dfa	0.049085595
27	0xbce25a8e	-0.02763107
28	0x3cac4238	0.02102767
29	0x3ccb36b3	0.024806356
30	0xbc15122f	-0.009098574
31	0xbd1260cd	-0.035736848
32	0x3a1480c8	0.0005664942
33	0xbd3f3cc5	-0.046688814
34	0x3c3d75ef	0.011563762
35	0xbc9bd818	-0.01902394
36	0xbccdf5d3	-0.025141632
37	0x3c1978a9	0.0093671465
38	0x3b873479	0.0041261283
39	0xbd4d983b	-0.050194006
40	0xbbba4936	-0.005684997
41	0x3d812044	0.06304982
42	0x3d271272	0.040789075
43	0xbd0cd61d	-0.03438388
44	0xbcb5e5d1	-0.022204312
45	0x3c956d9a	0.018240739
46	0xbd7a9c35	-0.061184127
47	0xbd61aa94	-0.055094317
48	0xbd4140c0	-0.04718089
49	0xbcd14aba	-0.025548328
50	0x3d39e6dc	0.04538618
51	0xbce434c4	-0.027857192
52	0x3d1a57ef	0.037681516
53	0xbd6ec97c	-0.05829762
54	0xbcf6cf6e	-0.030128207
55	0x3d69de9c	0.057097062
56	0x3cb86ff6	0.022514325
57	0x3d294e8b	0.04133467
58	0x3cf9c223	0.03048808
59	0xbd6b3f28	-0.057433277
60	0xbcf8b138	-0.030357942
61	0xbc188447	-0.009308881
62	0x3d4b1f96	0.04959067
63	0xbd285123	-0.041093003
64	0x3d102087	0.03518727
65	0x3d2bf3ec	0.04198067
66	0x3d849fdb	0.064758025
67	0x3c87dd5e	0.016585048
68	0x3d30ca0f	0.043161448
69	0x3cddf204	0.027092941
70	0x3d311989	0.043237243
71	0x3d6e8f04	0.05824186
72	0x3cf739cd	0.030178929
73	0x3d5667dd	0.052345145
74	0xbce703d1	-0.028200062
75	0xbc7dd4a8	-0.015492596
76	0x3cb47a42	0.022030953
77	0xbd36b546	-0.04460647
78	0x3d5dc61b	0.054144006
79	0xbd6af73f	-0.0573647
80	0x3d444249	0.047914777
81	0xbd83ec12	-0.06441511
82	0xbcf98424	-0.030458517
83	0x3d4a2369	0.049350176
84	0x3d292a7d	0.041300286
85	0x3c99b795	0.018764297
86	0xbd35dd27	-0.04440036
87	0xbb1f1307	-0.0024272816
88	0xbc033839	-0.00800901
89	0xbd82368e	-0.06358062
90	0xbd645a46	-0.055750154
91	0x3bb00a55	0.0053723254
92	0x3d23c2be	0.039980642
93	0x3d84b33a	0.06479497
94	0xbcffdd61	-0.031233491
95	0xbc50c0fe	-0.012741325
96	0xbd0707cf	-0.03296643
97	0xbc9f3cb9	-0.019438135
98	0x3d37f9ba	0.044915892
99	0xbc962f11	-0.01833299
100	0x3c87edd1	0.016592892
101	0x3d2b1a42	0.04177309
102	0xbc3095dd	-0.010777918
103	0xbd10416d	-0.035218645
104	0xbd261d9d	-0.040555585
105	0x3c7c8a35	0.0154138105
106	0xbce402f6	-0.027833443
107	0xbd440f52	-0.047866173
108	0x3c5f1732	0.01361637
109	0xbc89e178	-0.016831145
110	0x3d76b672	0.060232587
111	0x3d01f76a	0.031730093
112	0x3d6ac743	0.057318937
113	0xbd664db2	-0.05622644
114	0xbc3c097e	-0.0114768725
115	0x3c3469c3	0.011011544
116	0xbd158401	-0.03650284
117	0xbcacdfbe	-0.021102782
118	0x3cde97eb	0.02717205
119	0xbc00e9af	-0.0078682145
120	0xbd4d0b77	-0.05005976
121	0x3c5b998f	0.01340331
122	0xbd6a6e76	-0.05723425
123	0xbcb28271	-0.021790715
124	0x3a7208bb	0.00092328683
125	0x3d58c074	0.052917913
126	0xbcc8586b	-0.024456223
127	0x3c866c96	0.0164092
128	0x3d41015d	0.04712044
129	0xbb8b6756	-0.004254262
130	0x3d5c8cd8	0.053845257
131	0x3bd6e9f0	0.0065586492
132	0xbd0424f8	-0.03226182
133	0x3d08c938	0.033395022
134	0xbc8904bb	-0.016725888
135	0x3d2dbe02	0.042417534
136	0x3c4f36e8	0.012647368
137	0xba549ca3	-0.0008110499
138	0x3c68f842	0.0142193455
139	0xbd246736	-0.040137492
140	0xbc5684df	-0.013093202
141	0x3cbf7c2a	0.023374636
142	0xbcc53512	-0.024073157
143	0x3bb389e8	0.005479086
144	0xbc1453c0	-0.009053171
145	0xbc9443d0	-0.018098742
146	0x3d08af49	0.03337029
147	0x3b72a23a	0.0037022964
148	0x3d6285e4	0.05530347
149	0x3c09ee81	0.00841868
150	0x3d332b50	0.043742478
151	0x3d072f84	0.0330043
152	0xbd40a90c	-0.047036216
153	0xbd296d62	-0.04136408
154	0xbd2b84b2	-0.041874595
155	0x3cb9ad03	0.022665506
156	0x3d2b2d1d	0.04179107
157	0xbd73b930	-0.05950278
158	0x3cd5f71c	0.026118807
159	0xbcfa7674	-0.030574061
160	0x3d681ec6	0.056669973
161	0x3a0f89bd	0.00054755417
162	0xbc935261	-0.017983617
163	0xbd7a53d9	-0.06111512
164	0x3c77a062	0.015113922
165	0xbd3cd453	-0.046100926
166	0x3d865221	0.065586336
167	0xbbab2e31	-0.0052240123
168	0xbc597292	-0.013271945
169	0x3d5f4589	0.054509673
170	0xbc0775ef	-0.008267864
171	0x3aa2e8d8	0.0012429012
172	0x3d6f4b3c	0.05842136
173	0x3a89afcf	0.0010504666
174	0x3ce54d1f	0.027990876
175	0xb9a31e20	-0.00031112228
176	0xbcc8d8a1	-0.02451736
177	0x3c9284e8	0.01788564
178	0xbd65ffca	-0.056152143
179	0x3c65076c	0.01397882
180	0xbd189b8a	-0.03725771
181	0xbce25de4	-0.027632661
182	0x3b1e0790	0.0024113394
183	0xbd760c77	-0.06007048
184	0x3c4967e6	0.012292838
185	0x3d82cf2c	0.06387171
186	0xbd73b941	-0.059502844
187	0x3d68aacb	0.056803506
188	0x3d3067cd	0.043067742
189	0x3d8380b7	0.06421035
190	0xbd49350b	-0.04912285
191	0x3bdaf913	0.006682524
192	0xbcc57dbe	-0.02410781
193	0xbc405059	-0.011737906
194	0xbcdad490	-0.026712686
195	0xbd351518	-0.04420957
196	0x3d88100c	0.06643686
197	0x3b9d22af	0.0047953944
198	0xbd15702b	-0.036483925
199	0x3a670dbb	0.00088139967
200	0xbce314cd	-0.02771988
201	0x3d8737d0	0.06602442
202	0xbd3dcd50	-0.04633838
203	0x3d25346a	0.04033319
204	0x3d292425	0.041294236
205	0xbd02e993	-0.031961035
206	0xbcf311bd	-0.029671544
207	0xbc066280	-0.008202195
208	0xbc01b5c9	-0.007916876
209	0x3d5b33e1	0.053516272
210	0xbb8fe4e9	-0.004391302
211	0x3cb39e49	0.021926062
212	0xbd734606	-0.05939295
213	0xbd2f33c5	-0.04277398
214	0x3ccc6c50	0.024953991
215	0xbccd0f02	-0.02503157
216	0x389500b2	7.105003e-05
217	0x3a02ba1e	0.000498684
218	0x3cd70620	0.026248038
219	0x3d06a27a	0.032869793
220	0x3d1f7286	0.038927577
221	0xbd34aaad	-0.04410808
222	0x3d5945d3	0.053045105
223	0xbd6c178f	-0.057639655
224	0x3d6f8759	0.058478687
225	0x3d621098	0.055191606
226	0xbc09739c	-0.00838938
227	0xbce74800	-0.028232574
228	0x3d7a8f00	0.06117153
229	0x3c9365df	0.017992912
230	0xbb525965	-0.003209674
231	0xbce6181f	-0.028087674
232	0xbd346f4a	-0.044051446
233	0xbcc9539f	-0.024576006
234	0xbd4a906a	-0.04945413
235	0x3d07cdde	0.033155315
236	0xbd5ea05f	-0.05435216
237	0xbd4bf527	-0.049794342
238	0xbd6131c8	-0.054979116
239	0xbb9909ca	-0.0046703564
240	0x3cf39038	0.029731855
241	0x3b2f1b4f	0.0026719158
242	0x3cccfda5	0.02502329
243	0x3c8caf3d	0.017173404
244	0xbcd33bf2	-0.02578542
245	0xbc3f5776	-0.011678567
246	0x3d1f0c01	0.038829807
247	0x3d496a9f	0.049173947
248	0x3c9cc966	0.019139003
249	0x3d196b28	0.037455708
250	0x3c2f45d9	0.010697805
251	0xbcf14126	-0.02945001
252	0xbd336486	-0.04379704
253	0x3d7fa438	0.06241247
254	0x3d54e710	0.05197817
255	0xbd132b90	-0.035930216

fc.0.bias f4 [160]
0	0x3d734bf1	0.059398595
1	0x3ca2cb01	0.01987219
2	0xbd768416	-0.06018456
3	0x3c83fab3	0.016110754
4	0xbb263059	-0.0025358407
5	0x3d8191e4	0.063266546
6	0x3d39ddc9	0.045377526
7	0xbd247ca7	-0.04015794
8	0xbd54a076	-0.05191084
9	0xbc607544	-0.013699833
10	0x3d7d24f7	0.06180283
11	0x3cac1dd5	0.021010319
12	0xbd543168	-0.05180493
13	0xbcbdf6a7	-0.023188902
14	0xbcacb7aa	-0.021083672
15	0x3b105eba	0.0022029118
16	0xbd0b44e0	-0.03400123
17	0x3d2be1f8	0.041963547
18	0xbd3a1ece	-0.045439534
19	0x3d396602	0.045263298
20	0xbcc1575c	-0.023601227
21	0x3c0173a1	0.007901103
22	0x39f50771	0.00046735586
23	0x3c8ca76d	0.017169679
24	0x3d2eb40b	0.04265217
25	0xbc1219b0	-0.008917257
26	0xbb8753cc	-0.0041298624
27	0x3c016bd8	0.007899247
28	0x3c15df01	0.009147407
29	0x3d78d193	0.06074674
30	0xbc401181	-0.011722923
31	0xbcf0cf31	-0.029395672
32	0xbd4ea73a	-0.05045245
33	0x3d85e583	0.065379165
34	0xbcde6414	-0.02714733
35	0xbbe85dcd	-0.00709126
36	0x3d415275	0.047197778
37	0x3cc51a83	0.024060493
38	0x3d87808d	0.06616316
39	0xbc71381e	-0.014722852
40	0x3c2c2d4d	0.010508847
41	0x3d5c3002	0.05375672
42	0x3d035bcc	0.032069966
43	0xbd5a4256	-0.05328592
44	0x3d3da0f2	0.046296068
45	0x3cb69a73	0.022290444
46	0xbd39b50a	-0.045338668
47	0xbd6bfb8e	-0.057612948
48	0xbcbefe6a	-0.023314673
49	0xbd44c8af	-0.04804295
50	0x3d09756f	0.03355926
51	0x3c9fb10c	0.019493602
52	0x3d6a1402	0.057147987
53	0x3d2093ae	0.03920334
54	0x3d5bef05	0.053694744
55	0xbd472612	-0.04862029
56	0x3a473d67	0.0007600397
57	0xbd4d3bee	-0.05010598
58	0xbcea4bf2	-0.028600667
59	0xbce98564	-0.028505988
60	0x3bfa98eb	0.007647624
61	0x3c5a86bf	0.01333779
62	0xbd11d94e	-0.03560763
63	0x3d136401	0.035984043
64	0xbd0a47a6	-0.033759736
65	0xbc8ca784	-0.017169721
66	0x3d76b986	0.060235523
67	0xbd52a68f	-0.051428374
68	0x3d036fb0	0.032088935
69	0xbd6bb4af	-0.05754536
70	0x3adab995	0.0016687388
71	0xbd59af3f	-0.053145643
72	0xbc8237c8	-0.01589574
73	0xbcd8543f	-0.02640736
74	0xbc8a60af	-0.016891805
75	0x3d0987bb	0.03357671
76	0x3cc8a6d0	0.024493605
77	0x3cfc102e	0.030769434
78	0x3c75fd89	0.015014061
79	0xbd679eb2	-0.056547828
80	0xbd041031	-0.032242004
81	0xbd151161	-0.036393527
82	0x3c734545	0.014848058
83	0x3d628a4e	0.05530768
84	0x3d6e42f3	0.058169317
85	0x3a987d11	0.0011633952
86	0xbd2c5a9b	-0.042078596
87	0xbd11bb10	-0.035578787
88	0xbb82511d	-0.0039769546
89	0xbd2447e7	-0.040107634
90	0x3babd2f1	0.005243652
91	0xbd386a86	-0.045023464
92	0x3d565b2a	0.052333035
93	0xbce315ce	-0.027720358
94	0x3d5dc6d2	0.054144688
95	0xbd22f9a8	-0.039788872
96	0xbd6092a7	-0.05482736
97	0x3cc81047	0.024421824
98	0xbd737027	-0.05943313
99	0x3c7dd48e	0.0154925715
100	0x3d4c6112	0.04989726
101	0x3d5ca31f	0.053866502
102	0x3b15179b	0.0022749666
103	0xbce6c808	-0.028171554
104	0xbc277064	-0.010219667
105	0xbc06e842	-0.0082340855
106	0xbc094be8	-0.008379914
107	0x3ca8c745	0.020602832
108	0xbc302cb7	-0.010752848
109	0x3d5c1677	0.05373236
110	0x3d6a0356	0.057132088
111	0x3d3f46a0	0.046698213
112	0xbd103b85	-0.035213012
113	0x3cb41377	0.021981938
114	0xbd498eda	-0.0492085
115	0xbd57a297	-0.052645292
116	0xbd5473cc	-0.051868245
117	0xbd718a45	-0.058969755
118	0x3d857e24	0.065182
119	0xbd19bd76	-0.0375342
120	0x3c1db56b	0.009625773
121	0xbc1d1201	-0.009586812
122	0xbcf57193	-0.029961383
123	0x3ca7c200	0.020478249
124	0xbd79c485	-0.06097843
125	0x3c27ed15	0.010249396
126	0x3d415e67	0.04720917
127	0xbc663791	-0.014051334
128	0x3d25cdb3	0.040479373
129	0x3d29ba55	0.041437466
130	0x3d3ca538	0.046056002
131	0x3c4d15c8	0.0125174
132	0xbd5f9935	-0.05458947
133	0x3d11cd30	0.035596073
134	0xbc07ca87	-0.008288032
135	0x3ca998e7	0.020702792
136	0x3cb2fa8e	0.02184799
137	0xbbe07915	-0.0068503716
138	0xbcac1dff	-0.021010397
139	0xbd74aa10	-0.059732497
140	0x3bc458dc	0.005992038
141	0x3cf6ac74	0.030111529
142	0x3d058362	0.032596
143	0xbd269373	-0.040667962
144	0xbc884f3f	-0.01663935
145	0x3d37e820	0.044899106
146	0x3c4da70f	0.012552037
147	0x3d62857f	0.055303093
148	0x3d38282e	0.044960193
149	0x3d72c982	0.059274204
150	0xbd735c0e	-0.059413962
151	0x3d248f82	0.040175922
152	0xbb3a8739	-0.0028461947
153	0x3d11286e	0.035438947
154	0x3d869d8e	0.0657302
155	0xbc546e21	-0.01296571
156	0xbcf9aa2c	-0.030476652
157	0x3d6b0201	0.057374958
158	0x3d792342	0.06082464
159	0x3d137720	0.03600228

fc.2.weight f4 [100, 160]
0	0x3d87883c	0.066177815
1	0x3d987f1a	0.07446118
2	0xbd3320ac	-0.04373233
3	0x3c54fee9	0.013000228
4	0x3d3f1667	0.046652224
5	0x3d8ff76f	0.07029616
6	0x3d10de6b	0.035368364
7	0x3c7fa7ac	0.015603941
8	0xbd30ea36	-0.04319211
9	0x3da02d45	0.078211345
10	0x3d1b9b35	0.037989814
11	0xbcd05dc9	-0.025435345
12	0x3d40f1c0	0.04710555
13	0x3c4f0780	0.0126360655
14	0x3c853310	0.0162597
15	0x39a786b2	0.00031953078
16	0xbd68dbc2	-0.056850202
17	0xbc77bf77	-0.015121332
18	0xbd3e3b3c	-0.04644321
19	0xbd0b17b9	-0.03395817
20	0x3ce7faff	0.028317926
21	0x3d740e77	0.059584107
22	0xbcf3f13b	-0.029778114
23	0xbbda2846	-0.006657633
24	0x3da0e59b	0.07856294
25	0xbbaaefdd	-0.005216582
26	0xbd621676	-0.0551972
27	0x3d471563	0.04860438
28	0x3d4b26da	0.0495976
29	0xbda0c3dd	-0.07849858
30	0x3d220fbe	0.039565794
31	0xbd4695f9	-0.04848287
32	0x3d946aeb	0.072469555
33	0xbb42755d	-0.0029672005
34	0xbd231fc2	-0.03982521
35	0x3d52dc01	0.051479343
36	0xbcaf91be	-0.0214318
37	0xbcf45681	-0.029826405
38	0xbcd1d730	-0.025615305
39	0xbd075c10	-0.033046782
40	0xbd942650	-0.0723387
41	0x3ba8bade	0.0051492294
42	0xbd01b2fb	-0.03166483
43	0x3d4b018f	0.049562033
44	0xbd8a3bca	-0.06749685
45	0xbc9e4596	-0.01932029
46	0xbc6a0ad5	-0.014284809
47	0xbd67d8b3	-0.056603145
48	0x3d76f619	0.06029329
49	0x3d58bb1c	0.052912816
50	0x3c7e9c89	0.015540251
51	0x3cd55e88	0.026046053
52	0x3da12e08	0.07870108
53	0xbd7eb4f2	-0.06218428
54	0x3c9e6899	0.019336985
55	0xbd80bd2c	-0.06286082
56	0xbaca0444	-0.0015412648
57	0x3d95a43c	0.07306716
58	0xbb5fdc15	-0.0034158279
59	0x3d709cc4	0.058743253
60	0xbd9907f9	-0.07472224
61	0xbd4de6fb	-0.05026911
62	0x3d974501	0.07386208
63	0xbd2ff1c6	-0.042955182
64	0xbd38bd18	-0.04510221
65	0x3d9fac9b	0.07796594
66	0x3d3b6ee3	0.045760047
67	0x3d66b88c	0.05632834
68	0x3d40ba0e	0.047052436
69	0x3d3388eb	0.043831747
70	0xbd90e0b7	-0.07074111
71	0x3d88ab8c	0.06673345
72	0x3ccc4da5	0.024939368
73	0x3d679c12	0.056545325
74	0x3d95b486	0.07309823
75	0xbc87845f	-0.016542612
76	0xbd8fe05c	-0.07025215
77	0x3d3c9f97	0.046050634
78	0x3d9fd3a8	0.07804042
79	0xbd89fb08	-0.067373335
80	0x3d26e5d1	0.040746514
81	0x3d809642	0.062786594
82	0xba46e761	-0.0007587579
83	0xbd9a3f10	-0.075315595
84	0x3cc3da5f	0.023907838
85	0x3d8b72d7	0.06809013
86	0x3d77cf42	0.06050039
87	0x3d70094a	0.05860261
88	0x3c5deb9f	0.013544946
89	0x3d379b93	0.0448261
90	0x3d17a98f	0.037026938
91	0x398b8ee1	0.000266186
92	0x3d59e861	0.05320013
93	0x3da1dee9	0.07903845
94	0xbab00b57	-0.0013431114
95	0x3d753268	0.059862524
96	0x3da08c14	0.07839218
97	0x3d4d1039	0.0500643
98	0x3d04e02b	0.032440346
99	0xbd81c1b9	-0.06335778
100	0x3d1ac4b8	0.037785262
101	0x3be4c253	0.006981173
102	0xbd8b60d8	-0.06805581
103	0xbd73d148	-0.059525758
104	0xbcf160cb	-0.0294651
105	0xbc9615f5	-0.018321017
106	0xbd296428	-0.041355282
107	0x3d4c85ef	0.049932417
108	0xbb1e5534	-0.0024159672
109	0x3d4adcee	0.0495271
110	0x3bbc6a3a	0.005749968
111	0xbd9f92cc	-0.07791671
112	0xbd9eab44	-0.0774751
113	0x3d2d0d7d	0.04224919
114	0x3d249c90	0.040188372
115	0x3d1350a1	0.035965566
116	0xbd81ec86	-0.063439414
117	0xbc5d5317	-0.01350858
118	0x3ba4fba2	0.00503488
119	0x3cb1fbb3	0.021726465
120	0x3bfe1a99	0.0077546355
121	0xbd31af6b	-0.043380182
122	0x3d8b31f3	0.067966364
123	0x3bd59edb	0.006519181
124	0x3d826c11	0.06368268
125	0x3ba93b41	0.0051645343
126	0xbaa21b1d	-0.00123677
127	0x3d827e11	0.063717015
128	0x3cd810e1	0.026375236
129	0xbd9d7762	-0.07688786
130	0xbbfe7e4c	-0.0077665206
131	0xbba681c5	-0.0050813877
132	0xbcb124c5	-0.021623978
133	0x3d7b8862	0.06140936
134	0x3d948f87	0.07253938
135	0x3d055f39	0.032561515
136	0x3d089437	0.033344474
137	0x3d84df21	0.06487871
138	0xbd8cb5c6	-0.06870608
139	0x3c1be75c	0.00951561
140	0x3d1a32ed	0.037646223
141	0xbd638200	-0.0555439
142	0x3d44d99b	0.048059087
143	0xbd2fe9bb	-0.042947512
144	0xbbe9992a	-0.0071288543
145	0xbc630345	-0.01385576
146	0x3d60a9fe	0.054849617
147	0xbcd2ee1a	-0.025748301
148	0xbcd8e1b9	-0.02647482
149	0x3d114439	0.035465453
150	0xbd1b375e	-0.0378946
151	0x3d627894	0.055290774
152	0xbd5d16a9	-0.05397669
153	0x3d3ea51e	0.046544187
154	0x3cf7fa6e	0.030270781
155	0xbcd967a6	-0.026538681
156	0x3c13f1c2	0.0090298075
157	0xbd55ca29	-0.052194748
158	0x3c37dcb1	0.0112220505
159	0x3d52f0d7	0.051499214
160	0x3c9d5752	0.019206677
161	0x3d16e559	0.036839817
162	0xbcbe30d1	-0.023216637
163	0xbb52ea7e	-0.0032183225
164	0x3d3568cd	0.0442894
165	0x3a46a416	0.00075775513
166	0x3d2c3a41	0.042047743
167	0xbc05b60e	-0.008161081
168	0xbd68569a	-0.056723215
169	0xbd3793ae	-0.044818573
170	0xbd970577	-0.07374089
171	0xbd083777	-0.03325602
172	0xbd89c96f	-0.067278735
173	0x3d8f40c2	0.069947734
174	0x3bc01ac5	0.005862566
175	0xbd897264	-0.067112714
176	0xbd604cc6	-0.054760717
177	0xbcc97fee	-0.024597134
178	0x3d0a6f1d	0.033797372
179	0x3d3a2934	0.04544945
180	0xbc553ff4	-0.013015736
181	0xbc1f8b13	-0.009737748
182	0x3d2342ad	0.03985851
183	0xbd96d9e5	-0.07365779
184	0x3cde0e4b	0.027106425
185	0x3d2f56a9	0.042807255
186	0x3b1a19f1	0.0023513997
187	0xbc927869	-0.017879682
188	0xbcd63781	-0.026149513
189	0xbd638f53	-0.055556607
190	0xbd0b09bb	-0.033944827
191	0xbc3aec7c	-0.011408921
192	0xbd386f4e	-0.045028023
193	0xbc821f17	-0.015883965
194	0xbd866bda	-0.0656354
195	0xbb5e7d4b	-0.0033949192
196	0x3d638817	0.055549707
197	0x3cb56eab	0.022147497
198	0x3ca1914c	0.019722603
199	0x3cfe8a1f	0.03107172
200	0xbd888842	-0.06666614
201	0xbd48b25f	-0.048998233
202	0x3d912e42	0.07088901
203	0x3ccf1f04	0.025283344
204	0xbd2ea372	-0.042636342
205	0xbd64bcfe	-0.0558443
206	0xbc768b14	-0.015047807
207	0x3d232a2c	0.03983514
208	0x3914e1e0	0.00014198525
209	0xbb8d816e	-0.0043184077
210	0x3d498217	0.04919633
211	0x3c73a1e9	0.014870145
212	0xb98a1905	-0.00026340052
213	0x3d8a63d3	0.06757321
214	0xbd3683ca	-0.044559278
215	0x3d4d420d	0.05011182
216	0x3d40dfb5	0.047088344
217	0x3d9e2a14	0.077228695
218	0x3c5996e8	0.013280608
219	0xbd05a044	-0.032623544
220	0xbc7b4f59	-0.015338742
221	0x3d0a3e48	0.033750802
222	0xbd8d4a4d	-0.068989374
223	0xbcd66918	-0.02617316
224	0x3c792391	0.015206234
225	0x3d313ae4	0.043269053
226	0xbd9740ef	-0.07385432
227	0x3d9dae68	0.07699281
228	0x3cec2b45	0.028829226
229	0xbd0155de	-0.03157603
230	0xbd15b63c	-0.036550745
231	0xbd92bfdc	-0.071655005
232	0xbd191d01	-0.037381176
233	0xbd3a96f0	-0.0455541
234	0x3d80b6a9	0.0628484
235	0x3c8817c6	0.016612899
236	0xbd75192b	-0.059838455
237	0xbd2c1034	-0.04200764
238	0x3d0060d4	0.031342342
239	0x3d86e6cf	0.06586992
240	0xbc264cca	-0.010150144
241	0xbd6fb387	-0.05852082
242	0x3ab2fd74	0.0013655857
243	0x3d7ea520	0.062169194
244	0xbc393264	-0.011303518
245	0x3d57901d	0.05262767
246	0x3d2ea532	0.04263801
247	0x3c85e3f0	0.01634404
248	0xbd2ac5cc	-0.04169254
249	0xbd1f7936	-0.038933955
250	0xbc920635	-0.017825225
251	0xbcba23f7	-0.022722227
252	0x3c2bb130	0.0104792565
253	0xbd7de032	-0.061981387
254	0x3d33fe22	0.04394353
255	0xbd64dce9	-0.05587474

fc.2.bias f4 [100]
0	0x3d86aa98	0.06575507
1	0x3da446cd	0.08021317
2	0x3becc59f	0.0072257067
3	0x3d10c8ef	0.035347875
4	0x3d4df656	0.050283752
5	0xbd8ff33c	-0.07028815
6	0xbd8513fc	-0.06497952
7	0xbd1656cf	-0.03670388
8	0xbd0bc0ce	-0.03411942
9	0x3c7c013c	0.015381154
10	0x3d547e34	0.05187817
11	0xbd89ee4f	-0.06734907
12	0xbd21b423	-0.039478432
13	0xbd97984e	-0.07402097
14	0xbd286565	-0.041112322
15	0x3c154441	0.009110511
16	0x3d6206fb	0.05518244
17	0xbd51f867	-0.051262286
18	0x3d8993d0	0.06717646
19	0xbd153245	-0.036424894
20	0x3da649a1	0.08119512
21	0x3d4bd50b	0.04976372
22	0x3daa00e3	0.083009504
23	0x3d1dddc9	0.03854159
24	0xbd9daa18	-0.076984584
25	0xbb0891a1	-0.0020838755
26	0x3cfff34a	0.031243939
27	0x3d59cb53	0.05317242
28	0xbd2b207f	-0.041779038
29	0x3d542187	0.051789787
30	0xbc67baf1	-0.014143691
31	0x3d60d0ed	0.054886747
32	0xbca9b646	-0.020716798
33	0x3d713700	0.058890343
34	0x3abeaa70	0.0014546644
35	0x3d9db3d6	0.077003166
36	0xbd25ecb7	-0.040508952
37	0x3d516885	0.05112507
38	0x3d0885ca	0.033330716
39	0xbd8634a7	-0.065530114
40	0x3d4608a5	0.048348088
41	0x3cc3fb8d	0.02392366
42	0x3c4c973f	0.012487232
43	0x3c2f00d6	0.010681352
44	0x3ce7f22c	0.028313719
45	0x3c85873f	0.016299842
46	0xbd8e83e7	-0.06958752
47	0x3b1437d0	0.0022616275
48	0xbd903dcd	-0.070430376
49	0xbd3fa714	-0.046790197
50	0xbc8ae199	-0.016953276
51	0xbc9f71fb	-0.01946353
52	0x3d86d150	0.06582892
53	0x3d51abdc	0.05118929
54	0xbd7450df	-0.059647437
55	0xbc888bcf	-0.016668228
56	0x3cbec427	0.023286892
57	0x3d9c0ab5	0.0761923
58	0xbcfae317	-0.030625863
59	0x3d8ac6e4	0.067762166
60	0xbc9d0464	-0.019167133
61	0xbd925ade	-0.07146238
62	0xbd75b0a3	-0.059982907
63	0x3d931079	0.07180876
64	0x3cd63086	0.026146185
65	0x3cd03a01	0.025418283
66	0xbd930992	-0.0717956
67	0xbbfaad4e	-0.007650054
68	0x3cad2a58	0.021138355
69	0xbc7eee99	-0.015559816
70	0x3d05f0d7	0.032700386
71	0xbd70447d	-0.058659066
72	0xbc656e04	-0.014003281
73	0x3da2cd92	0.07949366
74	0xbda28cf5	-0.07937042
75	0x3d89afd5	0.067229904
76	0xbd2ff5d4	-0.04295905
77	0xbb6bd8a3	-0.003598728
78	0xbd82f957	-0.06395214
79	0x3cc55619	0.024088906
80	0x3ca3a4a5	0.01997597
81	0x3d9d9d73	0.07696047
82	0xbce1e9f4	-0.027577378
83	0x3cf93e85	0.03042532
84	0xbd6c685c	-0.057716712
85	0x3cfdfd25	0.031004498
86	0xbd36b1e6	-0.04460325
87	0xbb8302f8	-0.0039981566
88	0x3cafaa52	0.02144352
89	0xbb93452e	-0.004494331
90	0x3d966c74	0.073449045
91	0xbd94faf8	-0.07274431
92	0x3d4f2eb6	0.050581656
93	0xbce7afd9	-0.028282093
94	0xbd613fc8	-0.054992467
95	0xbd632f24	-0.05546488
96	0x3da08eff	0.07839774
97	0xbc2464b7	-0.010033778
98	0x3d167f24	0.036742344
99	0x3c8f74c4	0.017511733

fc.4.weight f4 [2, 100]
0	0xbd826eca	-0.063687876
1	0xbd1ce826	-0.03830733
2	0x3d07b061	0.033127192
3	0x3d31670e	0.04331117
4	0x3dc165f2	0.09443273
5	0x3bde80b3	0.0067902445
6	0x37836b81	1.5666477e-05
7	0xbd584132	-0.05279655
8	0x3d80b858	0.06285161
9	0x3d1c2603	0.03812219
10	0x3da95612	0.0826837
11	0x3d734818	0.059394926
12	0x3c29d8aa	0.010366598
13	0x3d9727ce	0.07380639
14	0xbd127df8	-0.035764664
15	0x3d488e7c	0.04896401
16	0x3cb59a8c	0.02216842
17	0xbd8b0171	-0.06787384
18	0x3d9f0111	0.07763875
19	0xbdb2d6da	-0.08732386
20	0xbdb96830	-0.09053075
21	0xbabaffb5	-0.001426688
22	0xbd81f473	-0.06345453
23	0xbdc863f4	-0.097846895
24	0xbca53a4a	-0.020169396
25	0x3d26e013	0.040741038
26	0xbd3e34f5	-0.046437223
27	0x3c6ecc6a	0.014575103
28	0xbd479382	-0.04872466
29	0xbdbb791e	-0.09153961
30	0x3d91e09b	0.07122918
31	0x3d6de3f5	0.058078725
32	0xbd132f54	-0.035933807
33	0x3d6ed550	0.0583089
34	0xbc9c2777	-0.019061787
35	0xbda7a014	-0.08184829
36	0x3d27e5bf	0.040990587
37	0x3d7e8f56	0.062148415
38	0x3c884349	0.016633647
39	0x3d03cc52	0.032177277
40	0xbd2475c5	-0.040151376
41	0xbdacb56c	-0.08433041
42	0xbd8b2209	-0.06793601
43	0xbd17d25a	-0.03706584
44	0xbdb07f27	-0.086180024
45	0x3d99c215	0.07507721
46	0x3d154388	0.036441356
47	0xbd276d26	-0.040875576
48	0xbce7e528	-0.028307512
49	0x3d0eba0d	0.0348454
50	0x3d87c851	0.06630004
51	0x3d2d16db	0.042258125
52	0x3d505669	0.050863657
53	0xbb1607c3	-0.002289281
54	0x3d1ed94c	0.03878145
55	0xbda4044c	-0.08008632
56	0xbceef4d0	-0.02916947
57	0xbd96bb4f	-0.07359945
58	0xbc6007e7	-0.013673759
59	0xbd51ef59	-0.05125365
60	0xbc6271b4	-0.013821054
61	0x3dc6e71e	0.09712051
62	0x3db0d937	0.086351804
63	0xbdd0954b	-0.101847254
64	0x3db76ebd	0.089566685
65	0xbda9a825	-0.08284024
66	0xbdac083f	-0.0840001
67	0x3d3cea01	0.0461216
68	0x3d9f3f93	0.07775798
69	0x3c734672	0.014848338
70	0x3d9543ab	0.07288297
71	0x3b2d66e3	0.002645903
72	0xbd904d8a	-0.070460394
73	0xbd494924	-0.049142018
74	0x3c9b9fc7	0.018997086
75	0xbd5372ed	-0.051623274
76	0x3d01dd63	0.03170527
77	0x3d8d69b9	0.069049306
78	0xb9d5aa45	-0.00040753387
79	0xbceffa47	-0.029294146
80	0xbdc09c84	-0.09404853
81	0xbdac71be	-0.08420132
82	0x3890cbf9	6.904448e-05
83	0xbdb29b57	-0.08721035
84	0x3d4fe5cd	0.050756264
85	0x3d1d5e89	0.038420234
86	0xbd0dda69	-0.03463212
87	0x3dbceaec	0.09224495
88	0xbdb0d898	-0.08635062
89	0x3d256b51	0.040385548
90	0xbdb72cfd	-0.08944128
91	0x3d47db7e	0.04879331
92	0xbca81423	-0.020517414
93	0x3dacdc94	0.084405094
94	0x3d7bf767	0.061515238
95	0x3d939b02	0.072073
96	0xbce1a700	-0.027545452
97	0xbda666b0	-0.08125055
98	0x3d2dd0f8	0.042435616
99	0xbd809695	-0.06278721
100	0x3cf51349	0.029916422
101	0x3d87674e	0.06611501
102	0xbc5cf83b	-0.013486917
103	0xbca0f3c2	-0.019647483
104	0x3d84cfc1	0.064849384
105	0x3d4d8cca	0.050183095
106	0x3d08f98b	0.033441108
107	0x3d835979	0.0641355
108	0xbd1fcb8d	-0.03901248
109	0xbd113fa4	-0.035461083
110	0x3d09fc14	0.033687666
111	0xbd8b3a19	-0.067981906
112	0x3d454a9d	0.04816686
113	0xbcc11930	-0.02357158
114	0xbd86090d	-0.06544695
115	0xbd665a54	-0.056238487
116	0xbd09729a	-0.03355656
117	0x3d6fab71	0.05851311
118	0x3c6948ff	0.014238595
119	0x3c5a1b47	0.0133121675
120	0x3c7f9446	0.015599316
121	0xbd9de7f0	-0.07710254
122	0x3c9fff6c	0.019530974
123	0xbdb4c32a	-0.08826287
124	0xbcb41bde	-0.021985944
125	0x3d8cc95f	0.06874346
126	0xbcc8c273	-0.024506783
127	0xbbb29ae9	-0.0054505956
128	0x3d1f804d	0.038940717
129	0x3d7df170	0.06199783
130	0xbb4bd076	-0.0031099594
131	0xbd3c179c	-0.045920953
132	0xbd805356	-0.06265895
133	0x3d33094a	0.04371003
134	0x3ca3645b	0.019945314
135	0x3d213746	0.039359353
136	0x3d540575	0.051763017
137	0x3cd32281	0.025773289
138	0x3c17f594	0.009274859
139	0xbc840bc7	-0.016118897
140	0x3da58557	0.08082073
141	0x3d91e144	0.07123044
142	0x3c8de88f	0.017322807
143	0xbd9869c7	-0.074420504
144	0x3d972d5e	0.073817
145	0xbc0ed2bb	-0.008717234
146	0x3db39d6d	0.08770261
147	0x3d19bad8	0.037531704
148	0x3d3ee466	0.046604536
149	0xbcc1c869	-0.023655133
150	0x3db6b1cb	0.0892063
151	0x3bdaa46f	0.006672434
152	0xbd96cbb6	-0.073630735
153	0xbd98649e	-0.07441066
154	0xbdcba4fa	-0.09943576
155	0xbce124bf	-0.027483342
156	0x3d573750	0.052542984
157	0x3bea9081	0.0071583395
158	0x3d8e62b5	0.069524206
159	0x3d576c11	0.052593295
160	0x3daf9c11	0.08574689
161	0x3db47f52	0.08813347
162	0x3da88137	0.08227771
163	0x3d893048	0.06698662
164	0xbd94b46e	-0.07260977
165	0xbdc473a6	-0.09592371
166	0x3cbc28d4	0.022968687
167	0xbb980974	-0.004639799
168	0xbd673cfa	-0.056454636
169	0x3d41d6b6	0.047323905
170	0x3d32a34d	0.043612767
171	0x3d94df03	0.072690986
172	0xbcd1b6f2	-0.02559993
173	0x3dd262a7	0.10272723
174	0xbdcbcfa3	-0.09951713
175	0x3c074618	0.008256458
176	0x3c870917	0.016483827
177	0xbc7b328c	-0.0153318755
178	0x3db35eae	0.08758293
179	0xbd875d0f	-0.066095464
180	0x3da977c0	0.082747936
181	0xbd26765e	-0.040640227
182	0x3d291bec	0.041286394
183	0xbdaf4d6b	-0.08559688
184	0x3d70b42b	0.05876557
185	0xbc214b26	-0.009844577
186	0x3bb9f7e0	0.005675301
187	0xbd8ea7bd	-0.06965587
188	0x3d6b02b4	0.057375625
189	0xbb13520e	-0.0022479328
190	0xbcd80bbe	-0.026372787
191	0xbd620cb3	-0.055187892
192	0x3c934955	0.017979303
193	0x3cf148dc	0.029453687
194	0x3dc8448d	0.097787
195	0xbd4fcbf6	-0.05073162
196	0x3cfe80c8	0.031067267
197	0x3d8c8741	0.06861735
198	0xbd32f22c	-0.043687984
199	0xbd3e36d3	-0.046439003

fc.4.bias f4 [2]
0	0xbd4f53be	-0.050616972
1	0x3c4a17c1	0.012334765
