Algorithms/shawn/loss/exp/fc_4.batch.pth (torch_old, 211644 bytes, 6 tensors)

fc.0.weight f4 [160, 226]
0.034064125 0.044208292 -0.0029898756 0.05486952 -0.014470411 -0.023328424 0.04544792 0.033510864
-0.0415227 -0.05446889 -0.01875747 -0.06643331 0.011877108 0.0028656302 -0.052544978 -0.035758764
0.025410319 -0.026876917 0.015338201 0.01672265 0.01814926 -0.049305085 0.03124701 -0.034992125
0.049224805 0.04788471 -0.03983905 -0.011435771 0.01279481 -0.01698176 -0.017500633 -0.066020146
-0.02354031 -0.021164166 -0.008060594 -0.033123862 0.024006996 0.03587034 0.006902682 0.044543788
-0.05286932 0.006203435 -0.04838215 -0.024258524 0.014685576 -0.013348672 0.06628181 -0.015678415
0.05033525 -0.01394122 -0.01199767 -0.064884245 0.040615648 0.02114341 -0.056481954 0.012661482
0.055980798 -0.03398762 0.063038126 0.012837595 -0.028296608 0.04665983 0.009829975 0.015662154
-0.051120702 -0.020073866 -0.043069366 -0.02038171 -0.012037033 0.06509715 -0.05730249 0.012886125
-0.011268066 0.012458485 0.01136032 -0.021955542 -0.041489456 -0.04283214 -0.038625766 -0.031830687
0.02107012 -0.063099235 -0.02464316 -0.06333488 0.05433851 0.010939177 0.022777623 0.054983072
0.021687478 0.030818341 0.013258614 0.013633841 0.007030595 -0.053324956 -0.04409363 0.058714204
0.016546132 -0.016297022 0.03604549 0.033632368 -0.017479565 0.009896649 0.002244407 0.023381738
-0.020516818 0.063873455 -0.0113528 -0.020048589 -0.01942264 -0.05805785 0.017455362 0.025000652
-0.006614437 -0.0058492324 0.03680965 0.02677303 0.03692415 0.010483518 -0.029768772 0.05158068
-0.06307274 0.023139888 -0.05409679 0.03632063 0.031908434 -0.021047937 -0.028662046 -0.038419902
0.013288011 -0.062326644 0.051397093 0.04231781 -0.05987925 -0.060219336 0.056738034 -0.021339843
-0.022248868 -0.045189854 -0.041402865 0.049565352 -0.006445682 -0.03876472 0.023947759 -0.034137663
-0.03809277 -0.057513867 -0.005777859 -0.02000379 0.014136073 -0.05195231 -0.051325895 0.0142371
-0.053980876 -0.026368573 0.0111091565 -0.04578438 -0.05107202 0.018545292 -0.038222846 -0.045259517
0.029463854 -0.012596988 0.036893275 -0.00719009 0.031640794 0.044770822 -0.05845354 -0.05070553
-0.048314597 -0.055561792 -0.050741963 -0.017449265 0.03669785 0.028868226 -0.027804613 0.029564375
-0.053643588 0.025420342 0.00086146797 0.021567272 0.05358661 0.060650814 0.04400838 0.029204471
0.0014664351 0.04439578 -0.022613922 0.039183073 0.01623475 0.05478457 -0.019391172 0.031695
-0.055817332 -0.036097806 -0.061221726 -0.056691255 0.050839547 0.04650532 0.035349954 0.04345466
-0.06021808 0.024329133 0.018801162 -0.065541245 0.054865226 0.015530774 -0.024577007 0.0414651
-0.025721863 -0.059547205 0.03370658 0.059712265 -0.011281846 0.051471002 0.019705817 -0.010034857
0.026466241 0.06157084 0.046820384 -0.012170552 -0.016282298 -0.017969623 -0.017927373 0.029122408
0.043676313 -0.01691143 0.06567493 0.037800353 0.0023102893 -0.05413829 -0.06683618 0.04615327
-0.033855926 -0.03469406 -0.0017312383 -0.021715246 0.008231172 0.03848149 -0.0060410923 0.04651394
-0.06439306 -0.00022478767 -0.05271523 -0.047397703 0.005229316 -0.011303244 -0.06629673 -0.0063624005
0.022505336 0.061875522 0.03208197 0.028852535 -0.015146053 0.015556092 0.04145688 -0.04636843
00000000: d386 0b3d c113 353d caf1 43bb ddbe 603d
00000010: 4e15 6dbc 401b bfbc 9927 3a3d b042 093d
00000020: b513 2abd c51a 5fbd 44a9 99bc 300e 88bd
00000030: 3498 423c 4ccd 3b3b 6739 57bd c877 12bd
00000040: 4d29 d03c fb2c dcbc 144d 7b3c f0fd 883c
00000050: c2ad 943c 21f4 49bd bbf9 ff3c e753 0fbd
00000060: f39f 493d c222 443d 462e 23bd 1a5d 3bbc
00000070: 53a1 513c 551d 8bbc 7d5d 8fbc 9235 87bd
00000080: 9cd7 c0bc 7960 adbc 9510 04bc e3ac 07bd
00000090: 52aa c43c c7ec 123d e52f e23b 8c73 363d
000000a0: 808d 58bd 2f46 cb3b 5c2c 46bd d0b9 c6bc
000000b0: c59b 703c 63b4 5abc c2be 873d 0570 80bc
000000c0: 562c 4e3d b769 64bc e091 44bc 08e2 84bd
000000d0: 985c 263d f234 ad3c 9f59 67bd 1b72 4f3c
000000e0: 1f4c 653d 9a36 0bbd 221a 813d c754 523c
000000f0: 4ace e7bc 611e 3f3d e70d 213c eb4d 803c
00000100: f163 51bd f371 a4bc 8169 30bd 8bf7 a6bc
00000110: fa36 45bc a851 853d 04b6 6abd 5320 533c
00000120: b29d 38bc ac1e 4c3c a320 3a3c 1cdc b3bc
00000130: d9f0 29bd c170 2fbd 0d36 1ebd e560 02bd
00000140: 3f9b ac3c 2c3a 81bd 74e0 c9bc b8b5 81bd
00000150: 0f92 5e3d 3c3a 333c 2398 ba3c ee35 613d
00000160: f0a9 b13c bf76 fc3c a83a 593c 7960 5f3c
00000170: e860 e63b 456b 5abd 869b 34bd 4e7e 703d
00000180: c18b 873c 5581 85bc 70a4 133d 18c2 093d
00000190: 4e31 8fbc 8e25 223c e716 133b 0f8b bf3c
000001a0: e312 a8bc 16d0 823d 1801 3abc f03c a4bc
000001b0: 3a1c 9fbc 11ce 6dbd 8cfe 8e3c 2bce cc3c
000001c0: ebbd d8bb ebaa bfbb b7c5 163d 1d53 db3c
000001d0: c73d 173d 10c3 2b3c a4dd f3bc 4346 533d
000001e0: 482c 81bd dd8f bd3c 9894 5dbd f1c4 143d
000001f0: 6bb2 023d b96c acbc abcc eabc 305e 1dbd
00000200: f5b5 593c 394a 7fbd c285 523d 7155 2d3d
00000210: f243 75bd 8da8 76bd 2466 683d e5d0 aebc
00000220: 4243 b6bc ff18 39bd 0d96 29bd 0a05 4b3d
00000230: 4d36 d3bb c1c7 1ebd 172e c43c efd3 0bbd
00000240: 2a07 1cbd a993 6bbd 3254 bdbb fdde a3bc
00000250: fd9a 673c f2cb 54bd 1a3b 52bd ba42 693c
00000260: 0d1b 5dbd e802 d8bc 2e03 363c 6788 3bbd
00000270: e530 51bd 4cec 973c 8f8f 1cbd 0b62 39bd
00000280: 2e5e f13c 9963 4ebc 671d 173d d99a ebbb
00000290: c799 013d 9c61 373d fb6c 6fbd 9ab0 4fbd
000002a0: 87e5 45bd c394 63bd ced6 4fbd c3f1 8ebc
000002b0: 7c50 163d 0f7d ec3c 80c6 e3bc fd30 f23c
000002c0: 61b9 5bbd 523e d03c 23d4 613a d9ad b03c
000002d0: a27d 5b3d fd6c 783d 2242 343d 373e ef3c
000002e0: 6635 c03a 59d8 353d d540 b9bc 6e7e 203d
000002f0: bdfe 843c c965 603d 3cda 9ebc 9ed2 013d
00000300: b7a0 64bd 4bdb 13bd a2c3 7abd 1735 68bd
00000310: 213d 503d 5d7c 3e3d 1dcb 103d 83fd 313d
00000320: 3ca7 76bd e44d c73c e504 9a3c 7d3a 86bd
00000330: 5cba 603d ca74 7e3c b855 c9bc 4fd7 293d
00000340: a8b6 d2bc c5e7 73bd e90f 0a3d d994 743d
00000350: 7ed7 38bc 42d3 523d 186e a13c 3e69 24bc
00000360: bbcf d83c b531 7c3d bbc6 3f3d ff66 47bc
00000370: 7462 85bc 0835 93bc 6ddc 92bc 1e92 ee3c
00000380: efe5 323d d789 8abc 9480 863d 8bd4 1a3d
00000390: 3968 173b 1dc0 5dbd 68e1 88bd 360b 3d3d
000003a0: 83ac 0abd 5c1b 0ebd b8ea e2ba 2ce4 b1bc
000003b0: 0adc 063c c49e 1d3d 5bf4 c5bb 6785 3e3d
000003c0: 82e0 83bd fbb4 6bb9 edeb 57bd 1824 42bd
000003d0: af5a ab3b 3e31 39bc 94c6 87bd af7b d0bb
000003e0: 1c5d b83c 3071 7d3d 6268 033d 275c ec3c
000003f0: 2727 78bc fbde 7e3c b0ce 293d d3ec 3dbd

fc.0.bias f4 [160]
-0.051496726 -0.014556576 0.016634282 -0.04755506 -0.012023877 0.065122806 0.04755676 0.024521628
-0.046777863 0.023548082 -0.031107182 0.06266717 -0.058410883 0.027405294 0.039322652 0.031158997
0.01704374 -0.063816875 0.059374586 -0.055363838 0.0047214427 0.034688294 -0.017591007 0.03551843
-0.05858455 -0.01034651 -0.010734098 -0.024289886 0.057165876 0.048161693 0.031346146 0.021752032
0.0076543773 0.054810274 -0.018106293 0.029181903 0.06340698 -0.010493836 0.039572794 -0.029467382
-0.048077647 0.049812675 0.021567563 -0.06308718 -0.059524216 -0.050959546 0.022308946 0.05963474
0.012985416 -0.016525555 0.007525276 0.0015191395 0.0410642 0.037052453 0.03876222 0.0028425548
-0.045224722 0.035473675 -0.040544897 0.03496482 -0.029505948 -0.042513058 -0.04252382 -0.04068477
0.045104355 -0.019796524 -0.064445846 -0.009728832 -0.011305781 0.050873686 -0.01791858 -0.031606764
0.004642306 -0.03360028 -0.003282384 -0.049678773 -0.044502232 -0.008156361 0.045419823 -0.041609347
0.007957172 0.046182286 0.04182202 0.057129372 0.05034139 0.021278203 0.03608494 -0.03735238
0.045151442 0.050787546 0.021891164 -0.043633528 -0.00046224782 0.0011991169 0.040996257 0.052227523
-0.018068288 0.002907538 0.033721667 0.06526622 -0.005123705 0.022344364 -0.044709846 -0.0056102565
0.0039588776 0.008113845 -0.025324926 -0.028615808 0.021772739 -0.032177765 -0.03214608 0.028271802
0.04467917 0.020421185 -0.041657835 -0.039418254 -0.054674517 -0.05918426 -0.008471369 -0.054609016
-0.065040454 -0.04732379 -0.01961991 -0.0285701 -0.002830925 0.048982095 0.0213749 0.0073187845
0.008486547 -0.031769313 0.00994606 0.013798995 0.0035881468 0.04665382 -0.05298771 0.053390875
0.051528554 0.019417355 -0.03127313 0.04848555 0.026479006 -0.013399867 0.016212203 0.06556828
0.050752148 -0.06274988 -0.022275357 -0.0452914 -0.040704276 -0.008393311 -0.048718445 -0.06365381
-0.01192657 0.048526023 0.0039287424 0.05468105 -0.025285823 0.060784 0.025957605 -0.0568499
00000000: 3bee 52bd b47e 6ebc 9e44 883c 18c9 42bd
00000010: ccff 44bc 1b5f 853d e1ca 423d 95e1 c83c
00000020: 259a 3fbd e8e7 c03c 7dd4 febc a557 803d
00000030: 4040 6fbd 1181 e03c ca10 213d 2741 ff3c
00000040: 509f 8b3c 6cb2 82bd c432 733d 31c5 62bd
00000050: 55b6 9a3b 5015 0e3d 041b 90bc c67b 113d
00000060: 5af6 6fbd 6984 29bc 12de 2fbc 95fb c6bc
00000070: c426 6a3d 3245 453d d164 003d 5131 b23c
00000080: 92d1 fa3b bd80 603d a653 94bc e30e ef3c
00000090: 85db 813d 57ee 2bbc 1517 223d 9465 f1bc
000000a0: 11ed 44bd 6008 4c3d 75ae b03c da33 81bd
000000b0: aacf 73bd f5ba 50bd 40c1 b63c 8f43 743d
000000c0: c8c0 543c 9a60 87bc 9796 f63b dd1d c73a
000000d0: ef32 283d 50c4 173d 22c5 1e3d 284a 3a3b
000000e0: 8f3d 39bd d84c 113d 6812 26bd 4537 0f3d
000000f0: 75b6 f1bc 2c22 2ebd 752d 2ebd 13a5 26bd
00000100: 58bf 383d 522c a2bc 2ffc 83bd ae65 1fbc
00000110: e23b 39bc ed60 503d fcc9 92bc 1876 01bd
00000120: 7c1e 983b 72a0 09bd 441d 57bb f87b 4bbd
00000130: f947 36bd 42a2 05bc 230a 3a3d 906e 2abd
00000140: cc5e 023c a329 3d3d 914d 2b3d 7d00 6a3d
00000150: c632 4e3d a04f ae3c cdcd 133d cffe 18bd
00000160: b8f0 383d 9a06 503d 1955 b33c 12b9 32bd
00000170: da59 f2b9 b02b 9d3a b1eb 273d 87ec 553d
00000180: f203 94bc 658c 3e3b bb1f 0a3d 4caa 853d
00000190: c1e4 a7bb 870b b73c ac21 37bd 3ed6 b7bb
000001a0: 79b9 813b efef 043c 3876 cfbc b36b eabc
000001b0: be5c b23c d5cc 03bd 9cab 03bd 449a e73c
000001c0: 8101 373d 544a a73c 68a1 2abd 0975 21bd
000001d0: 63f2 5fbd 326b 72bd 7fcb 0abc b4ad 5fbd
000001e0: ee33 85bd 97d6 41bd efb9 a0bc d80b eabc
000001f0: 0a87 39bb 73a1 483d 6a1a af3c 6ad2 ef3b
00000200: 280b 0b3c 8a20 02bd cdf4 223c 2e15 623c
00000210: 1d27 6b3b 1318 3f3d a409 59bd 64b0 5a3d
00000220: 9b0f 533d 2511 9f3c 4118 00bd c998 463d
00000230: 80ea d83c 1e8b 5bbc 74cf 843c aa48 863d
00000240: 7ce1 4f3d 0283 80bd cf7a b6bc 7a83 39bd
00000250: 87b9 26bd 1984 09bc fe8c 47bd ee5c 82bd
00000260: a967 43bc 39c3 463d aebc 803b 3df9 5f3d
00000270: 3724 cfbc a5f8 783d 0ba5 d43c 71db 68bd

fc.3.weight f4 [100, 160]
0.037779175 0.04461306 -0.021909695 -0.035257533 -0.04423266 -0.011488204 0.061143268 -0.078814685
0.025663193 -0.009041489 -0.014966877 -0.015129666 0.009251034 -0.0065938714 0.025913646 0.032463573
0.010716936 0.019798484 -0.029889312 0.045811668 -0.034334373 -0.016301775 -0.010192024 0.008437734
-0.031961404 -0.07623707 -0.041270237 -0.015834352 0.050227754 0.05729089 -0.0020379438 0.07268171
0.026162999 0.026938828 0.07778398 -0.037079766 0.04812002 -0.070842184 -0.028821621 -0.018509358
0.028804883 -0.027341532 0.046479736 0.021242976 -0.0068237945 -0.07038226 0.0035245887 0.012035926
0.02081839 0.06045452 0.042988144 0.06409894 -0.052890427 0.0015021112 0.07584581 0.030625708
-0.067248866 -0.059400454 0.064268336 0.03503498 -0.0009503379 -0.06887815 0.07669809 -0.040660203
0.032359734 -0.0012735659 -0.020553114 0.032011457 0.011433665 -0.06435894 -0.061209537 -0.0660785
0.021028653 -0.0034767154 -0.06349224 -0.07541875 -0.041837394 0.04026662 0.02852286 0.012838185
-0.00068683637 -0.027027836 -0.0137255145 0.0011149683 0.064927265 0.07328936 -0.013784372 0.010093443
-0.0374322 -0.041293077 -0.01385177 0.06420546 -0.0778035 0.07117148 0.07278893 -0.044480912
-0.07276819 0.048897747 -0.020240908 0.060300738 0.014024545 -0.05783298 0.07384337 0.020446012
0.038908977 -0.07654557 -0.03714334 0.06399006 0.07093167 0.078275025 0.028122699 0.05364341
-0.034244306 0.019682756 0.002152279 -0.021181487 -0.059235055 0.041527983 0.015175339 0.0725049
0.05276476 0.063689835 0.0015204014 -0.033227257 -0.027853427 -0.0339624 -0.07848454 -0.058722064
-0.01970439 0.058081735 0.030082095 -0.018624425 -0.037609544 0.042664465 -0.025829265 0.018071085
-0.01761587 -0.047668856 0.06885036 0.07375799 -0.03355032 -0.07020148 0.052455876 0.032307833
0.021530468 0.06320296 0.008889062 0.02642943 0.044913433 0.04403251 0.044618525 0.045902554
-0.025892599 0.02165705 -0.0725839 0.052443955 0.07097974 -0.07331264 -0.004855418 0.019067904
-0.020694898 0.061977834 -0.0641221 -0.017107772 -0.06425575 -0.03347289 -0.07076337 0.06848427
-0.02885478 -0.053694773 -0.041173942 0.050470434 0.008171632 0.025055273 0.009387965 0.016993674
0.05518951 0.037593734 0.0035001263 0.033006165 -0.002857977 -0.016274542 0.014405632 -0.051719118
-0.035655253 0.016874976 0.05310831 -0.05624433 -0.025288979 0.019888101 -0.062319774 -0.04913947
-0.06350303 0.024027303 -0.04495475 0.034158714 0.054619815 -0.0054554185 -0.067417346 -0.07003045
0.064730644 -0.05860263 0.03384971 0.069530435 -0.03059448 -0.061229873 0.073427096 -0.025692042
-0.06886391 -0.014403821 -0.028332679 0.05752941 -0.008703073 -0.046333455 -0.02225161 0.024609191
-0.015045496 -0.00530442 -0.067316614 0.01883793 -0.06969404 -0.0351564 0.039831284 0.0012713297
0.06149126 -0.05349369 0.026528273 0.004107185 -0.018843355 0.04927733 -0.010557987 -0.061168663
0.07060559 -0.037508585 0.023499548 0.062860094 0.04244168 -0.057254627 0.023448676 -0.041033383
0.060935892 -0.03559678 -0.04539793 0.057363097 -0.037985213 -0.026387215 0.021520615 -0.0017000508
0.062460694 -0.006665579 -0.002979515 0.013449457 0.01735322 0.0024647068 -0.047507063 0.028734397
00000000: 56be 1a3d 2fbc 363d f67b b3bc 346a 10bd
00000010: 4e2d 35bd 0539 3cbc 5d71 7a3d 9869 a1bd
00000020: 9e3b d23c c122 14bc a237 75bc 6be2 77bc
00000030: a691 173c 6711 d8bb db48 d43c 86f8 043d
00000040: 1696 2f3c 6e30 a23c 6eda f4bc 04a5 3b3d
00000050: 33a2 0cbd 4d8b 85bc 72fc 26bc 6c3e 0a3c
00000060: f6e9 02bd 2e22 9cbd fb0a 29bd 0bb7 81bc
00000070: 9ebb 4d3d daa9 6a3d 068f 05bb 26da 943d
00000080: c953 d63c d1ae dc3c 354d 9f3d f4e0 17bd
00000090: 8019 453d b515 91bd 521b ecbc f0a0 97bc
000000a0: 38f8 eb3c 59fb dfbc 8961 3e3d c005 ae3c
000000b0: 239a dfbb 9324 90bd c9fc 663b 5532 453c
000000c0: 548b aa3c 299f 773d 5614 303d 4e46 833d
000000d0: a2a3 58bd 7de2 c43a 0c55 9b3d c4e2 fa3c
000000e0: c6b9 89bd e44d 73bd 1e9f 833d d780 0f3d
000000f0: 1920 79ba fd0f 8dbd e313 9d3d 508b 26bd
00000100: a48b 043d c8ed a6ba 015f a8bc 721e 033d
00000110: 4454 3b3c 9fce 83bd dab6 7abd 2a54 87bd
00000120: 4844 ac3c 9bd9 63bb 3808 82bd 2575 9abd
00000130: b05d 2bbd 9dee 243d c6a8 e93c 4057 523c
00000140: cf0c 34ba 7b69 ddbc fbe0 60bc 2124 923a
00000150: 96f8 843d bb18 963d d9d7 61bc f85e 253c
00000160: 8252 19bd ee22 29bd 89f2 62bc 277e 833d
00000170: 7157 9fbd 5ac2 913d 5d12 953d 9e31 36bd
00000180: 7d07 95bd 0149 483d 43d0 a5bc e8fd 763d
00000190: 35c7 653c 46e2 6cbd 313b 973d 657e a73c
000001a0: 055f 1f3d ecc3 9cbd 9d23 18bd 380d 833d
000001b0: a044 913d a84e a03d 9361 e63c 31b9 5b3d
000001c0: c243 0cbd bb3d a13c 400d 0d3b cc84 adbc
000001d0: 75a0 72bd 3f19 2a3d fca1 783c 737d 943d
000001e0: dc1f 583d d16f 823d 3548 c73a 4e19 08bd
000001f0: df2c e4bc 281c 0bbd 81bc a0bd 8c86 70bd
00000200: 1a6b a1bc 1de7 6d3d ba6e f63c 4092 98bc
00000210: 770c 1abd efc0 2e3d e597 d3bc d009 943c
00000220: 284f 90bc 6b40 43bd 6b01 8d3d 6e0e 973d
00000230: 0f6c 09bd cbc5 8fbd f9db 563d 3855 043d
00000240: aa60 b03c 8e70 813d 6ea3 113c 8882 d83c
00000250: 26f7 373d 6f5b 343d eac1 363d 5104 3c3d
00000260: b71c d4bc 206a b13c dea6 94bd 79cf 563d
00000270: d35d 913d f024 96bd 331a 9fbb 4b34 9c3c
00000280: 5988 a9bc 78dc 7d3d 7352 83bd 9925 8cbc
00000290: 8598 83bd de1a 09bd 63ec 90bd 7b41 8c3d
000002a0: dc60 ecbc 0def 5bbd 02a6 28bd 16ba 4e3d
000002b0: 4fe2 053c b740 cd3c fbcf 193c 5136 8b3c
000002c0: 650e 623d e3fb 193d 6062 653b 7931 073d
000002d0: e64c 3bbb 3052 85bc 9a05 6c3c 6dd7 53bd
000002e0: 3e0b 12bd 643d 8a3c 1988 593d 7460 66bd
000002f0: d52a cfbc 5fec a23c 0543 7fbd 7846 49bd
00000300: e00d 82bd e8d4 c43c 7922 38bd 02ea 0b3d
00000310: 07b9 5f3d 5ec3 b2bb 1b12 8abd 206c 8fbd
00000320: 8091 843d 5009 70bd fea5 0a3d f965 8e3d
00000330: 46a1 fabc 2dcc 7abd f260 963d 1e78 d2bc
00000340: 8608 8dbd 01fe 6bbc ef19 e8bc f5a3 6b3d
00000350: 5597 0ebc 26c8 3dbd 0249 b6bc 3799 c93c
00000360: 6281 76bc b3d0 adbb 4bdd 89bd 0152 9a3c
00000370: c0bb 8ebd 2800 10bd 2126 233d bfa2 a63a
00000380: 42de 7b3d 331c 5bbd d251 d93c 9195 863b
00000390: 615d 9abc 07d7 493d 68fb 2cbc fe8b 7abd
000003a0: aa99 903d 9aa2 19bd 2082 c03c cbbc 803d
000003b0: 54d7 2d3d d483 6abd 7017 c03c 9f12 28bd
000003c0: ea97 793d eecd 11bd 2ef3 39bd 91f5 6a3d
000003d0: 6296 1bbd 002a d8bc 004c b03c 3dd4 deba
000003e0: c9d6 7f3d ee6a dabb f743 43bb 1c5b 5c3c
000003f0: 5728 8e3c eb86 213b c496 42bd 6664 eb3c

fc.3.bias f4 [100]
-0.06906102 0.009740273 0.016038649 0.04190076 0.06747863 0.009944185 -0.020275375 0.019042924
0.07275098 -0.0067131235 0.049547337 -0.028529448 0.02818173 -0.024745457 0.034181144 -0.06374329
-0.06203245 0.03871688 -0.011152117 0.009166066 -0.012171861 -0.0036662458 -0.00026904553 -0.05089784
-0.02222267 0.0014369646 -0.0072443318 0.021884535 0.050237544 0.01552752 -0.0048478614 -0.05737186
-0.029958801 0.058393776 0.062417563 -0.07041967 -0.046537988 -0.052700717 -0.072028674 0.026326206
0.03086123 0.02208071 0.022840338 -0.050711397 -0.06205196 0.02026867 -0.010820985 -0.070667066
0.032598216 -0.05552551 -0.014065833 -0.03858075 0.03228784 -0.03789941 -0.0007913687 -0.015327249
0.062244453 -0.069393836 0.07111381 0.020490082 0.026401926 0.05163323 0.07830033 -0.059463356
0.005762094 0.08397213 -0.033892266 -0.049144745 -0.06902022 -0.01722929 -0.052592818 -0.0040002745
0.039678898 -0.06346702 -0.06325723 -0.012921713 0.04918225 -0.00628487 0.06649147 -0.040674187
0.086793646 0.0073309215 0.042420574 -0.008591191 -0.066244915 0.058801755 0.021230279 -0.01658773
0.022418417 -0.02969982 -0.06614977 0.047338884 -0.048859578 0.0567183 -0.005066491 -0.022938823
0.04865098 0.0029986226 -0.010698324 0.035354722
00000000: dd6f 8dbd aa95 1f3c 7c63 833c 22a0 2b3d
00000010: 3c32 8a3d efec 223c 8b18 a6bc e8ff 9b3c
00000020: 77fe 943d c3f9 dbbb 26f2 4a3d 97b6 e9bc
00000030: 5fdd e63c fcb6 cabc 8701 0c3d d88b 82bd
00000040: bd15 7ebd 9795 1e3d 5eb7 36bc 442d 163c
00000050: 7c6c 47bc 6645 70bb ae0e 8db9 417a 50bd
00000060: 510c b6bc 8858 bc3a dc61 edbb 3247 b33c
00000070: e2c5 4d3d 2467 7e3c cfda 9ebb c1fe 6abd
00000080: 296c f5bc 502e 6f3d 8fa9 7f3d 3038 90bd
00000090: 9e9e 3ebd b5dc 57bd c583 93bd 0eaa d73c
000000a0: b1d0 fc3c 9be2 b43c a91b bb3c c1b6 4fbd
000000b0: 322a 7ebd 7b0a a63c 804a 31bc e5b9 90bd
000000c0: b585 053d b86e 63bd 6174 66bc d906 1ebd
000000d0: 4140 043d 693c 1bbd db73 4fba 241f 7bbc
000000e0: 0af4 7e3d 5b1e 8ebd 1ea4 913d d1da a73c
000000f0: da48 d83c 5e7d 533d ec5b a03d d98f 73bd
00000100: f3cf bc3b 95f9 ab3d 9ed2 0abd 004c 49bd
00000110: 795a 8dbd 7124 8dbc 916b 57bd bc14 83bb
00000120: 5786 223d fffa 81bd 028d 81bd 98b5 53bc
00000130: 5473 493d 50f1 cdbb ae2c 883d fa99 26bd
00000140: dec0 b13d 3a38 f03b 32c1 2d3d 11c2 0cbc
00000150: 6aab 87bd 1cda 703d 1feb ad3c fee2 87bc
00000160: d4a6 b73c 094d f3bc 8879 87bd 6be6 413d
00000170: fb20 48bd 7351 683d cf04 a6bb 33ea bbbc
00000180: 4046 473d 8a84 443b 0648 2fbc 1dd0 103d

fc.6.weight f4 [2, 100]
0.06263429 0.009774865 -0.084038466 0.064744934 0.030316534 -0.09122088 0.0014429007 -0.06440606
-0.08919036 0.040363427 -0.016236803 -0.049287964 -0.047328766 0.08997521 0.014599463 0.022280557
-0.0013630994 0.031133447 -0.081346534 0.009193542 0.07613887 -0.007342561 -0.06580164 0.03641061
0.066986 0.07843402 0.077929415 -0.046404604 -0.019598918 0.030033078 0.0023127487 0.050507948
-0.053195715 -0.038002096 -0.055632196 -0.048521135 -0.078949556 -0.02681803 -0.098542266 0.06393361
0.09223065 0.06501292 -0.06839733 0.010935749 0.09701736 0.037625276 0.0835598 -0.052118685
0.0019182278 -0.008684602 0.02025468 0.06664651 -0.06906787 0.014022537 -0.083367355 -0.07747487
-0.06434017 -0.08416388 -0.055711962 -0.042252026 -0.06630243 -0.061202336 -0.06501385 0.06908565
-0.08128242 -0.0391447 0.035256084 0.033304024 -0.032351397 0.07098746 -0.020282948 -0.094419144
-0.08563441 0.041894924 -0.10187969 -0.007531243 0.026905645 0.04463879 0.07201451 0.094578266
-0.038549777 0.019218344 -0.10126192 0.00052125315 -0.060649782 -0.0125267245 -0.017165642 -0.035266057
-0.07349246 0.094718866 -0.056290537 -0.08564143 -0.089277014 -0.057359576 -0.017577726 0.08681182
-0.010268214 -0.07613888 0.001566719 -0.009572494 0.018149449 0.011225186 -0.04086834 0.084156275
-0.06297004 -0.062688515 0.0609027 0.042362306 0.021159101 0.08771387 -0.09269265 -0.09012866
0.095489696 0.008800024 0.074161306 -0.09418446 0.04195725 -0.011851241 -0.012044916 -0.028968068
-0.09390697 -0.045589577 -0.0910751 -0.056129478 0.01902092 0.087652445 -0.040273752 -0.07977712
0.042861145 0.08659008 0.06942523 -0.046715334 0.02173083 0.03915014 -0.07599183 0.08260374
0.010769587 -0.068786845 0.0024382945 0.07602388 -0.06426664 -0.054342408 0.067129 -0.005253457
0.07273045 0.054763667 -0.02506497 0.08048738 0.057147153 -0.06393861 -0.09201789 -0.09673325
-0.06545169 -0.05112786 -0.07584962 0.06166658 -0.039491374 0.040375885 -0.07443156 0.09730563
-0.014329683 0.057207294 0.063323714 -0.007379114 0.06998578 0.03572915 -0.03050327 -0.077226005
0.05866596 -0.055591952 0.06840466 -0.009059448 0.03161311 -0.06741702 -0.025427004 -0.01601983
0.069861814 -0.043537848 0.085807875 0.036060356 0.100659244 0.0106223 0.008928328 -0.06440212
-0.02678187 0.0105781 -0.07418674 0.08323021 0.098396726 0.074369796 0.020430284 0.0128518045
0.086623535 -0.06882813 0.0817002 -0.03629359 -0.01318201 0.011382191 0.077027045 0.0751933
00000000: 6846 803d c126 203c 5c1c acbd fe98 843d
00000010: 615a f83c 03d2 babd b71f bd3a 53e7 83bd
00000020: 6fa9 b6bd 1f54 253d 0b03 85bc 2de2 49bd
00000030: cfdb 41bd ec44 b83d 9632 6f3c b785 b63c
00000040: 07aa b2ba 920b ff3c 0399 a6bd 83a0 163c
00000050: b2ee 9b3d de99 f0bb 03c3 86bd 4b23 153d
00000060: f52f 893d 04a2 a03d 7599 9f3d c112 3ebd
00000070: e98d a0bc ee07 f63c 7c91 173b 6ce1 4e3d
00000080: c0e3 59bd 16a8 1bbd 96de 63bd 19be 46bd
00000090: 4eb0 a1bd 7cb1 dbbc 87d0 c9bd a0ef 823d
000000a0: 6ce3 bc3d 7e25 853d e613 8cbd db2b 333c
000000b0: 0ab1 c63d f61c 1a3d 6721 ab3d 677a 55bd
000000c0: 0b6d fb3a dc49 0ebc 25ed a53c f77d 883d
000000d0: 7573 8dbd c8be 653c 81bc aabd 25ab 9ebd
000000e0: c7c4 83bd 1d5e acbd 3a32 64bd 7610 2dbd
000000f0: 92c9 87bd 4daf 7abd fb25 85bd c77c 8d3d
00000100: 6677 a6bd 3156 20bd af68 103d cd69 083d
00000110: e682 04bd e061 913d 6d28 a6bc d35e c1bd
00000120: 1861 afbd 039a 2b3d 4da6 d0bd a5c8 f6bb
00000130: 3a69 dc3c 2ad7 363d 587c 933d 40b2 c13d
00000140: 5fe6 1dbd ca6f 9d3c 6962 cfbd b5a4 083a
00000150: e86b 78bd e43c 4dbc f69e 8cbc 2473 10bd
00000160: 3783 96bd f7fb c13d e890 66bd c664 afbd
00000170: ded6 b6bd e0f1 6abd 2aff 8fbc 65ca b13d
00000180: 033c 28bc b3ee 9bbd 5e5a cd3a f3d5 1cbc
00000190: 27ae 943c d8e9 373c 8f65 27bd 205a ac3d
000001a0: 70f6 80bd d662 80bd 1c75 793d 1984 2d3d
000001b0: da55 ad3c 54a3 b33d a5d5 bdbd 6095 b8bd
000001c0: 1a90 c33d fa2d 103c e2e1 973d c8e3 c0bd
000001d0: 5edb 2b3d b52b 42bc 0a58 45bc 714e edbc
000001e0: 4c52 c0bd 23bc 3abd 9585 babd 06e8 65bd
000001f0: c3d1 9b3c 2083 b33d 17f6 24bd 3062 a3bd
00000200: 2b8f 2f3d 2456 b13d d12e 8e3d 9458 3fbd
00000210: db04 b23c e65b 203d 9ba1 9bbd 262c a93d
00000220: ec72 303c 1ee0 8cbd cbcb 1f3b 68b2 9b3d
00000230: 3a9e 83bd 2596 5ebd ee7a 893d 3125 acbb
00000240: b4f3 943d de4f 603d 0d55 cdbc 91d6 a43d
00000250: 2213 6a3d 3ff2 82bd e073 bcbd 151c c6bd
00000260: 890b 86bd 726b 51bd 0c57 9bbd 1996 7c3d
00000270: b5c1 21bd 2f61 253d 936f 98bd 2d48 c73d
00000280: 0cc7 6abc 3252 6a3d ddaf 813d 7fcc f1bb
00000290: b454 8f3d bb58 123d fee1 f9bc ab28 9ebd
000002a0: b84b 703d 63b4 63bd be17 8c3d 146e 14bc
000002b0: c07c 013d ef11 8abd 4b4c d0bc 053c 83bc
000002c0: b613 8f3d be54 32bd 0abc af3d 06b4 133d
000002d0: 6f26 ce3d 2809 2e3c 1f48 123c 42e5 83bd
000002e0: a765 dbbc c44f 2d3c 38ef 97bd 9a74 aa3d
000002f0: 3984 c93d 314f 983d 695d a73c 6090 523c
00000300: ae67 b13d c3f5 8cbd 6f52 a73d 96a8 14bd
00000310: 5bf9 57bc 5f7c 3a3c 5bc0 9d3d f2fe 993d

fc.6.bias f4 [2]
-0.04564141 0.006310637
00000000: 7df2 3abd 76c9 ce3b
