Algorithms/shawn/exp1/fc_5.batch.pth (torch_old, 219243 bytes, 8 tensors)

fc.0.weight f4 [160, 226]
000000 16 f0 b9 3d 9d 53 d3 bb a0 2d 7f 3d 0b fd e3 3a
       0.09078996 -0.0064491765 0.06229937 0.0017394138
000010 ef 8a 36 3c 79 55 d9 3c 6e 9c e7 3c ff 5d 85 3c
       0.011141523 0.026530014 0.028272834 0.016280172
000020 2b f4 1b 3d d5 4e e9 3c 30 49 03 bd cf cc d6 ba
       0.038074654 0.028479973 -0.03205222 -0.0016387942
000030 a5 1c 7e 3a 6c 78 c8 bc 38 d1 cd bb a7 fe 29 3b
       0.00096935994 -0.024471484 -0.0062810443 0.0025939138
000040 f5 24 fe bc 67 e2 3a bd 22 32 ca 3a f7 f9 22 3c
       -0.031023482 -0.04562607 0.0015426318 0.009947292
000050 da 50 b4 3c e9 2f b3 bd f1 a2 67 3c f4 99 74 3d
       0.02201121 -0.087493725 0.014137969 0.059717134
000060 9e 5e 69 bd 52 ff 99 3c d7 a1 09 bc 64 3b 53 bc
       -0.056975 0.018798504 -0.008400402 -0.012892578
000070 4c 63 ac 3c 66 8f 42 3d 9b 5f 3a bd ec 38 c1 3d
       0.021043442 0.047500037 -0.045501333 0.09434685
000080 29 98 25 bc 95 b7 2f bd 17 7e a6 bc 99 34 c7 bc
       -0.010107079 -0.042899687 -0.020323796 -0.024317073
000090 16 39 09 3c 6a e3 cf 3c 38 87 44 bd e6 9e b3 bc
       0.008375427 0.025376994 -0.047980517 -0.021926355
0000a0 11 3e a0 3a ea c6 75 bd 4d 55 0a 3c 4f eb 03 bd
       0.0012225528 -0.060004152 0.008443189 -0.03220683
0000b0 05 62 05 3d 54 7a 2e 3d b9 1c e5 bd d1 28 8f 3c
       0.03256418 0.04259713 -0.11187119 0.017475517
0000c0 2f 80 87 bd 8e 2e fd bc b4 c1 29 3d 19 d1 aa 3b
       -0.06616246 -0.030905988 0.041444495 0.0052129147
0000d0 a3 e0 30 bc 26 7a 12 bd cf 62 df b9 c2 7d 18 bd
       -0.010795745 -0.03576102 -0.00042607493 -0.037229307
0000e0 53 73 01 bd 75 3c cb bc 41 12 09 3d 62 ee e2 bc
       -0.031604122 -0.024809102 0.033464674 -0.02770156
0000f0 d4 87 9c 3d c4 39 21 bc 9d 47 98 bc c8 c9 81 bd
       0.07643095 -0.009840433 -0.018588835 -0.06337315
000100 9d 5f d8 3c 2b b1 0f 3d d5 e8 19 bd ab 9e 36 3d
       0.02641278 0.03508107 -0.03757556 0.04458491
000110 5e ca e3 bc a6 d0 e7 3c db 26 26 bd 4b ac 04 bd
       -0.027806457 0.028297734 -0.0405644 -0.032390874
000120 83 af 01 3d 0f ce 72 bd cb 24 d7 3c ca 38 94 bc
       0.03166152 -0.059278544 0.026262661 -0.018093485
000130 10 05 63 3d 96 87 92 bc bb 56 5f 3d bb 9e 83 bc
       0.05542475 -0.017886918 0.054526072 -0.0160669
000140 f2 83 ae ba 26 51 49 bd 47 ae 8a 3b 4a 50 76 3d
       -0.0013314469 -0.049149655 0.0042322013 0.060135163
000150 d7 21 33 3d 4a 87 fa 3c fb 82 9d 3d bd 11 5e 3d
       0.043733444 0.030582089 0.07690998 0.054216135
000160 f3 f6 40 bd eb 9a 01 bd 93 26 08 3e 4a 03 08 3d
       -0.04711051 -0.031641882 0.13295965 0.03320626
000170 87 5e 69 bc ed f4 a2 bd 46 d0 80 bc 92 49 88 bc
       -0.0142437285 -0.07956872 -0.015724313 -0.016636644
000180 e0 fa 79 3c 87 24 09 bd e9 bf e3 3c 18 17 5d 3a
       0.015257567 -0.0334821 0.02780147 0.0008433922
000190 df d0 67 3c 02 21 1e bc 90 12 ca 3b d3 09 86 bc
       0.01414892 -0.009651424 0.0061667636 -0.016362106
0001a0 09 2d b5 bc c3 ca d3 3c 19 e5 c5 3c 34 03 02 3d
       -0.022116201 0.02585352 0.024157094 0.031741336
0001b0 eb 52 69 39 c6 9b 14 3d 26 da e0 bc 9d 6b d7 3d
       0.00022251501 0.03628137 -0.027447771 0.105185725
0001c0 b7 8d 2a bc 3b cd 9f 3c 05 2f 9a 3d 21 e5 4c bc
       -0.010409764 0.019507041 0.075284995 -0.0125058
0001d0 f7 dc c3 3d 9a 2c 19 bd f6 6d ff 3c ab 59 70 3d
       0.0956363 -0.03739605 0.031180363 0.058679264
0001e0 37 6e 8f bd e1 78 29 bd 25 a7 03 bc 6b 65 50 3c
       -0.07003444 -0.041375045 -0.008035456 0.012719492
0001f0 26 35 31 3d 4d a0 18 bd 86 b1 1a 3d ad b5 8f bd
       0.043263577 -0.03726225 0.037766956 -0.07017074
000200 85 12 4a 3d d6 4b 15 3a bb 43 04 3c 49 0c 63 3b
       0.049334068 0.00056951994 0.008072789 0.0034644774
000210 41 23 1a bc 88 d8 3b bc 04 ed 4c bd 92 3b 20 3c
       -0.009407819 -0.011465199 -0.050030723 0.009779828
000220 5d 6b 7d bd 2c 92 90 3d d5 26 94 3a d2 88 42 3d
       -0.061869968 0.0705913 0.0011303077 0.047493763
000230 0b 46 e0 3c 6c 82 78 3c 06 44 69 bc 19 bf 99 bd
       0.02737715 0.015167814 -0.014237409 -0.07507152
000240 ab 13 26 ba 32 47 28 bd bc 90 ae bb 40 5c 69 3d
       -0.0006335328 -0.041083522 -0.0053273123 0.056972742
000250 fa 5f a6 3c 8f 69 d9 3c a4 6b 7e 3c 93 3b 86 3c
       0.020309437 0.026539592 0.015528593 0.01638583
000260 1a 93 aa bc 0c 98 83 bd 76 e8 14 3d 01 d0 dc 3d
       -0.020822097 -0.06425485 0.036354505 0.10781861
000270 0a b5 cc bc 74 5f 7d bd df f3 16 bd 1f 87 a8 3c
       -0.02498867 -0.06185861 -0.036853667 0.020572243
000280 62 f5 d3 3c 21 36 06 3d eb ea 58 bd 99 ac 1d bd
       0.025873844 0.032766465 -0.05295841 -0.03849468
000290 6b f3 b5 bc c3 29 1b 3d 96 64 86 bd 1a 16 8d ba
       -0.022210797 0.037881624 -0.06562154 -0.0010764033
0002a0 f4 a2 32 3d 6e 45 77 bb d1 6f cd 3a dc 05 2c 3d
       0.043612435 -0.0037730592 0.0015673583 0.041997775
0002b0 20 c9 c6 bd 74 d0 88 3d b1 96 1d 3d 5f 02 91 bc
       -0.0970633 0.06680384 0.03847379 -0.017701326
0002c0 18 cc 3e 3a 0d 36 24 3d 26 49 5f 3d 64 6c ee 3c
       0.0007278337 0.04009061 0.05451312 0.029104419
0002d0 12 31 1a 3c a8 cc 4c 3c db 41 93 bc e4 30 43 bd
       0.009411113 0.012499966 -0.017975738 -0.047654048
0002e0 b7 01 aa 3c 0c 4a eb 3c a5 41 25 bd 73 3b 21 bd
       0.02075277 0.028721832 -0.040345807 -0.039363336
0002f0 b8 63 61 bd fa d0 03 bd e4 a0 d3 bb f1 5d b3 bd
       -0.05502674 -0.032181717 -0.0064583886 -0.08758152
000300 24 d3 fd bb ca fb fb 3c 4b 39 3a bc 0c 14 1f bd
       -0.007746117 0.03075971 -0.011366199 -0.038837478
000310 0e ca 33 3b da 47 74 bd c3 9a e3 bc ee ca 84 bc
       0.0027433666 -0.059638835 -0.027783757 -0.016210046
000320 da aa 53 bd d0 79 81 3c 33 fa 67 bc 05 a8 d4 bc
       -0.05167661 0.015805155 -0.014158773 -0.025959024
000330 fd 30 71 3c 26 c9 48 3c f4 b0 7c bd e6 a6 16 3d
       0.014721152 0.012254989 -0.061692193 0.03678026
000340 dd dd c9 bc 5b 5f 7e bb c0 54 0e 3d 80 7f 38 3c
       -0.024641925 -0.003881416 0.034748793 0.011260867
000350 5f 66 f8 3c 0e 50 31 3d ee b6 60 3d a2 64 83 bd
       0.030322252 0.043289237 0.054861955 -0.064156786
000360 c5 20 4a bc 54 ae a3 bc cd 33 2a 3a a0 85 bf bc
       -0.012336914 -0.019980587 0.0006492704 -0.023379147
000370 f2 f2 11 bd df c5 e3 bc ae 28 46 bd 6e fc c6 bc
       -0.03563208 -0.027804313 -0.04837864 -0.02429029
000380 16 88 c1 3c 97 fd 3e 3d 20 2e cb 3d f5 11 30 bb
       0.023624461 0.04662856 0.09920907 -0.0026866172
000390 8d e6 9d bc 0b 1a 19 bd 42 87 5c 3d 6c 0e 52 3d
       -0.019274974 -0.037378352 0.05383993 0.051283285
0003a0 bb e7 20 bc 82 67 c6 bc 18 51 19 3c ce 0c c8 3c
       -0.009820874 -0.024219278 0.009357713 0.024420168
0003b0 1e 02 32 3d 43 35 20 bd fa f8 bc bc 8e b5 80 3d
       0.04345905 -0.039113294 -0.02306794 0.06284629
0003c0 98 87 89 bd a5 d7 8d 3c a8 b6 3a 3d e1 1a 46 3d
       -0.067153156 0.017314741 0.04558435 0.048365477
0003d0 2d 3d 2f 3d e1 91 ae 3c 67 36 9f 3d 1a 16 74 3d
       0.04278295 0.021309795 0.07774048 0.05959139
0003e0 e8 fe 02 3d 8e 0d ec bc d6 b0 0e 3c 3a a1 d0 3c
       0.03198138 -0.028815057 0.008709153 0.025467504
0003f0 7d bb e6 bc 87 14 72 bc 60 de a9 bc 75 ce 9f 3b
       -0.028165573 -0.014775402 -0.02073592 0.0048769065

fc.0.bias f4 [160]
000000 34 59 70 3c 74 d0 52 3d 65 e1 84 3d dc dd 5d 3c
       0.014669705 0.051468328 0.06488303 0.013541665
000010 c7 ed 64 3d 9b 7a 0a 3d 37 3d ad bc 96 05 30 3d
       0.055890825 0.033808332 -0.021147354 0.042974077
000020 b1 52 59 bc f0 8b b2 bc d9 81 a1 3d cc 31 e4 bc
       -0.013264344 -0.021795243 0.078860946 -0.027855776
000030 a7 d3 3c bd 65 d1 16 3c ff b3 24 bd 97 34 4b bd
       -0.046100285 0.009205197 -0.04021072 -0.0496107
000040 35 f2 18 bd a6 89 1f bc 71 00 bf 3c b3 4c 31 3d
       -0.03734036 -0.009737408 0.02331564 0.043286037
000050 a0 d5 84 3d 6d c5 37 3d f5 32 f2 3d 40 9b 13 bd
       0.06486058 0.044866014 0.118261255 -0.03603673
000060 38 6d 90 3d 52 55 9d bb b5 ff 00 bd 15 65 a2 3d
       0.07052082 -0.0048014307 -0.03149386 0.07929436
000070 ec 07 3b bd bd 98 f0 bc e9 2e 93 3c e8 36 1f bd
       -0.04566185 -0.029369706 0.017966704 -0.038870722
000080 d2 b8 60 3d 59 aa c3 bc 72 10 84 3b ae b6 d5 3c
       0.05486376 -0.023884939 0.0040302807 0.026088085
000090 c7 64 6e bc 06 0a 15 3d 8d 66 ed 3d 4b cb 44 3d
       -0.014550394 0.036386512 0.11591826 0.048045438
0000a0 6e 3d cc bc f7 9f 93 3b 99 07 23 bd 9e 01 72 3c
       -0.024931636 0.0045051533 -0.039802168 0.014770893
0000b0 28 61 4c bd 3d 73 35 3d 58 32 20 3d 13 3a 9f 3b
       -0.049897343 0.044299353 0.03911051 0.004859218
0000c0 76 4f 95 bc 43 f4 db 3c 9c 09 82 3d bb 24 5c 3d
       -0.018226366 0.026849872 0.06349489 0.053745966
0000d0 a1 13 16 bd c9 34 5e bd ac f5 c5 3b 6e 79 db 3d
       -0.036639813 -0.05424956 0.0060412493 0.1071652
0000e0 79 68 1c bd 42 35 7b bd 2f 6b 66 bd a8 b7 99 3d
       -0.03818557 -0.061330087 -0.056254562 0.07505733
0000f0 db 42 5e bd 88 86 4e 3d d3 7e 02 bc 6e 29 76 ba
       -0.054262977 0.050421268 -0.007964808 -0.0009390329
000100 27 e2 e4 3a 58 62 21 3c 97 0d 1a bd 89 d3 f7 bb
       0.0017462418 0.009850107 -0.037610617 -0.0075630588
000110 45 8c ce 3d 1c b7 97 bd 9d 75 3c bc ff 87 79 bb
       0.10085348 -0.07407972 -0.011502651 -0.0038075445
000120 0b 9f 65 3c 2c 55 42 39 7f 6d 41 bd 3b c0 d9 3b
       0.01401497 0.00018533011 -0.047223564 0.00664523
000130 19 cc cf 3c e2 82 5e 3b 7e 94 85 bd 77 98 71 3d
       0.025365876 0.0033952524 -0.06522463 0.058983292
000140 bf 86 17 3c ac 6f 2e 3d 54 6e 61 bd 90 3b 84 bc
       0.009248435 0.042586967 -0.055036858 -0.016141683
000150 2a 7f 26 3d 63 10 16 bc e9 99 79 3c a5 3b 93 bc
       0.040648617 -0.00915918 0.015234449 -0.017972777
000160 9f c0 4e 3d fd a5 12 3d 38 c9 8d 3c 13 8c 6c 3c
       0.050476667 0.03580283 0.017307863 0.014437693
000170 06 57 b7 3d 4b 76 87 bb 8a 4e 3c bd 6d ab 49 3d
       0.08952145 -0.0041339747 -0.04597334 0.04923575
000180 b7 0d 3b ba ab 09 ab bc ef f9 9b 3d 42 7d a6 3d
       -0.00071355276 -0.020878633 0.076160304 0.0812936
000190 14 55 db bc 0c b2 c0 3a 48 e9 3d bd 1d d5 b6 3b
       -0.026773967 0.00147015 -0.046365052 0.0055796043
0001a0 aa 22 b3 3d 31 39 3b bc 1b fc 81 bd 10 48 86 3d
       0.08746846 -0.01142721 -0.063469134 0.065567136
0001b0 56 aa b8 bd b4 87 83 3c ac e3 cd bc ec 1e d5 ba
       -0.09016864 0.01605592 -0.025132976 -0.0016259826
0001c0 fd cb 90 3d b7 b5 07 bd f0 5f 8b bc 1d b7 02 bc
       0.07070158 -0.03313228 -0.01701352 -0.007978228
0001d0 2e ba 51 3d 55 bf df 3a d6 89 0a 3d 87 78 ae bb
       0.051202945 0.0017070571 0.033822857 -0.0053244266
0001e0 9a 9d 68 bc dd 09 7e 3d 7c 15 33 bd 70 8d 6c 3d
       -0.014197731 0.062021125 -0.04372166 0.057752073
0001f0 6a fe 17 3c b4 d6 48 3d d5 25 fb 3c 6a ef 39 3d
       0.009276966 0.04903288 0.030657688 0.04539434
000200 23 74 3b 3d 5d 9b 99 3d 68 09 80 bb 84 2b 20 bd
       0.045765053 0.07500336 -0.0039073713 -0.039104
000210 d5 41 a6 3d a6 2f 11 3d 64 13 e1 bc ba 6f b8 bd
       0.08118025 0.03544583 -0.027475066 -0.09005685
000220 92 a9 ee 3c cf 6b 78 3c 5f e2 53 3d 52 bc 08 ba
       0.029133592 0.015162422 0.051729556 -0.000521605
000230 5f a9 54 3d a5 ea 9f bc 60 29 50 bd 69 ab 17 bd
       0.051919337 -0.019521067 -0.05082071 -0.037028704
000240 8f b8 0c 3d a2 1a 84 bd 72 47 45 bd 75 eb 80 3d
       0.034355696 -0.06450392 -0.04816384 0.0629491
000250 f7 9b 94 3b c8 95 b5 b9 58 32 bb bb 9f 9b 9d 3d
       0.004535194 -0.00034634606 -0.0057127886 0.07695698
000260 de f6 b4 3c 9d e1 9e bc 60 c0 4e bd 10 6d 85 3d
       0.022090372 -0.01939469 -0.05047643 0.06514943
000270 3c 7a 0d bd 91 13 fb 3b 6a c7 43 bd a0 7d 00 bd
       -0.0345404 0.0076622446 -0.047797598 -0.031369805

fc.2.weight f4 [100, 160]
000000 a8 ab fa 3c fe 22 3e bc 28 2d b0 bb c6 0a 29 3d
       0.03059943 -0.0116050225 -0.005376477 0.04127004
000010 61 66 d8 bc d9 84 96 bd 0f 1a a5 3c 06 2a b3 bd
       -0.026416006 -0.073495574 0.020154027 -0.0874825
000020 19 15 31 bd cd 5f 1b bd 8a 8c f2 3c b4 b7 77 3d
       -0.04323301 -0.03793316 0.02960803 0.060477927
000030 1e a6 07 bd a3 7b 55 3d 2a e6 8a bb e3 bc a4 bd
       -0.033117406 0.052119862 -0.0042388635 -0.0804384
000040 25 ce 8c 3d 12 3f d4 bc 06 82 0e 3c 84 fe a6 bd
       0.068752564 -0.02590898 0.008697992 -0.08154014
000050 87 72 94 3d 4b 0c 94 bd 76 1a 4d 3d a1 cf ee bc
       0.07248407 -0.07228907 0.050074063 -0.02915174
000060 d3 51 8b bd b0 af 1d 3d 5d f2 87 3d 39 fc 87 bd
       -0.06802716 0.038497627 0.06638024 -0.066399045
000070 6a a2 cc bd fb 21 99 bb 4b 3e 3d bc 0f c4 5c 3d
       -0.099919155 -0.0046732402 -0.011550496 0.053897914
000080 3e 84 44 3d 1a 24 00 bd 6a d0 51 3c fb 51 9b bc
       0.04797768 -0.03128443 0.012806037 -0.01895999
000090 a6 ce 48 3d 4b 72 76 3d 4f 16 9e 3d a8 e5 a1 3a
       0.0490252 0.060167592 0.07719099 0.0012351768
0000a0 c7 11 be 3c a4 ed 3b 3d 36 f8 c5 3c 3a 8f a4 3b
       0.023201836 0.04588093 0.024166208 0.0050219567
0000b0 01 18 ab 3c 8a 9a 92 3d 8e c9 a2 bd e4 aa b1 bd
       0.02088547 0.07158382 -0.079486 -0.08675173
0000c0 33 de b3 bc 31 c9 3c 3c 96 1d 62 bd 67 f6 43 bd
       -0.021956539 0.011522577 -0.055203997 -0.04784241
0000d0 7a 64 f3 3b f3 dd 19 bd fd a3 b6 3d 17 95 e1 3c
       0.007427749 -0.037565183 0.08917997 0.027536912
0000e0 5f 43 94 bd c4 a5 07 bd a6 f3 b1 bc 4c 21 f4 3a
       -0.072394125 -0.03311707 -0.021722626 0.0018625646
0000f0 80 f7 4b 3c 61 ac 57 3d 16 27 c7 3d 43 33 b1 bd
       0.012449145 0.052654628 0.09724252 -0.086523555
000100 26 54 61 3d 2e 52 07 bc e5 7f 64 3d 35 e5 b7 bb
       0.05501189 -0.008259339 0.055786032 -0.0056120404
000110 4e f0 be bc ca 89 13 3d d0 b4 df bc 71 62 96 3d
       -0.023307946 0.036020078 -0.027307898 0.07342995
000120 c4 fc 82 3d 5b df 9b bd 3c 96 86 3d d2 4f c4 3d
       0.063958675 -0.07610961 0.06571624 0.09585537
000130 6a c6 56 3b ff b1 28 bb 76 fd 59 bd 8a 0c 75 3d
       0.0032772073 -0.002574086 -0.053220235 0.05982641
000140 b4 f5 f3 bc 4e 67 41 bc 26 f9 56 bd 6a 2e bf bc
       -0.029780246 -0.011804415 -0.0524837 -0.023337562
000150 d3 40 90 bd 77 bf 15 bd cc 02 f4 bc 29 10 6a bd
       -0.07043614 -0.03655955 -0.02978649 -0.057144318
000160 38 16 89 bc 7c 40 b5 3d 9b d7 5a 3d 38 04 9e 3d
       -0.016734228 0.0885019 0.053428274 0.077156484
000170 c8 08 5b bd 6d 66 d2 3a e5 1d 8b bd 4e 63 39 3d
       -0.05347517 0.0016052254 -0.06792811 0.04526072
000180 66 c3 0b bc 7c 96 83 bd d8 76 8c 3d db 13 4e bd
       -0.008530473 -0.06425187 0.06858605 -0.050311904
000190 23 22 4b 3c f0 87 d0 bc f9 16 e7 bc 53 1f 1d 3d
       0.012398276 -0.025455445 -0.028209196 0.03835995
0001a0 f9 2a 91 bd 0a ca 0e bd 7d ad ae bd be 37 40 3c
       -0.070882745 -0.03486065 -0.08529184 0.01173204
0001b0 3e b3 ad 3c 36 bf 87 3d b7 c5 9b 3b a4 ea 15 bc
       0.021203633 0.066282675 0.004753794 -0.009150181
0001c0 f0 99 4c bc bf 94 c4 3d b0 dd 79 bd 69 84 7f 3d
       -0.012487873 0.095986836 -0.061002433 0.062382136
0001d0 bb 98 ff 3b 47 8e c5 3a 6a 12 53 bd 9b 63 2b 3d
       0.0078001893 0.0015072309 -0.051531233 0.041843038
0001e0 d4 14 41 3d 0a 0f 93 bb be 3a 57 3c 65 5a 1c 3b
       0.047139004 -0.004487877 0.013136564 0.002385759
0001f0 77 5d 8b 3c 08 2e 8a 3c 05 08 a8 bd 3b 64 af 3d
       0.017012341 0.016867653 -0.082046546 0.08564039
000200 99 9a 3b bd 78 47 05 bd 19 fc 8e bd e9 c1 29 bc
       -0.045801733 -0.03253886 -0.069816776 -0.010361173
000210 9e be 08 bd 35 5c 34 3d 57 22 9f bd ff 2f bd 3d
       -0.03338491 0.044033248 -0.07770222 0.0923767
000220 86 e7 1b 3d f7 74 94 bc e9 0d 9c 3c b9 e4 72 3a
       0.038062595 -0.01812218 0.019049602 0.000926565
000230 8f c4 6a 3d 10 e3 67 3c 17 b4 76 3d 3e e6 6e bd
       0.05731636 0.014153257 0.06023034 -0.058325045
000240 a8 69 4a 3d 96 72 25 bd a0 f3 2d 3c 37 25 33 3d
       0.049417168 -0.04039248 0.010617167 0.043736663
000250 4b 91 45 bd 9b a4 86 bc 4f e6 09 3c ad 20 b4 3d
       -0.048234265 -0.016435912 0.008416726 0.08795295
000260 b0 51 25 3d ab c6 eb 3a 36 d5 b4 bb 98 a4 01 bd
       0.040361106 0.0017988285 -0.005518581 -0.03165111
000270 0e da 67 3d db ee 36 bc b0 18 be 3d c4 a0 1b 3d
       0.056604438 -0.011165346 0.092820525 0.037995115
000280 03 dd 2b bd fb ea 74 3d 39 f7 9c bd 8e e9 87 3d
       -0.04195882 0.059794407 -0.076643415 0.06636344
000290 e9 5e 33 bc a7 2f 41 bd 25 59 22 bc b4 83 72 bd
       -0.010947921 -0.047164585 -0.009908949 -0.059207633
0002a0 f7 7b bb bd 49 eb 80 3d 37 ea 59 3d cd a3 45 bd
       -0.09154504 0.06294877 0.05320188 -0.048251916
0002b0 6e 3a 46 3d 79 e7 2d 3d da d2 0f bd e4 8b 52 3c
       0.048395567 0.042457078 -0.035113193 0.012850735
0002c0 8b a6 6d 3d 91 17 0b bc d1 80 00 bc 63 62 7a 3d
       0.058020156 -0.008489505 -0.007843212 0.061128985
0002d0 50 5d 7e 3d 46 d9 94 3c a1 16 12 bd 9f 99 4f 3d
       0.06210071 0.01817001 -0.03566611 0.050683614
0002e0 57 46 6b 3d 5e 08 69 bc f0 b6 b8 3d b8 6f 39 3d
       0.05744013 -0.014223186 0.090192676 0.04527256
0002f0 4d 6e 22 3d d8 bd a2 bd 25 02 01 3d e7 93 c2 3b
       0.039655972 -0.07946366 0.031496186 0.0059380415
000300 9a 71 95 3d 29 94 82 bc 1b 03 90 3d 09 8e 9a 3c
       0.072970584 -0.015939789 0.07031842 0.018866556
000310 f1 43 b3 bd a6 b5 af 3d 41 85 ad 3d 19 0d ab 3c
       -0.08753193 0.085795686 0.08472682 0.020880269
000320 b3 2a 69 bc 6f 36 b9 bd cf ac a6 bc 9a f8 0d 3c
       -0.014231372 -0.090435855 -0.020346073 0.008665228
000330 73 6e b1 3c 27 2a 83 bc 6e a8 16 3d b0 24 39 3d
       0.021659112 -0.01601131 0.03678172 0.045201004
000340 45 fb 24 3d 2c 8b c2 3b 3d 05 a0 3c fb 98 51 3d
       0.04027869 0.0059370007 0.019533748 0.051171284
000350 55 92 1c 3d f1 f8 b2 bd 17 86 16 3b b8 84 21 3d
       0.03822549 -0.08738888 0.0022968107 0.03943321
000360 a9 69 35 3d 2d 96 9e 3c c3 2e 2f bd 52 30 cb 3b
       0.04429022 0.019358719 -0.042769205 0.0062008286
000370 17 d0 b1 3d ca df 0c 3d 16 57 9d 3d b1 6f 6a bc
       0.08682268 0.03439311 0.07682626 -0.014308856
000380 31 3b 8e 3b c3 83 aa 3d c5 b8 38 bd ee 66 86 bd
       0.0043405523 0.08325913 -0.045098085 -0.06562601
000390 ee 18 80 3d f7 af 28 bd 84 06 88 3d 2d cd bf bc
       0.06254755 -0.04118344 0.06641868 -0.023413265
0003a0 72 f0 e3 3b bf c6 2e ba 21 6e 67 3d 27 83 aa 3d
       0.0069561535 -0.0006667189 0.05650151 0.083257966
0003b0 98 85 45 3d 91 2d a4 bd 32 2d a7 bc 4b ee 4c 3b
       0.048223108 -0.080165036 -0.020407293 0.0031269963
0003c0 fe f0 e0 3b 81 26 25 3d 96 b5 22 bc c6 a1 65 3c
       0.006864666 0.040319923 -0.009930989 0.014015621
0003d0 23 79 22 bc 4f 88 69 bc 96 e2 80 bd b8 1c 98 bc
       -0.009916577 -0.01425369 -0.06293218 -0.018568382
0003e0 7c 70 42 3d c9 e8 19 bd a3 3f f3 3c 20 e7 b0 3d
       0.047470555 -0.037575517 0.02969343 0.086378336
0003f0 ee 40 25 bd 6c 72 0b 3d e5 16 02 bb 6a 17 0a bd
       -0.040345125 0.034044668 -0.0019850072 -0.033713736

fc.2.bias f4 [100]
000000 4d cb ce 3d 4e cd 03 3e 1d af 91 3d fb ba 3b bc
       0.1009737 0.12871286 0.07113478 -0.011458154
000010 57 10 00 bd d6 b5 2d 3d 10 ae b9 3c 50 4f 2d 3e
       -0.031265583 0.04240974 0.022666007 0.16924787
000020 d3 01 7b 3c 8a ee 20 bd d0 64 ae 3d c9 83 4b bd
       0.015320259 -0.03928999 0.08515322 -0.049686227
000030 a4 72 be 3d ac 07 6a 3d 70 3d a9 bc 6f e8 37 bd
       0.0929921 0.057136223 -0.020659178 -0.0448994
000040 fd 92 0a 3d e1 24 83 bc 19 18 59 3d 97 63 17 3b
       0.033831585 -0.016008796 0.053001497 0.0023100132
000050 59 85 a5 3d 9d 93 af bc c6 eb 3f bc 0a 43 91 bd
       0.08082075 -0.021432692 -0.011713928 -0.07092865
000060 59 3a 51 bd 22 75 66 3d 04 14 16 3d 89 1d 33 3d
       -0.051081035 0.05626405 0.036640182 0.04372934
000070 05 38 ce 3d d6 72 8a bc c3 4a c7 3d 4d c7 ec bc
       0.10069279 -0.016900461 0.097310565 -0.028903628
000080 da a0 7b 3d 77 b1 d2 bc a7 02 3b 3d 72 4a 0c bd
       0.061432697 -0.025719387 0.045656826 -0.034250684
000090 88 5e 41 3c 36 67 bc 3b 2b 42 4b bc 41 5b 12 bd
       0.011802323 0.0057496084 -0.012405912 -0.035731558
0000a0 d2 83 34 bd e9 13 65 bd f3 58 0d bc 32 89 c4 3b
       -0.044071026 -0.05592719 -0.008627164 0.0059978003
0000b0 63 c6 81 3d 09 4b 79 bd 99 84 9b 3d 70 3e 90 bd
       0.063366674 -0.060862575 0.0759365 -0.07043159
0000c0 9a cb 8a bd a5 11 ab 3d d0 67 8d 3d f6 fb 21 3a
       -0.06777115 0.08352975 0.06904566 0.00061792077
0000d0 59 ec f3 3d b8 cb 11 bd 4c 39 05 bd 4e d1 10 bd
       0.11910314 -0.035594672 -0.032525346 -0.03535586
0000e0 40 ec 72 bd 78 b2 2d 3d 68 7a e0 bc 23 62 61 bd
       -0.059307337 0.04240653 -0.027402118 -0.05502523
0000f0 8f fb 75 bd 86 d7 0a bb d8 14 19 3d ab a5 47 3b
       -0.060054358 -0.002118559 0.037373394 0.0030463736
000100 56 cb 0f bd 19 ef 6b bd bf cd 31 bd 3e f5 c2 bd
       -0.035106026 -0.05760107 -0.043409105 -0.095194325
000110 9f 56 69 bd 21 d8 e7 3d ee 75 00 bd 63 21 f1 3c
       -0.056967374 0.1132052 -0.031362467 0.029434865
000120 ae 6d 0d bd 87 8f f2 3d 5d 73 46 3d bd 87 99 bd
       -0.034528427 0.11843782 0.048449863 -0.07496593
000130 f3 1f 7f bd 54 2c 6d bd 67 dc a1 bb 7c ca 8d bc
       -0.06228633 -0.057903603 -0.004939604 -0.017308466
000140 68 e9 c3 3c e1 08 33 3d 7a 9d ca 3d 06 2d 44 3c
       0.023915008 0.04370964 0.098933175 0.011973625
000150 80 56 bc 3d 84 cc 02 3e 44 f0 17 bd 8b 48 14 bc
       0.09196186 0.12773329 -0.03709437 -0.009050499
000160 30 07 af 3a 83 0f 1b 3e a2 89 e3 3d 89 44 18 3d
       0.0013353582 0.15142636 0.11110236 0.037174735
000170 7a 2e 5a bd 08 12 d2 3c ae b1 7a 3d 2d 9d 76 3d
       -0.05326698 0.025643364 0.061204605 0.06020849
000180 64 c6 1d bd df d5 0e 3d e5 42 f0 3b 7e a2 0e bc
       -0.03851928 0.034871932 0.007332193 -0.008705733

fc.4.weight f4 [20, 100]
000000 aa 60 01 be c5 22 d5 bd 8c 45 26 bd 2a ad e0 bd
       -0.1263453 -0.104070224 -0.04059367 -0.109705284
000010 5d e1 6f 3d 34 87 b0 3d d6 4e c0 3d da eb 4b be
       0.058564533 0.08619538 0.09390037 -0.19914189
000020 72 3d b6 3d 58 29 06 3d 23 ed b7 bd 5f 0d 45 3d
       0.088984385 0.032754272 -0.08980777 0.048108455
000030 a9 6d bc 3c e8 aa 32 bd dd 29 05 3e c6 51 b4 bd
       0.023001509 -0.04362002 0.13004251 -0.088046595
000040 31 e0 ed 3d aa bb 02 be d1 81 b1 bd 6e fc c6 3d
       0.11615027 -0.127669 -0.08667339 0.09716116
000050 39 61 ea 3d 16 07 94 3a f7 7f 90 bd 1a b1 4e bd
       0.11444325 0.0011293616 -0.07055657 -0.050461866
000060 b8 67 f4 bc 19 ae b2 bd ea 91 19 3e a9 47 24 3e
       -0.029834613 -0.08724613 0.14997068 0.16042961
000070 32 1e cf 3b 0e a0 a8 bc f2 92 be 3d 35 07 54 bd
       0.0063207382 -0.020584133 0.09305371 -0.051764686
000080 a8 16 69 3c 96 62 4d bc 75 6d 95 bc 3a c7 0e 3d
       0.014226593 -0.012535712 -0.01824067 0.034857966
000090 73 d9 98 3d 57 35 9a 3d 3b c9 32 bd fb cf 17 3c
       0.0746335 0.07529705 -0.04364894 0.009265895
0000a0 a1 a7 6f bd e0 04 11 3d ae 73 c8 bd 77 8b 2e 3d
       -0.058509473 0.03540504 -0.09787689 0.042613473
0000b0 65 dc 09 be 00 d4 17 3e 32 d0 0f be fd 8b cb 3d
       -0.1346298 0.14826965 -0.14044264 0.0993881
0000c0 e0 47 a3 3c 53 d2 ef 3c 2a fe 1c 3e 8e 49 f6 3d
       0.019931734 0.029275095 0.15331331 0.12025748
0000d0 ae 61 03 3e c9 46 0e bd 7c cc 79 bd c2 ee 69 3d
       0.1283023 -0.034735475 -0.060986027 0.057112463
0000e0 88 c4 94 3d e1 ab 75 3d 4e 08 4a 3c 8f 49 cb 3d
       0.07264048 0.05997837 0.012331082 0.099261396
0000f0 09 5f 18 bc e7 66 5f 3e ef 42 e0 bd a1 cc 3c 3e
       -0.009300002 0.21816598 -0.109502666 0.18437435
000100 69 6d f3 3d 3f f0 f2 3d f8 f2 b5 3d 50 e2 b7 bd
       0.11886103 0.118622296 0.08884233 -0.089787126
000110 bc 9d 00 be 76 fe dc 3d 0e d0 bc 3d e0 5a 05 3d
       -0.12560171 0.10790722 0.09219371 0.03255737
000120 a1 9b 9f bc 2b ee ae bc a3 63 de 3d 0a 9a bb bc
       -0.01948339 -0.021353802 0.10858848 -0.0229006
000130 56 28 d0 bd 4a f8 22 3e e9 55 76 3c 04 d0 0c 3d
       -0.101639435 0.15915027 0.015035131 0.034378067
000140 43 ad 7a 3c 00 8b 22 bd 69 bd 12 be 94 c7 fa bc
       0.015300098 -0.039683342 -0.14330067 -0.030612744
000150 fa 8b a9 39 94 21 4a 3d ea 0b 9f bd f3 ed d3 3d
       0.00032338483 0.04934843 -0.07765944 0.103481196
000160 7c 64 75 3c 86 a5 b4 bd 3e d7 45 be 8d 23 51 bd
       0.014977571 -0.088206336 -0.1932039 -0.051059294
000170 81 80 ee bd f2 3f 19 3e e1 1f 02 be 6d b3 1e 3e
       -0.11645604 0.149658 -0.12707473 0.15498133
000180 3f 59 d6 bc 09 af 85 3d 9f af f2 3c 9f 8f f1 bd
       -0.026165603 0.06527526 0.029624758 -0.11794972
000190 ea c2 85 bd e5 12 0a bd dc 51 5b bc a2 76 a3 bd
       -0.065313175 -0.033709425 -0.013386216 -0.07981612
0001a0 f1 4f 61 3d 43 f5 9e 3d fb 04 84 bd 0d 9c b4 3c
       0.05500788 0.07761624 -0.064462624 0.022047067
0001b0 d3 cd 9c 3d 71 29 5e 3d 0c 3d bd bc 60 db 41 bd
       0.07656445 0.05423874 -0.023100398 -0.047328353
0001c0 9f 43 d3 3c b8 90 ab bd 38 5d 2e 3d ea 60 48 3d
       0.02578908 -0.08377212 0.04256937 0.04892055
0001d0 13 25 9f bd 09 03 2b bd 3f 3b 85 3d cc d7 70 bc
       -0.07770743 -0.04175094 0.06505441 -0.0146998875
0001e0 a0 e6 a3 bc 81 a9 6f 3d 23 9c 90 3d 12 44 24 bd
       -0.020007432 0.05851126 0.07061031 -0.04010398
0001f0 60 dc 88 3d 44 17 09 bd bf 63 50 3d ff 44 ed 3d
       0.06682658 -0.033469453 0.050876375 0.115854256
000200 d7 29 d4 bd 86 1a 8e bd 10 b7 cb 3d 57 50 de bc
       -0.10359543 -0.06938653 0.09947026 -0.027137918
000210 ca 9f 49 bd ce 48 e8 bc 72 9a f5 bc 67 3a 02 3c
       -0.049224652 -0.028355028 -0.029980872 0.0079484945
000220 fb 6b b2 bb 2e 73 b1 bd b0 37 2b 3b c4 0d c9 bd
       -0.005445001 -0.08664547 0.0026125722 -0.09817079
000230 e8 ee 31 bc f3 7e 60 bb 53 ac 11 3d f6 f5 6a bd
       -0.010860182 -0.0034255355 0.03556473 -0.057363473
000240 74 23 9e bd 5b 34 2b bd 37 25 45 3d 3b 4d 25 bc
       -0.07721606 -0.041797977 0.048131194 -0.010089214
000250 08 a8 64 bd 9a 5b 80 bd 1b ab 6c 3d 0c b0 6a 3d
       -0.05582431 -0.062674716 0.057780366 0.057296798
000260 0e 44 16 bc c5 dd 4e 3d ea 87 89 3d 45 ff 5f bb
       -0.009171499 0.050504465 0.06715377 -0.0034179252
000270 8c 8e b7 bd 29 77 ce bc 6f 76 29 bd c2 53 ab 3b
       -0.089627355 -0.025203304 -0.041372713 0.0052284906
000280 de ec 3b 3d 0e dc b9 bc 30 6d d2 bc b7 17 8a 3d
       0.04588019 -0.022687938 -0.02568683 0.067428045
000290 ba ad 38 3d b1 06 5f 3d de 52 9f 3c 9e d1 51 bc
       0.045087554 0.05444974 0.019448694 -0.012806324
0002a0 f7 d3 84 bd 08 2f 02 bd 45 0a cb 3d 8b 9e a9 3c
       -0.064857416 -0.031783134 0.09914068 0.020705482
0002b0 c5 bb 93 3d 65 8d 56 bb 25 31 0e 3d 94 6d ae bd
       0.072135486 -0.0032738086 0.034714837 -0.08516994
0002c0 57 01 87 bd 16 c0 b2 3d 3c 23 94 bd a0 03 d2 bc
       -0.065920524 0.08728044 -0.07233283 -0.025636494
0002d0 67 70 4d 3d 05 b2 32 bd 35 d3 1c bd 7b e5 02 3c
       0.050156023 -0.043626804 -0.03828736 0.007989283
0002e0 6b a3 15 3d ac a8 4e bd 44 0d 7a bd 34 f5 9d 3d
       0.0365328 -0.050453827 -0.061047807 0.077127844
0002f0 7f 93 41 3d 90 78 3f 3c 98 f3 5f bd 5e 8b 0a bd
       0.047259804 0.011686459 -0.05467567 -0.033824317
000300 e3 28 a1 3c b4 7c b9 3d fb ce 3a bd 5b aa 79 3c
       0.019672817 0.09056988 -0.04560755 0.01523837
000310 ac f6 d3 bd fd 36 89 bd d5 c1 57 3d 22 b1 83 3d
       -0.10349783 -0.06699941 0.052675087 0.0643027
000320 1f d5 ae bd 50 04 53 3d 39 13 89 3d 37 2b 00 3c
       -0.085367434 0.051517785 0.066931196 0.007822803
000330 fe 7a cf 3d 0e 82 01 3e 62 2f 0c 3d d2 d7 44 be
       0.10130881 0.12647268 0.034224875 -0.19222954
000340 0b 46 48 3e 64 be 83 3a 12 84 d2 bd a8 ce b8 bd
       0.1955797 0.0010051248 -0.10279097 -0.090237916
000350 b3 8a 4e 3c 54 0a 88 be e4 d5 d0 bc bb 21 b2 bd
       0.012606311 -0.2657038 -0.025492616 -0.0869784
000360 b8 83 65 3d 13 6f 5c be 4c 49 6d 3d a4 da 4b 3e
       0.05603382 -0.21526746 0.05793123 0.19907624
000370 5a c3 c2 3e 1b 94 d2 3d 1d fb 88 bd f8 a1 b5 3d
       0.38039666 0.10282155 -0.06688521 0.08868784
000380 76 cf 60 3b 71 3d 94 bd 6c fb 75 3e 34 c2 ac 3e
       0.0034303344 -0.072382815 0.24021691 0.33741915
000390 e2 43 59 bd b3 e4 ed bd 00 3a 08 bd d7 21 cc bd
       -0.053043254 -0.116158865 -0.033258438 -0.09967392
0003a0 a0 63 2e bd 9a 9a cc bd 29 70 d8 3d 48 a9 e0 3d
       -0.04257548 -0.099904254 0.10568268 0.10969788
0003b0 ec ea dc bd 42 6a 7e bd 80 2e 12 3e 56 29 b5 bd
       -0.10786995 -0.062113054 0.14275551 -0.08845775
0003c0 4e f2 48 bd 88 ba de 3d 92 01 3e be b0 35 3f 3e
       -0.049059205 0.10875422 -0.18555287 0.18672824
0003d0 86 ca 46 be 29 0a 3f 3e 45 4e bd bd 7d d5 96 bd
       -0.19413194 0.1865622 -0.09243444 -0.073649384
0003e0 89 9f cd 3b e2 9c 1b be 89 8a 62 3e 6f af 41 3d
       0.0062751216 -0.15196565 0.2212316 0.047286447
0003f0 95 b0 5b 3e 27 74 9f 3d 57 e9 4b bd 8b 2b b5 bd
       0.2145408 0.07785826 -0.049783077 -0.08846196

fc.4.bias f4 [20]
000000 08 4a 1e 3e bf 5a 87 3d 8f b2 65 3e 17 76 c4 3d
       0.15457928 0.06609105 0.22431396 0.09592836
000010 de d2 91 bd 38 6e 45 3c af d4 1a bd c2 6e 9c bd
       -0.07120298 0.012050204 -0.037800487 -0.07638313
000020 1c dd 25 3e 11 45 13 3e e7 68 b1 3d a2 58 7f 3e
       0.16197628 0.14381815 0.08662587 0.24936154
000030 59 ac b2 bd d7 9b c4 bd 10 2f 2c 3e 0c ee f8 3d
       -0.08724279 -0.096000366 0.16814828 0.12154779
000040 7f ad cb bc b1 ac 1e 3e c3 16 be 3b 83 14 aa 3e
       -0.024863003 0.15495564 0.0058010533 0.33218774

fc.6.weight f4 [2, 20]
000000 d8 6f d5 be 75 b3 1b be 70 56 73 bf a8 66 c6 3d
       -0.41686893 -0.15205176 -0.9505377 0.09687549
000010 47 f8 0c 3d a3 23 7f 3c d6 bd 24 3d 11 4e 44 3e
       0.034416463 0.015572461 0.040220104 0.19170405
000020 0d 18 30 bf 9a 30 39 bf c4 ea 42 3d ba d5 1c 3f
       -0.687867 -0.72339785 0.04758717 0.6126362
000030 50 6e ff bc 81 65 ce bd b2 aa 22 3e 3d 44 ae 3e
       -0.03118053 -0.10077954 0.15885428 0.34036437
000040 ab 74 2e be 87 e3 8b 3d a6 41 9c bc 80 4b 39 3f
       -0.17036693 0.06830507 -0.019074272 0.7238083
000050 30 d7 19 3f de 45 a0 3d 9c ec 67 3f 25 99 db be
       0.60093975 0.07825826 0.9059541 -0.42890278
000060 55 b4 61 3e 6b 88 9a bd f5 e3 0f 3e 0c fc 35 3e
       0.22041447 -0.07545551 0.14051802 0.1777193
000070 d7 46 3d 3f 7e 15 36 3f e0 e5 8d be 34 27 49 bf
       0.7393622 0.71126544 -0.27714443 -0.78575444
000080 16 b6 46 3e 79 c0 d7 bd 01 0b 01 bf 8f ea df bd
       0.19405398 -0.10534758 -0.50407416 -0.109334104
000090 af 49 2b be 99 83 b9 be 0f 4a f9 3c ca 60 3f bf
       -0.16727327 -0.36233214 0.030430822 -0.74757063

fc.6.bias f4 [2]
000000 70 68 5a 3e 01 17 29 be
       0.21328902 -0.16512682
