Algorithms/AutoEncoder/AutoEncoderModels/legacy models/AutoEncoder_200_30_5_all_IO_noleave_VH.pt (torch_old, 723605 bytes, 36 tensors)

encoder.0.weight f4 [200, 113]
000000 b5 53 9a 3c e8 15 c9 3c 5a 8c 8f bd 90 39 b2 3c
       0.018838743 0.024546579 -0.07009192 0.021755964
000010 3d 4a b0 3e db 92 93 be 21 1f 91 3b e5 58 98 bf
       0.3443164 -0.2882298 0.0044287597 -1.1902128
000020 6d 61 08 be fd fa 6d bf 15 13 9a 3c 79 0c bf 3e
       -0.13318415 -0.929611 0.018807927 0.37314203
000030 58 b1 5d 3c 58 35 90 3c 13 de 8b 3c 4b 36 8f 3b
       0.013531052 0.017603561 0.017073667 0.004370486
000040 cc a9 8c 3c 45 61 56 3f 12 f4 43 3c 93 7b d7 be
       0.01717081 0.8374217 0.011960046 -0.42086467
000050 b0 bd 9f 3c 4a 17 0b 3d ca 30 ad 3c 76 a5 04 81
       0.01949963 0.033957757 0.021141429 -2.4363283e-38
000060 3e 18 21 3c 7f 39 0a 3f 98 1b 03 3d ce 34 da 3c
       0.00983244 0.5399398 0.032008737 0.026636507
000070 28 b4 cb 3c f2 ab 82 bf 07 1f af 3c 1d e9 99 3c
       0.024866179 -1.0208724 0.0213771 0.018787915
000080 e4 33 03 bb d5 40 96 3c fe bf 96 3c 2f 67 0b 3d
       -0.0020019943 0.018341461 0.018402096 0.03403395
000090 c8 cf 04 3d 91 5b 36 3c 5e 07 9d 3c a7 10 9d 3c
       0.03242472 0.01113023 0.019168552 0.01917298
0000a0 2a 43 72 bf be e9 a9 3c d5 fe 8c 3c e5 b9 a5 3c
       -0.94633734 0.02074134 0.017211357 0.020230243
0000b0 e4 59 07 3d 4a 63 88 3c 00 3a d3 3c 1d 4d 4a 3c
       0.03304471 0.016648907 0.025784492 0.012347487
0000c0 20 a6 91 3c a3 27 29 3e 0d 68 bc 3c b6 ee b8 3c
       0.01777941 0.16519026 0.022998834 0.022574764
0000d0 e2 63 fd 3c 33 35 b4 3c dc bc 88 3b 35 e0 7d 3c
       0.030931417 0.021998024 0.0041729044 0.01549535
0000e0 70 bf e5 3c d5 ad b6 3c f0 29 5c 3c 8d 23 4b 3c
       0.028045386 0.022299686 0.013437733 0.012398613
0000f0 a5 db 40 3c 81 05 d0 3b b3 ae 86 3c 3f 48 3c bd
       0.011771117 0.0063483124 0.016440725 -0.045967337
000100 0e 1f 8c 3c 6c e5 b1 3c 5b 3b 9e 3c 6f ba 0a bd
       0.017104652 0.021715842 0.019315412 -0.033869203
000110 66 e4 83 3b 79 70 8d 3c db e7 8b 3c 42 73 9d 3c
       0.00402503 0.017265545 0.01707833 0.019219998
000120 3b bf 91 3c 1a 29 a6 3c d1 9c c4 3e a9 5d 92 3c
       0.017791381 0.02028327 0.3840089 0.017866926
000130 f1 b2 88 3c 1b 2e 8e 3c 18 cf 1f bd 25 f2 a9 3c
       0.016686888 0.01735597 -0.03901586 0.020745346
000140 b3 35 51 3f 69 a0 51 3c 4f 91 fe 3c 45 41 27 3e
       0.81722564 0.012794592 0.031075148 0.16333492
000150 cc 49 af 3c a2 c9 15 3c 7a 4c 61 bd fd 68 7d 3c
       0.021397494 0.009142311 -0.055004574 0.015466926
000160 25 b8 72 3c 56 82 1d 3e ea 28 e2 bc e8 44 de 3c
       0.014814411 0.1538175 -0.0276074 0.027132466
000170 21 ea b3 3c 25 ad 15 3c 33 d8 8d 3c a1 c7 7e 3c
       0.021962227 0.009135519 0.017315006 0.015550525
000180 66 0b 4b 3c 15 7c 66 3c 79 e5 5d 3c a8 96 cf 3c
       0.012392854 0.014067669 0.01354348 0.025340393
000190 d3 63 91 3c 9c fc cd 3b a6 ee 63 3c 8e 24 d9 3b
       0.017747795 0.006286217 0.013911879 0.006626672
0001a0 5a 6d 80 3c 64 2b 95 3c e4 f4 85 3c 32 ab 38 81
       0.015677143 0.018209167 0.016352125 -3.391829e-38
0001b0 5b 7b 3a 3c 43 84 dc 3c 3c c3 04 bd e7 3d a4 3b
       0.011381949 0.026918536 -0.032412753 0.005012262
0001c0 ed 80 b2 3c 2b 85 17 3b 56 c4 2c 3d 29 8c 74 bc
       0.021789992 0.0023120146 0.042179428 -0.014925995
0001d0 03 8f f4 bb 44 ef 33 be b4 db d4 bb 0f b6 41 be
       -0.0074633374 -0.17571741 -0.006495917 -0.18917106
0001e0 73 3e 7f ba c7 41 88 bc c7 68 7e bb 9c b4 4a bc
       -0.00097367837 -0.016632928 -0.0038819776 -0.012372162
0001f0 75 e0 7b bb 3d 33 f1 bc ae 4a c1 3e b2 ca 30 3b
       -0.0038433347 -0.029443378 0.3775229 0.0026976285
000200 49 36 03 3d 72 9a d2 3b dc 1e df 3b 77 bb 95 3c
       0.032034192 0.0064271027 0.0068090986 0.018277867
000210 88 2e c2 bb 42 19 89 bb e8 f3 ff 3e cf 10 01 3d
       -0.005925957 -0.004183919 0.49990773 0.03151017
000220 bc 3d 13 00 1c d3 0f 3e c6 d5 54 bb 3d 92 8c bc
       1.76702e-39 0.14045376 -0.0032476052 -0.017159576
000230 f4 6b ef 3e 4b ae 58 3d d5 3d 88 be 38 01 8b bd
       0.4676205 0.052900594 -0.26609674 -0.06787342
000240 6c 76 75 bc 4a 42 1d bd df 3a 0b bc 4f fe a1 3c
       -0.014981847 -0.038393296 -0.008497923 0.019774584
000250 03 38 d6 3e 4d 4e 74 bc da bc 9b bc 7b 24 bb 3a
       0.4183961 -0.0149112465 -0.01901095 0.001427784
000260 57 65 b9 3b 44 1a 9c b9 c5 b5 e2 ba 5b c0 94 bb
       0.0056578326 -0.00029774208 -0.0017296603 -0.004539532
000270 54 46 a0 3b 99 81 13 3d b3 2f a2 bb b1 27 d0 3b
       0.0048911963 0.036012266 -0.004949534 0.006352388
000280 14 6f 83 bb de 06 00 bc 1e 63 e1 bc b8 fe a1 3d
       -0.0040110443 -0.007814137 -0.027513083 0.07909912
000290 93 f1 16 bb bc f0 5b bd 10 fb 2a 3d 68 af 83 bd
       -0.0023032173 -0.05369638 0.041743338 -0.064299405
0002a0 3f 55 ca bc ed c2 00 3b 68 24 5b bd 29 28 85 bb
       -0.024698852 0.0019647435 -0.053501517 -0.0040636254
0002b0 27 8a f5 bb f7 8a 57 bc 17 57 19 be 9a f3 0a 3d
       -0.0074932757 -0.01315569 -0.14974628 0.033923723
0002c0 e7 a3 e7 bc 41 e0 e9 3c f0 75 6f bc ab 8e 48 3b
       -0.028276397 0.028549315 -0.014615521 0.0030602615
0002d0 e6 95 dc bc aa ad 56 3d 79 56 db 3b 81 bc c4 3e
       -0.026926946 0.052411713 0.006693658 0.38425067
0002e0 80 5b 12 3b 62 de c1 ba 1d 93 3c bc 02 3f 44 3c
       0.002233237 -0.0014791007 -0.011509684 0.011977913
0002f0 23 f7 07 bc 7f a2 99 bc d3 03 ea bb 76 5f 6b 3a
       -0.008298668 -0.018754242 -0.007141569 0.00089787634
000300 e6 17 de ba c2 65 f1 3b 2e c7 15 bc 93 19 5c ba
       -0.0016944378 0.007366867 -0.009141726 -0.0008396145
000310 46 fd 72 bc 02 1d 92 3d 08 ce 82 be 82 9e 4a 3c
       -0.014830893 0.07134439 -0.25547814 0.012366893
000320 4a f9 db 3e e2 c0 17 bc be da 51 bc 73 6f 6c be
       0.4296363 -0.009262295 -0.0128085 -0.2308939
000330 f5 a1 fe bb 89 e6 02 3c 0c c0 ba 3a 49 86 01 bb
       -0.0077707716 0.007989534 0.0014247908 -0.0019763878
000340 56 5e 3b 3c a4 d6 5c bd 4e 4c 33 bc 44 6f 57 3d
       0.011436066 -0.053915635 -0.010943485 0.052596346
000350 b0 d6 e1 3a e4 f0 10 be 62 32 4d be 56 30 6c bc
       0.001723012 -0.14154392 -0.20038751 -0.014415821
000360 9c bc 85 be 54 58 01 bd d7 c3 10 bb 10 96 b6 bc
       -0.2612046 -0.031578377 -0.0022089386 -0.022288352
000370 14 f0 6e 01 93 35 18 bb 0d a9 01 3d ab 3e 41 be
       4.3885944e-38 -0.0023225292 0.03165536 -0.18871562
000380 8b c8 8f bc d5 68 c5 bc c5 68 23 be 7a 79 0a 3d
       -0.017551681 -0.02409784 -0.15957935 0.033807255
000390 0e 51 71 3d 06 0a 1e 3d ed 31 41 3d 3f 11 10 be
       0.05891519 0.038583778 0.047166754 -0.14069079
0003a0 68 c7 de bd 09 d7 42 3d 58 d9 56 3d b3 da 3f 3d
       -0.108778775 0.047568355 0.05245337 0.046839427
0003b0 4f da 72 be b6 4c 6c 3d 2e 7e 1c be 3a 1c 54 3d
       -0.2371609 0.057690345 -0.15282509 0.05178473
0003c0 95 9c 85 bc 63 14 3d 3d de 0c bd bd 90 6e 0e 3d
       -0.016310016 0.04616202 -0.0923097 0.03477341
0003d0 f1 f5 78 bd c4 73 46 3d d3 fb 32 be 35 bc c4 3d
       -0.060781423 0.048450246 -0.17478876 0.0960621
0003e0 a8 16 a4 ba 78 a4 7c 01 2e 63 25 be 93 3a 4b 3d
       -0.0012518959 4.640309e-38 -0.16151115 0.049616408
0003f0 8e 26 78 3d 9c 8b e1 bd 81 c3 0f 3e 3b 91 56 3d
       0.060583644 -0.110129565 0.14039423 0.052384596

encoder.0.bias f4 [200]
000000 5a f9 7c bc b7 76 cc 3d fb 20 3b be 3e 08 94 3e
       -0.015440309 0.099835806 -0.182743 0.28912538
000010 d7 fd 0f 3d 5d 2d 30 3e 6d 5f 8a 3e 64 cd cc 3c
       0.03515419 0.17204805 0.2702593 0.025000282
000020 ef 57 cd 3c 64 be 1b 3f 6a 61 29 3e 3a 00 6b 3e
       0.025066344 0.6083739 0.16541067 0.22949305
000030 62 65 ad 3e 04 49 ef 3d ec 5c 67 3e 3e d1 d0 3e
       0.3386641 0.116838485 0.2259404 0.4078464
000040 d0 64 a8 3d a8 22 30 be 08 ef ac 3e b5 d2 ad 3d
       0.082223535 -0.1720072 0.33776116 0.08487455
000050 e6 35 d2 3e d3 42 c6 3e 62 16 fd 3d 0c 84 70 3e
       0.41056746 0.38722858 0.12357785 0.23487872
000060 4a 15 48 be c7 b0 ec 3e 72 1f ac 3e d4 9e 08 3e
       -0.19539371 0.4622862 0.3361774 0.13341838
000070 56 13 8e 3d 44 1e b9 bd 57 3e aa 3e 77 dd 59 bb
       0.06937282 -0.09038976 0.33250687 -0.0033243576
000080 a5 ed cf 3e 8c 4f 92 3e 8f b7 d5 bd bc 8d 94 3e
       0.40610996 0.28576314 -0.10435402 0.29014385
000090 a6 71 cc 3e 6f a0 66 3e 29 9b bb 3d 76 11 d7 3e
       0.39930457 0.22522138 0.09160454 0.4200551
0000a0 df c8 1a 3e 96 0d b0 3c f4 7d 5a 3e b5 d2 96 3d
       0.15115689 0.021490853 0.2133711 0.07364408
0000b0 4a c1 3d 3e c4 ab d1 3d 3b f5 01 3e c5 6e 22 3e
       0.18530765 0.1023784 0.12691204 0.15862568
0000c0 f3 2a 2a 3e 85 60 cd 3e 55 a0 d7 3d 0f d1 d7 3d
       0.16617946 0.401127 0.10528628 0.10537922
0000d0 94 e2 c4 3e 81 68 a4 3e 4b 08 ee 3e 2d da f1 bb
       0.38454115 0.3211098 0.46490702 -0.007380745
0000e0 a2 c3 6a 3e 06 c4 3b be 26 f7 93 3c ff e2 76 3e
       0.2292619 -0.18336496 0.018062185 0.2411003
0000f0 b4 12 3c be 82 e5 ac 3d 34 59 bd 3e ed b4 16 3e
       -0.1836651 0.08442213 0.3698212 0.14717455
000100 9c 6b e8 3e de c7 82 3e ad 5a 4b 3e 81 60 5a 3d
       0.453946 0.25543112 0.19858809 0.05331469
000110 bc 61 de 3e 70 a5 ea 3e a7 cf 6b 3e f5 3e e0 3e
       0.4343394 0.45829344 0.23028432 0.43798032
000120 9d 96 2f 3d 6a 76 a3 be 13 4e 9c 3c 81 98 3c bd
       0.042868245 -0.3192628 0.019080197 -0.046043877
000130 ec 55 86 bb 04 9a a8 3e 58 6a b5 3c f7 7e f7 bc
       -0.004099598 0.32930005 0.022145435 -0.030211909
000140 3a b5 6a 3e a0 7b e6 3d 58 6e e1 3e 76 b2 ea 3d
       0.22920695 0.11254048 0.44029498 0.1145982
000150 39 d6 aa 3d ee b9 ad 3d 76 11 95 3e a2 93 b8 3c
       0.08341641 0.08482729 0.29114884 0.022531334
000160 b9 da 6b 3e de 97 a7 3d 13 f1 1e 3e ac ab 80 be
       0.23032655 0.08183263 0.1552165 -0.25130975
000170 1c cc ae 3d 57 d1 ab 3d 97 14 e7 3e f3 bf 83 3e
       0.085350245 0.08389538 0.45132896 0.25732383
000180 6c 0f c4 3e 24 66 88 3c 2f 4b cc 3e 7a 5b a2 3e
       0.38293016 0.016650267 0.3990111 0.31710416
000190 ea 7e 4d 3d ea 3a 2d 3c 6b 7e 37 bd 22 91 ac 3e
       0.050169863 0.010573128 -0.044798296 0.33704478
0001a0 20 cf af 3e 7e 1d 87 3e a9 d4 18 be 69 62 93 3e
       0.3433771 0.26389688 -0.14924873 0.28786018
0001b0 22 3b 6b 3e 7b f4 22 3e b4 d4 12 3d e1 7f a2 bc
       0.22971776 0.15913574 0.03584738 -0.019836368
0001c0 de 1d 63 3e f0 2e 3b 3d 75 8c 88 3e ec b3 90 3e
       0.22179362 0.04569906 0.2666966 0.2826227
0001d0 09 67 97 3e b5 e4 fe 3d 33 fb 0b 3d 35 c0 96 3e
       0.29570797 0.12445966 0.03417511 0.29443517
0001e0 6c bc 2a 3e be 37 d1 3e 13 93 15 3f fc 75 b6 3e
       0.1667344 0.4086284 0.5842754 0.3563689
0001f0 22 2d 9e 3c 47 7c f8 3e 1f c9 21 3e 46 48 38 3c
       0.01930863 0.48532316 0.15799378 0.0112477
000200 c7 ed b7 3e 7b 03 11 3d b9 c7 15 3e 8f 4a 39 3e
       0.35923597 0.03540371 0.1462697 0.18094848
000210 90 dc 07 bd 4e cf f9 3d dd 5d a6 3e 0f 8d ca 3d
       -0.03316933 0.12197743 0.32493487 0.09890186
000220 52 9a 62 3e 15 d3 c2 bc 2b 59 99 3e 97 32 74 3d
       0.22129181 -0.023782292 0.29950842 0.05961856
000230 c9 e6 9d 3d 11 d8 b9 3e b0 4c 8f 3c 53 22 dd 3e
       0.077100344 0.36297658 0.017492622 0.4319025
000240 45 e3 a1 3e 5f 24 c9 3e 54 2a 3d 3e 67 bc bb 3c
       0.31618705 0.3928556 0.18473178 0.022916986
000250 ce 68 78 3d 23 fd 7a 3e 15 54 44 bf 0d 72 ee 3e
       0.060646825 0.24510626 -0.766908 0.4657139
000260 b3 3b 60 3e 61 33 51 bf c0 f1 c8 3e fc 2d b8 3e
       0.21897773 -0.81719023 0.3924694 0.35972583
000270 4d 64 c5 3e a5 90 96 be 3d 4e 12 bf d4 94 47 bb
       0.38553086 -0.2940723 -0.5715063 -0.0030453699
000280 77 cc c4 3e df 41 94 bd b1 23 f2 3e b5 2b 56 bc
       0.38437244 -0.072391264 0.47292855 -0.013071944
000290 a7 4e c9 3e 85 a3 73 3e 16 d1 8f 3e e7 0f 06 3e
       0.3931782 0.23792847 0.28089207 0.13092004
0002a0 ac 29 3f 3e 20 19 66 3e 37 92 18 3e 43 a4 09 be
       0.1866824 0.22470522 0.14899527 -0.13441567
0002b0 5c 7b c9 3e c0 19 b6 3e 7d 65 b1 3d 6d 1d 39 39
       0.39351928 0.3556652 0.086619355 0.00017653937
0002c0 7c b7 03 3e 25 7d 1a bd b2 23 e1 3e c5 0a 9c 3d
       0.12862962 -0.037717003 0.43972546 0.076192416
0002d0 ed 87 4e 3c c3 29 c2 3e 82 b1 d5 bd 96 8f c5 3e
       0.012605649 0.37922487 -0.104342476 0.3858611
0002e0 38 3c 66 3d 67 7c 61 be 85 62 1d 3d 30 3e 0a 3e
       0.056209773 -0.22020112 0.038424034 0.13500285
0002f0 c3 dd a9 3e 8a f1 cc 3e 8c 26 96 3e e4 fc a7 3e
       0.33177003 0.4002803 0.29326284 0.32810128
000300 39 25 b4 3e a7 45 74 3e 08 f4 48 3e ff fc b8 3e
       0.3518465 0.23854695 0.1962434 0.3613052
000310 02 8f d8 3e 3c 5c ef bc 3f fc 14 3e aa 93 3b ac
       0.42296606 -0.029218785 0.14549349 -2.6656268e-12

encoder.2.weight f4 [30, 200]
000000 32 2f c9 3f 10 96 92 3d 49 52 db bc 88 ec 8b 3c
       1.5717528 0.071575284 -0.026772635 0.01708056
000010 1c 74 4a be ae 1b 28 3f d9 94 f2 be aa cb b5 3e
       -0.19770855 0.65667236 -0.47379187 0.35506946
000020 5f aa f2 3d 3e 5b 99 bd 0a 62 1a bd 27 84 81 3d
       0.11848902 -0.07488106 -0.037691154 0.06324034
000030 58 0b f5 bc 0d 8e 6e 3c 88 d1 8e 3a b8 62 4e 3e
       -0.029912636 0.014560235 0.0010896185 0.20154846
000040 57 0c 2a bc 15 bc 53 3e d8 f7 a1 bb 0d b7 fd 3c
       -0.010378919 0.20677216 -0.0049428754 0.030971074
000050 0e 5f 58 3e 97 4f ac 3b e9 f5 ac 3f 12 4a 1f bf
       0.2113001 0.0052585113 1.3512546 -0.622224
000060 21 fd 51 be b2 3b f4 3d be 2e 01 3d 3f f9 a7 bd
       -0.20506717 0.119254485 0.031538717 -0.08201837
000070 95 50 b3 be 17 34 d6 bb 08 05 f0 3d 5a 0c 30 3d
       -0.35022417 -0.0065369713 0.1171971 0.04298053
000080 e9 b4 74 3c 54 9b a3 bc d7 43 86 bf 15 b7 92 3c
       0.0149357105 -0.019971527 -1.0489453 0.017909566
000090 46 5f 1f 3e f6 a1 72 bd bb 1d 26 3f d3 70 96 bb
       0.15563688 -0.05923649 0.64889115 -0.0045910864
0000a0 fe 79 b2 be c1 f5 18 3d 42 58 c7 3d 03 3b 43 bf
       -0.34858698 0.037343744 0.09733631 -0.7626192
0000b0 dd 0c 7d 3d 17 1a 93 bc 68 f5 33 bf ee a5 27 3d
       0.061779846 -0.017956777 -0.70296335 0.040929727
0000c0 ee 57 97 3d cc f9 2f 3e 0c 69 9b 3d 3a 8a 8c bd
       0.07389818 0.17185134 0.075883955 -0.06862302
0000d0 76 bf bf 3d 41 38 91 bd 11 46 9b bd dc d3 f3 bc
       0.0936269 -0.07090808 -0.075817235 -0.029764108
0000e0 0b 81 60 bd 5c 7f a4 bf 94 51 86 3d 5e 01 ff 3d
       -0.054810565 -1.2851367 0.065585285 0.12451433
0000f0 6d 51 1b be 46 ea 68 bd 05 a8 32 3d e6 14 ea 3b
       -0.1516778 -0.056864046 0.043617267 0.0071436046
000100 fe 45 14 3e a8 2c 1f bd 8e 6e 46 3f 48 eb af 3b
       0.14479825 -0.038860947 0.77512443 0.005368624
000110 4b fa 80 3e 76 f1 4a 3e af 8e f6 3c dc 51 1e 3e
       0.25190958 0.19818673 0.030097334 0.15460914
000120 6b b7 b3 3e b8 e1 e3 3c 88 e2 40 bd 02 ab 63 3e
       0.35100874 0.027817592 -0.047091037 0.22233203
000130 7c 52 97 be 42 c1 61 3c 79 fd d9 be 9f 26 47 bd
       -0.29555118 0.013778986 -0.42576197 -0.048620816
000140 9d 4c 84 3d a1 9a 13 3d 62 c8 2d 3e 97 2e 87 3d
       0.06459925 0.036036137 0.16970971 0.06600683
000150 02 f1 01 3d fe 09 2f 3d cc 44 37 3d 9d d5 15 3f
       0.031723984 0.04273414 0.044743344 0.58529073
000160 92 57 ce bd 6b 9d d2 3c 0b 44 68 3d 45 77 22 bf
       -0.100752965 0.025709828 0.056705516 -0.6346324
000170 06 fd c1 be 5d 3f ff 3d a1 1b 47 3e 74 5d 8c 3d
       -0.37888354 0.124632575 0.19444133 0.06853762
000180 8c c5 6c 3e 3c b1 71 3e 22 fd 43 3e 2b 32 00 be
       0.23122233 0.23602766 0.19139531 -0.12519138
000190 9d b4 0d be 63 4f 0f bf e2 f3 4b 3d 03 f4 3c 3e
       -0.1383843 -0.5598051 0.04979313 0.18452458
0001a0 66 da 8d 3c a2 3f c9 3d 49 b3 3c 3c 50 6a 4c 3e
       0.017316055 0.0982659 0.011517354 0.1996243
0001b0 60 68 94 3d 52 d8 cf 3d bf 93 ae 3e 9d 7e cb 3a
       0.072464705 0.10148682 0.34097096 0.0015525405
0001c0 a5 a5 9f 3d 5b b1 1f 3b 02 41 09 bd d4 96 24 bf
       0.07795266 0.0024367187 -0.033509262 -0.64292645
0001d0 f4 bf dd 3d 4b 50 2b 3e 85 4c 60 3d c7 7a 40 3f
       0.10827628 0.16729848 0.054760475 0.75187343
0001e0 c4 46 93 3d 40 56 83 3e 1c 22 37 3d f7 80 61 bd
       0.07191232 0.2565174 0.044710264 -0.05505463
0001f0 0c 3a 39 bd d4 f1 6f 3c f0 b8 24 3f 11 30 3f be
       -0.045221373 0.014645059 0.6434469 -0.1867068
000200 5c 30 47 3e e4 e1 2e 3e f1 59 f3 be cd a9 84 be
       0.19452041 0.17078358 -0.47529557 -0.25910798
000210 a1 1c 5e bf a1 ed cc ba e0 04 a9 3d b3 8d 16 3d
       -0.86762434 -0.0015634784 0.08252883 0.03675623
000220 0c fc 35 bd 3c 10 8c bd 9e 88 a6 3c b8 41 23 be
       -0.044429824 -0.06839034 0.020328816 -0.15943038
000230 d2 0a 95 3e 46 7c f1 3d 3d bc dc 3c a1 72 92 bc
       0.29109818 0.117912814 0.026945228 -0.017876925
000240 a0 9c a1 3d 0f 4e aa 3d d9 e5 e5 3d cf c4 83 bf
       0.07891202 0.0831567 0.112254806 -1.0294436
000250 f5 37 e1 bd 72 45 7e 3d 16 de a1 3b 0f f3 f5 3d
       -0.10997001 0.062077947 0.004939805 0.120092504
000260 65 d0 8b 3d 99 b8 9f be 7e c4 12 3e ce 63 8d 3c
       0.068268575 -0.31195524 0.14332768 0.017259505
000270 05 07 c0 3d f1 01 bf 3b 92 03 98 3e 7d ac 51 be
       0.09376339 0.005829089 0.29690224 -0.20475955
000280 3f e1 5f bd 10 cc 33 3e bc 0f 64 3d 75 19 d8 be
       -0.05465817 0.17558312 0.055679068 -0.42206922
000290 81 5f 43 3d 96 c6 74 3e 4d a2 2c 3e a7 c5 e2 b9
       0.0476985 0.2390388 0.16858788 -0.00043253342
0002a0 76 39 8d 3d 81 2d 5b 3f 01 81 35 bc e7 93 88 3f
       0.068957254 0.8561631 -0.01107812 1.0670136
0002b0 cc 06 87 3d 5a ef ee bc cf b9 15 bd 41 53 35 be
       0.06593093 -0.029166866 -0.036554154 -0.1770754
0002c0 9e 3f 40 3e 91 b9 0e be bc 37 3b 3e 8d c5 2f 3e
       0.18774268 -0.13937975 0.1828298 0.17165203
0002d0 b6 e5 4d bd f4 4b d7 3d 15 e3 4d 3c d9 0f e9 3c
       -0.050267898 0.10512534 0.012566348 0.02844994
0002e0 90 08 d4 be 74 bb 43 3d 2d 15 98 bc 20 19 3e 3c
       -0.41412783 0.04778619 -0.018564785 0.01160267
0002f0 5f 51 7a 3d 54 b3 db bb 57 59 88 3d f3 85 0a 3e
       0.061112758 -0.006704727 0.06657665 0.1352766
000300 8e 8b 64 3d a1 ad 12 be d4 fb a7 3b 55 e7 2a 3d
       0.055797152 -0.14324047 0.005126456 0.04172452
000310 3e f7 99 3d 4f f9 11 bd 19 1d e8 bd 00 1d 6d 00
       0.07517861 -0.03563815 -0.11333675 1.0020472e-38
000320 43 5a 8d bb 68 3d b0 be bd bc 62 3c fb 30 e4 3d
       -0.0043137386 -0.3442185 0.013838944 0.11142155
000330 b8 f3 3c bd 14 d0 d1 3d 0e d8 4b 3e 9f 9e 67 3d
       -0.046130866 0.10244766 0.19906637 0.056547757
000340 0c fa df 3c 7f ee 3e 3e ac 20 70 be dd 20 06 3e
       0.027340911 0.18645667 -0.23449963 0.13098474
000350 11 bf 48 bd 15 c7 a4 3c 48 8b 86 be 11 00 3c 3d
       -0.04901034 0.020114461 -0.26278138 0.0458985
000360 d9 71 6e 3d f8 38 d4 ba ee 95 f0 3d 7c 93 0c bc
       0.058214042 -0.0016191294 0.11747347 -0.008580085
000370 b5 b3 81 3b c3 17 cd 3d f6 20 69 3d 0a 73 c0 3d
       0.0039581903 0.10014298 0.0569162 0.09396942
000380 e5 e1 ca 3c 25 b2 fb 3d ce 89 87 be ff ac bf 3d
       0.024765918 0.12289838 -0.26472324 0.09359168
000390 8a 32 95 be 6f 53 e8 bd 22 58 30 3e a6 3b d0 be
       -0.2914012 -0.11344039 0.1722112 -0.40670508
0003a0 71 5e 0e 3e 9b 2f a7 3e f4 9e f2 bd ab 72 d7 3d
       0.13903214 0.32653508 -0.11846724 0.10519918
0003b0 f1 59 eb 3d ad ce 0c bf 8d 4f ab 3d e8 33 b7 ba
       0.11491764 -0.5500286 0.083647825 -0.0013977261
0003c0 59 da 80 3d 2a 74 f5 3d c3 68 18 3d 68 08 f1 3d
       0.062916465 0.11985047 0.037209284 0.117691815
0003d0 71 f6 80 3b 1a f1 3c 3d 0f 31 04 3e 88 97 4f bd
       0.003935628 0.04612837 0.1290934 -0.05068162
0003e0 45 39 fb be b4 bf 5f 3c d5 2d f0 bc 19 ee ad 3d
       -0.4906713 0.013656545 -0.02931873 0.08492679
0003f0 99 6e 18 3e 4c 45 ba 3d 0e 95 69 3d fc 93 6c 3a
       0.1488594 0.090952486 0.057026915 0.0009024737

encoder.2.bias f4 [30]
000000 72 23 b9 3d 05 85 bc 3d 98 b0 c8 3d c6 8d 0c 3e
       0.09039964 0.09205059 0.097993076 0.13725957
000010 1c 2a af 3e dd ff 12 3e 1a e5 4c 3e 5c 1b ed 3d
       0.34211814 0.14355417 0.2000927 0.11577484
000020 31 92 18 3e 60 1e 49 3e e8 fd 34 3e 85 bc 2d b6
       0.14899518 0.19640493 0.17674983 -2.5888742e-06
000030 da 86 30 3e 28 70 1d 3e 74 f1 53 3d e2 b9 b1 3d
       0.17238942 0.15374815 0.05174394 0.086780325
000040 8d 1a 1c 3e 39 52 d5 a9 09 ef 11 3e a1 f5 60 80
       0.15244503 -9.4733635e-14 0.14251341 -8.904323e-39
000050 9c 79 0c b5 30 72 84 3e af 98 d3 b1 77 55 d6 80
       -5.233103e-07 0.25868368 -6.1582663e-09 -1.9683455e-38
000060 78 42 48 3e 96 08 8d af a1 c9 ff 3d 2e 2f 20 3e
       0.19556606 -2.565385e-10 0.124896295 0.15642998
000070 71 78 77 3e 38 af 2e 3e
       0.24167039 0.17059028

encoder.4.weight f4 [5, 30]
000000 85 e2 6a bf 70 91 3e 3d 33 26 d2 3e 4d 6a 2c bf
       -0.9175189 0.04652542 0.4104477 -0.673497
000010 84 a2 fb be 3c cf 61 3e 61 9d bd be f5 07 3d 3f
       -0.49147427 0.2205171 -0.37034133 0.73840266
000020 8a 15 71 bf aa 0a ce be 84 f4 9a 3f 8b fd 96 35
       -0.9417349 -0.4024251 1.210587 1.1249662e-06
000030 59 20 f6 3e 1a d7 8b bf e3 28 d5 3f f5 cc cc 3a
       0.48071554 -1.0925019 1.6653103 0.0015625047
000040 b3 e2 5b be 6d e9 7a 2b 5e 1b 14 bf 8a c3 54 81
       -0.21473198 8.9141785e-13 -0.5785426 -3.9078543e-38
000050 24 ea e5 34 ac ea 8b 3f 33 e7 fe 31 50 7e a4 81
       4.2824934e-07 1.0930991 7.4186572e-09 -6.0425335e-38
000060 c6 bf 5b 3f b8 4a 83 ba 61 31 9a bf 5c 8d 62 bf
       0.858395 -0.0010016775 -1.2046319 -0.8849695
000070 ee b5 e0 3e de 8f 47 bf 06 13 6a bf 92 91 9b bf
       0.438888 -0.779539 -0.9143528 -1.21538
000080 c8 1f 3a 40 c3 a1 49 3f b2 52 8a 3e 7a 47 01 3f
       2.9081898 0.78762454 0.27016217 0.5049969
000090 4f 58 5b bf 2b bf 98 bf fc 4c 3b 3f 1b c1 bf be
       -0.85681623 -1.193334 0.73164344 -0.37452015
0000a0 cb a8 9c 3d 05 98 25 34 35 6a 47 3f 2f 88 38 3e
       0.07649382 1.5422127e-07 0.77896434 0.180207
0000b0 ae 95 ca 3f 9d 63 34 3f 32 70 e0 3f b6 67 0d 01
       1.5826929 0.704645 1.7534239 2.597202e-38
0000c0 89 04 6c 3f e0 f8 b2 81 69 26 1f 34 c6 47 60 be
       0.9219442 -6.574399e-38 1.4822002e-07 -0.2190238
0000d0 44 48 e1 30 88 44 a5 01 dc 16 c1 bf 5e 2f d5 ba
       1.6391444e-09 6.0709765e-38 -1.5085101 -0.0016264727
0000e0 87 56 9e be 5f 8b 4b be 5f 2b a2 3f 75 20 01 3f
       -0.3092539 -0.19877385 1.2669486 0.5044015
0000f0 72 87 c6 3f e6 3f b8 3e 71 b6 28 be fc 58 23 bf
       1.5510085 0.3598625 -0.16475846 -0.63807654
000100 f6 52 df 3e ea dc 60 bf 73 d7 07 3f fd 6f 06 3e
       0.43617982 -0.8783709 0.53063124 0.13128658
000110 16 94 b8 3e ce 89 08 bf 1e 55 15 c0 fd a7 6b 34
       0.3605048 -0.53335273 -2.3333201 2.1947194e-07
000120 5e a8 09 bf 59 71 4f be d1 d2 72 3f 57 d2 1f c0
       -0.5377253 -0.20258082 0.9485293 -2.4972131
000130 77 1b d4 3f 80 35 54 96 18 95 00 bf 3d 1c a8 80
       1.6570882 -1.7142105e-25 -0.502275 -1.5438493e-38
000140 3c cd af 33 74 e7 6c 3f 1c b3 94 2f 60 b5 0c 81
       8.1864044e-08 0.9254067 2.7048308e-10 -2.584407e-38
000150 fb cf 68 bd 46 56 94 36 ba 47 d6 be cc c1 70 be
       -0.05683897 4.4207873e-06 -0.41851598 -0.23511428
000160 1c a6 6e 3f 98 03 eb be f2 2d 24 40 07 1f 29 bf
       0.9322221 -0.4590118 2.5653043 -0.6606297
000170 2e 78 07 bf f6 dd d6 be ed 10 af bf f7 21 33 bf
       -0.52917755 -0.41966218 -1.367704 -0.699737
000180 9c 7f 4b 3e ba 3c a4 3f d7 e6 e8 3e 58 9b 5b 3f
       0.19872898 1.2831032 0.45488617 0.8578391
000190 d9 28 b5 be e9 aa f1 b5 6b 99 03 bf 44 10 b6 3d
       -0.35382727 -1.8005641e-06 -0.5140597 0.08889821
0001a0 b7 9a 41 3f fe 0d 23 40 de cc fe 3e 69 64 01 a9
       0.756267 2.547729 0.49765676 -2.8730846e-14
0001b0 97 91 7e be 78 0d 14 00 47 dc 79 33 92 c1 5e bf
       -0.24860226 1.841542e-39 5.817517e-08 -0.87014115
0001c0 be 12 13 b2 71 aa 48 01 2e 75 93 3f 65 49 0d b9
       -8.560788e-09 3.6856484e-38 1.1520135 -0.0001347415
0001d0 7f cb 08 3f f6 83 ef 3e e6 00 eb 3f 23 b1 99 3e
       0.5343551 0.46780366 1.8359649 0.30017957
0001e0 18 98 5b 3e 25 8a 13 c0 da ee 32 bf f9 85 03 3f
       0.21444738 -2.3053067 -0.6989571 0.513763
0001f0 42 50 06 40 b0 92 4f 3f 9a c9 b5 3f 8f 70 73 3f
       2.0986485 0.810832 1.4202149 0.95093626
000200 72 1a da 3e 6b 8b 24 3f 81 b5 59 3f 22 ab 18 b5
       0.425983 0.64275235 0.8504258 -5.6873444e-07
000210 c4 4d 3c 3f c3 0a 2e 3f 54 41 60 bf 5d 0d d3 bf
       0.7355616 0.6798517 -0.8759968 -1.6488453
000220 58 24 b4 3e d6 b6 82 07 8c f3 f7 3e 12 e5 8e 01
       0.35183978 1.9667687e-34 0.48428 5.249126e-38
000230 31 bd 10 b4 9d 3d 11 40 36 cf 10 31 d1 c0 06 00
       -1.3479873e-07 2.2693856 2.1072544e-09 6.20182e-40
000240 53 a8 9b 3f b3 96 ff 38 14 21 21 3f 03 aa 34 3f
       1.2160743 0.000121874175 0.629411 0.7057192
000250 24 da 4e 3e ad 83 bd 3e
       0.20200402 0.37014523

encoder.4.bias f4 [5]
000000 fc 52 09 bd aa 06 9a 3d a5 53 fb bd 07 59 b6 3d
       -0.033526406 0.07520802 -0.12271813 0.08903699
000010 22 fb 88 3e
       0.267541

decoder.0.weight f4 [30, 5]
000000 e6 f7 b8 3f 85 56 fd 3e e6 a1 d7 3e b5 89 d4 3e
       1.4450653 0.49480072 0.42115706 0.41511312
000010 b0 bb c8 3e 1b 8b 6f bf 06 ba 5e bf f4 9a 50 bf
       0.39205694 -0.93571633 -0.870026 -0.8148644
000020 ae 6e 45 3e 27 1c 46 3f b2 43 eb 3f b6 70 04 40
       0.19280502 0.7738671 1.8380034 2.0693793
000030 3e ab c2 3e ac 79 ac 3f 01 98 22 3e 4e 98 ce bd
       0.38021272 1.3474631 0.15878297 -0.100876436
000040 1a c4 ed 3e a0 6f cf bf ee 39 cb 3f ff 62 96 bc
       0.46438676 -1.620594 1.5877054 -0.018357752
000050 e1 c5 f4 bf 33 c9 b0 be 78 6b 9f 3f 87 bb fd 3f
       -1.9122888 -0.34528503 1.2454672 1.9822854
000060 56 87 81 3d 70 2f 6e 3f a6 1a 9a 3e d9 cf 35 bf
       0.063246414 0.93041134 0.30098456 -0.71020275
000070 97 5f da be 8e 85 c7 3e b0 43 18 00 42 ca 9a 81
       -0.42651054 0.38969082 2.228334e-39 -5.686089e-38
000080 9b de 1c 01 90 e6 3a 80 fd 30 e3 80 02 1c a2 3e
       2.8812386e-38 -5.409169e-39 -2.0864231e-38 0.31661993
000090 d2 f4 74 bf 90 35 ce bf 56 ab 6f be 29 46 86 3f
       -0.95686066 -1.6110096 -0.23405203 1.0490161
0000a0 9d d9 0b 3f 28 d2 f0 be b2 71 df be e0 af 17 3f
       0.54628927 -0.47035336 -0.4364143 0.5925274
0000b0 ee ce e1 3e 18 28 04 80 c4 12 4f 00 54 cd 96 01
       0.44103187 -3.81725e-40 7.261736e-39 5.539593e-38
0000c0 b4 ee 97 81 a1 6b 8c 81 9f 4f 8b bf 27 f5 8f 3f
       -5.581116e-38 -5.158232e-38 -1.0883673 1.124669
0000d0 6e 83 a4 bf 74 33 b6 bc e7 52 41 3e 62 4a e3 be
       -1.2852609 -0.022241332 0.18879281 -0.44392687
0000e0 f6 1d 29 3f 16 f0 bb 3e b1 b6 6d bf a3 12 8f 3f
       0.6606134 0.3670661 -0.9285689 1.1177562
0000f0 a5 f4 22 3f f3 e8 31 be d0 63 13 3f a0 3e c8 3e
       0.6365455 -0.1737402 0.57574177 0.3911028
000100 70 40 29 3f 70 5b b8 3e 35 2a 4f 3f 38 d2 95 3e
       0.6611395 0.3600726 0.8092378 0.29261947
000110 2a bc 2f be b6 38 a3 3e ff 84 f0 be dc 2a 33 3e
       -0.17161623 0.31879205 -0.46976468 0.17496818
000120 84 23 70 bf 5b d7 00 3d 3f 24 54 3e ef a6 10 3e
       -0.9380419 0.03145538 0.20716952 0.1412618
000130 bb 95 03 3f ae 1c 40 c0 5e cf fc 3f b7 f4 13 c0
       0.51400346 -3.0017505 1.9750783 -2.3118112
000140 71 6d 6b c0 62 87 b5 3f 9f 0c 67 bf ac 95 8f bf
       -3.6785548 1.418194 -0.90253633 -1.1217551
000150 30 8e 1a 3e 9f ba 42 3f 0d 01 95 bf 52 5a 14 bf
       0.15093303 0.7606601 -1.1640946 -0.5795032
000160 eb 98 e7 3e d6 c1 7e 3f 6a bd 5c 3c d0 60 86 3f
       0.45233855 0.9951452 0.013472894 1.0498295
000170 b2 10 e3 bf 1e e4 d8 3f 47 d2 16 be d9 ae 6d 3f
       -1.773947 1.6944616 -0.14728652 0.9284492
000180 23 72 97 3e f1 ca 77 3f fb ff 16 3f 66 35 18 3f
       0.29579267 0.9679404 0.58984345 0.5945648
000190 c5 e8 d0 be d7 95 05 bf 2b 2e 90 bc 33 9b 0b 3f
       -0.4080259 -0.5218176 -0.01760014 0.5453369
0001a0 e5 db 1f 3f 4f 54 38 bf fe 39 91 bf 02 0e 69 bf
       0.6244491 -0.72003645 -1.1345823 -0.91037
0001b0 7f 04 a3 bc 79 47 78 3f 8d 54 bf bf 71 b9 3a bf
       -0.019899605 0.9698406 -1.4947678 -0.7293921
0001c0 52 45 17 40 9b 89 a6 3e 1c f6 09 3f 0b bd 3d c0
       2.363606 0.3252686 0.5389116 -2.9646633
0001d0 f8 40 4a bf e5 85 08 40 52 93 32 40 cf 2b a3 be
       -0.79005384 2.1331723 2.7902417 -0.3186936
0001e0 55 e7 80 bc a8 cd 18 bd ce b7 cb 3c fa 69 17 bd
       -0.015735308 -0.037305504 0.024867918 -0.0369663
0001f0 fd f8 61 bd ed b1 4a 3f e3 42 cb 3f a7 19 93 3f
       -0.055169094 0.79177743 1.5879787 1.1492203
000200 aa 78 92 3e 14 a7 a0 3e d8 64 57 00 c0 f6 91 81
       0.28607684 0.3137747 8.025864e-39 -5.3618657e-38
000210 de 53 22 81 56 13 15 81 5a eb 41 81 fb 7f 20 bf
       -2.9814873e-38 -2.738085e-38 -3.5617358e-38 -0.6269528
000220 da 36 f3 bc 37 2f 77 bf e9 fa 4a 3e 26 34 85 3e
       -0.029689241 -0.9655642 0.19822277 0.2601635
000230 04 6a d7 bf 2c 5d 96 3f 6f f7 35 bd c9 4a 3d be
       -1.6829228 1.1747184 -0.044425424 -0.1848556
000240 7b 65 ad 3e fc 3d b2 bf 40 a5 4a 3f 1f 8f 65 3f
       0.33866486 -1.3925166 0.791584 0.8967151
000250 7f 85 d6 be 1a 6a 90 3f
       -0.41898724 1.128238

decoder.0.bias f4 [30]
000000 fb 50 81 3f 5b 1b c1 3e 6a 44 89 3c 63 4c 47 3f
       1.0102838 0.37716183 0.016756255 0.7785093
000010 47 d3 5b bd c5 55 77 3f a8 de 1f 01 25 c1 37 bf
       -0.053668287 0.9661525 2.9363436e-38 -0.7177909
000020 04 26 d5 bf cd 2a 96 81 a7 01 33 bf 20 3f 10 3f
       -1.6652226 -5.5162714e-38 -0.69924396 0.5634632
000030 cb c4 a6 bf 02 c6 02 c0 f4 5b c8 3f 2b 44 59 be
       -1.3028806 -2.0433354 1.5653062 -0.2121741
000040 b7 89 09 3e a1 c9 1d bf 35 74 ad bd d5 f0 4c 3f
       0.1343144 -0.61635786 -0.0846943 0.8005498
000050 0b 0a ae 3f be cb fa 3e 30 03 8d bc 9a 8a 4d bd
       1.3596815 0.48983568 -0.017213434 -0.05018101
000060 9d b7 dd 40 a1 b2 98 3f b0 c1 64 80 d4 be d6 3f
       6.9286637 1.1929513 -9.253032e-39 1.6776986
000070 83 00 bd bf 29 45 5d 3e
       -1.4765781 0.21608414

decoder.2.weight f4 [200, 30]
000000 76 80 f7 87 84 f3 a7 87 c4 2c c8 87 6e 12 66 87
       -3.7239932e-34 -2.5270493e-34 -3.0118966e-34 -1.7308693e-34
000010 d4 0c a7 87 a8 d1 d7 87 f4 4c 66 81 6b 01 c2 87
       -2.5134907e-34 -3.247283e-34 -4.229954e-38 -2.919071e-34
000020 60 2a b5 87 3a 84 59 81 30 83 8a 87 00 a0 01 88
       -2.725876e-34 -3.9951473e-38 -2.0841037e-34 -3.9007605e-34
000030 4c 0e f6 87 94 9a f2 87 08 e8 81 87 9d 6e 82 08
       -3.702237e-34 -3.6502966e-34 -1.9546138e-34 7.850095e-34
000040 6c 8d 4c 87 fc 37 d5 87 e8 21 68 87 12 01 fc 87
       -1.5388814e-34 -3.2081583e-34 -1.7463704e-34 -3.7917375e-34
000050 a2 81 bf 87 c6 27 b9 87 b8 c2 0b 88 d0 a7 a8 87
       -2.8814677e-34 -2.7859083e-34 -4.205768e-34 -2.5376462e-34
000060 a1 a2 47 87 ab 0f 01 88 37 d3 6b 81 b2 5c 80 87
       -1.5018888e-34 -3.8837943e-34 -4.3314222e-38 -1.931378e-34
000070 ce fc af 87 fe 79 f4 87 86 1c d3 be 2f d2 ef 3e
       -2.6479659e-34 -3.678474e-34 -0.412327 0.46840045
000080 12 55 7c bf 3a 64 8c 3e e5 9d f9 bc e1 fc c3 bb
       -0.98567307 0.27420217 -0.030470798 -0.0059810732
000090 ac 52 15 01 23 f2 55 3f 66 4b ed 3e 05 3c b8 81
       2.7426292e-38 0.83572596 0.46346587 -6.767705e-38
0000a0 82 81 0a bd 78 f4 56 bd 98 9b 28 3c 66 f4 b1 be
       -0.033814915 -0.052479237 0.010291003 -0.34756774
0000b0 e4 ce 5c 3e 45 21 a7 bc bc 21 a8 bd de 40 32 3f
       0.21563298 -0.020401606 -0.08209559 0.6963023
0000c0 d3 40 9b be 9e c4 bc be d0 c0 b3 3e b7 e6 fd 3e
       -0.30322894 -0.36868757 0.35108042 0.49590084
0000d0 56 9d d1 38 93 69 0c 3c 22 f9 00 be f8 a7 73 bf
       9.995203e-05 0.008570093 -0.12595037 -0.95178175
0000e0 0a bc 30 81 c8 b3 f4 3e b5 26 c2 be db e2 1f be
       -3.2461006e-38 0.47793412 -0.37920156 -0.15613882
0000f0 bc 3a 0e 81 0e 8e 3b 81 34 c5 0d 81 ac 7a 82 81
       -2.612342e-38 -3.4448395e-38 -2.6039096e-38 -4.7930484e-38
000100 f2 a7 60 81 2a d9 b8 80 31 81 b4 01 37 25 3c 81
       -4.1262797e-38 -1.6975635e-38 6.630694e-38 -3.4556847e-38
000110 36 80 89 81 2a d5 94 00 24 38 0f 81 5b e0 a7 80
       -5.0509826e-38 1.3668122e-38 -2.630523e-38 -1.5417011e-38
000120 c8 b9 21 81 46 04 47 00 fa 06 51 81 43 f9 a6 81
       -2.970432e-38 6.521853e-39 -3.8392243e-38 -6.133644e-38
000130 bd 85 73 81 58 d8 89 81 66 8c 4d 81 93 1d 27 81
       -4.4728004e-38 -5.063629e-38 -3.7753284e-38 -3.0694274e-38
000140 fc 03 2c 81 91 05 33 81 70 c8 89 80 aa 92 a3 81
       -3.159427e-38 -3.28811e-38 -1.2653366e-38 -6.0087196e-38
000150 50 73 69 80 6c c7 17 80 08 98 f6 00 92 c7 ab 81
       -9.684093e-39 -2.183756e-39 2.264607e-38 -6.310185e-38
000160 04 76 68 81 ee ae 11 81 b3 37 3d bb e9 4c a0 3c
       -4.2696342e-38 -2.67578e-38 -0.002887231 0.019567924
000170 b0 3b d7 3d 61 b0 7e bc 91 2c 6e 3d f5 60 91 bd
       0.10509431 -0.015544982 0.05814797 -0.07098571
000180 d8 86 86 80 25 4c 59 3b 1b 84 3b 3d 5a 2c b8 81
       -1.235433e-38 0.0033156958 0.045780282 -6.7654567e-38
000190 be 59 c4 3d 5d fc 89 3d 61 32 c7 3d 3b 7c fd 3d
       0.095874295 0.067375876 0.09726406 0.12377211
0001a0 7e b8 b6 bd b9 47 61 3d e1 74 cb bd 2b 5e fd bc
       -0.08921908 0.05500004 -0.09934402 -0.030928692
0001b0 a1 fa 70 3c 56 dc b6 bc 69 bb f3 bd 0e 9a 93 bc
       0.014708192 -0.022321861 -0.1190098 -0.018017795
0001c0 11 51 2d bd 37 1f 38 bd d3 ee a7 be c7 07 82 bd
       -0.04231364 -0.044951644 -0.32799396 -0.0634914
0001d0 b0 34 31 01 60 5b 02 be 40 27 f9 3d 3a ff 9c 3d
       3.2547567e-38 -0.1273017 0.121656895 0.07665868
0001e0 91 03 2b bd f0 74 f0 3b 3f 32 74 be 1f af 74 3c
       -0.041751448 0.007338159 -0.23847292 0.01493433
0001f0 7c a1 21 3d 33 8f cf 3c a8 10 69 01 f7 7f 85 bd
       0.039460644 0.025336837 4.2807291e-38 -0.06518548
000200 36 bc 00 be 58 9d b3 00 37 71 4a 3e e6 ae 15 3e
       -0.12571797 1.6494998e-38 0.1976975 0.146175
000210 a6 0f 16 be 5a fe 98 3b de 09 c1 3d 13 ec b7 bb
       -0.14654407 0.004668993 0.0942571 -0.005612859
000220 28 ee ae 3e da a0 59 be d0 60 d7 3d 43 c0 ae bd
       0.34166074 -0.21252766 0.105165124 -0.08532765
000230 3d 71 28 3d 4d 29 42 bb 8b 71 12 ba e4 12 a3 be
       0.041123617 -0.0029626668 -0.0005586377 -0.3185035
000240 2a ce b3 3d e8 e8 93 3b d6 f1 b3 81 e6 67 a9 3d
       0.08779557 0.0045138486 -6.610123e-38 0.0827177
000250 33 ee 63 3e 82 6d 2a 3e d3 b9 09 3d f7 35 88 3e
       0.22258835 0.16643336 0.03362448 0.26603672
000260 25 e6 c0 bd af 8b 80 3e 8e f3 73 be 3e ab a5 be
       -0.094188966 0.2510657 -0.23823377 -0.3235721
000270 7a 07 37 01 7c dc dd be 11 8e 30 bc c6 59 a2 01
       3.3617156e-38 -0.4333228 -0.010776059 5.963822e-38
000280 e9 16 5f be 07 8c 7e bd 77 d9 36 3e eb ee 76 be
       -0.21786083 -0.06214526 0.17856394 -0.24114577
000290 43 2a 29 be 34 33 d2 bd df a6 f8 3c 0a a5 b0 bc
       -0.16520028 -0.102636725 0.030353008 -0.021563072
0002a0 7c 21 0f 3e 21 2b 83 3e 9b 93 c5 3e 59 d9 4f 3e
       0.13977617 0.25618842 0.38589177 0.20297755
0002b0 d9 83 2f be d7 42 0e bf dc fa bd 3e 14 3f f9 3d
       -0.1714014 -0.5557074 0.37105453 0.12170234
0002c0 24 48 66 81 93 64 01 3d 6f aa 02 3e df 72 80 3e
       -4.2296087e-38 0.031590056 0.12760328 0.2508764
0002d0 56 ed 22 be d8 54 73 3d a0 70 7b bc 19 76 88 bc
       -0.15910849 0.059407085 -0.015346676 -0.016657876
0002e0 70 92 31 bd 05 82 50 be 40 17 ca 80 6e 91 68 3e
       -0.043352544 -0.20362099 -1.8559111e-38 0.22711727
0002f0 49 28 82 3e e0 89 1c 01 69 26 31 3e dd 14 80 bd
       0.2542136 2.8751595e-38 0.17299809 -0.06253979
000300 d0 e3 9e 3e 8d 44 a8 3e 04 0b 81 be 33 9e 3b bd
       0.31033182 0.328648 -0.25203717 -0.045805167
000310 a1 86 46 bd dd 9e 52 3e ee 65 fb 3d 36 34 c0 bd
       -0.048468236 0.20568414 0.12275301 -0.093849584
000320 41 c4 4d be 5e df 46 3c 83 3a 87 3c ef 89 8e bc
       -0.20094396 0.012138216 0.016507393 -0.017399756
000330 2f 89 20 bf a8 ad 8b be 28 9e a3 00 c0 33 73 be
       -0.62709326 -0.27280927 1.5025922e-38 -0.2375021
000340 c1 43 4c 3e 5a 47 50 3d e2 2d 8e bd 58 40 c1 bc
       0.19947721 0.050849296 -0.06942345 -0.023590252
000350 87 58 a9 3e 38 d5 05 3f fc 94 97 bc 93 2a ae bc
       0.33075354 0.5227847 -0.018503658 -0.021260535
000360 b0 91 a2 00 2e 2a c1 bc 3b 3f 5b 3e a4 40 79 80
       1.4929613e-38 -0.023579683 0.2141084 -1.1135284e-38
000370 d8 1c b7 3e 43 c6 1e bf 57 b0 af be ad fe 62 be
       0.35764194 -0.62021273 -0.34314224 -0.22167464
000380 dd 5b 74 3e c8 30 65 bf a8 2f 89 3c fd 8a 66 be
       0.23863168 -0.8952756 0.016746357 -0.22513957
000390 ab 55 42 3f ce 8e 56 be d6 a0 53 be 7d b0 20 be
       0.7591197 -0.20952913 -0.20666823 -0.15692325
0003a0 1b 02 59 be df 31 f0 3d fc f6 7d 3c b3 d0 83 be
       -0.2119221 0.11728262 0.01550078 -0.25745162
0003b0 da e7 27 81 ed 3d a5 3e 35 fb fc bd ac c6 e2 be
       -3.08394e-38 0.32273808 -0.123526014 -0.442922
0003c0 37 7d e0 3d a2 54 25 bc 43 65 80 3d af d0 db bb
       0.10961383 -0.010090979 0.06269314 -0.0067082266
0003d0 2a 3c b7 3c 50 2a 9b bc 08 b3 92 80 25 ca 8c 3c
       0.022367556 -0.018941075 -1.3472207e-38 0.017186234
0003e0 09 9a b3 3d 68 1a 84 00 d5 dd 10 be 25 50 89 bd
       0.08769614 1.2131758e-38 -0.14147122 -0.067047395
0003f0 12 5a ab 3d 04 d1 0f bd c4 d8 88 bd b9 21 f0 3a
       0.08366789 -0.035111442 -0.0668197 0.0018320597

decoder.2.bias f4 [200]
000000 79 7b ff 86 eb 97 95 bc dc 19 f6 00 c6 e6 55 bd
       -9.6101766e-35 -0.018260917 2.2600809e-38 -0.052222036
000010 a5 9e 4b 3c 71 60 6a 3d 1c d4 ca bd 56 b5 61 3b
       0.0124279605 0.05722088 -0.09903738 0.003444036
000020 da 24 2d bb 92 47 75 81 8e b1 f4 b9 2d 27 a1 3c
       -0.002641967 -4.5050742e-38 -0.00046671595 0.019672
000030 e7 d2 d0 3d 67 70 49 82 86 f7 07 bd c5 cd f0 3c
       0.101964764 -1.4799406e-37 -0.03319504 0.029394994
000040 93 42 1e 3c e8 9c 10 81 c1 a1 9d 3b f4 f7 9b ba
       0.009659427 -2.6561198e-38 0.0048105423 -0.0011899457
000050 87 ec 33 3d 43 8a 30 3d 20 19 17 bd a9 4d 1d bd
       0.043926742 0.043100607 -0.036889195 -0.03840414
000060 a5 ec c8 bc 2b f5 87 ba 96 49 19 81 fd fd 29 81
       -0.024526903 -0.0010372748 -2.8154457e-38 -3.1222625e-38
000070 c0 2d ec 00 76 11 f1 3c c6 0f 83 3c 53 c8 cf bb
       2.1689589e-38 0.029427271 0.015998732 -0.006341019
000080 b0 f5 dd 3c bb 18 38 3d f1 d5 9e 3c 7e 01 ec 3d
       0.027094692 0.04494546 0.019389125 0.11523722
000090 cd 7e 83 bd a5 94 35 3f 56 71 94 00 4f 54 e2 3c
       -0.0642067 0.7092994 1.3632311e-38 0.027628092
0000a0 36 a1 92 3d 41 72 37 3d bd 96 26 3b 31 a5 c9 3b
       0.07159655 0.044786695 0.0025419437 0.0061537256
0000b0 13 32 6b 3b 30 76 f5 bc a8 63 c6 3b fa f6 31 3c
       0.0035888 -0.029963583 0.0060543604 0.010862106
0000c0 1e a8 8c a3 3e 4b 43 3d 19 e5 77 bd 4e fe ce 3c
       -1.525003e-17 0.04767918 -0.06052122 0.025267746
0000d0 45 26 36 3c f0 4a 28 00 5e 07 f2 3b 6c 21 93 3c
       0.011117523 3.700302e-39 0.007386132 0.017960273
0000e0 8d 0a 05 bc f9 6a 1d 3d 2a 1d d5 3d 71 91 b4 3c
       -0.008120191 0.038432095 0.10405953 0.022042008
0000f0 be 30 d8 bc c9 c9 06 3c 3e dd a5 bc b2 d6 98 3f
       -0.02639043 0.00822682 -0.020247098 1.194052
000100 94 b0 26 80 0d e7 a5 3d 98 d9 11 01 3c 8b 02 b7
       -3.553093e-39 0.0810071 2.678841e-38 -7.781022e-06
000110 88 2b 5c 9c 9c 64 94 01 e0 a6 2b 80 bf 56 05 bd
       -7.2848157e-22 5.451098e-38 -4.00879e-39 -0.03255343
000120 df 5a c8 bc 2d 7b d3 3b a2 33 22 3d 4f fb b3 3b
       -0.024457393 0.0064538927 0.039600022 0.005492605
000130 7d d8 82 3d 93 78 99 3d d2 d7 15 3d 02 3a 13 bb
       0.06388948 0.07493701 0.036582775 -0.0022464995
000140 a7 74 03 3d cd d7 00 bc b8 2c 71 3d 0e 6d 1e bc
       0.03209367 -0.007863951 0.058880538 -0.009669555
000150 48 13 20 bc f2 bf 4c 01 d0 0b 7c 1c 6b 92 bb 3d
       -0.009770222 3.7606596e-38 8.3395073e-22 0.091587864
000160 b5 1c 9d 3c d7 a7 9d bd 50 03 a5 3c 64 ce 6c bd
       0.019178728 -0.076980285 0.020143181 -0.057814017
000170 e0 92 af 00 ec 46 84 38 06 aa df bc 03 54 86 3d
       1.61239e-38 6.307461e-05 -0.027302753 0.06558993
000180 53 79 8d 3c c3 82 62 bd a8 42 1f 01 21 98 a0 3a
       0.017269766 -0.055300485 2.925151e-38 0.0012252369
000190 52 57 fa bc f7 53 e3 3c 48 17 1a bd 67 c1 3c 3d
       -0.030559216 0.027749998 -0.03761986 0.04608288
0001a0 86 83 f7 a7 84 e8 aa 3c 66 38 06 3c 62 0d 3f 3d
       -6.869887e-15 0.020862825 0.008192157 0.046643622
0001b0 5f 15 8d 3d fc 0c f8 bc 82 b9 15 bb 2b f5 9e 3c
       0.06888842 -0.030279629 -0.0022846167 0.019404015
0001c0 84 e8 b6 81 2a 7d 39 bd 11 5e 84 bd b4 79 1a 01
       -6.7189885e-38 -0.04528538 -0.06463254 2.837265e-38
0001d0 80 67 58 bc fe 2e 16 bd 5a f9 32 3b bb 87 be 3c
       -0.01320827 -0.03666591 0.002730927 0.02325808
0001e0 6f 1a a7 bc 6c df dd bc b2 84 b2 bc 84 e2 c5 3f
       -0.020398347 -0.027084075 -0.02179179 1.5459752
0001f0 cf 1a 2b bc c8 22 7c 3d 92 4b 2a 3b 37 c3 1e 3c
       -0.010443403 0.061556607 0.0025984985 0.0096900975
000200 d2 64 87 bc 86 be 54 81 3f 2e df 3c 89 ab 18 3d
       -0.016527567 -3.9074944e-38 0.027243732 0.037272964
000210 d9 1f a5 01 69 76 14 3d 83 7a b2 23 cb ea 04 01
       6.0657127e-38 0.036245737 1.9350684e-17 2.4413027e-38
000220 a2 49 39 80 9c 48 5e 01 05 e5 d9 bb e2 c6 3e a7
       -5.261038e-39 4.0827055e-38 -0.0066496157 -2.6475611e-15
000230 b7 67 8a 3d 5f 6e 8f 01 3b 8a 98 3c b0 6e 1e bc
       0.06758063 5.268828e-38 0.0186206 -0.009669945
000240 67 43 71 bd 9a 4f 45 1d cc 47 76 bd 26 0d 54 2a
       -0.05890217 2.6113886e-21 -0.060127065 1.8833944e-13
000250 46 52 b2 3d 9c cc d3 3c ff 8a e1 3d b8 23 19 38
       0.08707099 0.025854401 0.110128395 3.651131e-05
000260 d7 b3 23 3c 17 08 4c 33 02 8b 44 bd 04 8e 06 bd
       0.009991608 4.750481e-08 -0.04798413 -0.03285028
000270 a6 26 8f bc 0e f2 5e 3c ae 5d 57 81 f5 c1 40 3d
       -0.017474484 0.013607515 -3.9556475e-38 0.04705997
000280 b4 10 51 3d 62 cd 41 3d c2 c0 40 3d 4e d3 3a 3c
       0.05104132 0.04731501 0.04705883 0.011402918
000290 1f ba b7 3b 4e 36 96 01 46 37 0a bd f8 97 bd 3c
       0.005606904 5.517922e-38 -0.03374412 0.023143753
0002a0 a8 23 ec a6 3b db b3 bc cc 9e 5d 80 f6 ed 8e 3c
       -1.6385454e-15 -0.021955123 -8.597667e-39 0.017447453
0002b0 d7 8c d4 3d 4c 6a 7e bd eb 26 0f bd 54 f0 dd 3c
       0.103784256 -0.06211309 -0.034949224 0.027092136
0002c0 58 c7 97 bb 4a 85 21 3b 77 fb cf bc 7f 50 02 3d
       -0.004631918 0.0024646097 -0.025388462 0.03181505
0002d0 84 88 d8 bc f1 ab db 05 c8 57 07 81 50 49 a9 3c
       -0.026432283 2.0657822e-35 -2.4858564e-38 0.020664841
0002e0 52 27 12 bb 78 c3 91 01 53 1b 72 3c 12 35 86 01
       -0.0022301269 5.354507e-38 0.014777022 4.929998e-38
0002f0 6a c6 06 92 de 59 2d bd fa ba a7 3c dd 26 82 bb
       -4.252751e-28 -0.042322032 0.0204749 -0.003971918
000300 63 8f 64 bd ef a7 3f bd 47 58 7e bc ba 00 da 3b
       -0.055800807 -0.046791013 -0.015523977 0.0066529186
000310 18 d3 93 00 f7 00 4a bc f8 b0 15 bb 58 8c f2 bb
       1.3575544e-38 -0.012329332 -0.0022841077 -0.007401984

decoder.4.weight f4 [113, 200]
000000 e8 19 43 87 62 ac 9e 3b 81 c2 8a 01 68 d0 8a 3c
       -1.4677783e-34 0.004842327 5.0972293e-38 0.016945079
000010 f8 e9 bc bc a9 d6 59 bb 40 93 32 3c c5 ba c7 bb
       -0.023060784 -0.003323952 0.010899365 -0.0060952627
000020 19 81 23 2c 38 8b 68 80 9d 9c 83 bc 8f ec e1 bb
       2.3235357e-12 -9.600834e-39 -0.01606589 -0.006894655
000030 f5 58 5a 3c 52 e3 d7 80 58 01 2d bb 04 06 95 3c
       0.013326873 -1.9826179e-38 -0.0026398506 0.018191345
000040 b9 44 21 bc b8 c3 d0 00 0d a5 d0 bc e9 c0 10 3d
       -0.009843045 1.9171994e-38 -0.025469327 0.035340223
000050 91 ec a7 bc d4 ff 4e 3c c4 c6 b1 3b 78 a4 cf 3c
       -0.020498546 0.012634236 0.005425306 0.02534698
000060 71 3d b8 3c 00 70 51 bd 6c f1 be 80 d8 ef fa 00
       0.022490235 -0.051132202 -1.753535e-38 2.3044914e-38
000070 35 8e ef 80 45 2e aa bc 60 d6 08 bd cc 51 3a bd
       -2.1999698e-38 -0.020774016 -0.03340757 -0.045488164
000080 7a c5 4b 3b 70 f0 0e 3d 00 5a bf 01 c4 21 5c b9
       0.0031093047 0.034897268 7.029146e-38 -0.00020993414
000090 f1 ac 82 3c 60 f2 fc 3b 78 43 06 00 65 51 99 3c
       0.015951606 0.007719323 5.75216e-40 0.01871557
0000a0 6e 8d 97 3d 61 a0 08 13 b2 50 d7 3b b8 f8 fa 3c
       0.074000224 1.7244686e-27 0.006570899 0.030636176
0000b0 d2 bf 10 bd 31 fb af 3b b2 9d c7 bb fc c5 ba bf
       -0.035339184 0.0053705205 -0.006091797 -1.459167
0000c0 50 c0 8a a0 e7 f6 c4 bc 60 47 24 bc df 24 39 81
       -2.350537e-19 -0.024043513 -0.010026783 -3.4005587e-38
0000d0 b3 1d 2e 3d a0 4c f0 00 f7 b7 1a bc cb 5b 9e 3c
       0.042508792 2.2068007e-38 -0.009443275 0.01933088
0000e0 7a a5 e7 3c 75 bc 5e bb 04 76 87 3d a9 ba 5e 3c
       0.028277148 -0.003398684 0.066143066 0.013594308
0000f0 2f 2a 0d 3c 97 66 ce 39 a2 d4 0f bd 4c b8 80 bd
       0.008616014 0.00039367817 -0.03511489 -0.06285152
000100 a8 3d 40 81 98 32 44 3c 3a 75 a7 81 8c e7 53 3a
       -3.5309067e-38 0.011974953 -6.1514323e-38 0.00080835144
000110 ea a1 b2 9a a2 eb 48 01 3e b4 23 81 64 ba 61 bd
       -7.388066e-23 3.6903257e-38 -3.006769e-38 -0.055109397
000120 5e d2 72 bb 85 de 56 3b 46 70 6f bc 01 7e 3e bc
       -0.0037051658 0.003278644 -0.01461417 -0.011626721
000130 fe 5d 1d 3d ce df b3 3c 81 53 d3 bb 0e c4 3e 3b
       0.038419716 0.021957304 -0.0064491634 0.0029108557
000140 12 f3 73 3d fc c1 7c 3d 11 57 cd 3c 0a a2 47 bc
       0.05955798 0.061708435 0.02506593 -0.012184629
000150 3a 7f 28 3d ef 5b d7 00 8e 5b 94 1a 59 b3 30 3c
       0.041136958 1.9777611e-38 6.135928e-23 0.010784947
000160 1e 0b f5 bb 8e ba 68 3c 61 00 ef 3b 47 f4 11 3b
       -0.007478132 0.014204634 0.0072937463 0.0022270845
000170 97 83 aa 81 7c 3b 96 3c 6f 92 5e 3a 4d 56 7a 3a
       -6.263696e-38 0.018338911 0.0008490448 0.0009549603
000180 12 6d 59 bc b4 06 40 3b 54 4a 36 81 e6 62 e5 95
       -0.013270633 0.002930087 -3.3481448e-38 -9.26484e-26
000190 86 5e 88 3a c5 94 20 3c 11 2c 50 bc 27 e4 2c 3b
       0.0010404147 0.009801094 -0.012705819 0.0026381107
0001a0 3a 6a 84 26 94 78 f3 b6 4b 41 35 bb 36 b2 fe b9
       9.188133e-16 -7.2560015e-06 -0.0027657326 -0.00048579433
0001b0 a5 ba 06 3d 38 f7 76 36 98 65 0c bb 36 f9 ba bb
       0.03289284 3.6800757e-06 -0.002142286 -0.005705978
0001c0 b0 d1 37 00 5b da f4 39 20 cf b0 bc 50 55 99 81
       5.126174e-39 0.00046701994 -0.02158314 -5.632574e-38
0001d0 ff 5f e9 3b 65 10 7b bd f2 3b 24 3c 6e 8b 4a bb
       0.0071220393 -0.061294932 0.010024058 -0.003090586
0001e0 e3 43 a6 3c 90 41 d8 3b d5 7d b3 3c c2 af 68 3d
       0.020296043 0.0065996125 0.021910587 0.05680824
0001f0 6f f3 a1 3c 9c 11 b5 3b 7f 16 a6 3a 4b 73 19 bd
       0.019769398 0.005525781 0.0012671499 -0.037463468
000200 ec 66 17 bf 26 fd 28 01 47 26 93 3c ce 43 42 3c
       -0.5914142 3.1038352e-38 0.017962588 0.011856986
000210 7a fa 24 00 61 e1 15 3d fe 07 2b a7 3a bf 98 00
       3.395932e-39 0.03659189 -2.373535e-15 1.4027595e-38
000220 a8 ba db 80 14 63 3b 01 a1 d6 5e 3c c7 42 60 b5
       -2.0178933e-38 3.441756e-38 0.013600976 -8.3543677e-07
000230 51 dc 02 3d d2 80 5d 80 1a b1 6a 3c ae ec 1b 3c
       0.03194839 -8.586913e-39 0.014324451 0.009516878
000240 74 a0 0b 81 45 07 80 9d c5 4b 14 3d b2 00 89 2b
       -2.5645387e-38 -3.3888834e-21 0.036205072 9.734628e-13
000250 92 43 1c 3c 36 bf 48 3c c8 6f e1 3c 7e 2c 0c 37
       0.009537594 0.0122526195 0.027519122 8.355009e-06
000260 ee 85 20 3c 0e 3d 5c b4 ce 28 c2 b9 b4 cb f4 3c
       0.009797556 -2.0511308e-07 -0.00037032965 0.02988229
000270 c6 be 05 bc c4 b6 e6 3b ac 85 56 a6 9b 4a cb 3d
       -0.00816316 0.0070408303 -7.4427324e-16 0.09926339
000280 be 2a cd 3d 4f 01 76 bc c6 cc 22 3a 1b 86 b0 39
       0.10017918 -0.01501496 0.0006210323 0.00033669252
000290 1d d6 64 bb a8 dd 36 81 c8 99 2e be e0 c4 1d 3c
       -0.003491766 -3.358715e-38 -0.1705085 0.009629458
0002a0 0f 52 9b a5 8a 57 00 bd 42 5c 42 81 0f 8a 25 bd
       -2.694382e-16 -0.031333484 -3.5698364e-38 -0.040414866
0002b0 63 6b 4a 3c 57 98 df b9 35 d7 6b bd 2f 12 5a 3b
       0.012354705 -0.00042647377 -0.057578284 0.0033274998
0002c0 85 65 29 3c d7 af b9 3b 91 e7 43 3b 0f 67 82 3b
       0.010339146 0.0056667137 0.0029892663 0.0039795707
0002d0 ed f2 87 bb fd 42 c8 85 eb ad 70 00 f6 d8 ed 3b
       -0.004148832 -1.8832517e-35 1.0347966e-38 0.00725853
0002e0 b3 fd 9c bb 4c 99 78 81 c3 07 a1 3c 0a d5 b1 81
       -0.0047909855 -4.566039e-38 0.019657021 -6.532523e-38
0002f0 fb fa 1f 81 f2 2b 24 be 4d ef 35 b9 e2 05 77 bc
       -2.9383757e-38 -0.16032389 -0.00017350652 -0.015077086
000300 26 54 18 01 a7 e9 3a 3c f5 89 82 3b 81 73 ea bc
       2.7978364e-38 0.011408246 0.003983731 -0.02861953
000310 a9 d2 a5 81 86 e7 fb 3c d0 ab 50 3c 47 75 1e be
       -6.091371e-38 0.030750047 0.012736276 -0.15474425
000320 85 6e 87 08 84 4a 64 3d b9 10 30 81 ea cc e3 3c
       8.151e-34 0.055735126 -3.2338093e-38 0.027807672
000330 20 a6 04 bd 46 52 16 bc 88 4e 21 3d 54 5b 78 3d
       -0.03238499 -0.009174889 0.039381534 0.060633972
000340 28 df e7 bc 8e a3 80 01 83 ae b9 3c c3 9f 57 bc
       -0.028304651 4.7254463e-38 0.022666221 -0.013160649
000350 47 fa a4 bc a4 a8 28 ba a9 78 19 3c d8 ec b1 bd
       -0.020138873 -0.0006433821 0.0093671465 -0.086877525
000360 a7 2a 93 bd 16 70 1f 81 d1 73 ac bd ac 6e a8 3d
       -0.0718587 -2.9284105e-38 -0.08420528 0.08224234
000370 dd d5 47 3e f3 f5 a3 bd 5d bd 29 bc e2 93 b7 3d
       0.19515176 -0.080058955 -0.010360089 0.08963753
000380 08 e5 14 3c af bd 86 3c 48 fc 17 81 eb 60 ab 88
       0.009087808 0.01644787 -2.7915323e-38 -1.0314473e-33
000390 77 3f bd 38 45 87 e8 3c 4a d2 74 bd fe ed 74 be
       9.0240435e-05 0.028384814 -0.05977086 -0.23918912
0003a0 51 f0 7d bd 9c 32 81 3d d1 24 20 3c 68 5e 8f be
       -0.06199676 0.06308481 0.009774403 -0.28001714
0003b0 7a 90 a9 b9 7b 1d 98 be ee cb 8a 00 ff 2d 21 bc
       -0.00032341835 -0.29709992 1.2746455e-38 -0.0098376265
0003c0 9f fc 01 be 71 61 c8 3c ee c8 a1 bc 96 f8 7a 3c
       -0.12694024 0.024460526 -0.019749131 0.015318057
0003d0 be e5 75 3d 03 4f bd 3c 83 63 e5 bb a4 5f 22 bd
       0.060033552 0.023108965 -0.007000388 -0.03964199
0003e0 c4 36 dd 23 47 d0 28 3d 29 cf 2e 3c 65 76 2d 3e
       2.3984062e-17 0.041214254 0.010669508 0.16939695
0003f0 11 b3 ea 3d c3 dc 9f 81 b8 23 61 bd 70 5a 45 3d
       0.114599355 -5.8724153e-38 -0.054965705 0.04818195
