algorithms/AutoEncoder/AutoEncoderModels/legacy models/AutoEncoder_100_70_35_5_all_IO_noleave_VH.pt (torch_old, 522763 bytes, 48 tensors)

encoder.0.weight f4 [100, 113]
00000000: 9bf8 01bd 13b9 033b 2c6a ddbc d515 4dbc
00000010: 20d8 82bc e8bc edbc aa9b 663e 6c5e e5bc
00000020: 190f 9abc 4f6b 463e ef98 233e 50bf a4bc
00000030: 3cc4 38bb 1c1e f5bc de46 3d3c f51b c4bc
00000040: 7a32 5b3a 6d38 05bd 9fdb 173c 31d1 8fbc
00000050: f178 203e 3338 643e f1eb abbc 5c54 1481
00000060: 9173 703e 14b8 cdbc 96db 6fbc 98b4 17bd
00000070: 519c a03a 0b61 e03d 8152 3dbc 6733 3abc
00000080: 9f81 b3bc 4790 c63d a164 27bc a405 f9bc
00000090: d758 ee3a 2a11 efbc f0c6 1a3e 3590 24bc
000000a0: e036 653e 180d 01bd f43e c8ba 2eb6 fcbc
000000b0: dcfa 15bc 1ccc 083e 6e11 8fbb 9dfc e7bb
000000c0: 53e0 8fbc 6ac7 acbc 40d1 82bc 7f6e c8bb
000000d0: fec8 dcbc fc0e c9bc f631 b5ba fceb c1bc
000000e0: ae21 f3bc 21fb 94bc 885d 7ebc b66f 69bc
000000f0: 657f cc3c c4e0 e6bc 7725 cebc 9c8d a9bc
00000100: 46e5 40ba a2dc 233b e55a eabc 2fb2 643e
00000110: b3ed bbbc af08 b4bc 1662 debc fb79 d53d
00000120: 43a3 1abc 0793 d93c 1fed 1c3c 4f26 83be
00000130: 55f6 b3bc f9ed cd3b 3a25 5ebc 7759 bfbc
00000140: 6aeb 0dbd 9e09 5dbc cee2 bdbb 3992 9abc
00000150: fee0 7cbc f89f bcbc 4f15 9cbc 5f4a 9fbc
00000160: 329d 63bc ec2a 6cbc 5170 a13b ebb2 fbbb
00000170: fe9a febc 40d7 cabc 847b 30bc 97a2 e43c
00000180: d578 9a3c 6b03 3abc 9fd4 80bb 9b8d 58bc
00000190: f95f a0bc 0f09 04bc d1e8 0f3c c289 e5bc
000001a0: 54c3 bbb8 903c 513e 8300 b5bc c465 0780
000001b0: 11e0 b2bc 037b bf3b 27b9 50bc d2c5 8bbc
000001c0: 2186 95bc dd25 973d ca16 0b3c dc26 273d
000001d0: 0674 d03c 711a b53c a306 cc3b b3b8 663b
000001e0: 05fc 423d 660c 2d3d 2862 98bd 1baf 843b
000001f0: 4288 4a3d 3883 2e3d 1f51 383d 7fd2 f03c
00000200: ccdb 2d3d b931 6abd 9d6c b33c 1c1c 3b3c
00000210: 7141 0c3d cf2f 8a3d aa10 b33d 8e53 e93c
00000220: 18d1 a981 2271 e83c 5f6c fe3c e30b 273d
00000230: 508f db3d 49e9 c73a 0f8b ea3d 6ae4 0c3d
00000240: 0232 f63c df67 983c bdc6 db3c cca2 013d
00000250: cf4d 343d 0e9b 8d3c 1c73 ef3b cf4d 153e
00000260: a57b 933c 60b2 b4b9 a618 403d d855 3f3e
00000270: 2fcc 9c3c c557 cc3c bab7 493e c88b 133d
00000280: 2d0b 263d 19ae 193d 2fe5 373d 884b 023d
00000290: b6b7 d13c 6aa4 723d 34a1 473d f102 3bbc
000002a0: 3201 153d 822e 763d 2900 183d e2ea 073d
000002b0: a4e8 c33c c2c2 023b c7ce de3c 1d2b 853c
000002c0: a202 033d c6c9 363a 9447 b53c f42c 493d
000002d0: 138d 193b 24ee d43c d6fc e13c 393e 253d
000002e0: 8f86 c03c 0e2d dcbd 32f1 d2bd 6135 f03c
000002f0: ccb8 a1be f0ab 313d 6c1b 603c c03e 1e3d
00000300: 102e 2b3d 6ec6 0f3c 88e7 463d 3bef ea3c
00000310: 43d0 b53c da9c 2a3d 4ad5 f93c cc68 de3c
00000320: f667 283d a75c 0b3d 0fe0 af3c ece0 b339
00000330: ecad 0c3d 3c84 193d 3de9 393c b4da 553d
00000340: d6dc bebb d1c7 dbba ac23 493b d980 793c
00000350: 7d3f 0d3d 6e7c ed3c e16f fbb9 5722 943c
00000360: 0a77 983d 9908 5c3c 5865 1ebe 9163 fd3c
00000370: 2c31 bb81 9d7b d3ba 79d0 a13c 6b88 043d
00000380: aa89 843c eb75 283d f419 e83d 63eb 59be
00000390: 2bfc 673d 827d 11bd d3b7 e1bd b232 d4bb
000003a0: 3de7 bc3d 71e6 843d e3d6 073c 7f0a aa3c
000003b0: d50a 523d 2908 17bd 38cd 443d bbce 8f3d
000003c0: 2e8b 8d3c 50a1 803d 012f 433d 80e4 983c
000003d0: ea49 6fbe 1b5e ae3c 6ace b53d 763d 493d
000003e0: 99ed 293c 2d1a 3c80 7d7a 8c3d 097b ce3a
000003f0: ded9 efbc 1952 1e3e 0a3c 84be 4c33 893c
-0.03173123 0.0020099327 -0.027028166 -0.012517412 -0.015972197 -0.029020742 0.22520319 -0.027999125
-0.018806027 0.19376872 0.15976308 -0.020110756 -0.0028193137 -0.029921584 0.011552541 -0.023939112
0.00083617086 -0.032524515 0.00926867 -0.017555805 0.15671135 0.22287063 -0.020986529 -2.7243832e-38
0.23481585 -0.02511219 -0.014639756 -0.037037462 0.0012253617 0.109560095 -0.011555315 -0.011364794
-0.021912394 0.096954875 -0.010216863 -0.030398197 0.0018184435 -0.02918299 0.15114951 -0.010044147
0.22384214 -0.031506628 -0.001527755 -0.030848589 -0.009154048 0.13359112 -0.0043660915 -0.0070796744
-0.01756302 -0.021091182 -0.015968919 -0.006116688 -0.02695131 -0.024543278 -0.0013824094 -0.023672096
-0.029679146 -0.018186154 -0.015525229 -0.014247825 0.02496309 -0.028183348 -0.025164349 -0.020697407
-0.0007358383 0.0025003334 -0.028607795 0.22333597 -0.022940492 -0.021976797 -0.02714638 0.104236566
-0.009438339 0.026559366 0.009578018 -0.25615165 -0.021968046 0.006284472 -0.01355868 -0.02335809
-0.034648336 -0.013491062 -0.0057948595 -0.018868553 -0.015434502 -0.023025498 -0.01905313 -0.019444643
-0.013892459 -0.01441453 0.0049267192 -0.007681241 -0.031079765 -0.024760842 -0.010771636 0.02790956
0.018856445 -0.011353354 -0.0039315964 -0.013217355 -0.019577013 -0.0080588 0.008783535 -0.02801979
-8.9532376e-05 0.20433259 -0.02209497 -6.79355e-40 -0.021835359 0.0058435216 -0.012739456 -0.017062102
-0.018252434 0.07380269 0.00848932 0.040808544 0.02544595 0.022107335 0.006226377 0.0035205304
0.047603626 0.042248152 -0.07440597 0.0040491945 0.04944635 0.04260561 0.044999238 0.029397247
0.042445943 -0.057176325 0.021902377 0.011420276 0.034242097 0.067474 0.08743413 0.028482225
-6.238083e-38 0.028374258 0.031057535 0.04078282 0.10720694 0.001525202 0.114523046 0.03439752
0.030053142 0.018604217 0.026828164 0.031649396 0.044019517 0.01728585 0.0073074233 0.14580463
0.018003294 -0.00034465175 0.046898507 0.1868509 0.019140331 0.024944196 0.19698992 0.036021978
0.040538 0.037519548 0.0448963 0.031810313 0.025600296 0.05923883 0.04873772 -0.0114142755
0.036378093 0.060102947 0.037109528 0.033182986 0.023914643 0.001995251 0.027198208 0.01625591
0.031984933 0.00069728156 0.022128858 0.049115136 0.0023430034 0.02599246 0.027586382 0.040342543
0.023501663 -0.10750781 -0.102999106 0.029322328 -0.315863 0.043376863 0.013678413 0.03863406
0.041791975 0.008775337 0.04856065 0.028678527 0.022194033 0.04165349 0.030497212 0.02714958
0.04111477 0.034023907 0.021469144 0.0003430912 0.034345552 0.037479624 0.011347112 0.052210525
-0.0058246655 -0.0016767924 0.0030691428 0.015228474 0.034484375 0.028989997 -0.00047957807 0.01808278
0.0744458 0.013429784 -0.15468347 0.030931266 -6.876351e-38 -0.0016134862 0.019752728 0.03235666
0.016178925 0.04112808 0.11333075 -0.21281199 0.05663697 -0.035520084 -0.1102139 -0.00647577
0.09223793 0.06489266 0.008290979 0.020756958 0.05127986 -0.036873017 0.048047274 0.070218526
0.01727828 0.06280768 0.04765225 0.018663645 -0.2336804 0.021285107 0.08877261 0.04913088
0.010371589 -5.51952e-39 0.068593 0.001575322 -0.029278692 0.15461005 -0.25827056 0.016748093

encoder.0.bias f4 [100]
00000000: 0403 e73d c6be d43d f37c c83d 3d0a 343e
00000010: 0286 ec3d 87c3 103e 92ba 2a3d 487b 943d
00000020: c4a9 003d a866 c8ba 99f9 823d 413a c83c
00000030: 44df 423e 8144 e63d a041 2e3e 6a93 df3d
00000040: 34ad 81be aa94 5c3d 95df 853d cd62 b0bc
00000050: acca 46bd 7d44 363d 3890 9c3d 6381 b0be
00000060: b0d8 aa3d a82f 903e 0541 d8bc 9754 a53d
00000070: db24 593e 5ca1 b23d fb94 8e3d 81c1 b13e
00000080: cff0 afb3 c52f 723e 2808 4e3e d17f 1c3e
00000090: be2e 65bd 7ac3 033e e27d 32bc cca6 733e
000000a0: 7118 7c3d 70da 27bd edd2 8e3c 6d32 11bd
000000b0: a085 3e9a 854d 983e 2b10 c23d 5f91 d63d
000000c0: ac02 053e a395 513e 1023 443e 3964 9e3d
000000d0: a718 9e3e cbdd 8c3d 48fe 103e 7b51 d43d
000000e0: d05a 833e 51ef d33d 5e6c c63d 31a9 2d3d
000000f0: 8431 1c3e 1294 c33c 4101 883e 1b01 053e
00000100: 4f21 8c3d 7252 173e 7217 f63d 608d 2abe
00000110: 31f4 823c 4213 063e 9406 5e3d 7318 163d
00000120: 03f9 5c3e 1e0b c33c c4fa 053e 4810 813d
00000130: e7f5 0e3e c42e 353c 6387 023e 2466 d93b
00000140: 2724 f33d 1cc6 9b3d c867 c8be 9d6f 9b3d
00000150: 2f93 8a3d 49c5 e3bd 8387 313e 97b7 203e
00000160: e22d 3e3d 1c59 3dbc 0cd5 733c e296 0e3e
00000170: 6296 473d 4a46 633e 1c89 cb3d 5384 223c
00000180: 58b7 8fbe 705c 4b3e bd02 4f3e f3f7 6e3d
0.11279872 0.1038795 0.09789457 0.1758203 0.115489975 0.14137088 0.041681834 0.072500765
0.0314119 -0.0015289383 0.06395263 0.02444184 0.19030482 0.11243535 0.17017221 0.10916789
-0.25327456 0.053852715 0.065367855 -0.021531487 -0.048533127 0.04449891 0.07644695 -0.34473714
0.08342111 0.2816136 -0.026398191 0.08072775 0.21205465 0.08722183 0.069620095 0.34717944
-8.1928754e-08 0.23651035 0.20120299 0.15283133 -0.05595278 0.12867537 -0.010894271 0.23794097
0.061546747 -0.040979803 0.017434562 -0.03544848 -3.939902e-23 0.29746643 0.0947574 0.10476946
0.129893 0.20467238 0.19154 0.0773396 0.30878183 0.06878241 0.141595 0.10367104
0.25655222 0.1034838 0.09688638 0.04239768 0.15253264 0.023874316 0.26563457 0.12988703
0.068422906 0.14777544 0.120161906 -0.16655493 0.01598558 0.13093284 0.054205492 0.03664441
0.21579365 0.023809012 0.1308394 0.063019335 0.13960992 0.011058513 0.12746958 0.0066344906
0.1187213 0.07606146 -0.3914168 0.07589648 0.06766354 -0.111216135 0.1733685 0.15695034
0.046430476 -0.01155689 0.014882337 0.13924745 0.0487274 0.22194782 0.09938261 0.009919244
-0.28069568 0.19859481 0.20215888 0.05834193

encoder.2.weight f4 [70, 100]
00000000: 6b7c 0d81 82c5 7d81 a4a5 0280 2942 ed80
00000010: 4223 8d01 c2db 1180 a8b7 8b01 e030 a700
00000020: bad0 a001 0fab 2f80 b7d9 8400 e9dd 7880
00000030: 6164 3700 0396 5e81 4a9e 8381 26fd 0281
00000040: c0f7 a281 3507 3080 aadf 7d01 1433 0001
00000050: 2242 4301 d8f8 0301 b805 c500 f80c 4001
00000060: 0eb9 cd80 fdbf f494 3fdb 4280 1e94 1880
00000070: ce6c ee80 9e83 9901 16ca 5f00 3457 f680
00000080: 9005 c500 e91f 120c c825 0881 9ec0 d280
00000090: 8ec6 a080 76d5 af80 a8a4 1000 fcf3 4881
000000a0: 1178 dc80 69d0 ea00 4765 ce00 1b9d bf80
000000b0: 68b0 3e00 d795 1a8f 8051 4501 29fc 7180
000000c0: b956 0901 9cb1 8b96 fed5 3d95 25e4 f700
000000d0: a6d1 2e00 ed68 4600 b912 8181 83e9 df00
000000e0: 4966 6100 f9bd 8900 f442 0600 8a6b 2b01
000000f0: 1a2a 2301 ba62 9181 b60c 7693 ce5c 9501
00000100: 2474 0401 3157 4880 b787 3701 aad6 1b81
00000110: 2743 9a80 3106 9100 f89e 2e80 deea 9100
00000120: 2364 5980 db19 c380 a409 1a01 f481 2d00
00000130: d1e3 eb80 da50 0201 825a 0081 d5fa aa81
00000140: 86e6 2181 cdb3 2080 18dc 9f01 46f0 0e01
00000150: 404d 8c81 997f 7201 fab2 0881 dbe9 8d01
00000160: 8f39 8401 625b 0180 bcd4 1481 f488 0081
00000170: ffe8 0e81 115b 7280 4b8c 8781 6669 a400
00000180: 13e6 1081 956e f400 d1ed 0c01 22db 9201
00000190: 640f 0fbe cad5 82bd d1c1 883d 8fec 103e
000001a0: 0e75 183d b890 243e 19ae 77bd 868c ab3e
000001b0: 805b 75be e2e2 393d 0b1a 66be e1c5 4a3d
000001c0: f517 b63d 38b2 a0bc d88b 1b3d 3720 6b3e
000001d0: 61dd 603e 406e 0dbb 99f8 5c3d b044 f33c
000001e0: 2b37 583e d89a c8bb 1ad7 12bd 5e26 043f
000001f0: 3241 943d 1631 1dbd b4c6 3f3d b6d0 14be
00000200: 83dd c23d 6cdf be3c 9391 6f3d f0c7 253e
00000210: 1c65 3c81 91e7 9a3d 832e ea3c 807a 78be
00000220: fd10 f63c 81e3 c53d c57e 59bc 674b 703d
00000230: f486 d03d dc6b f4be fc6d 69be 319e 93bb
00000240: 6219 3099 f263 0e3d 6325 9bbc b09c ae3d
00000250: e649 6f3e cd7b 593e 5c2c 643e 76fc 563d
00000260: aa63 6a3d 88b2 1f3d dea0 a93d f21d 9e3e
00000270: 15cc df3d c69d 783d c3ff 1a3d 1424 1d3d
00000280: 5570 e83c 7289 623c 1b9a e4bc 0cc7 c13d
00000290: 6ecd 44bc 018b b93d 8841 7d3e d6fd d43e
000002a0: 9a6d f93c 4c77 b83d 1072 8cbe 158d df3b
000002b0: 3b8d 313c 406d ff3b 315a 593d b2ae 883d
000002c0: e348 30bc fc11 f33e 36c2 343e 16ff 65be
000002d0: 2691 d0bc 884b b73d c6cf e0bb 6e29 823c
000002e0: 1680 b03d 99d5 ac3d 6364 a23d c572 c73c
000002f0: 24f4 b73e 6244 79be 68e0 c43b d61d 35be
00000300: e4dd b23e 11d3 e039 9703 663d cfa7 103d
00000310: 114c 26bf 0890 4a3d d48f 843d 71cd cebd
00000320: a861 603e 9514 1f3e 07bd 1e3d 048f 15bc
00000330: 36d3 a23d 6f17 67bd 5608 d43d 6ad5 80be
00000340: dd93 793e 7927 b23d 4a3f 7c3e f143 483d
00000350: c8b8 263c 48fd e03d 002b 1a3e b8e6 5ebe
00000360: 0751 17be 1f55 ff3d 3f43 c23d 32d5 0a3d
00000370: e477 23be ccac 8b3d a1ba 183e a09e d6be
00000380: d7e9 63bd 186f 513e 0bfc 31bd 8229 763e
00000390: 550a ec3d 3877 d63d e197 ff3d d8d4 333e
000003a0: 9347 1481 6ace 943d 08a1 b53d 1e0b a13e
000003b0: de8b d73c e7bd b43c 5cdf 453c 423e 853c
000003c0: 4876 a23d 4a58 f73e aa69 823e ff44 093d
000003d0: 6df5 d218 a23c 3c3e 1db4 423e 49fd 22bd
000003e0: e7b3 213e 4d15 ea3d 725b 1abe 975e ad3d
000003f0: e279 b33d 43fc b4bd e582 a5bc cd94 96be
-2.5986875e-38 -4.6610466e-38 -2.43092e-40 -2.1788746e-38 5.184581e-38 -1.640038e-39 5.132407e-38 1.5354061e-38
5.9074225e-38 -4.377633e-39 1.2200387e-38 -1.1099866e-38 5.086961e-39 -4.0882588e-38 -4.8348934e-38 -2.4058854e-38
-5.9864905e-38 -4.410689e-39 4.6629232e-38 2.3546534e-38 3.5863291e-38 2.4239437e-38 1.8093644e-38 3.5274135e-38
-1.8892662e-38 -2.471343e-26 -6.139793e-39 -2.257186e-39 -2.189588e-38 5.6392185e-38 8.796867e-39 -2.2622815e-38
1.8093588e-38 1.1257033e-31 -2.5006362e-38 -1.9354552e-38 -1.4764907e-38 -1.6147787e-38 1.528435e-39 -3.690925e-38
-2.0246881e-38 2.156427e-38 1.8954444e-38 -1.7596939e-38 5.757083e-39 -7.621644e-30 3.624166e-38 -1.0467869e-38
2.5225146e-38 -2.2568748e-25 -3.8337056e-26 2.276521e-38 4.29964e-39 6.466125e-39 -4.741398e-38 2.0563084e-38
8.944736e-39 1.2649612e-38 5.75031e-40 3.1484895e-38 2.9968578e-38 -5.3406253e-38 -3.1055832e-27 5.4867124e-38
2.4327898e-38 -6.643434e-39 3.3709162e-38 -2.8623018e-38 -1.4166756e-38 1.3318368e-38 -4.28146e-39 1.3400401e-38
-8.209281e-39 -1.7917197e-38 2.829225e-38 4.179216e-39 -2.1663067e-38 2.3935237e-38 -2.3574823e-38 -6.2808064e-38
-2.9736422e-38 -3.003236e-39 5.8723195e-38 2.625367e-38 -5.1538726e-38 4.4539927e-38 -2.5107664e-38 5.2130786e-38
4.8571735e-38 -1.24617e-40 -2.7335936e-38 -2.3608146e-38 -2.6248447e-38 -1.0501915e-38 -4.979248e-38 1.5098831e-38
-2.6613693e-38 2.244753e-38 2.5884564e-38 5.394637e-38 -0.13970715 -0.06388433 0.066775925 0.1415274
0.037221007 0.16070831 -0.060468767 0.33505648 -0.23960686 0.045382388 -0.22470872 0.04950512
0.08891288 -0.019616231 0.037975162 0.22961508 0.2195945 -0.0021580607 0.05394802 0.029695839
0.21114795 -0.0061219744 -0.035849668 0.51621044 0.072389975 -0.03837689 0.046820357 -0.14532742
0.09514906 0.023299895 0.05848844 0.16189551 -3.460269e-38 0.07563699 0.028586632 -0.2426548
0.030037398 0.096625336 -0.013274853 0.05866566 0.1018199 -0.4773854 -0.22795862 -0.004504942
-9.104113e-24 0.034763284 -0.018938726 0.085259795 0.23368034 0.21238633 0.22282547 0.05248686
0.057223953 0.03898862 0.08282636 0.3088222 0.109275974 0.06069734 0.03784157 0.038364485
0.028373877 0.013826715 -0.027905514 0.09461793 -0.012011869 0.09059716 0.2473203 0.4159991
0.03044777 0.09007129 -0.27430773 0.006822238 0.010836895 0.007795006 0.05306453 0.066739455
-0.010759565 0.47474658 0.1765221 -0.22460589 -0.025459837 0.08949953 -0.006860706 0.015888896
0.086181805 0.08439178 0.079293035 0.024346719 0.35928452 -0.24342492 0.0060081966 -0.17687163
0.34934914 0.00042881866 0.056155767 0.035316285 -0.6495982 0.049453765 0.064727455 -0.100977786
0.21912253 0.15535195 0.03875449 -0.009128336 0.079504415 -0.056418832 0.103531525 -0.25162822
0.24372812 0.08698935 0.24633518 0.04889292 0.010175891 0.109858096 0.15055466 -0.217677
-0.14777003 0.124674074 0.094854824 0.033894725 -0.15963703 0.06820068 0.14914943 -0.41917896
-0.05564293 0.20452535 -0.043453258 0.24039271 0.11525408 0.10471958 0.124801405 0.17561662
-2.723466e-38 0.07265933 0.08868605 0.31453794 0.026311811 0.022063209 0.012077179 0.016265038
0.079327166 0.48309547 0.2547124 0.033513065 5.4531544e-24 0.18382505 0.1901402 -0.039792333
0.15791284 0.11429844 -0.15073946 0.08465307 0.08763482 -0.088371776 -0.020204017 -0.294104

encoder.2.bias f4 [70]
00000000: 64e6 e0a2 f569 ae3d 5049 823d 49d8 4a3e
00000010: 9c7c 333d 254f 683d fc7e 28aa e8bd 623e
00000020: 61ff adbc a260 c93d 4c79 89ae c1d3 98ba
00000030: 0701 a8bc 889e bd80 232e 663e e571 f43d
00000040: 6f95 17b3 c8ec 5481 4203 c7ae e0d2 573d
00000050: cd27 dc3c 4cb1 913d bdba 3c3e e0e3 d53d
00000060: 2194 f3bc f651 003e f45c 9bbd 22f5 8a3e
00000070: ebe2 853e ecc6 fe39 dbfc 0e3e 4a9c 9b3e
00000080: 1bfc f23d c32f 31b6 5486 dc3b 7c5b 1d3d
00000090: c8e1 95bb cfe0 d63d 406b fe3d deb6 c23d
000000a0: e50c f5af 54a8 16be 7dd6 963d a238 d93d
000000b0: 25b8 5bbd 9cee 9c3e cd72 a83e a760 213d
000000c0: 3d9a 2cbb 54c2 1f3e 1f4a 9581 67f9 3fbc
000000d0: 8d5e 62bd 3ec5 d6bc 7166 713e 7658 cdb6
000000e0: c0eb c2bd 4eac 5d3d 2ac4 a53e 8cb5 8c3d
000000f0: 080e 92b5 986d 0a3e 6d1f 8b3e 8f85 76bd
00000100: 0c6e b63d 65e8 7db4 744f 9d81 6bf0 a73e
00000110: a663 01af 1e6c aebd
-6.0959257e-18 0.085163034 0.063616395 0.19809069 0.04382001 0.056716103 -1.4965454e-13 0.22142756
-0.021239938 0.09832884 -6.2515854e-11 -0.0011659787 -0.020508302 -1.7413779e-38 0.22478537 0.11935786
-3.5293336e-08 -3.9108133e-38 -9.050051e-11 0.05269134 0.026874447 0.07113895 0.1843061 0.10443854
-0.02973372 0.12531266 -0.07586089 0.27140146 0.26149687 0.00048594864 0.13963644 0.30392677
0.118644916 -2.6402856e-06 0.0067298803 0.038417324 -0.0045740344 0.104920976 0.124228 0.095075354
-4.4574403e-10 -0.1471265 0.07365129 0.10606505 -0.05364241 0.30650795 0.32900086 0.039398815
-0.002633705 0.15601474 -5.4840314e-38 -0.011717177 -0.055265952 -0.0262171 0.23574235 -6.1197743e-06
-0.09517622 0.0541194 0.32376224 0.06870565 -1.0881931e-06 0.13518369 0.27172413 -0.060185965
0.089077085 -2.3647006e-07 -5.77867e-38 0.32800612 -1.1767884e-10 -0.085167155

encoder.4.weight f4 [35, 70]
00000000: 4a14 4701 d33e cc3b 7d95 e33d f439 b43e
00000010: e3ad b63c e28a 1bbd 41fe e0a4 67a0 233e
00000020: 57c1 c8be bbd1 1bbe dcdf f300 9346 113e
00000030: 4fc5 ff3d c4f7 9600 569b a1bd 6261 f93e
00000040: 2751 3d00 1275 0281 1cfe d280 bd7b a7be
00000050: 926c 523e 8199 aebc 8c7b 1e3f c999 8c3e
00000060: 24ce eaba 7e47 e43e e7bc 183e dc25 163f
00000070: 5447 073f acc0 13be b270 59be f3b3 b13e
00000080: 05db 213e bb3e 8b80 bd6c 953e 4d48 163e
00000090: b497 d526 ecec c9bd 276e d93c c8c4 ef3b
000000a0: 6123 2681 496a 903e 14de 253e 1045 0f3f
000000b0: fb88 11be 8711 103f cb9b 173f 55e1 8b3d
000000c0: f2b5 edb7 1d46 a73e 7652 6381 d38b 103b
000000d0: 4ce0 b33d be37 9abe 9cb2 1f3f 22b1 aab3
000000e0: b73d 07be ef92 3f3e 820f 98bd 3160 bb3e
000000f0: d4e8 d435 b1d1 ccbd 4063 c23b 1e29 e83e
00000100: 5872 8f3d c4d0 0dac 8c6a 0281 a432 f0ba
00000110: 34b3 6781 fb80 b03e d07b cf80 7b9e c580
00000120: 66ff 5780 488b b580 0d2b f380 0971 2781
00000130: 2cea 5a81 8ba1 7780 2a9d 7480 7fe7 5f80
00000140: b8d5 e800 ac26 af80 6fd3 3680 fcf8 7080
00000150: 7602 d180 7004 1c00 8f35 b481 6852 9a81
00000160: 329a 8081 9dd3 d200 c863 5480 77cf c480
00000170: b015 2e01 3219 4d80 8138 a180 b3a5 5680
00000180: 5c04 0400 d828 ca80 3715 f680 a7f5 8180
00000190: 80da 6080 e5e0 a080 8ad5 4b00 4965 8f01
000001a0: cb7d 4a80 f6a0 6880 4a8e 8181 cf11 6880
000001b0: 5563 4a80 be5c d480 5c28 3200 d6f9 dc80
000001c0: 753c 2e80 449f 1900 2047 1180 cefc c380
000001d0: e450 5980 0e4f 1381 384f b080 4e7c dd80
000001e0: c401 7c81 fedd b201 1ec2 4e80 6ea7 4c80
000001f0: a9ae 8080 72b0 a501 0da0 a700 9347 6e00
00000200: db93 a680 7f37 3d80 48fc c480 167b a180
00000210: 1c2e 9280 b15e a980 5825 3180 3a48 8d81
00000220: 7689 8d01 da22 a980 9d14 3a81 280d ca80
00000230: c07f f880 abf8 ddba 36d8 3fbb 2cb6 5abb
00000240: 3802 acbb 7f7e deb3 4007 5d00 8d91 47bb
00000250: 1f40 1abb 1f40 a8ba 7abb 9801 af93 8ab9
00000260: 852c b4b9 10e2 9b01 7291 9dbb 2bd2 cdba
00000270: 58f3 6681 28b5 1d81 286d 8200 e53e 39b6
00000280: 6fbe b8b9 a9ac 36bb 0859 60bb a130 16ba
00000290: f729 74ba f76a d7ba 9822 b1b9 bc53 61bb
000002a0: 9180 4ebb f903 9cba a0d2 a3ba aebf 5ebb
000002b0: 9b89 a6b9 e0bf e900 af7f 07ba e4d8 3cba
000002c0: ce00 a901 05a1 92ba ec3e c2ba d2bc cfba
000002d0: e085 1b01 416e 2fba ea7e 50ba b99e 1bbb
000002e0: 66c9 0fba ba0b 72bb 8b2a a7bb 94eb c5bb
000002f0: f000 e880 970a 6fbb c2cd 9881 90c2 b600
00000300: 944d 81b9 a3a7 1bbb 84ea 85bb 670c 3206
00000310: 7409 74b8 a715 9cb9 64c2 95bb c40c 44ba
00000320: 2224 a901 7307 38bb 0582 5bbb c67d 56ba
00000330: 369c d1b9 30fe 0000 de10 ab01 69b1 a1bb
00000340: c40a 2481 b20d a7b8 88f0 1601 06dd 76bc
00000350: e7eb 86bc eba6 8bbc 6a34 8dbc 5a5b 43bb
00000360: b8ea 8401 236a 84bc f3c1 86bc 7b9b 74bc
00000370: d4a4 3481 d3c4 46bc d3c1 4abc 944b d980
00000380: 252d 8ebc 110b 75bc a048 3580 8cd8 d500
00000390: 50e5 2b80 4b46 b7bb 3cb3 4abc b382 84bc
000003a0: 754d 86bc 2458 5ebc 6636 6bbc 115b 73bc
000003b0: 49ce 51bc 36ec 88bc f403 86bc 82b2 75bc
000003c0: 4aed 74bc e0b9 82bc 5d09 3bbc 28da 3a81
000003d0: 1307 57bc c4af 5ebc 14de 1080 b2d4 6cbc
000003e0: 4de4 77bc 8d34 79bc 3867 2e81 6635 62bc
000003f0: 150b 5fbc 6eda 7fbc 995b 61bc e59a 89bc
3.6565084e-38 0.006233075 0.11112497 0.35200465 0.022299713 -0.037974246 -9.757524e-17 0.15979157
-0.39210007 -0.15216725 2.2396331e-38 0.14187078 0.124888055 1.3864206e-38 -0.07890956 0.4870711
5.631077e-39 -2.3961223e-38 -1.9376611e-38 -0.32711592 0.20549229 -0.02131343 0.6190727 0.2746108
-0.0017914218 0.44585794 0.1491581 0.5865152 0.52843213 -0.14428967 -0.21234396 0.34707603
0.15806206 -1.2787637e-38 0.29184523 0.14676018 1.4820963e-15 -0.098596424 0.026541783 0.0073171593
-3.0514768e-38 0.2820609 0.16197997 0.55964756 -0.1421241 0.56276745 0.59222096 0.06830088
-2.8337327e-05 0.3267068 -4.1752478e-38 0.0022055998 0.087830156 -0.30120653 0.6238191 -7.948462e-08
-0.13207136 0.18708394 -0.07424833 0.36596826 1.5862993e-06 -0.10000933 0.0059322417 0.4534387
0.07004231 -2.0153193e-12 -2.3953673e-38 -0.0018325639 -4.255657e-38 0.34473404 -1.9054363e-38 -1.8148445e-38
-8.081308e-39 -1.667219e-38 -2.2331469e-38 -3.0754154e-38 -4.0208286e-38 -1.0986375e-38 -1.0709297e-38 -8.807417e-39
2.1382503e-38 -1.6085085e-38 -5.034965e-39 -1.0374894e-38 -1.9194502e-38 2.572986e-39 -6.619841e-38 -5.6688913e-38
-4.7241033e-38 1.9361367e-38 -7.749976e-39 -1.8074182e-38 3.1974313e-38 -7.080372e-39 -1.4805785e-38 -7.957294e-39
3.68906e-40 -1.8565422e-38 -2.2599143e-38 -1.1934902e-38 -8.89459e-39 -1.4774356e-38 6.964266e-39 5.267524e-38
-6.840953e-39 -9.608634e-39 -4.759129e-38 -9.55728e-39 -6.83146e-39 -1.9502395e-38 4.606253e-39 -2.0293433e-38
-4.246121e-39 2.353021e-39 -1.586718e-39 -1.7998611e-38 -8.202377e-39 -2.7056355e-38 -1.6191466e-38 -2.0340237e-38
-4.6286357e-38 6.5705416e-38 -7.232805e-39 -7.03956e-39 -1.18176e-38 6.0864614e-38 1.5393943e-38 1.012758e-38
-1.5297733e-38 -5.621874e-39 -1.8090259e-38 -1.482967e-38 -1.3424523e-38 -1.5554168e-38 -4.513336e-39 -5.189886e-38
5.1992467e-38 -1.5532701e-38 -3.4177594e-38 -1.855549e-38 -2.2821031e-38 -0.0016935071 -0.002927316 -0.0033372743
-0.005249288 -1.036069e-07 8.543302e-39 -0.0030451745 -0.0023536754 -0.0012836492 5.6105e-38 -0.00026431444
-0.00034365445 5.726239e-38 -0.004808598 -0.0015702894 -4.241892e-38 -2.896632e-38 1.1977772e-38 -2.7603758e-06
-0.000352371 -0.002787391 -0.0034232754 -0.0005729292 -0.00093141146 -0.0016435076 -0.00033785845 -0.0034382185
-0.0031509737 -0.0011903039 -0.0012498684 -0.0033988762 -0.0003176451 2.1466502e-38 -0.00051688676 -0.000720395
6.208195e-38 -0.0011186904 -0.0014819778 -0.001584912 2.8565054e-38 -0.00066921493 -0.0007953482 -0.002374573
-0.0005485028 -0.003693326 -0.005101507 -0.006040046 -2.1306171e-38 -0.0036474818 -5.613123e-38 1.6783856e-38
-0.00024662598 -0.0023751042 -0.0040867943 3.348719e-35 -5.8182937e-05 -0.0002977077 -0.0045702923 -0.0007478709
6.2132643e-38 -0.0028080612 -0.0033494246 -0.0008182194 -0.00039979973 9.1185e-41 6.283968e-38 -0.004934479
-3.0129767e-38 -7.9657315e-05 2.7723222e-38 -0.0150673445 -0.016469909 -0.017047366 -0.017236907 -0.0029809088
4.8825947e-38 -0.016163891 -0.016449904 -0.014929648 -3.3179037e-38 -0.0121318875 -0.012375313 -1.9955415e-38
-0.017355511 -0.014956252 -4.893334e-39 1.9638643e-38 -4.031188e-39 -0.0055930964 -0.012371834 -0.016175603
-0.016394356 -0.013570819 -0.014356231 -0.014853255 -0.01280553 -0.016714197 -0.016359307 -0.014996173
-0.014949152 -0.015957773 -0.011415807 -3.4319324e-38 -0.013124245 -0.0135917105 -1.549035e-39 -0.014455007
-0.015130115 -0.015210283 -3.2032808e-38 -0.0138066765 -0.013613482 -0.015616043 -0.013754749 -0.016797492

encoder.4.bias f4 [35]
00000000: 6801 773e 85dd 3880 c2dc a8b9 61c2 4ebc
00000010: ec94 a119 244b 9a3e bbb1 18be 03b9 288d
00000020: e41d b581 6d1c 243d 35e1 e4a9 9cad 39bd
00000030: 72cd 2291 829b 8080 15c8 f680 cd7a e03d
00000040: d172 db3e d649 873d abb1 abbc 0952 3e2e
00000050: 43c1 763d 7062 123d 397d c5b1 ae06 963e
00000060: 46b1 3e81 3f85 17be f259 263e 7277 63bd
00000070: bb05 393e 6e74 c098 e7bf 3e3e 5a25 abbd
00000080: 8ecc a391 58b0 533d e8f4 773d
0.2412163 -5.222254e-39 -0.00032207934 -0.012619586 1.6707159e-23 0.30135453 -0.14911549 -5.1991697e-31
-6.653179e-38 0.04006617 -1.0164301e-13 -0.045331582 -1.2842854e-28 -1.1810729e-38 -2.2663308e-38 0.109609224
0.42861035 0.0660588 -0.020958742 4.327386e-11 0.060242902 0.03573841 -5.7476908e-09 0.2930197
-3.5024676e-38 -0.14796923 0.16245249 -0.055533834 0.18068592 -4.97484e-24 0.18627892 -0.083567336
-2.5842932e-28 0.051681846 0.060536295

encoder.6.weight f4 [5, 35]
00000000: 4caf 5cbe 3a39 a881 113d daa0 e68b 4bbc
00000010: ef66 e6b7 5a08 4bbf 363b 06be 9917 de31
00000020: 1a26 ae01 3a13 6bbe 5c65 381e 9849 553e
00000030: 4650 5d11 0081 cea2 ec43 ba80 83d0 323f
00000040: 23ca 16bf d4fa 08be 833f f7bd fb50 5332
00000050: 4c59 19ba aec5 b7be 3ac3 3234 be4c dfbe
00000060: 81c3 9701 4d18 ecbd d54e 09be 00ea a5be
00000070: 0e89 69be 6a15 2083 530f 41bf c20f cdbe
00000080: 9a31 8d13 e731 be3e f7b7 b9bd 1259 68be
00000090: 55b9 3380 78ee 929e 6dab eb3b 316a 7437
000000a0: f4d9 f13d 9f37 08bf f1b6 13b2 5a2c 9381
000000b0: 8206 423e d4d7 cab5 fd5e b4bd 909e 9990
000000c0: 8cca 4e2e 2c85 1d00 e0e0 4abf 6850 e9be
000000d0: 3cd8 0cbe c147 84be 4f72 54b7 599a d2be
000000e0: a307 853e 31cb 42b5 e80b e7be da42 4081
000000f0: defb 343e 7ad3 bebe da4d 5d3e b662 c5be
00000100: 4050 1c01 13e2 5a3f 62bb a93e ef45 7893
00000110: 295a e8be f9f1 1fbe e31e 71be c3f3 8781
00000120: ddb3 b4b6 6af3 a6bc 3c65 753a 562f cebd
00000130: b148 c63e af6d c931 f7d8 0a01 10cc 45bf
00000140: 521f ab39 38bd 13bd 82d7 e011 c0d9 8038
00000150: c351 c080 e9b4 3b3d 349d db3d c0da e9be
00000160: ca63 82be 02fc 90b8 b38b 1f3e ed64 6dbe
00000170: 7ec6 49b4 906c b23e b36e 9d00 294d 45be
00000180: 03fd 3abe 1d15 b23e 0e38 cb3e e6f5 7c30
00000190: df6e 003e c8e0 03be c350 9d93 ddad c3bd
000001a0: ae38 fdbe a357 aabe 6b1f 1c81 ce3d 0bb7
000001b0: 0f93 6d3c 279e cfb7 5266 c7bd a1ca 5bbf
000001c0: 844b b228 9aea a601 462f 1b3f fbf5 80a9
000001d0: 75a6 e7bd 6594 ab10 0e16 83b5 71ac 2601
000001e0: d711 22be 3739 ad3e 5e4b 513e 3bfe 8ebd
000001f0: af51 b238 e38a 2a3e f89d b4be a673 5735
00000200: c1e5 a63e 1737 7380 547c 83be 892e 6fbc
00000210: 19ee 8fbe b37e 24bd defb 9704 b5d5 50bf
00000220: e503 00bc e506 bf92 755d aebe 8b3b 473e
00000230: 63a2 00be 6e2a 0001 a5e5 8521 43a9 5b3c
00000240: d1ff c8b1 6061 d4be 9dd4 883e 3bdf 9aac
00000250: 36c8 0481 1112 db3e 2446 ab91 dd08 1c3f
00000260: 6fa8 9990 6466 c8b3 dc37 a881 6425 673e
00000270: cae2 5dbe 0a07 b23e dc83 ef3e 7a2c d434
00000280: 346d 093f ec38 fe3c 8088 d334 d7ea 443e
00000290: bb1d 2601 a3f1 ee3e 4ae5 023e c042 ac3e
000002a0: f04d e73d d079 3081 9b84 3ebf c4d4 983e
000002b0: cc3f 1a91 1fb2 d13c 9522 453e
-0.21551245 -6.179557e-38 -3.6971047e-19 -0.012423491 -2.7466069e-05 -0.7930962 -0.13108525 6.463733e-09
6.397218e-38 -0.22956553 9.7618395e-21 0.20828855 1.7458562e-28 -5.5972996e-18 -1.7105768e-38 0.69849414
-0.58902186 -0.13376933 -0.12072661 1.2300229e-08 -0.0005849793 -0.35893005 1.6648565e-07 -0.43613237
5.5749174e-38 -0.115280725 -0.13408978 -0.3240509 -0.22806188 -4.7044356e-37 -0.7541401 -0.40051085
3.5642315e-27 0.37147447 -0.09068292 -0.22690228 -4.750095e-39 -1.555698e-20 0.0071920664 1.4568258e-05
0.118091494 -0.5320987 -8.598122e-09 -5.4062913e-38 0.18947795 -1.5112987e-06 -0.0880718 -6.0592163e-29
4.7018875e-11 2.711002e-39 -0.7924938 -0.45569158 -0.13754362 -0.25835994 -1.2662799e-05 -0.41133383
0.2598239 -7.2566314e-07 -0.4512627 -3.5312794e-38 0.17674205 -0.3727072 0.2161173 -0.38551873
2.871025e-38 0.8550121 0.33150774 -3.133648e-27 -0.45381287 -0.15619649 -0.23546939 -4.994095e-38
-5.385357e-06 -0.02037974 0.00093610934 -0.10067622 0.38727334 5.8623395e-09 2.5502262e-38 -0.772645
0.00032638997 -0.036069125 3.5473785e-28 6.144075e-05 -1.7661746e-38 0.045826826 0.107233435 -0.45674706
-0.25466758 -6.913395e-05 0.15580635 -0.23183031 -1.8791795e-07 0.34848452 1.4457884e-38 -0.19267716
-0.18260579 0.34781733 0.39691204 9.202651e-10 0.12542294 -0.12878716 -3.971201e-27 -0.09554646
-0.49457306 -0.33269987 -2.8675216e-38 -8.299436e-06 0.0145003935 -2.4749968e-05 -0.09736313 -0.8585606
1.979472e-14 6.1315406e-38 0.6061901 -5.727013e-14 -0.11311046 6.7676245e-29 -9.766679e-07 3.0613105e-38
-0.15827118 0.33832714 0.20438907 -0.06982084 8.502916e-05 0.16654544 -0.3527677 8.026203e-07
0.32597163 -1.0580845e-38 -0.25680792 -0.014598497 -0.28111342 -0.040159892 3.5731233e-36 -0.8157609
-0.0078134285 -1.2055494e-27 -0.34055677 0.19456308 -0.12561946 2.354033e-38 9.073217e-19 0.013407054
-5.849849e-09 -0.4148054 0.2672471 -4.401727e-12 -2.4388215e-38 0.4278722 -2.702227e-28 0.60951024
-6.060737e-29 -9.3318505e-08 -6.179361e-38 0.22572857 -0.21668544 0.34770995 0.46780288 3.9520438e-07
0.53682256 0.031033002 3.940113e-07 0.1923021 3.0510715e-38 0.4666873 0.1278278 0.33644676
0.11294162 -3.241349e-38 -0.7442109 0.29849827 -1.2168117e-28 0.02559763 0.19251473

encoder.6.bias f4 [5]
00000000: 9f08 b4be 0051 e2be 9d66 5dbe 9975 0e3e
00000010: 257d 88be
-0.35162827 -0.44202423 -0.21621175 0.13912047 -0.26657978

decoder.0.weight f4 [35, 5]
00000000: a414 ec00 a2be 1601 8b0f 7f81 0c3c 1001
00000010: 6608 1781 a5eb a1be 8baf b83e 469b 133e
00000020: e324 19be 2c3d fb3e 6c8c 2101 3837 1101
00000030: d082 8e80 fe92 2201 ae4d 2781 fd88 7901
00000040: be46 8401 cd03 b001 bc5c 8601 93fb 5580
00000050: 6707 bb3e 56ba 1dbf 4fcf 30be 90dd 9dbe
00000060: cb9d b93e b9e7 743e e253 18bf bbe2 9e3e
00000070: e8fe 1e3e 4db9 0a3f 179b 11be 01b6 8ebb
00000080: 6bc2 27bf 609f e43e 1a23 663e f8af 0f01
00000090: 8e54 b501 2660 7901 3175 7301 4d28 8b81
000000a0: 0d2d 0bbf 21b6 ac3e a424 1abf 2a43 22be
000000b0: 6174 153e 9321 87be 2e50 71be 4110 373f
000000c0: d231 08bf bfcb 36be 5877 9438 fc24 4e38
000000d0: 6523 1639 a434 e338 9a05 b5b7 7564 213e
000000e0: e9eb 93be 7d2c 3abf f551 e8bd 20ce 3d3f
000000f0: c5ee f7be 929f ff3d 3be9 bf3e 299d 02bf
00000100: f6f9 94bd 13c8 ca00 43e0 2900 36c0 0e81
00000110: 53dd b600 6408 6c80 149d 8cbd 34a2 b8be
00000120: fdf6 c63e 6349 c6be 5429 953d 1581 21bf
00000130: 5ff0 a83d f1cb 273f 1bad adbe e01a 563d
00000140: c5a8 843e e718 bebe c3ba dc3e e168 cabe
00000150: 0589 223f a72e e635 d7f6 9832 74a3 9517
00000160: 505c 9333 c5d4 3eb2 c037 d0bd edec e6be
00000170: 2397 3abf ac99 a03e 9ccf eb3e 64b7 22bf
00000180: 0d2e bd3e 87e3 49bf d26b 23bf ad19 71be
00000190: 3148 9e3d 8ebd 213c de60 9b3f 1349 0abf
000001a0: 73ab 8abe c9e5 443e 2bf2 d13c 3a52 d4be
000001b0: bb64 02bf 3d81 c83c 081f 0fbe c550 323c
000001c0: 2868 f6be 27df 28bd f7ea 783e 99b0 0cbf
000001d0: a846 90be ecd8 213e c4d2 e33e b1ba f43d
000001e0: fc09 dfbe 0eb0 b0bd 521e e0be 8bdd c83e
000001f0: f256 4e3e f51e c0bd eeea 68bc 0811 163e
00000200: 1120 4ebd 95fc d2bc 428a 3335 6557 0933
00000210: 8aa6 9dad 0c94 db30 8577 15b0 5901 e33d
00000220: c111 15bf db5d 60bf df31 eb3c 1b3a ab3e
00000230: 2503 13bf 0359 21be e314 f8be f72b f73d
00000240: 28e5 9ebe 8873 5fbe c42c 28bf 87cd 4c3f
00000250: 5f18 dcbe 49f4 b4bd 9d81 abbe 5ee6 e7be
00000260: 4715 953e d0cf 1ebe 39ae 2b3e fa13 9a3e
00000270: d2aa c0be af4a 17bc aaf7 2abf 8ecb c33d
00000280: 6efc ccbe ea29 8cbd 7f54 f53e d5d6 cfbe
00000290: 0237 1fbe 49fb 7fbe 7b07 f4be 5d7f 2a3d
000002a0: 08f3 33be 77e1 793e 6fd0 a1be 58d6 e3be
000002b0: 3b35 efbe 3958 c9be 3c8b 12bd
2.1680582e-38 2.768742e-38 -4.6847255e-38 2.6491704e-38 -2.7740345e-38 -0.31625095 0.3607143 0.14414701
-0.14955477 0.49070108 2.9671778e-38 2.667191e-38 -1.3087567e-38 2.9860162e-38 -3.0728788e-38 4.583236e-38
4.859065e-38 6.4657643e-38 4.9356893e-38 -7.896265e-39 0.36529085 -0.6161245 -0.17266582 -0.308331
0.362532 0.2391652 -0.59502995 0.31032357 0.15526927 0.54188997 -0.14219318 -0.0043551927
-0.65531033 0.44652843 0.22474328 2.6391203e-38 6.661023e-38 4.580306e-38 4.4716132e-38 -5.1118365e-38
-0.5436562 0.33732703 -0.6021216 -0.15845934 0.14595176 -0.26392803 -0.23565742 0.71509176
-0.5320102 -0.1785116 7.0794194e-05 4.914867e-05 0.000143183 0.000108340086 -2.157949e-05 0.15760978
-0.28890923 -0.72724134 -0.11343757 0.74142647 -0.48424354 0.124816075 0.37482628 -0.5102106
-0.07274239 1.8622543e-38 3.845705e-39 -2.6219185e-38 1.6793456e-38 -9.921244e-39 -0.06865898 -0.3606125
0.38860312 -0.38727865 0.07283273 -0.6308759 0.08248972 0.65545565 -0.33921131 0.052271724
0.2591001 -0.37128374 0.43111238 -0.3953314 0.63490325 1.7149913e-06 1.7807379e-08 9.670161e-25
6.8620125e-08 -1.1107834e-08 -0.101668835 -0.45102635 -0.72886866 0.31367242 0.4605683 -0.6356108
0.36949196 -0.78862804 -0.63836396 -0.23544951 0.07728613 0.0098718535 1.2138937 -0.5401775
-0.2708393 0.19228281 0.02562817 -0.41468984 -0.5093495 0.024475688 -0.13976681 0.010883515
-0.4812634 -0.04122844 0.24308382 -0.54956967 -0.28178906 0.15805405 0.4449674 0.11949671
-0.43562305 -0.0862733 -0.43773133 0.39231524 0.20150355 -0.093809046 -0.014216168 0.14654934
-0.05032355 -0.025755206 6.688389e-07 3.1977283e-08 -1.7922792e-11 1.5976425e-09 -5.437573e-10 0.110842414
-0.58230215 -0.8764321 0.028710304 0.33442768 -0.57426673 -0.15756612 -0.48453435 0.120689325
-0.31034207 -0.21821415 -0.65693307 0.8000111 -0.42987344 -0.08835656 -0.33497325 -0.45292944
0.29117796 -0.15508962 0.1676568 0.30093366 -0.37630326 -0.009234115 -0.66784155 0.09560309
-0.4003634 -0.06843932 0.47916028 -0.4059359 -0.15548328 -0.24998201 -0.47661957 0.04162537
-0.17573178 0.24402414 -0.31604335 -0.4449947 -0.467203 -0.3932512 -0.035777315

decoder.0.bias f4 [35]
00000000: bc32 1080 dff9 bdbf 54d7 6c81 8a21 0501
00000010: 1305 803f 08b1 58be e4d1 153f cc8c 4501
00000020: ed2c 1d3f 8b85 4ebf 445d 4bb8 634f 6a3e
00000030: ef66 ab3d c0dc 4301 731f a6bf 5a8d c73e
00000040: 49b3 2cbd b984 e480 c969 563f edea 6bbe
00000050: 7df7 163f 5b20 993f a75f bcbf e45c 46bf
00000060: 5f2f 9f3f f531 e23f 9880 912c ed67 93be
00000070: 75d5 873f c059 5abe 1305 823f cbb0 063e
00000080: b25b a93f c9c8 933f d684 7dbf
-1.487568e-39 -1.484188 -4.3500845e-38 2.4452305e-38 1.0001549 -0.21161282 0.5852339 3.6284202e-38
0.61396676 -0.8067252 -4.8485832e-05 0.22881846 0.083692424 3.5974224e-38 -1.2978348 0.3897503
-0.042163167 -2.0986105e-38 0.83755165 -0.23038836 0.5897139 1.1962999 -1.4716691 -0.7748549
1.2436332 1.7671496 4.1354246e-12 -0.28790227 1.0612017 -0.213233 1.0157799 0.13153379
1.3231108 1.154565 -0.99030817

decoder.2.weight f4 [70, 35]
00000000: 98b3 5881 fafa 2d85 1c09 6a00 bc07 6281
00000010: 889c de84 2489 4c85 c594 4f05 e90b 7581
00000020: 94e4 1f85 a031 0786 c8fd 7181 c0b0 f802
00000030: 0e24 e185 6612 ad81 b01c a685 b043 ec85
00000040: caa1 6785 b44a 1481 706c 9a83 382f 6b85
00000050: 801d 1c86 a056 5684 6032 1003 159a 9b85
00000060: e822 e184 0ab1 ea85 8eb4 7801 80b8 bd02
00000070: 287e 8f85 2b5b df85 8c8c 9985 82ce 5f85
00000080: baea f685 467a 7b85 0a4f 5785 13e2 1281
00000090: db10 b2be 38d1 dc80 f0c4 3481 ba5c acbd
000000a0: e1b7 e9bd 82fa 2f3d 7409 ad81 9e84 32bc
000000b0: 2ace 1c3e fa42 0d38 23af 8bbd 565c 1ebd
000000c0: 02d5 5a01 9a2d afbc 619b 7e3d 5adb 30be
000000d0: f45d 680d 0864 eabc be02 b73e 7534 25bd
000000e0: 4e50 bebc 35a7 8e3d 4946 a03e 1b36 053e
000000f0: 5fa4 9dbe 25d3 5a2d 93c5 fd3d 5d55 c03e
00000100: d508 483d 283b 4bbd 36b1 a6bd 8cde d93d
00000110: daa3 f73d 9ee6 353e 7898 d580 c585 1fbf
00000120: fa3d 6681 528e a401 f1b2 a33d db7f a4bd
00000130: 3e88 36bd 6e37 3301 bc99 9cbd 0a3d 3c3d
00000140: 99da d138 ad47 f1bd 65a6 a83d 0277 9a01
00000150: 2ed2 acbd da34 71bd 55ee 7fbe b4b8 3200
00000160: fbc2 6e3d b20f 903c 812a 16bd 1603 833e
00000170: 0202 24be b128 8cbd 76cf 91bd abe0 6abd
00000180: 3cbf c42c 9244 183e 7fb8 d53e 7a51 bc3d
00000190: 045b 3b3e b13a 303e 7846 10bd c6c9 263e
000001a0: 6e8d 9b3e 124f 4a81 849a b584 4c85 b081
000001b0: 2275 6780 b249 29a0 2c7a af09 003d 3281
000001c0: 075f 8601 c94a 369b ea68 9892 8095 0c01
000001d0: 18be efa5 faea 859a c17e 8d01 cf51 7d98
000001e0: 6987 75a0 652f b99e 2c17 0a01 9601 e3a2
000001f0: 9d58 3aa2 38c3 ed80 5ed1 c700 1aae 0a80
00000200: 0fc9 008f e59c 0490 bf64 8400 b8a0 4500
00000210: c532 87a2 4fd6 d48f 36b4 b4a4 beb5 b5a7
00000220: c2cf 8894 34e3 dd96 1cac 1da9 9e5f 99a9
00000230: 5c31 7901 094c 8bbc f5cb 8281 2092 2681
00000240: c21a b7bc 0185 9abc 59d2 f0bb e8d8 a480
00000250: 491d aabc 1126 a5bc 88d8 4a00 be15 c0bc
00000260: 0f5e acbc 50ec 0a81 7ed0 a9bc 3ee2 b4bc
00000270: 25ac b7bc b072 5781 d05f b7bc fcde b7bc
00000280: 6347 a2bb 81ab 6ebc d72a 86bc fe5f 95bc
00000290: 3d6c 97bc 1b0d cebb 4800 c200 fce4 b8bc
000002a0: 7f97 9bbc df32 bfbc 64a7 c2bc e824 abbc
000002b0: 52b2 a8bc a6f0 c5bc 88e2 c6bc e0f5 4a81
000002c0: f73d 28bb cc6f 9901 8e07 aa81 b08b 9cbc
000002d0: 5518 86bd 0e58 da3c 5c15 2f01 603e bebe
000002e0: 1ed9 013f d246 a836 5968 dcbe 1775 763e
000002f0: 4814 ba80 8ed0 ac3e 6569 383e 60cf 993e
00000300: 5aed 2681 79eb 1dbf c842 d2bb 51a2 3c3f
00000310: 156d 173c 9b3a 45be 074f 71be 652e 3dbf
00000320: 5057 ccbd 5642 d529 8fba c2be c023 bebe
00000330: 1561 bd3e 3f76 33bc c030 c93e c02f 803e
00000340: fc2a aebd 8d75 29bd 6e49 6080 4f63 15be
00000350: 2089 ed00 727f 9681 711b 303e ad02 7abd
00000360: e9a1 d9bd 4835 1981 1f45 e8bd 2ea2 e3bd
00000370: e67f a3b8 db8c f63d 1fa4 443d 6028 2900
00000380: 68a6 67be 8fa4 373e bd6f bcbc 1f33 9481
00000390: 4a27 223e f84a 0abe 8fb5 883d d0d3 3bbd
000003a0: 6263 76be 9920 eebc ad55 3f3e 800f c63e
000003b0: 50c5 c0ad 9c4d 8ebd f065 863c 92f9 71bd
000003c0: d35f 433d d454 f0bd f77a 4b3e 3d45 483e
000003d0: 57ee 293d 3821 8f01 f4e6 0abc 8a6c 4401
000003e0: 4827 5a01 2ab1 5cbc c87f f0bb 7545 9ab8
000003f0: 16db 3b01 3221 4cbc 0fa1 49bc 54f5 9801
-3.9801787e-38 -8.180518e-36 9.73783e-39 -4.1515193e-38 -5.23357e-36 -9.617223e-36 9.760418e-36 -4.5007938e-38
-7.518127e-36 -2.5427137e-35 -4.4446788e-38 3.6541774e-37 -2.1172143e-35 -6.3576564e-38 -1.5621103e-35 -2.2218198e-35
-1.0891284e-35 -2.7236904e-38 -9.0762025e-37 -1.10583196e-35 -2.9362012e-35 -2.5195355e-36 4.2375624e-37 -1.4632731e-35
-5.2929302e-36 -2.2070288e-35 4.5679948e-38 2.7876952e-37 -1.3493998e-35 -2.1004309e-35 -1.443968e-35 -1.0523339e-35
-2.3219954e-35 -1.18244214e-35 -1.01237686e-35 -2.6978165e-38 -0.34778485 -2.0278863e-38 -3.3202074e-38 -0.08416124
-0.11412025 0.042963512 -6.356373e-38 -0.010895876 0.1531302 3.3679396e-05 -0.06820514 -0.038662277
4.0193102e-38 -0.02138405 0.0621599 -0.17271176 7.160361e-31 -0.028612152 0.3574428 -0.04033323
-0.023231652 0.06965486 0.31303623 0.13008921 -0.30789468 1.2438749e-11 0.123912 0.37565127
0.048836548 -0.049616963 -0.08139269 0.106381506 0.12091799 0.17763755 -1.9615656e-38 -0.6231349
-4.2288794e-38 6.0448305e-38 0.07993115 -0.08032199 -0.044563524 3.2916876e-38 -0.0764651 0.04595665
0.000100066136 -0.11781249 0.08234862 5.6741433e-38 -0.08438526 -0.058888294 -0.2499326 4.658034e-39
0.058291417 0.01758561 -0.03666163 0.25588292 -0.16016391 -0.06843699 -0.07119648 -0.057343166
5.5918863e-12 0.14869907 0.41742322 0.09195228 0.18296438 0.17209889 -0.035223454 0.16287908
0.3038134 -3.715827e-38 -4.2694796e-36 -6.484346e-38 -9.501075e-39 -1.433924e-19 4.2244607e-33 -3.2737202e-38
4.9360183e-38 -1.5078852e-22 -9.618412e-28 2.58212e-38 -4.1588704e-16 -5.5387136e-23 5.19771e-38 -3.2740786e-24
-2.0797111e-19 -1.9607239e-20 2.5363222e-38 -6.1530152e-18 -2.5254612e-18 -2.1835044e-38 1.835037e-38 -9.80811e-40
-6.34961e-30 -2.6153277e-29 1.2158426e-38 6.394304e-39 -3.6645578e-18 -2.0987363e-29 -7.8367846e-17 -5.0434637e-15
-1.3814437e-26 -3.584786e-25 -3.5010284e-14 -6.811152e-14 4.576949e-38 -0.01700403 -4.804712e-38 -3.0594224e-38
-0.022351626 -0.01886225 -0.007349294 -1.5138833e-38 -0.020765917 -0.020159753 6.873503e-39 -0.023447867
-0.021040944 -2.5516143e-38 -0.0207293 -0.022080537 -0.022420952 -3.9571548e-38 -0.022384554 -0.022445194
-0.0049523576 -0.014567257 -0.01637785 -0.01823425 -0.01848423 -0.0062881834 1.7816187e-38 -0.022570126
-0.018993137 -0.023339687 -0.023761459 -0.020891622 -0.020592842 -0.024162602 -0.02427794 -3.7277947e-38
-0.00256717 5.6363744e-38 -6.245898e-38 -0.019109577 -0.0654761 0.026653316 3.2157748e-38 -0.37156963
0.5072192 5.0150347e-06 -0.4304836 0.24068104 -1.7088678e-38 0.33752865 0.18008955 0.30041027
-3.0659676e-38 -0.6168743 -0.0064166524 0.73685175 0.009242316 -0.19260637 -0.23565303 -0.7389892
-0.09977591 9.4706076e-14 -0.38032958 -0.3713665 0.3698813 -0.010953485 0.39295006 0.2503643
-0.08504292 -0.04137187 -8.842549e-39 -0.14588664 2.1814204e-38 -5.528417e-38 0.17197968 -0.061037708
-0.10626585 -2.813989e-38 -0.11341309 -0.11114918 -7.7962686e-05 0.12038585 0.04800808 3.779739e-39
-0.22622073 0.17933868 -0.0230025 -5.443997e-38 0.158353 -0.13505161 0.066752546 -0.045856297
-0.24061349 -0.029068278 0.18685026 0.386837 -2.1915497e-11 -0.069483966 0.01640603 -0.0590759
0.047698807 -0.1173493 0.19871126 0.19557662 0.041487064 5.257757e-38 -0.008477915 3.6077387e-38
4.006846e-38 -0.013469974 -0.0073394515 -7.3562296e-05 3.4503662e-38 -0.012459086 -0.012306466 5.618801e-38

decoder.2.bias f4 [70]
00000000: 10f3 3a85 d6fe 33bf 895d 8fbe 4a90 af80
00000010: 2593 09b7 7fe2 fcbd f38e dc3e f176 cbb6
00000020: fd2d 453f a45d a081 6aec 9b3d aa23 c9be
00000030: bd97 2fbf 645e bd33 c3b9 443f 17f1 0cbf
00000040: a248 20bf 7812 aa86 5561 893d 389f 9abe
00000050: 7715 e0be 7db6 8fbe cf59 f93d d9ee 093f
00000060: 7458 833f a423 e1bd 86b4 163f f973 5e3f
00000070: 07f7 f3bd 19d2 f23e c005 bd81 dc44 99be
00000080: cbbc 8e01 cf7b 94be 7e50 ad00 5cb7 dc3e
00000090: 6c70 d400 932d 923e 3c93 eb3c 008b 8f9f
000000a0: 4dd0 943f d187 b93e 2964 ea3d 5faa 1abf
000000b0: 8f77 463f bdb0 75be 0c12 1f89 b30e 0c3e
000000c0: 26fe 3181 e85d f2be cd74 fe8e cbb9 4b3e
000000d0: 4533 1f0f cbbf 3701 d365 cbbe c7a7 89bd
000000e0: 8a89 05be 904a 91bd db87 2e3e f0a8 073e
000000f0: cd55 5c3f 237e 1c3d c9b8 2080 f39c 0d3e
00000100: e807 9f3e 491b 4bbe 62c3 8e3f 61a1 78be
00000110: 056a 323f 95c3 6fbe
-8.7903215e-36 -0.70310724 -0.2800105 -1.6122973e-38 -8.200096e-06 -0.12347888 0.43077812 -6.063718e-06
0.770233 -5.8909085e-38 0.07613452 -0.39285022 -0.6859091 8.818168e-08 0.7684595 -0.55055374
-0.6261083 -6.397403e-35 0.06708018 -0.301996 -0.43766376 -0.28068915 0.12175333 0.5388008
1.0261369 -0.10993126 0.58869207 0.8689571 -0.11912351 0.47425917 -6.9435886e-38 -0.29935348
5.2433466e-38 -0.29000708 1.5916416e-38 0.43108642 1.9509455e-38 0.28550395 0.02875673 -6.079281e-20
1.1626068 0.36236432 0.11444885 -0.60416216 0.7752618 -0.23993202 -1.9147414e-33 0.13677482
-3.2692108e-38 -0.4733727 -6.272831e-30 0.19895093 7.8491794e-30 3.3749396e-38 -0.39726123 -0.06721454
-0.13040748 -0.070943 0.17044012 0.13248038 0.8606842 0.03820623 -3.005024e-39 0.13829403
0.3106072 -0.19834627 1.1153376 -0.24280311 0.6969302 -0.23414452

decoder.4.weight f4 [100, 70]
00000000: 6a58 ab08 0152 07be 0afb bb3d 0601 8d01
00000010: ed94 623c dda2 b2bb c71c d43d eefc 77b9
00000020: 2eee 493e 8db9 8d00 abde 31bb a59e 32bd
00000030: 340a 483b 8aad 07b3 61a3 c63d 964a 98bd
00000040: 5577 9e3e b5fc b809 8a78 13be b3f3 abbc
00000050: a96c f4ba 519f 91bd 01d2 423d 8835 82bd
00000060: 73f1 4f3d 348d 4ebc 325c cd3d ed96 6b3e
00000070: cb43 f2bd a99c 3f3b e2f9 9600 d638 c53d
00000080: 04e6 8881 3e96 97bd c6d6 c82f 6d62 933d
00000090: 70c9 0180 6cac a83c baf4 fcbd c0ca 101e
000000a0: 2473 823e c52a 9e3d b240 babc 5ecc 6cbd
000000b0: e84f 8f3e 3d9b be3d d02f 9f88 655a c73c
000000c0: c40a 2401 878e 793e accb 71b7 3170 40bd
000000d0: b0c2 d9b8 3c10 8f19 f29d e0be a9ac 0abd
000000e0: f092 b5bb 0d2a 96bd b513 1d3d f8a3 483c
000000f0: 3a5d 333e 1507 db3d 8ede 8581 2333 213c
00000100: 4ed6 30bd a0ca 49bd 77a9 ac3e b9e6 1cbc
00000110: 9be4 41be e9ab f6bc 5941 3908 df4b d3bd
00000120: c913 383d 6093 ab01 33e3 cb3a 9995 e7bc
00000130: a6c4 773d d38b 9bb7 6a38 613e 8183 2d80
00000140: d8a1 533d be3f febc b957 09be 0c21 9eb4
00000150: 67f9 003e 68f9 f3bc 6023 7b3e ec1f 4589
00000160: f488 3c3d 8525 86bd 7408 55bb 1dbe 563c
00000170: 75c3 983d 9864 af3d 2f8d 0e3d 9a7d afbd
00000180: 0f18 ac3d b587 a13e f580 943b 4baa 793d
00000190: 285a ac81 810b e9bc 582b 3301 2ce9 2ebd
000001a0: 87e7 9b2e 5785 873d 00ef 2400 6378 a63d
000001b0: 8241 8fbc 7cf7 6c21 96b1 c23e b72d 9a3d
000001c0: 3b63 29bd 8bf1 cdbc 4009 1f3e 9bdf 773d
000001d0: aeb7 f409 0bfe a6bc a0ab 1a01 f444 3c3e
000001e0: 2a91 6c20 f6f3 c7be 3a95 8eba a448 3980
000001f0: 4f0a 11bf 66b2 8b3c 6429 a2bc d8a1 07be
00000200: 0195 b1bd 84cc 65bb cb42 373e 44b2 1b3d
00000210: 6753 8e00 7fdf 143d d8f0 15bd b1c7 c3bb
00000220: 49b6 583e cffa 713c 6f55 8ebd e289 733d
00000230: 2074 4b87 f6ea e9bd f181 a03d 2def 0401
00000240: c69c afbc 48a6 2dbc 387f 0a3e 0505 4eba
00000250: 2625 4a3c 5bc9 0480 6a2c 14bc fdfb 17bd
00000260: ed13 fa3d 2a51 f234 495e 8a3c 9cc3 51be
00000270: dac4 8b3e ea5d b888 0c0a 81be b531 d73c
00000280: e803 253d 0d34 fabd c431 fd3c f8e4 b6bd
00000290: f760 fc3e 58c7 3abd 387d 8639 2632 213c
000002a0: 4848 e2bb 8396 c83c b488 9b81 f7a9 1d3e
000002b0: 3cb4 2800 19b9 08bc 9f3c 9924 e668 eb3d
000002c0: 173b a781 7172 df3c 4e2c 39be 7967 1922
000002d0: 4625 e3bc a569 783d a471 923d d1ce cebc
000002e0: bb6e c4bd b4cc 563d b803 490a 34e6 f3bb
000002f0: ac46 7080 93d1 903e 486d c13a 7a0f 14c0
00000300: 8b79 753c 5e3d 5701 12c2 3c3e 767f 823c
00000310: 5cc4 263d f3a3 b9be 1a49 b73d ef6e 72bd
00000320: d772 123d 3bb0 343c b030 8084 e2f1 f2bd
00000330: 55bf 11be c30a 343d ee8a 7abe fe82 1bbd
00000340: fbca 63be 629f 823c b50a a088 d175 e63c
00000350: 8a24 7c3d c1d5 9901 0ed2 243c e9cf b581
00000360: aff9 d53d 29fd e1bb 4530 503d 744b 5880
00000370: 4a0c c3bf 96fa 8abc e745 43bd ce01 38b3
00000380: 958c 0a3d 90aa 50bc 5da6 9abd 3a28 5407
00000390: 648e 903d d552 2dbd c412 8d3d 96b1 e7ba
000003a0: 0ee4 4f3d f9b7 12be 4ae6 523d 0879 ae81
000003b0: 1c32 5bbe 938f ba3d b7b5 b93c 9667 ca3b
000003c0: e49f 2d80 abdc 073e 5989 9118 5480 c33c
000003d0: 4526 8629 99d7 8b3d 40a3 3681 02f3 8c3c
000003e0: aa2e 20bd 4896 17a2 5bb1 d43d bb87 fdbb
000003f0: 61c1 693d fe31 a43c 3f28 e03d 7889 913e
1.0312474e-33 -0.13214876 0.09178741 5.179669e-38 0.013829452 -0.0054515437 0.10357051 -0.00023649979
0.19719765 1.3015368e-38 -0.0027140777 -0.043608326 0.003052366 -3.158997e-08 0.09699131 -0.07436101
0.30950418 4.4534033e-33 -0.14401451 -0.020990228 -0.0018648106 -0.07110465 0.047563557 -0.063578665
0.050767373 -0.012606908 0.100273505 0.23006792 -0.11829337 0.0029237664 1.3864965e-38 0.09629981
-5.0288566e-38 -0.07401703 3.6532394e-10 0.071965076 -1.64098e-40 0.02059003 -0.123513654 7.665224e-21
0.2547847 0.077230014 -0.022735927 -0.057812087 0.2799065 0.09306953 -9.580705e-34 0.024335096
3.0129767e-38 0.24370776 -1.441214e-05 -0.046981994 -0.0001038363 1.479241e-23 -0.43870503 -0.033856068
-0.005541198 -0.07332239 0.038348872 0.012246124 0.17516032 0.1069471 -4.9175834e-38 0.009838852
-0.043173127 -0.049265504 0.3372304 -0.009576493 -0.18934862 -0.03011127 5.574823e-34 -0.10317206
0.044940744 6.302695e-38 0.0015555382 -0.028269576 0.060490273 -1.854255e-05 0.21994177 -4.179772e-39
0.051668018 -0.031036254 -0.1341237 -2.9453838e-07 0.1259514 -0.029782012 0.24525213 -2.3728022e-33
0.046029046 -0.06550125 -0.003250626 0.01310685 0.074591555 0.085641086 0.034802612 -0.085688785
0.08403026 0.3154885 0.0045319744 0.06095342 -6.331219e-38 -0.028447868 3.2908205e-38 -0.04270284
7.0897115e-11 0.066172294 3.391815e-39 0.08128431 -0.017487291 8.0287453e-19 0.38026112 0.07528251
-0.0413544 -0.02513959 0.15530872 0.06051598 5.8913595e-33 -0.020384809 2.8408468e-38 0.18385679
2.0038008e-19 -0.39053315 -0.0010878213 -5.260682e-39 -0.56656355 0.01705284 -0.019795127 -0.13245332
-0.08670998 -0.0035064528 0.17896573 0.038011804 1.307056e-38 0.036345955 -0.03660664 -0.005974733
0.21163286 0.01476927 -0.06949889 0.059457667 -1.5306149e-34 -0.11421768 0.07837284 2.441617e-38
-0.02143706 -0.010598727 0.13525093 -0.00078590243 0.012337958 -4.39575e-40 -0.009043792 -0.03710555
0.12210832 4.5135067e-07 0.016890662 -0.20484775 0.27298623 -1.1096176e-33 -0.25202978 0.02626882
0.04028693 -0.12216959 0.03090752 -0.08930391 0.49292728 -0.045600265 0.00025651767 0.0098386165
-0.0069055893 0.024485832 -5.7134167e-38 0.15396868 3.738076e-39 -0.008344912 6.645587e-17 0.11494617
-6.14309e-38 0.02727625 -0.18083307 2.0790145e-18 -0.027727734 0.060647625 0.071505815 -0.025245102
-0.09591433 0.052441314 9.6784974e-33 -0.007443214 -1.0310928e-38 0.28284892 0.00147573 -2.3134446
0.014982591 3.9533292e-38 0.18433407 0.015929919 0.040714607 -0.36257896 0.0894949 -0.059187826
0.03575405 0.011028345 -3.0137368e-36 -0.11862542 -0.14233144 0.043955576 -0.2446706 -0.03796672
-0.222454 0.01594514 -9.632167e-34 0.028132351 0.061558284 5.6510045e-38 0.010059847 -6.6787236e-38
0.10448014 -0.006896634 0.050827283 -8.108591e-39 -1.5238125 -0.016965192 -0.047674086 -4.284248e-08
0.033825476 -0.012735978 -0.075512625 1.5960929e-34 0.07058409 -0.042315323 0.06888345 -0.0017676826
0.0507546 -0.14327992 0.051489152 -6.4091177e-38 -0.21405834 0.09109416 0.022669656 0.006176899
-4.189955e-39 0.13267772 3.7620307e-24 0.023864903 5.957434e-14 0.06828231 -3.3545247e-38 0.017205719
-0.039107002 -2.0543874e-18 0.1038539 -0.0077371276 0.057069186 0.02004337 0.10945176 0.28425193
