Algorithms/shawn/accuracy/exp_VH/fc_12.batch.pth (torch_old, 252336 bytes, 8 tensors)

fc.0.weight f4 [160, 226]
000000 e8 31 a8 bd 83 c0 2f 3c 13 1e 56 bd 3a d0 26 bd
       -0.08212644 0.010727051 -0.052274775 -0.040725924
000010 e2 8d 90 3d 2f 16 4b 3d c6 e2 1d 3d 0b cd ed bc
       0.07058312 0.049581703 0.038546346 -0.029028436
000020 35 d5 0b bd 84 f1 49 3d 2d a4 ca bc a0 bd 5e bd
       -0.034138877 0.049302593 -0.024736488 -0.05438006
000030 1a ce a7 3c 84 c2 be 3b af 58 50 bc d2 e7 0e 3d
       0.02048402 0.005821528 -0.012716456 0.03488905
000040 71 0b 1c 3c 9a df 9e bb d1 0d dc 3b 79 e8 44 3c
       0.009524212 -0.0048484327 0.006715514 0.012018316
000050 22 32 15 bd 9e 20 9d 3d ad 19 cf 3c c2 e2 49 bd
       -0.036424764 0.07672237 0.025280798 -0.04928852
000060 b1 84 47 bd 87 aa cb 3c d1 62 2a 3d ab 7f c7 bb
       -0.04871053 0.024861587 0.041598145 -0.0060882173
000070 c8 47 a5 3c 49 eb 47 bd ec 18 1f bd 47 da 98 3d
       0.02017583 -0.04880837 -0.038842127 0.07463508
000080 81 53 35 bc b2 f1 e3 3c c5 60 4c bd 47 4f 61 3d
       -0.011067272 0.02782521 -0.049896974 0.055007245
000090 7e ae 69 3d 4e ad 58 bd d2 cc de bc f9 83 3f 3c
       0.057051174 -0.05289965 -0.027197275 0.01168918
0000a0 6f 9b 43 bc ea 13 4e 3d c9 8b 0c 3d e0 8f 16 bd
       -0.011938914 0.05031196 0.034312997 -0.036758304
0000b0 0b 57 4d 3d 1d 0e ea 3c 63 16 22 bc 03 39 68 3d
       0.05013184 0.028571183 -0.009893033 0.056694996
0000c0 a1 f7 3a 3b 39 9e 54 bd 5f 9e d0 bc b8 57 24 3d
       0.0028528946 -0.051908705 -0.025466142 0.040122718
0000d0 18 1f d5 bb 15 70 41 3b e1 6a 73 3c 32 21 71 3d
       -0.006503951 0.002951627 0.014857025 0.05886955
0000e0 70 42 f5 bc 93 bb b5 3b 73 ff 30 bd 9e 48 20 3d
       -0.029938906 0.005546042 -0.043212365 0.039131753
0000f0 24 7f 09 3a fb 92 d4 3b 7f 45 c4 bc 21 30 55 3b
       0.00052450807 0.006487248 -0.02395892 0.0032529908
000100 ad d3 09 3d bd 11 58 bd 8f b8 2c 3d 38 0d fa 3c
       0.033649135 -0.05275129 0.042168196 0.030523881
000110 92 57 88 bc a5 48 c9 ba ed d0 99 3c 2d ca 20 3c
       -0.01664332 -0.0015356733 0.018776381 0.009813827
000120 06 ef 1c 3d 7e 34 bc bd 54 c5 a1 39 8a 41 b5 bd
       0.038313888 -0.091896996 0.00030855334 -0.08850391
000130 6d 72 77 bd d8 15 54 3c 44 fb 87 bd e4 55 9c bd
       -0.06041186 0.012944661 -0.06639722 -0.0763357
000140 8c 77 85 3b 90 75 44 bd f4 88 fc bc 15 49 db 3b
       0.004073089 -0.04796368 -0.030827023 0.0066920617
000150 df d8 d8 3c 66 dc 08 bd 99 7c 71 bd 94 a5 29 bc
       0.0264706 -0.033413313 -0.058956716 -0.010354418
000160 06 18 46 3b 62 91 c2 3c b9 52 02 3d ff 54 95 bc
       0.0030226721 0.023750965 0.03181717 -0.018229006
000170 30 6d 13 bd 51 b1 3b 3c 94 5f 68 bd fc 98 05 bd
       -0.0359928 0.01145585 -0.056731775 -0.0326166
000180 c4 78 bc 3b e2 9f f7 3c df d9 33 bd 83 18 ba bc
       0.005751701 0.030227605 -0.04390895 -0.022716766
000190 c7 59 2a bd c4 cc 88 3d 46 58 a4 3d d5 40 00 3d
       -0.041589525 0.06679681 0.08024649 0.03131183
0001a0 62 5d 58 3b f9 4a 35 bc c1 6d c0 bb b8 e5 7a 3c
       0.0033014645 -0.011065238 -0.0058724587 0.015313558
0001b0 e3 b3 66 bc 91 b7 09 bd 9f 35 5e 3d 4e c9 e2 bc
       -0.014080974 -0.03362233 0.054250356 -0.02768388
0001c0 e3 8c fc 3c da 65 44 bd 84 38 95 3d e7 bf 22 bc
       0.030828899 -0.047948696 0.0728617 -0.009933448
0001d0 25 42 45 3d a3 13 38 3d 8c c3 0b bd 0f 7d 03 3d
       0.048158783 0.044940602 -0.034122035 0.032101687
0001e0 67 4d 81 bc 11 0b bc 3c 7f 38 aa ba a7 40 0f 3d
       -0.015783979 0.022954496 -0.0012986808 0.034973767
0001f0 16 cb af 3d 32 d4 8b 3d ef b3 99 bd 12 79 89 3d
       0.085836574 0.068275824 -0.07505023 0.067125455
000200 68 e4 50 3c 88 3a a7 3d 22 30 0e ba 78 d0 23 3d
       0.012749769 0.08165461 -0.00054240425 0.039993733
000210 8f 4a 68 bb 8e 67 4b 3d e0 f8 2e bd dc a5 c9 bc
       -0.003544483 0.049659304 -0.042717814 -0.02461522
000220 5c 9b 5c 3d a9 f1 93 3c f4 75 22 3d 7b 1b 9c bb
       0.0538591 0.018059568 0.03966327 -0.004764018
000230 51 20 d3 3c cf d0 b5 bc 5d 2b 8d bd 4e 12 d3 bb
       0.025772246 -0.022194294 -0.068930365 -0.006441391
000240 c4 61 0c 3d 17 5c 2c bd 11 96 9d 3d 4c db 56 3d
       0.034272924 -0.04208001 0.076946385 0.05245523
000250 b9 27 e6 bc ff 89 8f bd 9e 28 c9 3c f9 5b 06 3d
       -0.028095113 -0.070087425 0.0245555 0.032802556
000260 89 d6 fb 3c 59 2d 93 3c 71 e2 9e bd 9d 99 09 bd
       0.030741947 0.01796596 -0.07758034 -0.033593763
000270 a0 5c 88 3d 27 a4 53 3d 9c 67 1e bc 77 31 76 ba
       0.06658292 0.05167022 -0.009668257 -0.0009391526
000280 92 fc c6 ba fd 93 0a bd d9 49 f5 ba 13 a5 da bc
       -0.0015181473 -0.03383254 -0.0018714025 -0.026690042
000290 69 9f fd 3a 6d 9d 0e 3d ae 6b 8b bd 61 4b 52 bd
       0.0019349876 0.0348181 -0.06807648 -0.05134142
0002a0 55 89 64 3d 4a 07 2d bd 9c 77 02 bc 7d de d7 3c
       0.055795033 -0.04224328 -0.007963087 0.026351208
0002b0 14 c2 93 3c 2b 8b 6b bb 76 1d ea bc 40 35 4d 3d
       0.01803688 -0.0035941105 -0.028578501 0.05009961
0002c0 b7 0c 40 bd f7 78 00 bd 83 63 48 3d f8 18 9c bc
       -0.046887126 -0.03136536 0.048923027 -0.019054875
0002d0 5a 3b 95 3c 9a 93 23 bd 27 cc 51 bd 92 de 8d 3b
       0.018216778 -0.039935686 -0.051220085 0.004329511
0002e0 cf 62 e1 bb fb 60 3e 3d 5a b6 39 bc 48 83 39 bd
       -0.006878234 0.046479207 -0.01133498 -0.045291215
0002f0 2f ab 09 bd b1 7e 6c bd 44 39 63 bb 26 c8 f2 bc
       -0.03361052 -0.05773801 -0.0034671584 -0.029636454
000300 cc a8 27 3c 23 a3 70 3d 26 c2 62 3c 48 53 37 bc
       0.010233115 0.05874933 0.013840234 -0.011189289
000310 43 c7 0c 3c 4d 16 c9 bc 21 d3 29 3d 13 b2 a8 3b
       0.00859243 -0.024546767 0.041461114 0.005148181
000320 aa 1f af 3c 9c e6 88 3d 86 89 8f 3b 53 0e 19 3d
       0.021377403 0.0668461 0.0043804077 0.037367176
000330 50 56 64 bb 8d 28 98 bc 3b 6a 7a 3c 44 9a 29 bd
       -0.0034841485 -0.018574024 0.015284116 -0.041406885
000340 45 62 25 3d dd fa 64 3d 8e f9 72 bc 1e b4 17 bd
       0.04037692 0.055903304 -0.014830006 -0.037037008
000350 1c 1c 90 3d 5a 5c 0d bd aa 37 1a bd 77 2e 49 bd
       0.070366114 -0.0345119 -0.03765074 -0.049116578
000360 b1 1c 3e 3c 2b a8 ad 3c 27 2a cc 3a 24 c2 b2 bc
       0.01160352 0.021198353 0.0015576527 -0.02182109
000370 94 4c 0e 3d 2f 1f 08 3d 59 98 e5 bc 1a 51 38 bd
       0.034741 0.033232864 -0.028026747 -0.04499922
000380 32 4c cf bc fc 1d 69 3d 91 c5 ce 3c da c5 c6 bc
       -0.025304887 0.05691336 0.025240691 -0.024264265
000390 68 e7 97 bb a7 f6 40 bd ee 9b be bd cf 98 d0 bc
       -0.00463574 -0.047110226 -0.09307085 -0.02546349
0003a0 c1 7d 92 bd 96 de 25 3c d8 85 83 ba 05 74 87 3b
       -0.07152892 0.010123869 -0.0010034395 0.0041337037
0003b0 09 6d 17 3d c5 6f 4d 3d b8 36 b3 bb 9e ab 05 bd
       0.03696922 0.05015542 -0.0054691695 -0.03263437
0003c0 89 bf 71 bb f7 ee d5 3c c0 39 9b bc 0e 71 45 bd
       -0.0036887845 0.026114924 -0.018948436 -0.04820352
0003d0 e6 a3 2f bd f8 fc 2a bd 7d a8 56 bd 00 fd 02 bd
       -0.042880915 -0.041745156 -0.052406777 -0.03197956
0003e0 e3 32 86 bd c8 a6 64 3d 16 ee 78 3c ce e5 67 bc
       -0.065526746 0.055823117 0.015193483 -0.014153911
0003f0 27 77 84 3b 58 58 d6 ba 57 00 29 bd 13 58 cd 3c
       0.0040425244 -0.0016353233 -0.04126009 0.025066411

fc.0.bias f4 [160]
000000 6b 06 82 bc 11 22 28 3b b9 4a 4d bd e1 cb 43 bd
       -0.015872201 0.002565507 -0.05012009 -0.047801856
000010 42 14 73 bd 98 4d 1d bd bf be 9b bd fc c4 c0 bd
       -0.05934549 -0.038404077 -0.07604741 -0.09412572
000020 1c e3 a7 b9 14 51 ab bb ba 4f 71 b8 11 00 9a bd
       -0.00032021932 -0.005228171 -5.753313e-05 -0.07519544
000030 71 58 9f bd 4a 45 1e bd 59 9e f0 bc 8a 5a 5f bd
       -0.07780541 -0.038640298 -0.029372381 -0.054529704
000040 02 5d a0 bd 7b dd 62 bb 78 5c 54 bd 6c 5e aa bd
       -0.0783024 -0.0034616876 -0.051845998 -0.08318791
000050 f7 1b a6 bd 75 36 69 bd fb 76 b2 bd 94 d9 56 bd
       -0.081108026 -0.0569367 -0.087141 -0.052453592
000060 69 dd b2 bd 3c 2c ce bc c8 29 47 bd 4c f4 4a bd
       -0.08733637 -0.025167577 -0.04862383 -0.049549386
000070 0f 5f 5a bd 6f 8c 31 bd 9e 52 86 bd 18 7c a5 bd
       -0.05331331 -0.04334682 -0.06558727 -0.0808031
000080 22 e4 8e bd b8 ab 8c bc 94 71 6b bd cd 6d 6a bd
       -0.06977107 -0.017171726 -0.057481363 -0.05723362
000090 68 4e 12 bd 08 12 45 bd 94 8d e8 bc f4 8c 38 bd
       -0.035719305 -0.0481129 -0.028387822 -0.0450563
0000a0 d9 a5 9d bd cc d7 08 bc 61 88 6b 3c 3c 8a 8e bd
       -0.076976486 -0.008352231 0.014375777 -0.0695996
0000b0 53 d5 46 bd 2d 3a d1 bd 68 5c a9 ba dc f2 6a bd
       -0.048543286 -0.10216174 -0.0012921216 -0.057360515
0000c0 d8 a6 a1 bd 02 0c 5b bd e4 93 9e bc 1a 40 2a bd
       -0.07893151 -0.05347825 -0.01935763 -0.04156504
0000d0 7a 5a 62 bd 05 e6 b0 bd 6c 6c 21 3c 98 17 e0 bc
       -0.055262066 -0.08637623 0.00985251 -0.027355
0000e0 23 17 a6 bd 7d e5 31 bd e1 95 b0 bd bb 60 da bd
       -0.08109882 -0.043431748 -0.08622337 -0.10662981
0000f0 f2 75 b4 bd a2 7d c5 3a f6 a0 7b bd 8e 37 cd bc
       -0.08811559 0.0015067349 -0.0614328 -0.025050905
000100 04 8a e8 bc da bb 26 bd 3f 9d 48 bd cf 5c 09 bc
       -0.028386123 -0.040706493 -0.048978087 -0.008383944
000110 b8 8e a0 bc dd 68 87 bd 07 c2 2e bd 22 36 dd bc
       -0.019599304 -0.06611798 -0.042665508 -0.027003352
000120 7a e0 87 bd 99 66 83 bd a2 f9 40 bd 1c d3 0e bd
       -0.066346124 -0.06416053 -0.04711307 -0.0348693
000130 44 1f cf 3a bc b4 c7 ba 63 5d 51 bc 40 9e 00 bc
       0.0015802165 -0.0015236358 -0.012778613 -0.00785023
000140 ad 6d ba bb 12 59 2a bd aa aa 9e bd 36 61 85 bd
       -0.005689344 -0.04158885 -0.07747395 -0.06512682
000150 50 77 bc 3c 69 bd 89 bd 4a b7 75 bd 9b 9b e2 bd
       0.023006111 -0.0672558 -0.05998925 -0.11064836
000160 6b 02 88 bb 27 90 da bc be 72 2e bd c2 e9 3b 3c
       -0.004150679 -0.026680065 -0.042589895 0.011469306
000170 0b 5d 55 3c 4a e4 2b bd 46 60 a3 bd 9f 00 b9 bd
       0.013022671 -0.04196576 -0.07977347 -0.090333216
000180 52 4a cd bd e0 24 8d bd 38 c3 bc bd 36 94 70 bd
       -0.10023941 -0.06891799 -0.092169225 -0.058735095
000190 48 fb 4a bd 65 93 7e 3c 16 d3 e1 ba 8c cb 04 bd
       -0.049556047 0.015538071 -0.0017229046 -0.03242068
0001a0 9e a2 87 3c ae 92 be bc 7e 1d 83 bd 25 fa 85 bd
       0.016557034 -0.023263302 -0.064021096 -0.06541852
0001b0 bc be ad bd 67 86 e9 3b e8 26 6d bd 51 6f e8 bd
       -0.08483645 0.0071266177 -0.057898432 -0.11349357
0001c0 8d a7 85 bc c3 37 fd bc 19 02 74 bd 75 54 51 3c
       -0.016315246 -0.030910378 -0.059572313 0.012776484
0001d0 09 0a 22 bd 9d ac 92 3a ba 09 ba bd f9 4c 85 bd
       -0.03956035 0.0011190359 -0.090838864 -0.06508822
0001e0 fe a5 6a bd 94 a2 b3 bc 10 fc 3e 3b 5a e2 58 bd
       -0.05728721 -0.02192811 0.002914194 -0.05295024
0001f0 71 0a 62 bd c8 d6 83 bc 4b 56 16 bd 27 fc de bd
       -0.05518574 -0.016093627 -0.03670339 -0.10887938
000200 b7 a4 72 bd d7 43 0f bd 9c ab aa bd a8 3f ba bd
       -0.059239116 -0.034976806 -0.08333513 -0.09094173
000210 be e5 83 bd c6 5f 54 bd e2 c9 2d bd f7 c3 1e bc
       -0.06440304 -0.05184915 -0.04242886 -0.009690276
000220 40 f9 9c bd 38 b6 fc 39 7f 08 75 bc 89 71 ce bd
       -0.07664728 0.0004820095 -0.014955639 -0.10080249
000230 3c 21 2b bd 3f aa 8d bc 94 b5 b6 bd 59 d2 02 bd
       -0.04177974 -0.017293094 -0.08921352 -0.031938884
000240 7b 3b a3 bd ca 84 9f bb 15 4b 03 3c 28 fc 45 bd
       -0.079703294 -0.0048681246 0.008013506 -0.048336178
000250 5e 1c 84 bb a2 ad c4 bd c4 79 90 bd 05 0d 8e bd
       -0.004031702 -0.0960343 -0.07054475 -0.06936077
000260 27 55 bb bd 18 4b 09 bd 8c 7c 38 bd fd cc 9d bd
       -0.09147101 -0.03351888 -0.045040652 -0.07705114
000270 05 37 ae bd 9c 71 fe bc e1 59 ec bc 2e 9c a8 bc
       -0.08506588 -0.031060033 -0.028851451 -0.020582285

fc.3.weight f4 [100, 160]
000000 ba 96 4d bd 38 0b 4f 3d 83 92 41 bd 8f 7f 33 bd
       -0.050192572 0.05054781 -0.047258865 -0.04382282
000010 8e 1f 80 3c 05 88 9a bc 2f 42 f3 3c af 05 bc 3b
       0.015640046 -0.018863687 0.029694645 0.005737982
000020 7f 40 a7 bd f7 48 43 3d 12 12 e0 3c 93 c4 07 bd
       -0.081665985 0.047677007 0.027352367 -0.033146452
000030 83 00 3e ba 18 ab 1b 3c 61 d0 81 bc 18 7d e6 3c
       -0.0007248001 0.009501241 -0.015846433 0.028135821
000040 6e c2 35 bd d5 06 91 3c 00 95 69 bc 17 a1 c7 38
       -0.044374876 0.017703453 -0.014256716 9.519065e-05
000050 62 d9 c6 3c 1f 3f 5a 3d 73 81 d1 39 c3 00 54 3d
       0.024273578 0.053282853 0.00039960034 0.05175854
000060 63 03 70 3d f9 ab 9e 3d 5f c9 5a bd 29 1a 93 3d
       0.05859698 0.07747645 -0.0534147 0.07182724
000070 e2 e9 05 bd c7 c3 0f bd d1 2c 22 3d 3b bb 84 3d
       -0.03269375 -0.035098817 0.03959352 0.06481024
000080 05 a1 fb bc 06 ce c8 3c 94 34 a5 3d d4 27 b0 3b
       -0.030716429 0.024512302 0.08066669 0.0053758416
000090 93 59 b1 ba 7a 31 cf bc af 03 5c 3d f3 79 ff 3c
       -0.0013530724 -0.025292147 0.05371445 0.03118608
0000a0 b2 f2 9d bb 25 96 e4 bc 8a 00 6e 3d e3 81 95 bd
       -0.0048201913 -0.027903626 0.058105983 -0.073001646
0000b0 d3 e6 9b bd 19 d6 52 bc c2 18 46 bd 06 93 8d 3d
       -0.076123856 -0.012868428 -0.048363455 0.06912808
0000c0 e1 7e 0c bc 45 c0 1b bc 4f 2b be bc 38 92 36 bb
       -0.008575172 -0.00950629 -0.02321401 -0.002785815
0000d0 43 d2 6b 3d b0 76 88 bb 6a c8 69 bd 79 03 03 ba
       0.057573568 -0.0041645393 -0.057075895 -0.0004997771
0000e0 54 03 d8 3c aa bf 99 3d 95 21 99 bc e3 9d 01 bc
       0.026368774 0.0750726 -0.018692771 -0.007911178
0000f0 5c 84 54 bd 16 d8 63 bd 26 84 64 bd fb 89 e9 3c
       -0.05188404 -0.055625997 -0.05579009 0.028508177
000100 d5 ea dc bc 77 e8 1c 3d 28 dd 59 3d 99 9d 82 3d
       -0.026967445 0.038307633 0.053189427 0.063777156
000110 d2 53 ac bd c4 5f a1 bd 93 8b 65 3d 4a 94 52 bc
       -0.08414425 -0.07879594 0.05604131 -0.012852738
000120 85 17 9b bc 58 17 3d bc a6 c9 09 bd 56 fd 36 3d
       -0.018932113 -0.01154121 -0.033639573 0.044675194
000130 9f 30 3a 3d 5a c1 bb 3c 5d 46 ed 3c e5 a1 7e 3a
       0.045456525 0.022919346 0.028964216 0.0009713455
000140 c1 c1 c3 3c ab 63 f6 3c ca 29 2c bd 56 35 8a bd
       0.0238961 0.030076822 -0.04203204 -0.06748454
000150 de e4 03 bc d4 ed 10 bd d9 43 9f bd c9 d0 54 3b
       -0.008050172 -0.03538306 -0.07776613 0.0032473078
000160 71 75 95 3c 51 b4 83 bd c7 af 66 bd 34 5e 17 bd
       0.018244477 -0.06430877 -0.056319978 -0.036955073
000170 a5 d5 86 bd ec 21 4e 3c 74 5a c2 bc b0 1d 96 bc
       -0.06583718 0.01258133 -0.023724772 -0.018324703
000180 f9 96 42 bc bb 16 af ba f1 a5 44 bd 39 76 34 bd
       -0.011876815 -0.0013358215 -0.048009817 -0.04405806
000190 71 59 e4 bc f9 17 07 bd a5 5d 4a 3d c3 71 2d 3d
       -0.02787468 -0.032981846 0.049405713 0.04234482
0001a0 e3 19 7f bd 48 f3 31 3d cf 96 16 bd 1c 6c 3c bd
       -0.062280547 0.0434449 -0.036764916 -0.04600154
0001b0 e9 43 a0 bc 1e 57 83 3d 46 0b 24 bd b5 5e 98 3d
       -0.019563632 0.06413101 -0.040049814 0.07439939
0001c0 0a 48 54 3d 99 13 87 3d c5 aa 72 bd bf 5c 50 bd
       0.051826514 0.06595535 -0.05924489 -0.0508697
0001d0 35 24 02 3d 37 30 4f bd cb fe 8c 3d e4 b3 c2 bc
       0.03177281 -0.05058309 0.068845354 -0.02376742
0001e0 70 df 38 3c fa 66 de 3c 8e ff 87 3d d6 2b 9c 3d
       0.01128374 0.027148712 0.0664054 0.076255485
0001f0 dc fe a6 3d cf 56 66 bd 48 78 a1 3c fb b5 84 bd
       0.08154079 -0.05623513 0.019710675 -0.064800225
000200 30 7d 9d 3d c2 83 f0 b9 79 22 de bc 1c 20 11 3d
       0.07689893 -0.00045874534 -0.027116047 0.035431013
000210 8f eb 94 3c bf 12 b6 3b 28 3d 68 3c d7 01 a3 3d
       0.01817873 0.005556434 0.014174737 0.07959335
000220 51 7a 3f 3d 2d c6 37 3c f4 37 b7 3d 76 cf 08 3d
       0.04674751 0.011216682 0.08946219 0.033400975
000230 44 a9 9d 3d c1 e6 58 3c c6 b1 74 3d e7 e0 fa 3b
       0.076983005 0.01323861 0.05973985 0.007656205
000240 d1 93 4c bd 9a b3 a2 3d b7 82 04 bc c6 21 db 3b
       -0.049945656 0.079444125 -0.0080878055 0.0066873757
000250 ce 44 59 3d 5e 4b 89 bd ef bf 28 bd 19 84 e7 bc
       0.053044133 -0.06703828 -0.041198667 -0.028261231
000260 9d f0 32 bd a5 cd 9f bd 2f 44 0b 3d 72 53 9e bb
       -0.043686498 -0.078028955 0.03400057 -0.004831725
000270 31 ec 9e 3a 0d 04 74 bb a8 4b 88 3c 1b b2 f2 3c
       0.0012124834 -0.003723386 0.016637638 0.029625943
000280 93 17 6b bd b3 66 91 3d 81 0b b0 3c 4f be 86 bd
       -0.05739553 0.070996664 0.02148986 -0.06579267
000290 df ab 8d 3d 22 cb 35 bd 37 48 83 3b cf 44 24 bc
       0.069175474 -0.044383176 0.0040064114 -0.010026171
0002a0 bf 53 39 3c e9 85 92 bd c3 37 61 3d d3 6e 9c 3d
       0.0113114705 -0.071544476 0.05498482 0.076383255
0002b0 1b 78 64 3c ca 2d 8f bd 5e 9f 30 bd 90 2c f6 3c
       0.013944651 -0.069911554 -0.043120734 0.030050546
0002c0 ec 28 3d 3d e5 95 9b bd 2a e6 ca 3c 39 b3 da bb
       0.046181604 -0.075969495 0.024767954 -0.006674197
0002d0 dc 9e 53 3c 3d f3 d1 3c 98 8c 60 bd 82 97 3b bd
       0.012916293 0.02562868 -0.05482158 -0.045798786
0002e0 83 a5 0a bd 71 fe 4a 3d 8f 71 91 3d de 5a 9b bd
       -0.03384925 0.04955906 0.07101738 -0.07585691
0002f0 62 24 ca 3c 91 14 dc 3c ae 5d 5e 3d 7b 54 9d 3d
       0.024675552 0.026865276 0.05428856 0.07682129
000300 97 fc 2f bd c0 8d fa bc a2 5b 50 bd cf e0 72 bc
       -0.042965498 -0.03058517 -0.050868638 -0.014824106
000310 16 88 56 3c f9 71 26 bd 68 2c 17 3d 31 83 15 3a
       0.013093969 -0.040636037 0.036907583 0.0005703448
000320 3b 4c 9e 3d 19 cb 3d bd 9e 72 9a bd f6 12 57 3c
       0.077293836 -0.046336267 -0.07541393 0.013127079
000330 e4 31 91 bb a6 ec 71 3d 6d 95 57 bc 78 eb 10 bd
       -0.0044309963 0.059063576 -0.0131581845 -0.03538081
000340 96 bd 78 bd b5 14 b3 3a 97 4d f2 bc a9 67 65 3d
       -0.06072768 0.0013662787 -0.029578013 0.05600706
000350 62 c8 83 bd b9 89 41 3b a7 73 c8 3c 89 27 83 3d
       -0.06434704 0.0029531552 0.02446921 0.06404025
000360 6b ec 07 3c 6d af 63 bd a0 ab 49 3d 72 e0 45 bd
       0.0082961125 -0.05558722 0.04923594 -0.04830975
000370 35 b6 1d bd c2 db 6a bd d5 2f 01 3d 3d 72 7d 3d
       -0.038503844 -0.057338484 0.031539757 0.061876524
000380 eb 9a f9 bc d8 c9 15 bd 4c 13 31 bd 42 6f 1f 3b
       -0.030469378 -0.036569446 -0.043231294 0.002432779
000390 66 b5 68 bd 47 00 45 bd 78 7e a2 3d 58 f1 dd bc
       -0.05681362 -0.048095968 0.07934278 -0.02709262
0003a0 78 92 2c 3d 3f 3f 34 bc c1 cb 60 bd 9e 65 58 3d
       0.04213187 -0.011001407 -0.054881815 0.052831285
0003b0 fd ff 22 bd 0a 4d 65 3d bc d8 30 3d 4c 5e 45 3d
       -0.03979491 0.055981673 0.043175444 0.04818563
0003c0 86 01 9e bd f3 a5 74 3c 13 46 bf 3c 3c e1 dd ba
       -0.07715134 0.0149321435 0.023348844 -0.0016928087
0003d0 9b 24 9e 3d 52 6f 5b bd 19 bc 87 3d 89 b3 b4 bc
       0.07721826 -0.05357296 0.06627674 -0.022058265
0003e0 d7 d1 de bb 78 e1 6d 3d 8c 99 72 bc 4f 09 40 bd
       -0.006799917 0.058076352 -0.014807116 -0.046883877
0003f0 9d 2d de 3c e6 ff 94 3d fb 96 68 bd af bd eb 3c
       0.02712136 0.07275371 -0.05678461 0.028776972

fc.3.bias f4 [100]
000000 b6 d6 95 bb 5d 52 ec bc c9 4f af bc 4c 4b 88 3b
       -0.0045727147 -0.028847868 -0.02140035 0.0041593667
000010 04 81 f9 3b b8 9b 4c bc 4d ae 99 3c 1e 7d 6a bc
       0.007614257 -0.012488298 0.01875987 -0.014312057
000020 c6 83 fa bb 73 cc b8 bc 18 19 8a bc 5e 70 b9 3b
       -0.007645103 -0.022558426 -0.016857669 0.005659147
000030 63 2c 53 3c 3b 9f 60 3c e7 0b 03 3c 8a 46 a9 3b
       0.012889001 0.0137098385 0.007998443 0.0051658796
000040 5f ba 2a bc e7 37 28 3c 3b d7 cd 3a 94 fd 47 3c
       -0.010420411 0.010267234 0.0015704402 0.012206454
000050 cf b5 b4 bb 05 3e d2 b8 a0 72 48 3c 0f c9 2d bc
       -0.0055148373 -0.00010025132 0.01223436 -0.010607018
000060 9c 7a 82 3c 0c 7b 19 3c b3 c0 b6 3c 57 b9 72 bd
       0.015927605 0.009367716 0.022308683 -0.059258785
000070 6f f9 7e bd e2 7b dc 3b ca 2b 40 bc 3a 4c 6c 3c
       -0.062249597 0.006728635 -0.01172919 0.014422471
000080 d7 43 cc bb c6 f8 21 bb 88 b1 f2 3b ab 68 f7 3c
       -0.006233673 -0.002471493 0.0074064173 0.030201277
000090 14 6b 51 bc a4 3c e3 ba 62 1b e6 3b 5f 38 ee ba
       -0.012781877 -0.0017336798 0.0070223073 -0.0018174759
0000a0 ff 5e 88 3c b2 2a f8 bb 01 a5 20 3c 71 31 6d bd
       0.01664686 -0.007573449 0.009804965 -0.05790848
0000b0 e1 55 43 bd 18 da 55 3c 21 c4 49 bd 13 c2 3e bd
       -0.047689322 0.013052486 -0.04925931 -0.046571802
0000c0 01 65 94 bd d6 1a 52 bd dd ad 47 bc bd c4 89 bd
       -0.072458275 -0.051295124 -0.012187448 -0.06726978
0000d0 bb 81 2f bd 98 d5 c6 3c 8b 01 2c 3c d4 02 7a 3c
       -0.04284833 0.024271771 0.010498415 0.015259463
0000e0 c9 20 02 bd 85 32 f7 3b 96 ce 85 3b b4 4c 76 bb
       -0.031769548 0.007543864 0.004083465 -0.003758234
0000f0 ae a5 4c 3c b6 68 e9 bc 0e ce 1b 3c 10 46 5a bd
       0.012490673 -0.028492313 0.0095095765 -0.053289473
000100 7a a2 42 3b 2a 3c eb ba 40 37 74 3b 36 a8 a7 bd
       0.0029698894 -0.0017947007 0.0037264377 -0.081863806
000110 70 74 6f bd ad 75 96 3c 4c 2d ba 39 0b 21 da bc
       -0.058460653 0.018366659 0.00035510433 -0.026627084
000120 34 1a e7 39 ae af 14 3c 40 28 81 3c dc 74 06 3c
       0.00044079276 0.009075088 0.015766263 0.008206572
000130 85 23 29 bc 32 b6 4c bb ae 64 88 bd 4b b7 99 bd
       -0.01032341 -0.0031236527 -0.06659828 -0.075056635
000140 d1 4f 3a bb 21 d4 af bd 8a 6e 57 bc 4d cf af bd
       -0.0028428922 -0.08585382 -0.013148913 -0.08584461
000150 44 69 a7 3b c1 14 f1 ba df 0b 05 3c 90 88 9b bb
       0.005108984 -0.0018393026 0.008120506 -0.004746504
000160 de f3 b0 3c 9a 9d 4d 3c 64 48 31 bd 9d f7 bf 3a
       0.02160066 0.012549782 -0.043281928 0.0014645938
000170 86 57 a7 bd d6 c5 32 3b 54 47 94 3c 9a a7 88 3c
       -0.08170991 0.0027278564 0.018100418 0.016681481
000180 18 65 fd bc 4d 18 e8 b9 27 24 a0 bd 66 a9 9c bd
       -0.030931994 -0.00044268594 -0.078193955 -0.07649498

fc.6.weight f4 [100, 100]
000000 f1 4b 79 3d d7 c9 b0 bd b1 f8 07 3d 47 d0 16 bd
       0.06086344 -0.08632248 0.033196155 -0.036819723
000010 0a f1 f2 3c b2 f9 8e 3d 3b e3 4b 3c 3b 2a 10 3c
       0.029655952 0.06981219 0.012444313 0.008799131
000020 3a bb 1c 3d 2d f8 aa bd 05 1f 77 3d 60 a5 27 3d
       0.03826449 -0.08348117 0.060332317 0.0409292
000030 b2 e2 83 3b 52 a5 4e 3d aa c0 c8 bd ea 04 a2 bd
       0.004024827 0.05045063 -0.09802373 -0.079110935
000040 7b 47 10 bc 3b 81 d6 3d 53 cf b6 3d 19 b1 63 bd
       -0.008806105 0.104738675 0.08926263 -0.055588815
000050 a3 a0 dd bc 1b 0f d9 3c bc ca ee 3c 7e 80 45 3d
       -0.027054137 0.02649646 0.029149406 0.048218243
000060 d5 7f 56 bd 23 3a 50 bd e6 6a 6b 3d ec c4 ba 3d
       -0.052368004 -0.050836693 0.057474993 0.09119591
000070 7a c4 51 bd 40 83 3e bd b8 c7 43 3c 01 0a f6 bd
       -0.051212765 -0.04651189 0.011949472 -0.12013627
000080 92 40 a0 3d df 48 48 bd ae ee 0a bd c0 86 d9 3c
       0.07824816 -0.04889762 -0.03391903 0.026553512
000090 a8 ab 97 3d 5a b9 34 3d 87 9d 2a bd 9b 75 59 3c
       0.07405788 0.044122078 -0.041654136 0.013272668
0000a0 8e 92 a2 3d 60 6a e8 3c 46 de 63 bd 65 2e be 3d
       0.07938109 0.028371036 -0.0556319 0.09286193
0000b0 fa fa be 3d cf 03 f2 3d 37 66 8d bd 7a b5 59 3c
       0.09325214 0.11817133 -0.069042616 0.013287896
0000c0 25 41 3d 3d e0 98 bc bd c6 6e 92 3c c5 00 ad bd
       0.046204705 -0.09208846 0.017875087 -0.084474124
0000d0 4c f3 97 bd 99 7d 66 bc 95 e9 ec bc 3a 4e 9e 3d
       -0.07419452 -0.014068031 -0.028919974 0.07729764
0000e0 49 d8 1b bd 96 e7 ac 3d be b5 63 3a ed a5 86 3d
       -0.038048062 0.08442609 0.00086864445 0.065746166
0000f0 6b b5 9a 3d 27 3e 06 bc 83 7a a0 bd 13 d5 2f bd
       0.07554134 -0.008193529 -0.07835867 -0.042927813
000100 17 f6 c8 3c 77 71 83 bd 31 83 f9 3b aa 06 2c bc
       0.024531407 -0.06418126 0.007614516 -0.010499636
000110 54 0f 1e bb 9c 4a 28 bd 00 30 8f 3d ac 3a 31 bc
       -0.0024118023 -0.041086778 0.06991577 -0.010817211
000120 69 07 d3 3d 47 5f e8 bd a3 62 8c bd 90 fb 38 bd
       0.10304148 -0.11346298 -0.06854751 -0.045161784
000130 d5 30 85 3d 3f 77 f1 bd 0f ae 5b bd 41 9f 24 bd
       0.065034546 -0.117903225 -0.053632792 -0.04019094
000140 89 45 15 bd bd bc a7 3d b8 0f 9a 3c 0d ca 5b bc
       -0.036443267 0.08190296 0.018806323 -0.013414872
000150 95 eb 2b 3d ca dc e5 3c 06 a6 ea 3c 42 ce 91 bb
       0.041972715 0.028059382 0.02864362 -0.0044496367
000160 04 6f da 3c ba 89 d8 3b 9a fb 02 bc 64 36 b0 3d
       0.026664265 0.006608215 -0.007994557 0.08604124
000170 6a 8a a1 3d 3d 0b 51 bd 4a 8c 05 3b 18 3b dd 3a
       0.078877285 -0.05103611 0.0020377808 0.0016878573
000180 8b b1 20 bd 9f 21 ac 3d 09 fe b8 bc 6f c2 c7 bd
       -0.03923182 0.0840485 -0.02258207 -0.09753882
000190 d5 ba 49 3d 9c 27 3b bd 50 47 8a bb bc 6c 28 3d
       0.049250443 -0.04569207 -0.004219927 0.041119322
0001a0 e2 e4 7a bd 6e 61 72 bd e3 fd b6 3d 61 6b ca 3d
       -0.061253436 -0.059174947 0.08935144 0.09883762
0001b0 1b f6 cc bc f1 9b 7b 3d 47 9d b5 bd a1 a6 6a 3d
       -0.025019696 0.061428014 -0.08867889 0.057287816
0001c0 9f 82 96 bd f5 f2 91 bd 8c 44 84 bd dd e7 bc bc
       -0.07349133 -0.071264185 -0.06458387 -0.02305978
0001d0 85 98 2e bd d3 68 b0 3c dd 9c f0 bc 56 cd 23 bd
       -0.042625923 0.02153436 -0.029371673 -0.039990745
0001e0 69 1b 2b bd 6d 74 64 3d 12 0b f7 bc 2d 35 c5 bd
       -0.041774187 0.055775095 -0.030156646 -0.09629283
0001f0 c8 d1 98 3d 05 85 12 3d 66 b4 41 bd e5 f5 72 3c
       0.074618876 0.03577139 -0.047291182 0.014829134
000200 38 7c 25 3d c5 a8 ca bc d8 f5 73 bd 8b 20 8e 3d
       0.040401667 -0.024738679 -0.059560627 0.06939801
000210 69 e3 31 bd 27 4c b7 bd aa f7 d2 bc af a3 8d 3d
       -0.043429766 -0.08950072 -0.025752861 0.06915986
000220 f3 b0 83 bd 77 2a 1f bd d8 d5 3e 3d c8 61 c5 3d
       -0.06430235 -0.038858857 0.046590656 0.09637791
000230 08 d8 37 bc ef 66 03 3c 91 aa 7e 3d 63 84 4a bb
       -0.011220939 0.008020147 0.062174384 -0.0030901663
000240 d4 d3 6f 3d 2f 26 83 bd 6a 5a 56 3b e2 12 7a 3d
       0.058551624 -0.06403767 0.00327077 0.061053164
000250 37 4b 42 bd 47 31 ff 3c 47 0f c7 bc 4f 68 fb 3c
       -0.04743501 0.031151427 -0.024299277 0.030689387
000260 db e6 df 3b a5 9d ac 3d bd da 15 3d bd fe 59 3d
       0.00683294 0.08428506 0.03658556 0.053221453
000270 eb 1c af 3c 26 db b6 bc 07 c8 ff 3b ae 0f a0 bc
       0.021376094 -0.022321295 0.0078058275 -0.019538727
000280 38 4c c9 bd c3 c6 b3 bc 3f 10 f6 bc 31 a5 03 3d
       -0.09828991 -0.021945363 -0.030037044 0.03213996
000290 95 31 7a bd b8 3e 56 3d b4 a5 32 3d c5 67 5f 3b
       -0.06108244 0.052305907 0.043615058 0.003408895
0002a0 a1 40 bf bd a0 02 ca 3c 6c b1 65 bd cc 01 b1 bd
       -0.09338499 0.024659455 -0.056077406 -0.08642921
0002b0 f5 00 92 3d d0 e2 90 3d 3e 28 8b bc 53 22 07 3c
       0.07129089 0.07074511 -0.016986962 0.00824793
0002c0 e3 b2 a5 3d 0f 10 60 3d 26 f8 7f bd ad d5 a7 3d
       0.080907606 0.054702815 -0.062492512 0.08195052
0002d0 b2 05 8b ba d0 fd aa 3d 34 5b f0 bb cd 96 fc bc
       -0.0010606556 0.08349192 -0.007335091 -0.030833626
0002e0 e0 20 b7 bd 79 1a 9f 3d b6 f7 be bd 56 06 87 3c
       -0.08941817 0.07768721 -0.09324591 0.016482513
0002f0 5a c8 9a bd 89 48 11 bc 33 b8 98 3c 70 ed c6 3c
       -0.07557745 -0.008867391 0.01864252 0.02428314
000300 1a 4c 4c ba 09 ad b3 3c 87 c4 21 3d 61 9d 0e 3d
       -0.00077933224 0.021933096 0.039494064 0.034818057
000310 1f 93 56 bd 14 fd 00 3d 9f 1d ae 3d 83 7a 30 bd
       -0.0523864 0.031491354 0.085017435 -0.043085586
000320 44 e9 5e 3d d1 d9 97 bd b9 e4 af 3d 92 89 b6 bc
       0.05442168 -0.07414592 0.08588547 -0.022282396
000330 8d c4 56 bd d4 0e 71 bd ad 1c bb 3d 1d aa f2 3b
       -0.05243354 -0.05885203 0.09136329 0.007405533
000340 f3 30 b0 bc ee 8a a8 bd e0 45 de bc 8a 59 94 bc
       -0.021507716 -0.08229624 -0.027132928 -0.018109102
000350 af 7d 78 3d 14 53 d0 3d 18 21 bb bc d0 b8 e7 bd
       0.060666736 0.10172096 -0.022842929 -0.11314547
000360 a1 b4 01 3d 0c 6f 17 bd 9a a2 84 3d ce e2 b9 bb
       0.0316664 -0.036971137 0.06476326 -0.005672789
000370 2f 39 96 3d cc e1 91 bd 31 a5 a7 bd ff 8b a4 bc
       0.07335126 -0.071231455 -0.08185805 -0.020086287
000380 16 a8 a0 3d 0e 80 5b 3d dd 1c d4 3d 95 b1 f9 bb
       0.0784456 0.05358892 0.10357068 -0.0076200464
000390 28 8e 81 bd 93 dc 58 3c 32 60 f0 3c 4e b2 53 3d
       -0.06325942 0.013236183 0.029342744 0.051683716
0003a0 9d e6 3e bc 0e fe 4e 3d e9 7d cd 3d 4c 28 51 3d
       -0.011651662 0.050535254 0.10033781 0.05106382
0003b0 4f 61 80 3c d0 69 c7 ba 39 d3 07 3d a5 30 95 bd
       0.0156714 -0.001521403 0.033160422 -0.07284669
0003c0 8f 34 94 bd c7 91 73 bd 84 ee e1 bc e3 fb 8b bd
       -0.07236587 -0.059465196 -0.027579553 -0.06835153
0003d0 f1 be 81 3c 7e 01 62 bd 65 38 98 3c 41 b4 a0 bc
       0.015838118 -0.055177204 0.018581579 -0.019617202
0003e0 48 7a 87 bd 00 42 f9 3c 0d dd c4 3d 2e 7d fa 3c
       -0.0661512 0.030426979 0.096124746 0.030577268
0003f0 7a 5a 46 bc 1c ba 8d 3d 2b bf 3f bd 31 37 a5 3d
       -0.012106532 0.06920263 -0.04681317 0.080671676

fc.6.bias f4 [100]
000000 58 ad 53 3c 02 3c b5 bd c1 35 c2 3b 45 96 58 3d
       0.012919746 -0.08849336 0.005926818 0.052877683
000010 b7 bc bd bd b1 5e e8 3b f5 52 9d 3c e7 09 dc 3c
       -0.0926451 0.007091366 0.019204596 0.02686019
000020 67 31 d8 3c 1f 6f a5 3c dc 50 14 3c 53 95 b3 bd
       0.026390744 0.020194588 0.0090524815 -0.08768716
000030 89 b3 c9 3c 96 49 9a 3b 5d 59 c1 bd e8 29 94 3c
       0.024621742 0.004708479 -0.09440873 0.018086389
000040 3f ba fe 3b 01 84 26 3d fe ca ca 3c 8d 08 a9 3c
       0.007773667 0.040653232 0.024754997 0.02063396
000050 12 f9 0b 3d 62 dd 75 bd 6c 95 1b 3c 81 3e 05 3d
       0.03417308 -0.06002558 0.009496074 0.03253031
000060 10 e1 ae 3c 00 8d 0d 3d 59 55 87 3c 8f 3d 20 3d
       0.021347553 0.034558296 0.01652019 0.039121207
000070 8f 4d 37 3d b7 6b 2b bc ea 8c b5 bd 04 9c 64 bd
       0.0447517 -0.010462693 -0.08864768 -0.05581285
000080 34 3c 0a 3d 28 0e cc 3c d8 3d a3 3b 13 20 3a 3d
       0.03374882 0.024909094 0.0049817376 0.045440745
000090 2c c9 1c bd 6f 09 40 3c 7e f6 56 bd c5 53 1f 3d
       -0.03827779 0.011720999 -0.052481167 0.03889825
0000a0 fd fa 7f bd 81 d0 33 3d 1c 89 32 3d e8 57 87 3c
       -0.06249522 0.043900017 0.04358779 0.01652141
0000b0 7c 4d 1e 3d 22 53 bd bd e8 c8 81 3c 79 8e 56 3c
       0.038648114 -0.09244372 0.01584287 0.013095492
0000c0 c9 91 7f bc 3c e1 33 3d 77 09 28 3c 1d 19 1e 3d
       -0.015598723 0.043915972 0.010256163 0.03859817
0000d0 d2 0f 5c 3c a9 f0 ae bd 06 27 ea 3c 6d a2 b6 bd
       0.013431506 -0.08541996 0.028583061 -0.08917699
0000e0 6c 6d 26 3d ed a3 3a 3d 24 6a b5 bd 53 59 85 bd
       0.040631697 0.045566488 -0.08858135 -0.06511178
0000f0 2f 0b 5e 3d 92 da b1 3c fa a5 ad bd 92 2a a6 bd
       0.054209884 0.021710668 -0.08478923 -0.081135884
000100 ff 98 50 3d 77 f5 10 3a b6 99 bb 3c 6d 17 83 3c
       0.05092716 0.0005529741 0.022900444 0.016002381
000110 f0 59 15 3d 21 03 26 3c d5 55 9d 3c 47 d7 30 3d
       0.036462724 0.010132582 0.019205967 0.043174054
000120 cc 02 b2 bd 42 74 19 3d bc 11 f3 3c 1f 41 3e 3d
       -0.0869194 0.037464388 0.029671542 0.046448823
000130 43 6a 10 3d ce 82 9b 3c c2 86 61 3c f8 fa 86 3c
       0.03525759 0.018983271 0.013765039 0.016477093
000140 73 fc f6 3c f0 3c 05 be 39 4c e2 3c 18 c4 0d 3c
       0.030149674 -0.13011527 0.027624236 0.008652709
000150 b9 04 b9 3c 1a c4 68 bd 83 95 ff 3c ac ac b2 3b
       0.02258526 -0.056827642 0.031199222 0.005452713
000160 55 3c 13 3c e0 ae da 3c f5 e7 b7 3c 3c 3c dd 3c
       0.008986552 0.026694715 0.022449473 0.027006261
000170 0d ee 87 3c 35 cb 0b 3d 20 2d 57 3c 7c 93 14 3d
       0.016593004 0.03412934 0.013133317 0.036273465
000180 09 de ad 3c 99 0f 45 3c a6 b4 2e 3d 95 f5 17 3c
       0.021224039 0.012027645 0.04265275 0.00927486

fc.9.weight f4 [2, 100]
000000 67 12 bf 3d 3a e4 53 bd 37 89 a2 bc 09 0c 00 be
       0.09329682 -0.051731326 -0.01984082 -0.12504591
000010 dd 63 a3 ba 0f 82 80 ba 0f 08 da 3d de 3b 28 3d
       -0.0012465675 -0.0009804385 0.10646068 0.04107272
000020 c9 c6 26 be 7e ad 1c 3d 8c 85 ff bc e9 2d e0 3c
       -0.16286768 0.038251393 -0.03119161 0.027365642
000030 13 dc 9c 3d f2 59 78 3d 04 a0 25 bd 51 cc e1 3d
       0.07659163 0.060632654 -0.040435806 0.110252984
000040 9e 13 b8 3c 0b 1d 21 be cd 23 99 3d 44 50 34 3d
       0.022470292 -0.15733735 0.074775316 0.04402186
000050 80 20 31 be b9 c4 cc 3d 9e ca 91 bc 3b 9d 8f bd
       -0.17297554 0.09998459 -0.01779681 -0.07012411
000060 cf 4d eb 3c 10 58 f6 bd af ba d5 3d a4 e9 ea bd
       0.028723625 -0.12028515 0.10435998 -0.11470345
000070 f7 10 1e be ae e9 a1 3d ad e6 18 3c 48 cb 2c bd
       -0.15436159 0.07905899 0.009332341 -0.04218605
000080 a8 4e 55 be 51 20 d1 3d d0 7b e2 3d 06 bb 15 be
       -0.20830786 0.10211242 0.110587716 -0.14622125
000090 af c8 9b bc 23 86 5c 3d f6 80 9d 3c 91 e3 39 3e
       -0.019016592 0.05383886 0.019226532 0.18153216
0000a0 a4 0c 28 bc 94 10 dd bd 8c 1c 63 be 1b c0 37 3d
       -0.01025692 -0.10794178 -0.22178859 0.04486094
0000b0 83 26 b9 bd b9 06 b2 3d 4f fe 84 3d 50 ae 11 3e
       -0.09040549 0.086926885 0.06493818 0.14226651
0000c0 39 ba 83 3d 66 3b fc bd 66 8b 16 3e 15 9e 22 be
       0.064320035 -0.12316017 0.14701614 -0.15880616
0000d0 68 62 3b 3e a9 c7 81 bc 06 53 f6 bd 20 53 49 bd
       0.18299258 -0.015842276 -0.12027554 -0.04915154
0000e0 36 cf 04 be e3 52 e0 3c 29 7f da b9 4c 8c af 3d
       -0.1296967 0.027383273 -0.00041674942 0.085716814
0000f0 a7 d9 7a bc 19 cd 06 3e 48 72 5a 3d 44 22 92 bd
       -0.015310681 0.13164176 0.053331643 -0.07135442
000100 36 c2 68 be d4 4b 84 3d b6 0e 1f be 4e bb f1 3d
       -0.22730336 0.064597756 -0.15532956 0.11803304
000110 55 21 50 bd 58 9d b8 3d 5c 39 cf 3c df a7 30 be
       -0.050813038 0.09014386 0.025295906 -0.17251538
000120 dd 1a 48 bd db 23 3d be 78 1c 33 3c 01 37 35 be
       -0.048853744 -0.18470709 0.01093208 -0.17696764
000130 e4 98 4f be 96 ba 74 3d 48 c0 b4 3d 45 92 18 3d
       -0.20273167 0.059748255 0.08825737 0.03724887
000140 47 43 e8 bd 06 dd 1a bd 1a de 24 be 35 6c e6 3d
       -0.11340957 -0.03780844 -0.1610035 0.112511076
000150 b8 69 da bb 11 8f 23 bd 7c 0e fa 3d 77 ce ec 3d
       -0.0066654347 -0.03993136 0.12209794 0.115628175
000160 f0 91 44 3d 2d bb 05 be 6c 29 89 3d 67 dc a0 3d
       0.04799074 -0.13059683 0.06697354 0.078545384
000170 8b 0f d9 3d b0 41 c3 3d 99 2b ab 3d dc 3f 34 be
       0.10598668 0.09534013 0.08357925 -0.17602485
000180 0f 04 a8 3d 12 08 2f 3d 5f 46 c6 bd 17 9c c3 3c
       0.08203899 0.042732306 -0.09681391 0.02387814
000190 9b 45 7a bd 52 cb 4e bd 7e 70 19 be 98 41 27 3e
       -0.061101537 -0.05048687 -0.14984319 0.16333616
0001a0 c4 dc a3 3d af 9f cb bd 77 97 0d be f3 f7 26 be
       0.08001092 -0.099425666 -0.1382731 -0.16305523
0001b0 38 2e 03 3e 02 f9 01 be 96 c9 12 be e5 d7 bc 3c
       0.128106 -0.12692645 -0.14334711 0.023052165
0001c0 d1 f8 9b bd 5e 65 df bd 01 83 d8 3c f6 5c df bd
       -0.07615817 -0.10908006 0.026429655 -0.10906403
0001d0 84 b2 dc bd e6 50 d3 3d fc 7d ea bd 8f d5 04 be
       -0.10776237 0.103181645 -0.11449811 -0.12972091
0001e0 a5 49 ef 3d 15 c2 ee 3c ee ca a5 bd 05 aa 5a 3e
       0.116839685 0.02914528 -0.080953464 0.2135392
0001f0 2b 0c 1a be 24 34 1b 3e 9c ef c6 bd 43 04 35 3e
       -0.15043704 0.15156609 -0.097136706 0.17677407
000200 f5 2f 89 3d aa bf 88 3b 89 ea 5f bd 4e 31 c6 bd
       0.066986 0.0041732388 -0.05466703 -0.09677373
000210 2a 77 cb 3d bb 02 9f bd b3 f2 a0 3c 1d c5 07 3e
       0.09934838 -0.07764193 0.019646978 0.13258786
000220 73 9a 0f bc 95 2a 99 bd 48 7e 1e bc 4b 81 b4 bc
       -0.008764851 -0.07478825 -0.0096736625 -0.022034308
000230 fb a6 6f bd 50 31 9e bd 44 4c c8 3d 08 d8 09 be
       -0.058508854 -0.07724249 0.097801715 -0.13461316
000240 22 ab 20 3e bd 69 03 3d 17 47 d3 bd 1b fd 4d bd
       0.15690282 0.03208326 -0.10316294 -0.05029021
000250 e7 0c 96 3c fe 3c 12 3e c6 21 c3 bd 23 3c 14 3e
       0.0183167 0.14281079 -0.09527926 0.14476065
000260 c0 4e 5a bc df c3 0c 3d cd 39 3e 3e 2f 50 a9 3d
       -0.0133244395 0.034366485 0.18576737 0.08267247
000270 18 2e 12 3e 98 71 4a bd 61 20 6d 3d 83 00 5e 3d
       0.14275396 -0.049424738 0.057892207 0.054199707
000280 84 39 83 3d 4b 0a 24 bd 2c 41 3c 3d 5f 39 ce 3a
       0.064074546 -0.04004888 0.04596059 0.0015733651
000290 36 ac 4f 3d c1 73 d3 bd 5a 33 00 bc dc ac 9f bd
       0.050701343 -0.10324813 -0.007824743 -0.07796642
0002a0 88 0f 75 3e bc 30 f6 bd d0 2f 0d be 2a 0d c8 3d
       0.23931706 -0.12021014 -0.1378777 0.09768136
0002b0 4d e8 57 bd 7b d7 dc 3d 71 98 d8 bd 43 7f 23 3e
       -0.052711774 0.10783287 -0.10575951 0.15966515
0002c0 a4 33 fb 3d 1d d2 03 be 2d fe bd bd 02 fa 01 be
       0.12265709 -0.1287312 -0.09276996 -0.12693027
0002d0 f2 46 1f 3e 69 39 3c 3d 75 d3 08 3e f5 45 9c bd
       0.15554407 0.045953188 0.13361914 -0.07630531
0002e0 e3 3b 30 be 06 0f 4c 3d 1d be 27 bd 8b 16 02 bd
       -0.17210345 0.049819015 -0.04095279 -0.03175978
0002f0 28 e2 e6 bd 6a 55 fc 3d 0b 6a 0a be 5f b2 f8 bd
       -0.11273605 0.12320979 -0.13517015 -0.121433966
000300 c2 18 b9 bd 91 6a af bd 23 2d f4 bd e1 9d 21 3e
       -0.09037925 -0.08565248 -0.11922672 0.15782882
000310 80 eb a9 bd ee 73 fc bd 4d 75 1d 3e 5a 3d 00 be
       -0.08296871 -0.12326799 0.15376778 -0.12523404

fc.9.bias f4 [2]
000000 43 d3 f8 3b 2c 18 fb 3d
       0.0075935437 0.1226047
