Algorithms/shawn/accuracy/exp_VH/fc_6.batch.pth (torch_old, 219376 bytes, 8 tensors)

fc.0.weight f4 [160, 226]
0.0038382187 -0.0480319 0.012173007 0.027562836 0.0075677806 -0.045517612 0.035359204 -0.014747187
-0.017706512 -0.029526485 -0.055076692 -0.02411492 0.020249784 0.033279277 0.016570475 0.070543125
0.005057013 -0.026881898 -0.053662512 -0.06531502 0.035522852 0.04146477 -0.072641514 -0.058103584
0.013662016 0.04133664 -0.015878605 -0.0126781985 -0.029303513 -0.03698007 0.06766361 -0.03309723
-0.04812442 -0.055320453 -0.011208872 0.00032761612 -0.039155398 0.016099013 0.01991256 0.035232924
0.032533657 -0.057024367 0.052050836 -0.060840428 0.07342462 0.02534911 0.023915676 -0.03780682
0.01581001 -0.03866189 -0.025699012 0.012912856 -0.09026943 -0.0072034704 -0.058071934 0.061133888
0.10417812 -0.013425424 0.019232884 -0.008626427 -0.056741476 0.078458205 -0.06082403 0.05195145
-0.018212413 -0.013711814 -0.026484558 0.03621191 0.010382472 0.045717802 0.0042550876 -0.04784444
-0.008509755 -0.0019195497 -0.0036352205 0.024152204 -0.055415455 0.0689725 -0.0645322 0.0012337322
-0.06386522 -0.02248057 -0.036560904 0.017190907 0.02032032 -0.019462997 0.05127054 0.022047201
0.027424969 -0.03049363 0.011789235 0.007965772 0.024747588 -0.025740577 -0.062126815 -0.0665234
0.014228572 -0.0016614741 -0.022030994 0.039238833 -0.050041664 -0.014299037 -0.034198496 -0.040172487
0.051336434 -0.039773237 0.04668612 0.0061572567 -0.06248218 0.062462796 0.032125574 0.04676629
-0.006159865 -0.048108883 0.02889727 -0.04067389 -0.055377547 0.026140746 0.020135736 -0.06812894
0.0073412843 -0.04651423 -0.006402125 -0.009655619 -0.026046269 0.058049135 -0.038782887 -0.050706062
0.051251467 0.07149995 -0.004402431 -0.04827594 -0.012513034 -0.021742007 0.0040974133 -0.037761573
0.015837967 -0.012407073 -0.06706225 -0.0014560587 -0.043658055 -0.038169667 -0.0068308543 -0.05238602
-0.018997356 0.021548241 0.086217694 0.015272064 -0.01274806 -0.032386642 0.005328174 0.050731443
-0.0032893985 -0.05584954 -0.0640482 0.060671836 0.024982726 -0.033832006 -0.011443792 -0.035985947
-0.003199683 0.02267416 0.0141959665 0.029192384 -0.027549045 -0.012493392 -0.023345925 -0.055078726
-0.0029195165 -0.04123878 0.022135371 -0.015133821 -0.009873913 0.092342734 -0.051657174 -0.015153201
-0.058370218 -0.01092799 0.006990458 -0.04822839 0.07222831 0.030807082 -0.066163786 0.00085884123
-0.017009659 0.03635092 -0.019599892 -0.03417633 0.008698341 -0.07376074 0.016246496 -0.021324735
-0.0061564576 -0.0045129373 -0.019374628 -0.077310205 0.02101558 -8.35628e-05 -0.016714407 -0.07229832
-0.032180253 0.08109358 -0.016026631 0.007471031 0.047843467 0.05224007 0.021687062 -0.012716251
0.03693696 0.006294197 0.037983995 0.0015980045 -0.024943627 -0.026758788 0.0042728307 -0.039328076
-0.011700061 -0.044630285 0.06757141 -0.037241783 -0.015884131 0.018388696 0.038914833 0.058406264
0.05043376 -0.020364212 0.050345562 0.029198417 -0.0326586 0.029623896 0.022502802 0.025903808
-0.037111945 -0.057095774 -0.029690992 -0.014556761 -0.06828538 0.03179195 -0.015195953 -0.0017115845
-0.017143063 -0.049787827 -0.05174239 0.05234289 -0.049600773 0.053603955 -0.037771706 0.026661085
0.023400294 -0.030577645 -0.0058347913 0.012859017 0.040418133 -0.042180408 -0.011914169 -0.008273164
00000000: a08a 7b3b 19bd 44bd 4b71 473c 75cb e13c
00000010: 25fb f73b ad70 3abd d0d4 103d 2f9e 71bc
00000020: 3f0d 91bc 87e1 f1bc 1998 61bd a78c c5bc
00000030: e0e2 a53c da4f 083d cebe 873c ea78 903d
00000040: 4db5 a53b 6d37 dcbc 39cd 5bbd e2c3 85bd
00000050: 6980 113d f6d6 293d 13c5 94bd 06fe 6dbd
00000060: a6d6 5f3c 9c50 293d d913 82bc 38b8 4fbc
00000070: ec0d f0bc 6a78 17bd 3893 8a3d f690 07bd
00000080: 1d1e 45bd b397 62bd 6ba5 37bc e4c3 ab39
00000090: 6961 20bd 14e2 833c aa1f a33c 6650 103d
000000a0: 0342 053d 6292 69bd 4233 553d d033 79bd
000000b0: a65f 963d f0a8 cf3c cfea c33c 53db 1abd
000000c0: fe83 813c ee5b 1ebd bc86 d2bc 7290 533c
000000d0: 2edf b8bd 170b ecbb d6dc 6dbd 8767 7a3d
000000e0: 575b d53d 4ff6 5bbc 488e 9d3c db55 0dbc
000000f0: c069 68bd b2ae a03d 9e22 79bd 0bcb 543d
00000100: 3332 95bc 84a7 60bc 25f6 d8bc f152 143d
00000110: 3e1b 2a3c 9742 3b3d 436e 8b3b 88f8 43bd
00000120: 806c 0bbc 6699 fbba e13c 6ebb d8da c53c
00000130: 51fb 62bd 7441 8d3d 7529 84bd 2fb5 a13a
00000140: c5cb 82bd 2c29 b8bc e3c0 15bd f2d3 8c3c
00000150: cd76 a63c dd70 9fbc 0f01 523d 559c b43c
00000160: 54aa e03c c7cd f9bc a327 413c df82 023c
00000170: 74bb ca3c e7dd d2bc b078 7ebd 6c3d 88bd
00000180: f51e 693c d2c5 d9ba 587a b4bc e6b8 203d
00000190: 7df8 4cbd 8246 6abc b913 0cbd e88b 24bd
000001a0: 2746 523d 43e9 22bd f239 3f3d d0c2 c93b
000001b0: 50ed 7fbd fdd8 7f3d 1b96 033d 028e 3f3d
000001c0: b1d8 c9bb d20d 45bd f8b9 ec3c aa99 26bd
000001d0: 91d3 62bd 1e25 d63c b3f3 a43c 3087 8bbd
000001e0: 288f f03b b585 3ebd ebc8 d1bb 9a32 1ebc
000001f0: fc5e d5bc eec4 6d3d ceda 1ebd 29b1 4fbd
00000200: 0fed 513d 916e 923d 4542 90bb febc 45bd
00000210: 7803 4dbc 4b1c b2bc 9843 863b e1ab 1abd
00000220: a0be 813c 0947 4bbc ef57 89bd 39d9 beba
00000230: cad2 32bd cc57 1cbd 5cd5 dfbb b992 56bd
00000240: 58a0 9bbc f085 b03c e792 b03d ae37 7a3c
00000250: 3ddd 50bc dba7 04bd f797 ae3b c6cb 4f3d
00000260: f392 57bb 7dc2 64bd b42b 83bd 0883 783d
00000270: 93a8 cc3c 6e93 0abd be7e 3bbc 0066 13bd
00000280: c6b1 51bb 29bf b93c 3396 683c de24 ef3c
00000290: 89ae e1bc 16b1 4cbc f43f bfbc 3b9a 61bd
000002a0: 5c55 3fbb ffe9 28bd 3d55 b53c d9f3 77bc
000002b0: 31c6 21bc 301e bd3d 7996 53bd 2245 78bc
000002c0: 9c15 6fbd 500b 33bc 3610 e53b 228b 45bd
000002d0: 70ec 933d 225f fc3c e180 87bd dc23 613a
000002e0: d757 8bbc b4e4 143d f48f a0bc 7bfc 0bbd
000002f0: 7d83 0e3c df0f 97bd 5f17 853c 36b1 aebc
00000300: 1cbc c9bb 43e1 93bb 8ab7 9ebc d054 9ebd
00000310: de28 ac3c 703e afb8 a7ec 88bc 2411 94bd
00000320: 71cf 03bd 6414 a63d 484a 83bc 8dcf f43b
00000330: 83f7 433d aff9 553d 11a9 b13c d357 50bc
00000340: 364b 173d 8d3f ce3b 1b95 1b3d 2274 d13a
00000350: 9456 ccbc 3f35 dbbc 1a03 8c3b 7a16 21bd
00000360: 9db1 3fbc 3fce 36bd e162 8a3d d78a 18bd
00000370: 701f 82bc e4a3 963c 2965 1f3d 683b 6f3d
00000380: a193 4e3d d9d2 a6bc 2637 4e3d 8531 ef3c
00000390: 06c5 05bd d0ad f23c cc57 b83c 3934 d43c
000003a0: b202 18bd 42dd 69bd 863a f3bc 7b7f 6ebc
000003b0: 35d9 8bbd 4738 023d 72f8 78bc 3f57 e0ba
000003c0: 9c6f 8cbc 52ee 4bbd d4ef 53bd 8065 563d
000003d0: 2e2a 4bbd d28f 5b3d 81b6 1abd 5968 da3c
000003e0: f9b1 bf3c f87d fabc c731 bfbb a0ae 523c
000003f0: 7c8d 253d 5dc5 2cbd a633 43bc 2a8c 07bc

fc.0.bias f4 [160]
0.019463196 -0.051374495 -0.00078323606 -0.077901304 -0.036619686 -0.03841446 -0.024517877 -0.09325272
-0.0021269573 -0.030683562 -0.05071508 -0.06514245 -0.030932797 -0.058094744 -0.020142758 -0.036214836
-0.0053817234 -0.06017592 -0.04684157 -0.074906625 -0.010563378 -0.083024606 -0.03122131 -0.093246505
-0.0051902686 -0.019487254 -0.032655578 0.002551686 -0.052677963 0.002726012 -0.08598 -0.07028692
-0.031528924 -0.0450158 -0.034494236 -0.06622318 -0.043743413 -0.04188141 -0.0977897 0.017945081
-0.084411345 -0.029410237 -0.057725795 -0.06334996 -0.054052267 -0.0170385 -0.035073232 -0.025617616
-0.086137965 -0.07097418 -0.06902459 -0.04702231 -0.042114347 -0.04455224 -0.057264738 -0.06296302
-0.05055987 -0.013329912 0.029336492 -0.0907673 -0.035838395 -0.016940622 -0.01636155 -0.008375959
-0.0525625 -0.027882453 -0.03930941 -0.040023882 -0.032179017 -0.044914678 -0.06576876 -0.067320384
-0.0585611 -0.052548233 -0.05505566 -0.03753696 -0.08231251 -0.054867584 0.0032224203 -0.10690379
-0.038706794 -0.060475327 -0.06159548 -0.10122383 -0.04149044 -0.026187055 -0.045297112 -0.045297626
-0.027194794 -0.046374287 0.002432751 -0.050617084 -0.0017736771 -0.03487801 0.011630006 -0.070168555
-0.025597854 -0.06561912 -0.08164665 0.011815595 -0.047379136 -0.036460552 -0.02151201 -0.05232544
-0.076592065 -0.07893189 -0.021672267 -0.048644364 -0.028353248 0.010872206 -0.01565331 -0.037566558
0.0048774695 -0.037353363 -0.08115012 -0.054110922 -0.004477609 -0.020049926 -0.083102375 -0.026246777
-0.03964004 -0.02328672 -0.041025106 -0.055846684 -0.015099799 0.021702284 -0.005838373 -0.019259954
-0.05687668 -0.02936101 -0.057046033 0.015245152 -0.058047447 -0.02015784 -0.07630657 -0.040414426
-0.070019156 -0.007284547 -0.07264828 -0.013927915 -0.025680766 -0.04631621 0.006904885 -0.016949944
-0.10779439 -0.015354877 -0.03796174 -0.06042438 -0.07463133 -0.014947045 -0.06246537 -0.08639927
0.018163087 -0.00060434407 -0.039645765 -0.041006085 0.0069604083 -0.06388576 -0.08612624 -0.08169702
00000000: 4871 9f3c 106e 52bd 1552 4dba b88a 9fbd
00000010: 86fe 15bd 7b58 1dbd b7d9 c8bc 48fb bebd
00000020: 6c64 0bbb 185c fbbc 9eba 4fbd 6869 85bd
00000030: c766 fdbc c1f4 6dbd 6d02 a5bc 0256 14bd
00000040: 2b59 b0bb 077b 76bd f2dc 3fbd a568 99bd
00000050: 0512 2dbc ce08 aabd d5c3 ffbc 06f8 bebd
00000060: 2113 aabb bca3 9fbc dbc1 05bd 303a 273b
00000070: d9c4 57bd e4a6 323b 4816 b0bd 97f2 8fbd
00000080: 7924 01bd 7d62 38bd d449 0dbd 05a0 87bd
00000090: 4b2c 33bd d78b 2bbd f745 c8bd 9001 933c
000000a0: dbdf acbd bded f0bc e271 6cbd a0bd 81bd
000000b0: e965 5dbd 5394 8bbc f3a8 0fbd 09dc d1bc
000000c0: 1a69 b0bd e95a 91bd c45c 8dbd 779a 40bd
000000d0: 1880 2cbd 697c 36bd 6e8e 6abd c1f2 80bd
000000e0: de17 4fbd b465 5abc 1553 f03c 35e4 b9bd
000000f0: 48cb 12bd 0fc7 8abc a808 86bc 513b 09bc
00000100: c74b 57bd be69 e4bc e702 21bd 15f0 23bd
00000110: 25ce 03bd 74f8 37bd c6b1 86bd 45df 89bd
00000120: c4dd 6fbd d13c 57bd 0b82 61bd 5bc0 19bd
00000130: 7693 a8bd d5bc 60bd 3e2f 533b 60f0 dabd
00000140: 048b 1ebd fab4 77bd 8b4b 7cbd 704e cfbd
00000150: e1f1 29bd 3c86 d6bc 7789 39bd 018a 39bd
00000160: 9ec7 debc f7f2 3dbd ca6e 1f3b dc53 4fbd
00000170: ba7a e8ba 3fdc 0ebd c88b 3e3c 88b4 8fbd
00000180: 97b2 d1bc 5163 86bd 5c36 a7bd 3396 413c
00000190: a010 42bd a957 15bd f439 b0bc 3353 56bd
000001a0: 4ddc 9cbd 0ba7 a1bd 0a8a b1bc 503f 47bd
000001b0: 1245 e8bc 5621 323c 5f3b 80bc 64df 19bd
000001c0: 2ed3 9f3b d7ff 18bd 0932 a6bd 6aa3 5dbd
000001d0: e8b8 92bb be3f a4bc 9431 aabd 7b03 d7bc
000001e0: 985d 22bd cbc3 bebc f109 28bd 7ebf 64bd
000001f0: 2665 77bc fdc8 b13c d34f bfbb 0dc7 9dbc
00000200: 86f7 68bd 8086 f0bc 1aa9 69bd cdc6 793c
00000210: 29c3 6dbd 0e22 a5bc 9e46 9cbd 9989 25bd
00000220: 3466 8fbd 36b3 eebb 9fc8 94bd e931 64bc
00000230: 7860 d2bc 11b6 3dbd 6042 e23b 9cda 8abc
00000240: 4ec3 dcbd 0693 7bbc c57d 1bbd 8e7f 77bd
00000250: 50d8 98bd 73e4 74bc b0db 7fbd 1af2 b0bd
00000260: c1ca 943c d86c 1eba 9963 22bd fff5 27bd
00000270: 2314 e43b 8ad6 82bd f462 b0bd c450 a7bd

fc.3.weight f4 [100, 160]
-0.067692496 -0.009874958 -0.06858877 0.08057199 -0.03894212 -0.0017373072 -0.07282222 -0.012775547
-0.001446405 0.057420313 -0.07635184 0.018309588 0.025203886 0.0010254255 -0.07533306 -0.039032247
-0.026021797 0.061425257 -0.0070775924 -0.06606266 -0.021032006 0.10018884 -0.024426345 0.03341952
-0.026355352 -0.04911611 0.028927658 -0.04920101 -0.07090296 0.052278813 0.063482866 0.062278856
0.035561644 -0.018483773 0.0044059404 0.038097363 0.050380584 -0.013576849 0.034352235 0.08822389
0.043354064 0.019919379 -0.062190995 -0.027560925 -0.0033419237 0.008305477 0.009354268 0.053542994
0.023975499 -0.0607244 0.06749222 0.025920132 -0.005887246 -0.06082968 -0.027470337 0.092261955
0.05985655 -0.0669143 0.013641059 0.04673571 -0.020466292 -0.059793018 -0.026252616 -0.04577297
0.00026342535 0.009512745 -0.029005846 -0.056468103 -0.064354934 -0.04713433 -0.0053815744 0.014517149
0.07002943 0.048221108 -0.046931297 0.008412977 0.104788125 -0.030306876 -0.04587467 -0.032486342
-0.07244368 0.09190452 -0.03230132 -0.07458509 0.05545215 0.07281885 -0.0122758765 0.06602795
-0.045169085 -0.06973304 -0.028965503 0.05746626 -0.051760793 -0.057356346 0.011766203 0.027755177
0.062374055 0.023136523 0.03253908 -0.037242383 0.017085442 -0.023461316 0.028892482 0.036210217
0.00013382842 -0.0085463775 -0.010556389 -0.0071713477 0.031160908 -0.08558437 0.037086613 0.024541529
-0.051343422 -0.07093013 -0.029471455 0.05903375 0.040535677 0.015436924 -0.008556806 -0.0008753983
0.0016570822 0.025160857 -0.07388337 0.044946354 0.043522533 -0.005136756 -0.04448856 0.04353257
0.06671962 0.048678305 -0.084610455 -0.0048603346 0.013793819 0.013082064 0.05277893 -0.018329196
-0.06193701 -0.035654813 0.034742247 0.057451256 -0.0060558217 -0.036095493 -0.089485444 0.021688668
0.0051650954 -0.061713096 -0.022376899 0.016201533 -0.029694496 0.06421407 -0.04122481 -0.069946095
0.019156804 -0.0019099022 -0.017858122 -0.047297202 0.0126565695 0.063811675 -0.016539535 -0.06918407
-0.03931151 -0.055639807 -0.013997104 0.008947581 0.072218545 -0.028072966 -0.050596084 0.016882673
-0.036925893 -0.0105844205 -0.009680096 0.006065048 0.058791157 0.07467383 -0.074147314 0.0795108
-0.060960647 -0.06326294 -0.021410795 0.06406937 0.06330734 0.10419378 0.05353254 0.043232843
-0.05161959 0.065113075 0.008477789 0.0076457206 -0.011722411 -0.06710188 -0.042106874 0.032074075
0.05678343 0.02629537 -0.08281078 -0.036598194 -0.035339434 -0.0714943 0.026163343 0.06027143
0.023452852 -0.053329192 -0.03450155 -0.049271394 -0.0052262535 -0.0058770594 -0.0020045955 -0.027929423
0.0632933 -0.0027350015 -0.05062631 -0.0653591 0.053779695 -0.03063174 0.06060853 0.03456209
-0.020389322 0.04818725 -0.034702215 0.027682567 -0.01827433 -0.060282275 -0.028548455 -0.08447858
0.03553132 0.0774063 0.05116847 0.06118052 0.0063744425 -0.02988257 0.0322752 -0.04509439
0.09460623 0.052568607 -0.059294872 -0.052026108 0.045172323 -0.08747118 -0.021642415 -0.019064708
0.0018084601 0.07130236 -0.009054514 0.010967497 0.03573311 -0.017059539 -0.0068994514 0.07345614
-0.00033262276 -0.021204744 0.01588172 0.008722455 0.0237468 -0.09075938 -0.016566113 0.08354081
00000000: 5da2 8abd 93ca 21bc 4578 8cbd ed02 a53d
00000010: c681 1fbd 5bb6 e3ba d123 95bd 8750 51bc
00000020: 4c95 bdba 9031 6b3d 5a5e 9cbd fdfd 953c
00000030: 6178 ce3c 9267 863a 3848 9abd 47e0 1fbd
00000040: aa2b d5bc 0d99 7b3d 26eb e7bb dc4b 87bd
00000050: 504b acbc ce2f cd3d c219 c8bc e8e2 083d
00000060: 2ee7 d7bc f92d 49bd b2f9 ec3c 0087 49bd
00000070: 9235 91bd 4f22 563d 4e03 823d 1d18 7f3d
00000080: 16a9 113d 486b 97bc b55f 903b fb0b 1c3d
00000090: df5b 4e3d 6f71 5ebc eeb4 0c3d baae b43d
000000a0: 0894 313d f72d a33c fcbb 7ebd 73c7 e1bc
000000b0: 2d04 5bbb b213 083c a542 193c e64f 5b3d
000000c0: 4468 c43c 26ba 78bd 5c39 8a3d 7556 d43c
000000d0: cde9 c0bb 8b28 79bd 7909 e1bc d6f3 bc3d
000000e0: 242c 753d 5d0a 89bd c07e 5f3c f26d 3f3d
000000f0: eda8 a7bc 86e9 74bd ba0f d7bc 707c 3bbd
00000100: 5a1c 8a39 58db 1b3c ab9d edbc 194b 67bd
00000110: 85cc 83bd ed0f 41bd eb57 b0bb 56d9 6d3c
00000120: 976b 8f3d 7f83 453d 083b 40bd 95d6 093c
00000130: 289b d63d 2046 f8bc 14e7 3bbd 6610 05bd
00000140: 5a5d 94bd 7038 bc3d 644e 04bd 11c0 98bd
00000150: cb21 633d 0d22 953d c220 49bc a939 873d
00000160: 3803 39bd 32d0 8ebd 1049 edbc be61 6b3d
00000170: 2003 54bd 7dee 6abd 08c7 403c d35e e33c
00000180: f07b 7f3d ce88 bd3c b347 053d 788b 18bd
00000190: c5f6 8b3c f231 c0bc edaf ec3c 2a51 143d
000001a0: 4b54 0c39 1b06 0cbc b4f4 2cbc a0fd eabb
000001b0: 2945 ff3c dc46 afbd 22e8 173d 510b c93c
000001c0: 7b4d 52bd d143 91bd 1f6e f1bc 60cd 713d
000001d0: bd08 263d 27eb 7c3c d831 0cbc fc7a 65ba
000001e0: 7432 d93a 241e ce3c 2a50 97bd ab19 383d
000001f0: af44 323d 3c52 a8bb a339 36bd 354f 323d
00000200: 4ca4 883d e762 473d 3f48 adbd 7143 9fbb
00000210: 78ff 613c 2756 563c b82e 583d 1c27 96bc
00000220: aab1 7dbd c80a 12bd e34d 0e3d 0252 6b3d
00000230: ea6f c6bb ded8 13bd 2544 b7bd 6fac b13c
00000240: f63f a93b dfc6 7cbd c24f b7bc 14b9 843c
00000250: df41 f3bc ab82 833d 59db 28bd e63f 8fbd
00000260: bbee 9c3c af55 faba 324b 92bc b6ba 41bd
00000270: 805d 4f3c b2af 823d eb7d 87bc 61b0 8dbd
00000280: 1b05 21bd 91e6 63bd 1c54 65bc e098 123c
00000290: 51e7 933d 47f9 e5bc d73d 4fbd 884d 8a3c
000002a0: 9b3f 17bd 476a 2dbc 4499 1ebc 4fbd c63b
000002b0: ffce 703d 98ee 983d 8cda 97bd 8fd6 a23d
000002c0: dfb1 79bd 0090 81bd b165 afbc cd36 833d
000002d0: 47a7 813d 8c63 d53d f044 5b3d ec14 313d
000002e0: 106f 53bd 015a 853d 6de6 0a3c f488 fa3b
000002f0: 5b0f 40bc b66c 89bd 4278 2cbd 1b60 033d
00000300: be95 683d 6369 d73c b398 a9bd fde7 15bd
00000310: 15c0 10bd 9b6b 92bd 8254 d63c 2ddf 763d
00000320: 3220 c03c b66f 5abd 7f51 0dbd cdd0 49bd
00000330: fe40 abbb 5994 c0bb 885f 03bb 3fcc e4bc
00000340: eb9f 813d b63d 33bb 895d 4fbd feda 85bd
00000350: 1948 5c3d 6aef fabc a640 783d fa90 0d3d
00000360: 8207 a7bc fe5f 453d e923 0ebd 8dc6 e23c
00000370: 0cb4 95bc 8cea 76bd 73de e9bc 1b03 adbd
00000380: 4a89 113d 3287 9e3d 0896 513d 6d98 7a3d
00000390: b3e0 d03b 4bcc f4bc 0033 043d e5b4 38bd
000003a0: e9c0 c13d 2e52 573d 2edf 72bd 5419 55bd
000003b0: 9d06 393d 1724 b3bd 6f4b b1bc 972d 9cbc
000003c0: da09 ed3a f906 923d 6259 14bc 04b1 333c
000003d0: e25c 123d 72c0 8bbc cb14 e2bb 2c70 963d
000003e0: df63 aeb9 92b5 adbc 621a 823c a1e8 0e3c
000003f0: a688 c23c 0ee0 b9bd a8b5 87bc 7217 ab3d

fc.3.bias f4 [100]
-0.014811137 0.0073879715 0.022241658 -0.022051552 0.01889456 -0.008876454 0.010882343 -0.035760764
0.0055990703 0.004258947 -0.0015517313 -0.05895722 -0.053542092 0.015077634 0.017599497 -0.025526706
0.012653482 -0.0074537382 0.0076067513 -0.002792979 0.009229026 0.021803685 -0.011650429 0.033814322
-0.041731525 0.028571427 0.022011058 0.008661561 -0.0011315309 0.029370118 -0.06281265 -0.04949084
-0.051270783 -0.020867096 -0.018727262 0.007350558 -0.011280398 0.010329583 -0.016517293 0.0065367986
-0.06173867 0.038434952 0.006755651 -0.028679132 -0.028457101 -0.05124459 0.0027016539 0.023428114
-0.00266152 0.009383694 -0.04810411 -0.04576863 0.018206235 0.0009188606 0.0041319863 -0.0032941292
0.0057396684 0.0015413732 -0.079788916 -0.037673745 -0.03302326 0.024617344 0.010356842 0.010923033
0.043733757 -0.06260046 -0.044453807 -0.12161234 -0.0054036523 0.01893805 -0.007697832 -0.020746049
-0.029192943 0.009733743 0.02111016 -0.021138344 0.004385416 -0.020316895 -0.055960424 -0.049600556
0.019389093 -0.059004445 0.007370406 0.0032175856 -0.033292517 -0.013652535 6.9162896e-05 -0.054908983
-0.032155216 0.0154696135 0.007529799 0.024104986 -0.014348588 -0.008772431 0.0095005045 -0.0823771
0.019541753 0.02277615 -0.06916461 -0.07232005
00000000: 69aa 72bc cc16 f23b 2334 b63c 75a5 b4bc
00000010: c4c8 9a3c 8c6e 11bc db4b 323c e179 12bd
00000020: 6878 b73b a38e 8b3b 7663 cbba 207d 71bd
00000030: f44e 5bbd 2e08 773c d22c 903c 621d d1bc
00000040: 8d50 4f3c 7d3e f4bb 0e42 f93b 690a 37bb
00000050: 5735 173c a49d b23c 71e1 3ebc e380 0a3d
00000060: adee 2abd a00e ea3c 8950 b43c 38e9 0d3c
00000070: e04f 94ba 9a99 f03c eba3 80bd e8b6 4abd
00000080: 5001 52bd 79f1 aabc ea69 99bc f3dc f03b
00000090: 6bd1 38bc 693d 293c 464f 87bc a432 d63b
000000a0: b0e1 7cbd f86d 1d3d 825e dd3b 80f0 eabc
000000b0: de1e e9bc d9e5 51bd 3b0e 313b 51ec bf3c
000000c0: e56c 2ebb 11be 193c d108 45bd e377 3bbd
000000d0: 3e25 953c b1df 703a 9d65 873b 51e2 57bb
000000e0: d413 bc3b e707 ca3a 5f68 a3bd c94f 1abd
000000f0: 6643 07bd 50aa c93c beaf 293c 85f6 323c
00000100: 2b22 333d ac34 80bd 3215 36bd e40f f9bd
00000110: 1f11 b1bb f823 9b3c 183e fcbb 9ef3 a9bc
00000120: 0a26 efbc 477a 1f3c 37ef ac3c 522a adbc
00000130: 89b3 8f3b 9e6f a6bc c236 65bd f429 4bbd
00000140: e0d5 9e3c a5ae 71bd 7283 f13b 21de 523b
00000150: bc5d 08bd e2ae 5fbc 8c0b 9138 3ee8 60bd
00000160: 30b5 03bd 4374 7d3c 88bc f63b d277 c53c
00000170: 5716 6bbc 3eba 0fbc 01a8 1b3c 53b5 a8bd
00000180: 0716 a03c 0c95 ba3c 2da6 8dbd 891c 94bd

fc.6.weight f4 [20, 100]
-0.07550029 -0.031730276 0.012554956 0.07475297 0.08961425 -0.06632419 0.07775313 0.11010111
0.043431327 -0.03591072 -0.011440395 0.010130927 0.08467033 0.095994525 0.024974005 0.0007586671
0.10196926 -0.0048422893 0.04027669 -0.078081176 0.004878298 0.04267733 -0.1189667 0.08392837
0.09346146 0.044875786 -0.022515688 0.08689642 0.02551346 0.07504014 0.015301916 0.075689934
-0.04811623 0.015112463 -0.03448481 0.06940189 -0.090765536 0.053978674 0.072035655 -0.1148025
0.01739057 -0.039599642 -0.03179205 0.10099061 -0.079677075 0.07873251 0.051038627 -0.0335641
-0.07175273 0.029123617 -0.015963191 -0.028572373 0.07596888 0.117007226 -0.123862244 0.065583535
-0.101036 0.015743995 0.025242511 -0.04294057 0.049839057 0.10674732 0.065246925 -0.06204638
-0.015298179 -0.022041634 -0.04752285 -0.04536495 -0.08389105 0.025052205 -0.047451362 -0.013479473
-0.031363443 0.026953347 0.04791619 -0.058206458 0.05526807 -0.09221554 0.10178791 0.0018921646
0.060350917 -0.0146824345 -0.0054595023 -0.05793063 0.026196588 -0.077138305 -0.1232926 -0.06606735
-0.05610909 0.020787327 0.09540002 -0.07360703 0.06327833 -0.004113046 0.028750386 -0.074805446
0.103980824 -0.0021746135 -0.07455694 -0.079040326 0.0251048 -0.010458392 0.051162355 0.09954496
-0.08277029 0.121376894 -0.060382374 -0.00643836 -0.05873561 -0.016024332 0.045041516 -0.018826088
0.0073030605 -0.008973583 -0.10153287 -0.0085928505 -0.12470928 0.114656225 -0.0879376 0.08379462
-0.060835466 0.05033464 0.08235099 -0.10615885 0.029205466 -0.11370873 0.05068541 -0.056451138
0.03273923 -0.10593726 -0.051316123 -0.07591752 -0.03491244 -0.035274684 -0.022477966 -0.0047293096
0.015536586 0.0029629765 -0.081081435 0.038576644 0.07686041 -0.08534643 -0.06475849 -0.036754347
0.047038887 -0.047431722 0.06675057 0.0087390635 0.066949375 -0.12055477 0.06361404 0.017583981
-0.15230475 -0.00240328 0.07752001 0.0077709532 0.067568466 0.07609164 0.0652945 0.00026468775
0.059654035 -0.07780915 -0.059362553 0.033729993 -0.006987623 -0.04353965 -0.0010904088 0.024225023
0.09548738 0.059035096 0.043804478 -0.02634483 0.024097038 -0.057818536 0.06795809 0.0853376
-0.06885023 0.0734078 -0.06256759 -0.03469016 -0.088409275 -0.088858366 -0.04243361 -0.012901262
-0.048748437 0.07904324 0.09750233 0.023680987 0.0067838444 -0.022340138 -0.14371063 0.027690768
-0.023755074 -0.067331165 -0.085594945 0.061640125 -0.09051265 0.029450918 -0.039057657 0.07585305
-0.045132108 -0.08313472 -0.117454 -0.03350059 0.078171305 0.061065137 -0.005947407 -0.042151388
-0.018614942 -0.023313869 0.010340605 -0.06159431 -0.08786468 -0.0056152525 0.08368723 -0.03288446
0.1346342 -0.103465155 0.030416107 -0.014031797 -0.019184167 -0.08937228 -0.079408236 0.0916021
-0.07328597 0.031134538 0.109871216 0.055181175 0.045846235 0.0553811 -0.08632167 0.06702256
0.024506787 0.010593157 0.014111835 0.03494212 0.01422023 -0.041335125 0.0675454 -0.08967783
0.0590032 0.077119604 0.10379419 0.052730687 -0.12205738 0.019834513 -0.014445956 0.007502152
-0.041212372 0.06964738 -0.09110886 0.066172786 0.061562803 0.024664408 -0.091216184 0.07096314
00000000: e59f 9abd 9bf7 01bd 4db3 4d3c 1618 993d
00000010: ad87 b73d fad4 87bd 083d 9f3d b17c e13d
00000020: 0ce5 313d 1e17 13bd 7f70 3bbc 30fc 253c
00000030: a367 ad3d c798 c43d 4996 cc3c 4ae1 463a
00000040: 42d5 d03d 11ac 9ebb 2cf9 243d 06e9 9fbd
00000050: 21da 9f3b 6dce 2e3d d0a4 f3bd a3e2 ab3d
00000060: b968 bf3d accf 373d d272 b8bc c0f6 b13d
00000070: 9b01 d13c a5ae 993d e3b4 7a3c 5303 9b3d
00000080: 8615 45bd 449a 773c f23f 0dbd 9422 8e3d
00000090: 48e3 b9bd be18 5d3d 6e87 933d 931d ebbd
000000a0: ab76 8e3c 3c33 22bd 6138 02bd 2ad4 ce3d
000000b0: bc2d a3bd 833e a13d e10d 513d 827a 09bd
000000c0: 18f3 92bd a794 ee3c 3dc5 82bc 9c10 eabc
000000d0: 9295 9b3d 7ca1 ef3d 7dab fdbd a950 863d
000000e0: f6eb cebd 8df9 803c 62c9 ce3c 73e2 2fbd
000000f0: 0a24 4c3d 579e da3d 2ea0 853d 5824 7ebd
00000100: 37a5 7abc a890 b4bc 52a7 42bd 99d0 39bd
00000110: 12cf abbd 483a cd3c 5c5c 42bd 02d9 5cbc
00000120: f476 00bd 44cd dc3c c443 443d e569 6ebd
00000130: c660 623d 80db bcbd 2e76 d03d 8202 f83a
00000140: 8632 773d 988e 70bc a0e5 b2bb ab48 6dbd
00000150: 3a9a d63c b0fa 9dbd d580 fcbd 524e 87bd
00000160: a5d2 65bd 2f4a aa3c 1661 c33d 48bf 96bd
00000170: 1298 813d bbc6 86bb ee85 eb3c 9933 99bd
00000180: e6f3 d43d f683 0ebb 4fb1 98bd e5df a1bd
00000190: 95a8 cd3c ad59 2bbc 9e8f 513d 3ade cb3d
000001a0: 7883 a9bd 7394 f83d 8253 77bd e1f8 d2bb
000001b0: c094 70bd 7645 83bc 747d 383d 2b39 9abc
000001c0: 834e ef3b ef05 13bc 77f0 cfbd 07c9 0cbc
000001d0: 9467 ffbd e2d0 ea3d a118 b4bd 849c ab3d
000001e0: 9c2e 79bd b22b 4e3d a3a7 a83d d069 d9bd
000001f0: 4d40 ef3c 1fe0 e8bd 819b 4f3d 4f39 67bd
00000200: 9219 063d a2f5 d8bd db30 52bd a57a 9bbd
00000210: 5900 0fbd 307c 10bd b623 b8bc 53f8 9abb
00000220: 2a8d 7e3c 7f2e 423b 060e a6bd 8b02 1e3d
00000230: fe68 9d3d 1cca aebd 19a0 84bd ba8b 16bd
00000240: d9ab 403d c447 42bd 86b4 883d 4a2e 0f3c
00000250: c11c 893d 6be5 f6bd 1448 823d 480c 903c
00000260: c7f5 1bbe 5980 1dbb d0c2 9e3d 7ba3 fe3b
00000270: 5661 8a3d efd5 9b3d 1fb9 853d cac5 8a39
00000280: ca57 743d 675a 9fbd 2626 73bd 7628 0a3d
00000290: 6ef8 e4bb a256 32bd 0cec 8eba 8e73 c63c
000002a0: e38e c33d c9ce 713d 536c 333d 1dd1 d7bc
000002b0: 2767 c53c 21d3 6cbd 9c2d 8b3d 7bc5 ae3d
000002c0: 5901 8dbd d456 963d 7023 80bd 4517 0ebd
000002d0: ec0f b5bd 60fb b5bd ddce 2dbd d15f 53bc
000002e0: 71ac 47bd 6ce1 a13d 4daf c73d a1fe c13c
000002f0: 034b de3b aa02 b7bc e128 13be c0d7 e23c
00000300: 009a c2bc ece4 89bd 674c afbd 5b7a 7c3d
00000310: b25e b9bd 0d43 f13c ecfa 1fbd d858 9b3d
00000320: 72dc 38bd 8942 aabd b98b f0bd ea37 09bd
00000330: 4718 a03d 701f 7a3d 77e2 c2bb efa6 2cbd
00000340: 5d7e 98bc bafc bebc a46b 293c 514a 7cbd
00000350: 66f2 b3bd 2700 b8bb 3664 ab3d dbb1 06bd
00000360: 8cdd 093e 8ae5 d3bd 332b f93c 9fe5 65bc
00000370: 1d28 9dbc d008 b7bd c9a0 a2bd e299 bb3d
00000380: f416 96bd dc0d ff3c 2904 e13d a805 623d
00000390: 43c9 3b3d 4bd7 623d 6ac9 b0bd 2043 893d
000003a0: 75c2 c83c ec8e 2d3c 5335 673c 781f 0f3d
000003b0: f8fb 683c 054f 29bd 3e55 8a3d 03a9 b7bd
000003c0: 57ad 713d e2f0 9d3d 0c92 d43d 22fc 573d
000003d0: 38f9 f9bd fd7b a23c bbae 6cbc 9dd4 f53b
000003e0: 4ece 28bd 49a3 8e3d 4897 babd 9985 873d
000003f0: 4729 7c3d 030d ca3c 8dcf babd 1f55 913d

fc.6.bias f4 [20]
0.018133715 0.04890791 0.017765041 0.018248333 0.024345826 0.012938413 0.013972006 0.010849209
0.04153487 0.043538295 -0.09130779 0.018251734 0.053283513 -0.013525403 0.047452495 0.011342509
0.05237494 0.044173688 0.047139037 0.007964952
00000000: 288d 943c a953 483d fe87 913c 877d 953c
00000010: e670 c73c a3fb 533c d7ea 643c e1c0 313c
00000020: 7820 2a3d 3655 323d 94ff babd a984 953c
00000030: d03f 5a3d a799 5dbc 8c5d 423d eed5 393c
00000040: 1b87 563d 78ef 343d dd14 413d 6e7f 023c

fc.9.weight f4 [2, 20]
-0.04818262 0.29832676 -0.24885908 -0.1889886 -0.34811354 -0.29200232 -0.22807647 -0.08804106
0.26463333 0.12529379 0.14309278 -0.37045786 0.40277532 0.19734639 0.24328542 -0.2456845
0.30865243 0.25953004 0.3772783 -0.3351925 0.30640036 -0.3004527 0.1247051 0.17093298
0.012312406 0.08152445 0.12036103 0.25365746 -0.290611 -0.38878185 -0.15364484 -0.0053384053
-0.1550354 0.21845703 -0.2899057 0.10843267 -0.22956559 -0.36263025 -0.16578865 0.026030755
00000000: 245b 45bd 49be 983e ead4 7ebe 3a86 41be
00000010: f03b b2be 5481 95be e18c 69be df4e b4bd
00000020: 057e 873e 044d 003e ea86 123e a7ac bdbe
00000030: 9138 ce3e 2c15 4a3e d01f 793e b894 7bbe
00000040: b107 9e3e 1fe1 843e 9f2a c13e 5a9e abbe
00000050: 82e0 9c3e f0d4 99be 6365 ff3d 0e09 2f3e
00000060: f9b9 493c 4af6 a63d d87f f63d 64df 813e
00000070: f7ca 94be 6a0e c7be 1355 1dbe caed aebb
00000080: 9ac1 1ebe 33b3 5f3e 856e 94be f311 de3d
00000090: 3e13 6bbe acaa b9be 80c4 29be 733e d53c

fc.9.bias f4 [2]
-0.15009269 -0.09325919
00000000: e6b1 19be adfe bebd
