Algorithms/shawn/accuracy/exp_VH/fc_7.batch.pth (torch_old, 10013 bytes, 4 tensors)

fc.0.weight f4 [10, 226]
0	0xbd9ff8c7	-0.078111224
1	0xbca4eb48	-0.020131722
2	0xbce5a318	-0.02803187
3	0x3cee3ee7	0.029082729
4	0xbd4cac95	-0.049969275
5	0x3d951f61	0.07281376
6	0xbc6ce6a4	-0.014459286
7	0x3d308482	0.04309512
8	0xbb289098	-0.002572095
9	0x3b5e3df4	0.0033911439
10	0x3d250f0c	0.040297553
11	0x3d485ad4	0.048914745
12	0xbd1ad344	-0.037799135
13	0x3c8914d7	0.01673357
14	0x3d3c831d	0.046023477
15	0x3ce04e35	0.027381042
16	0xbb5a0083	-0.0033264465
17	0x3cafe033	0.021469211
18	0xbcd165ec	-0.025561295
19	0x3d91af01	0.071134575
20	0xbd7d0101	-0.061768536
21	0x3db2dc09	0.087333746
22	0xbc679f29	-0.014137068
23	0x3c221aa8	0.009894051
24	0x3d032c86	0.032024883
25	0x3b44e3cb	0.0030043002
26	0x3cbe40bc	0.023224227
27	0xbc2e3bbf	-0.010634362
28	0xbcf390bb	-0.029732099
29	0x3cf16f3b	0.029471984
30	0x3da5f244	0.08102849
31	0xbd15a7f6	-0.036537133
32	0x3c4bba77	0.012434593
33	0x3c5ec98b	0.013597856
34	0xbc984523	-0.018587654
35	0x3d208fb0	0.03919953
36	0x3b0fbc22	0.0021932204
37	0x3bf0c60b	0.0073478273
38	0xbd6df40c	-0.05809407
39	0xbbc02085	-0.0058632516
40	0x3d2984a5	0.041386265
41	0x3d4a3186	0.049363635
42	0x3d163a8c	0.03667693
43	0x3bb5c733	0.005547428
44	0x3d2868d2	0.04111559
45	0x3ccc5d05	0.024946699
46	0x3d3897d1	0.04506666
47	0xbd2f1107	-0.042740848
48	0xbc6f8584	-0.014619235
49	0x3d0de530	0.0346424
50	0x3ac7e4c9	0.0015250678
51	0xbd9bdcf6	-0.07610504
52	0x3d0fa30e	0.03506761
53	0x3ce8c440	0.028413892
54	0x3c88c608	0.016695991
55	0xbc9be7cc	-0.019031428
56	0x3db4b9d1	0.08824504
57	0x3d261972	0.04055161
58	0xbca11752	-0.01966444
59	0xbcc7af20	-0.024375498
60	0x3cec7240	0.028863072
61	0x3db66f5d	0.089079596
62	0x3c26edba	0.010188514
63	0x3d2cce70	0.04218906
64	0x3d43fdc9	0.04784945
65	0xbb6d8fac	-0.0036248965
66	0xbc4a32b9	-0.012341195
67	0x3ca55927	0.020184113
68	0xbc9bdb9b	-0.019025614
69	0x3c0b849e	0.008515505
70	0xbcf4fe30	-0.029906362
71	0x3d77c6c6	0.0604923
72	0xbb8c603b	-0.0042839325
73	0xbcf96781	-0.030444862
74	0xbd4c78e5	-0.04991998
75	0x3d2322f7	0.039828267
76	0xbc980111	-0.018555196
77	0xbb866a0f	-0.0041019986
78	0xbc537e69	-0.0129085565
79	0x3c137144	0.008999173
80	0x3d24f781	0.0402751
81	0x3c9c7dc6	0.019102942
82	0xbd63b61f	-0.055593606
83	0x3cde4ba0	0.02713567
84	0x3cbd7dd1	0.023131283
85	0xba3a432e	-0.00071053475
86	0xbb9769d9	-0.0046207723
87	0x3d869048	0.06570488
88	0xbd1f2989	-0.03885797
89	0xbd80f53b	-0.06296774
90	0xbd31194a	-0.04323701
91	0xbcbac4c1	-0.022798898
92	0xbc24d5c9	-0.010060736
93	0xbd6a5c87	-0.057217147
94	0x3ce438ce	0.027859118
95	0x3b5802ed	0.0032960728
96	0x3c3fb18e	0.011700047
97	0xbc14486b	-0.009050469
98	0x3cc70a68	0.024296954
99	0xbc6986cc	-0.0142533295
100	0x3a8a2005	0.0010538107
101	0x3daebd68	0.0853222
102	0x3c8811c1	0.016610028
103	0xbb067708	-0.0020517725
104	0x3ce6a030	0.028152555
105	0xbd51a3cc	-0.0511816
106	0x3d698cc0	0.057018995
107	0x3d05a14c	0.032624528
108	0x3cd4a143	0.025955802
109	0xbc398ac6	-0.01132459
110	0x3d188aa0	0.037241578
111	0xbd5e99a6	-0.05434575
112	0x3d5aa52d	0.05338018
113	0xbcb03e6e	-0.021514144
114	0xbd2b3c4d	-0.041805554
115	0xbb902190	-0.004398532
116	0x3cb9c75f	0.022678075
117	0xbd7d9521	-0.0619098
118	0x3c806e99	0.015677737
119	0xbcf8bb66	-0.030362796
120	0xbc3a795e	-0.011381475
121	0xbcb90748	-0.02258648
122	0x3d2170d8	0.039414257
123	0x3d6fadb8	0.05851528
124	0x3d6aa50a	0.0572863
125	0xbc94ddeb	-0.018172225
126	0xbd2e4e36	-0.042555057
127	0x3d5f305a	0.05448947
128	0x3b7f610c	0.0038967757
129	0x3d6c19d7	0.05764183
130	0xbc9da689	-0.01924445
131	0x3d6d6c6e	0.057964735
132	0xbd49c827	-0.049263146
133	0xbce8754c	-0.028376244
134	0xbb02685a	-0.0019898624
135	0xbc8b4768	-0.017001823
136	0x3d507782	0.05089522
137	0x3d0e9470	0.03480953
138	0x3d64a089	0.05581716
139	0xbd6d9985	-0.058007736
140	0xbc61da35	-0.013784935
141	0xbb361e24	-0.0027788961
142	0xbb51ffbc	-0.0032043299
143	0x3ccec883	0.025242096
144	0xbd1e9392	-0.038714953
145	0x3d50cc75	0.050976235
146	0xbd49206e	-0.049103193
147	0x3cd2fa1e	0.02575403
148	0xbcc227d2	-0.023700628
149	0xbcf93178	-0.030419096
150	0x3c05890a	0.008150348
151	0x3cc28121	0.023743214
152	0xbcd116ed	-0.025523627
153	0xbd75439a	-0.059878923
154	0x3cccdc87	0.0250075
155	0x3d855fa1	0.065123804
156	0xbb92f019	-0.0044841883
157	0x3cf9daaa	0.030499775
158	0xbd052d69	-0.03251401
159	0xbb4bb723	-0.00310845
160	0x3cd4af2f	0.02596244
161	0xbcf92dd5	-0.030417362
162	0x3d39d7bb	0.045371752
163	0xbd07e7a8	-0.03317991
164	0xbd1eb575	-0.03874727
165	0xbccd2e15	-0.025046388
166	0xbd5433c2	-0.051807173
167	0xbd865fb4	-0.06561223
168	0x3d724c51	0.059154812
169	0x3c71ee3f	0.014766275
170	0xbcb89c86	-0.022535574
171	0x3d91208b	0.07086285
172	0x3d0cc04f	0.034363087
173	0xbc83c943	-0.01608718
174	0xbd815236	-0.063145086
175	0x3d13b4e8	0.036061198
176	0x3d8636de	0.06553434
177	0xbcbf200c	-0.02333071
178	0xbd441caf	-0.047878917
179	0x3d3b4496	0.045719706
180	0xbd6bbfcb	-0.057555955
181	0x38ff4df3	0.00012173867
182	0xbd95460b	-0.0728875
183	0x3ba2e5c7	0.0049712393
184	0x3d36a353	0.044589352
185	0x3d586b0a	0.052836455
186	0x3d4c5a1c	0.049890622
187	0xbd07ed27	-0.03318515
188	0x3d342d65	0.043988604
189	0x3a99c55b	0.001173179
190	0xbc017ab7	-0.007902793
191	0x3ca0c93e	0.01962721
192	0x3d49da3d	0.049280394
193	0xbbe74259	-0.00705747
194	0xbd4520f3	-0.048127126
195	0x3d535f83	0.05160476
196	0x3b64b2f1	0.0034896696
197	0x3d18f704	0.037344947
198	0xbbaa2f40	-0.005193621
199	0xbd767c4f	-0.060177144
200	0x3c70fd61	0.014708848
201	0x3ce8a783	0.028400188
202	0x3bec28fa	0.007207033
203	0xbbc885f0	-0.006119482
204	0xbd19fc7c	-0.037594303
205	0x3d8ad619	0.06779117
206	0x3d15a646	0.036535524
207	0xbc96871a	-0.018374968
208	0xbd22b531	-0.03972358
209	0x3d83e4ef	0.0644015
210	0xbd029bf6	-0.031887017
211	0x3d72654c	0.059178635
212	0x3c937f13	0.01800493
213	0x3d53f42c	0.051746532
214	0xbaaed9bd	-0.0013340038
215	0x3a0e1695	0.0005420235
216	0x3d88cab6	0.06679289
217	0x3d5676b6	0.052359305
218	0x3d8c4d34	0.06850663
219	0x3ce56308	0.028001323
220	0xbc3ba278	-0.01145231
221	0x3d599d14	0.053128317
222	0x3ccee066	0.025253486
223	0x3d4e23a2	0.05032695
224	0xbd27d741	-0.040976766
225	0x3c53678b	0.012903105
226	0x3d6fdb2f	0.05855864
227	0xbc9f7f59	-0.019469904
228	0xbc0635b5	-0.008191516
229	0x3be6663a	0.0070312293
230	0x3d018cdb	0.03162847
231	0x3cbd3ccf	0.023100285
232	0x3d23ef15	0.04002293
233	0x3bc03769	0.0058659804
234	0xbc0e114e	-0.008671118
235	0xbd0ae0ca	-0.03390578
236	0x3db1e42d	0.08686099
237	0x3bb55cc4	0.00553474
238	0xbcd5b066	-0.02608509
239	0x3c8c8471	0.017152997
240	0xbd1aa882	-0.037758358
241	0xbd22bc38	-0.03973028
242	0x3b964c57	0.004586737
243	0x3d0e6cf1	0.034771863
244	0xbcff987f	-0.031200645
245	0x3d146f70	0.036239088
246	0x3bd776b4	0.00657543
247	0xbac70241	-0.0015183167
248	0xbc5a1c6a	-0.0133124385
249	0xbd74c881	-0.059761528
250	0xbceb5944	-0.028729089
251	0x3c97d711	0.018535169
252	0xbd31cb34	-0.04340668
253	0xbc1adede	-0.00945255
254	0xbd9b549f	-0.075844996
255	0xbd37f761	-0.044913653

fc.0.bias f4 [10]
0	0xbca4da25	-0.02012355
1	0x3d620897	0.055183973
2	0x3e7634f0	0.24043632
3	0x3de72bdb	0.11287662
4	0x3e4bb75e	0.19894168
5	0x3e535f74	0.20641881
6	0x3b5c99bb	0.0033660966
7	0x3dcc32eb	0.09970649
8	0x3d168a2c	0.036752865
9	0xbd2657bb	-0.04061101

fc.2.weight f4 [2, 10]
0	0xbebae67a	-0.36503965
1	0xbc6b6baf	-0.0143689355
2	0xbf2f3a51	-0.6844836
3	0x3eb45fb0	0.35229254
4	0xbec7bb8d	-0.39010277
5	0x3ecff9b0	0.40620184
6	0x3e95f819	0.29290846
7	0x3e841aa7	0.25801584
8	0x3e480d22	0.1953626
9	0xbe02b218	-0.1276325
10	0xbe04c85b	-0.12967055
11	0xbeb13cd2	-0.34616715
12	0x3f1ec9e1	0.6202679
13	0xbd4057a3	-0.046958577
14	0x3f1d1091	0.61353403
15	0xbec324d5	-0.38114038
16	0x3df606de	0.120130286
17	0xbcb98017	-0.022644086
18	0x3d4cd2c8	0.050005704
19	0xbe529584	-0.20564848

fc.2.bias f4 [2]
0	0x3e0dfdb0	0.13866305
1	0xbe777fd3	-0.24169855
