Algorithms/shawn/accuracy/exp_VH/fc_8.batch.pth (torch_old, 10032 bytes, 4 tensors)

fc.0.weight f4 [10, 226]
000000 c0 db 9d 3c 1f b4 06 3e f0 23 a1 3c 8a 17 f7 3d
       0.019269824 0.13154648 0.019670457 0.120650366
000010 d0 b8 c4 bc 4c 95 52 bd 0d 43 56 3a 40 5c 48 bd
       -0.024013907 -0.05141191 0.00081734435 -0.0489161
000020 b8 09 32 bd 4d b3 02 3d a3 50 ae 3d 8d 2f 2d 3d
       -0.0434663 0.031909276 0.08511474 0.042281676
000030 16 81 d2 3d 77 28 da bc 05 62 20 3d 58 4f 26 3d
       0.102785274 -0.026630623 0.03915598 0.04060301
000040 30 73 0d 3e ab 27 5a bd e6 bf 9b 3d 2e 47 55 bd
       0.13813472 -0.053260487 0.07604961 -0.052069835
000050 f2 19 5e 3d a0 eb 61 bd 39 c6 d4 3c 20 a7 88 3c
       0.054223962 -0.05515635 0.025973426 0.016681254
000060 f0 69 5e 3d c6 6d ac 3c 06 1b 82 bc b8 3b 34 bd
       0.05430025 0.021048438 -0.015882026 -0.044002265
000070 01 7f 23 bc 8b 4d e5 bc 96 20 9c bd 63 09 52 bc
       -0.009979011 -0.027991077 -0.07623403 -0.012819621
000080 f3 f3 50 bd 6c 43 22 3d 68 6b ef 3d da dd 0a be
       -0.051013898 0.03961508 0.11690408 -0.13561192
000090 0c 09 74 bd 2c a7 1c bd df 12 dd 3d 45 72 9a bd
       -0.05957894 -0.038245365 0.10794615 -0.075413264
0000a0 d9 2c 0c bd 8c ec a2 bd 9d a8 31 3c c2 8f 7a 3d
       -0.034222458 -0.07955274 0.010843423 0.061172254
0000b0 63 bd 89 bd 02 55 90 bc 9e 19 4d bd d1 5d c4 3c
       -0.06725576 -0.01761866 -0.05007326 0.023970516
0000c0 cc 39 bf 3c f2 01 a1 bc 72 80 a6 3c 10 dd a3 3d
       0.02334299 -0.019654248 0.02032492 0.08001149
0000d0 90 bd 64 3d b6 ff dd bc 23 7c 00 3a e3 5a cb bd
       0.055844843 -0.027099472 0.00049013103 -0.09929445
0000e0 92 37 33 be 30 c7 3c bd ee 8c 55 bb 3e d2 df 3c
       -0.17501667 -0.046088398 -0.0032585221 0.027321931
0000f0 b5 19 bf 3d 6f 82 a0 bd 5a 10 03 bd 57 a1 1a 3c
       0.09331075 -0.07837378 -0.031998016 0.0094378805
000100 74 b5 9d 3d 90 75 c7 bd dc 95 a7 bd bb 80 c4 3c
       0.07700625 -0.0973922 -0.0818288 0.023987165
000110 55 ba ba bc 47 7a a7 bd 3c 79 e7 bc 6d b6 11 3d
       -0.022793928 -0.081776194 -0.028256051 0.035574365
000120 45 e4 d0 bc c5 4d a0 bc b4 08 06 bd 88 46 9e bc
       -0.025499472 -0.019568333 -0.032723144 -0.019320741
000130 95 62 f3 bc 5f d0 bd bc 6e a9 7d 3c 87 19 40 bd
       -0.029710094 -0.023170648 0.01548229 -0.046899345
000140 9c 67 d3 bb b2 88 81 3d 7a b4 49 bd 65 bc 07 bd
       -0.00645156 0.06324901 -0.04924438 -0.03313865
000150 b6 78 1d be d4 af 21 3d 71 14 cf bb ab 71 5e bc
       -0.15378079 0.039474323 -0.0063195755 -0.013576905
000160 9c 88 80 3c ad a7 b6 3b 76 60 86 3d 61 f7 95 3c
       0.01569014 0.0055741877 0.06561367 0.018306436
000170 8c 98 3a bc 89 e4 2f bd 10 79 e7 3c df de a5 3c
       -0.011388909 -0.042942557 0.02825597 0.020247875
000180 ad 7b 52 3d f8 ce aa 3d 72 6b a5 3d b9 5e 54 3d
       0.051387478 0.083402574 0.08077134 0.051848147
000190 b0 21 39 3d 6f 60 e4 bd 9e e9 78 bc 99 d0 06 3d
       0.045198143 -0.11151206 -0.015192417 0.032913778
0001a0 dc 3f 80 bb 30 5d 87 3d 6d 36 a1 bd a8 8b 59 bd
       -0.0039138626 0.06609571 -0.07871709 -0.053111702
0001b0 4b fb 92 3c 8d 9e 3c bd 24 1e 8c 3d 01 7e 78 3d
       0.017942091 -0.046049643 0.06841686 0.06066704
0001c0 2f 6a ba 3b ff 25 8a bd 94 f9 af bd 16 e8 78 bd
       0.0056889276 -0.067455284 -0.08592525 -0.06076821
0001d0 21 00 3e bd d1 95 02 3d 97 99 b7 3c 1a e8 60 3c
       -0.04638684 0.031881157 0.022412105 0.013727212
0001e0 ce 7a f2 3c 28 cb 88 3c d6 4b 5d bd 73 7c 74 bd
       0.029599573 0.016698435 -0.0540274 -0.059688997
0001f0 0c a0 05 be 4e a5 ba bd 6e f9 c7 3c 1e 63 2a bd
       -0.13049334 -0.091135606 0.02441093 -0.04159843
000200 57 c9 24 bc 00 be e3 bd 9c 25 8b 3d 07 fe 89 bd
       -0.010057769 -0.11120224 0.06794283 -0.06737905
000210 bb da 2a 3d 41 2d 0b bd ac 73 78 3d f7 4d dc bc
       0.041712504 -0.033978704 0.06065719 -0.026892645
000220 48 fe 08 bc 96 29 8f bd ca f6 65 bc 43 02 f7 bb
       -0.008361407 -0.06990354 -0.01403589 -0.0075381114
000230 97 4c 49 3d 25 f7 09 3d b3 16 c2 3c 83 e2 58 3d
       0.049145307 0.03368296 0.023692464 0.052950393
000240 84 aa 54 3d 40 df 69 3d e5 bc b5 bd 00 e4 95 bd
       0.05192043 0.057097673 -0.088739194 -0.07318878
000250 b3 e2 c5 3d 54 0e 2e 3c f5 03 1b 3d 24 9a ec bd
       0.0966238 0.010623533 0.03784557 -0.115528375
000260 b5 ca 8e 3d 44 62 25 3d 7c 12 75 3d 5c 51 5d 3a
       0.06972257 0.040376917 0.05983208 0.00084426044
000270 20 29 1b bd 5d ff 0f 3d 27 1c 26 3c 0e dc 98 3c
       -0.037881017 0.035155643 0.010138548 0.018659618
000280 8f 34 a8 3c fe 36 11 3c 74 40 d5 3c b7 d0 98 ba
       0.020532874 0.008863209 0.02603171 -0.0011658882
000290 a8 2d 1b bd e2 c8 72 bd 0d b7 0b 3d 00 7b 13 bd
       -0.037885338 -0.059273608 0.034110118 -0.036005974
0002a0 ee b8 8e 3c de a5 04 3e 9f c3 e9 3a 48 4e a6 bd
       0.017422166 0.12953898 0.0017834789 -0.081204
0002b0 9e 6b f6 3c 86 4f bf bd e6 a5 2c 3d d0 d6 b7 3b
       0.030080613 -0.0934134 0.0421504 0.0056103244
0002c0 f8 ae 4c bb 96 01 14 bd 13 1b 93 3d cf e4 b1 3d
       -0.003123222 -0.036134325 0.07182898 0.0868622
0002d0 0f e3 3a bd 20 c3 15 ba 5e 96 ad 3d bd 8d 96 3d
       -0.045626696 -0.0005712975 0.08475946 0.07351253
0002e0 bd 96 9f bd b8 0a 87 3c 27 26 c4 3b b3 c0 3d 3d
       -0.07792423 0.016484603 0.0059859934 0.04632635
0002f0 e8 82 0e 3d bc 7c f8 bb 72 04 55 bd a4 e3 91 bd
       0.03479281 -0.007583229 -0.052006193 -0.07123497
000300 79 ee 86 3c b6 f9 96 bc 20 e0 0f bd 6a 5e 7a 3d
       0.016471134 -0.018429618 -0.03512585 0.061125197
000310 0a 27 c5 3c 8b 69 09 3d a9 8b 37 bd eb c0 c5 3c
       0.024066467 0.03354792 -0.044810925 0.024139842
000320 61 bc 2f 3d 25 65 b6 bd 4c 9a 28 bd 95 4e 40 bd
       0.04290426 -0.089060105 -0.041162774 -0.04694994
000330 ed 69 02 bd 4d 6b 12 bd 4b 96 eb 3b d6 0b 15 bd
       -0.0318393 -0.03574686 0.007189547 -0.03638824
000340 e0 a1 fe 3c 48 3a 6b bd 89 f1 94 bd 41 80 69 bd
       0.031083047 -0.05742863 -0.07272632 -0.057007078
000350 4b 47 78 bc 17 55 7d bd d6 a3 d0 3d 6d b5 3b 3d
       -0.015153716 -0.061848726 0.10187499 0.045827318
000360 69 33 c6 bb f3 80 c0 bc bd cf a3 bd d0 63 ea 3c
       -0.006048609 -0.023498988 -0.07998607 0.028612047
000370 94 ad 37 bd c3 82 05 bd 4b 62 75 3c eb 98 8c bd
       -0.04484327 -0.032595407 0.014977048 -0.06865104
000380 71 be 79 bd 73 65 dd bc e0 bf 8f bd fc 75 86 bd
       -0.060972635 -0.027025914 -0.07019019 -0.065654725
000390 56 c3 31 bd e3 1b 68 bd 5b 98 fc 3b c5 fa 90 3c
       -0.043399177 -0.05666722 0.007708592 0.017697701
0003a0 61 75 19 3d 18 ff 98 3c dc 3b 14 3d 38 cf 46 bc
       0.037465457 0.018676326 0.0361899 -0.012134366
0003b0 5c 0d 6c bd 9c 07 8e bd f7 10 63 bd ca f7 fc 3c
       -0.057629928 -0.06935045 -0.0554361 0.030879874
0003c0 d5 5a 34 bd 4c 3b e1 3b a5 50 b6 bd 6c 33 82 3d
       -0.044031937 0.006873524 -0.089021005 0.06357464
0003d0 4a bb 2a bd fc 2d 4b 3d 1d 8a 44 bd 78 8b a6 3d
       -0.04168252 0.0496044 -0.047983278 0.0813207
0003e0 3a d9 96 bc 88 f9 2c bd 85 83 66 bd 8c 48 10 bb
       -0.018414129 -0.04223016 -0.05627777 -0.0022015898
0003f0 18 3a a4 3b ec 89 63 3d da 27 66 3c 7f 34 13 3d
       0.005011808 0.055551454 0.014047587 0.035938736

fc.0.bias f4 [10]
000000 69 5b ef bb c2 5a dd 3a 24 c7 f6 3c 54 c6 bd bc
       -0.007304598 0.001688801 0.030124255 -0.02316586
000010 53 37 39 3d c6 e1 88 3c 75 0d 4c 3c ce b2 27 3d
       0.045218777 0.01670922 0.01245438 0.040942006
000020 37 14 07 3c 6a 8d e2 3c
       0.008244566 0.027655322

fc.3.weight f4 [2, 10]
000000 88 b0 15 3f 55 c3 bb be a0 3c ba 3e 71 1f 55 3e
       0.5847249 -0.36672464 0.36374378 0.20812775
000010 61 8d 74 3e d8 22 c3 be 58 a2 d2 3e e0 f2 02 bf
       0.23882057 -0.3811252 0.41139483 -0.5115185
000020 06 fb f2 be 01 a2 ac 3e 26 9e b1 be 07 72 94 3e
       -0.4745714 0.3371735 -0.3469097 0.28993246
000030 a0 04 5c be 15 9d d7 be f9 99 ea 3c 17 2d 8d 3e
       -0.2148614 -0.42112032 0.028637873 0.27573463
000040 e9 16 bb 3d 79 64 0f 3e 66 65 90 3e 21 2c d9 bd
       0.09135229 0.14003171 0.2820236 -0.1060412

fc.3.bias f4 [2]
000000 98 38 8c bc a2 86 b6 3d
       -0.01711683 0.08912398
