Algorithms/shawn/accuracy/exp_VH/fc_9.batch.pth (torch_old, 152926 bytes, 6 tensors)

fc.0.weight f4 [160, 226]
-0.039457884 -0.04113463 -0.0591355 -0.06902456 0.024441775 0.008988986 -0.035466462 -0.025001597
0.07298636 -0.020432463 0.055734813 0.007909025 -0.024758685 -0.0047955816 -0.032969706 -0.07184611
-0.016999735 0.012475611 -0.0035990924 -0.033684645 -0.046457864 -0.07760577 0.00787978 0.037592784
-0.027396241 -0.022271452 0.015808031 -0.06731391 -0.017488025 -0.051176637 -0.0025181784 0.044332188
0.06458529 0.030000038 0.049397912 -0.0076370505 0.028369593 -0.013364233 -0.05166838 0.0552221
-0.016638042 -0.05813518 0.014232876 -0.016303312 -0.054252826 0.005921933 -0.029927239 -0.02828001
-0.047433365 0.03023745 0.021248145 0.009754791 -0.033154428 -0.006674764 0.061013054 0.014854965
0.002974706 0.01569027 0.028565392 0.009302575 0.036879364 -0.008227033 0.005203991 0.01731137
0.00028580127 -0.0012326102 0.004659626 -0.026744595 -0.029440628 0.06166693 0.022868069 0.034140162
-0.000987148 -0.006889993 -0.034040578 -0.06454612 0.036716286 -0.025075238 0.057460517 -0.038825963
0.04509064 0.04418349 -0.04711603 0.031458814 -0.0432593 0.011261249 -0.022077406 -0.0316004
-0.03787341 0.037012845 0.06942714 0.051211197 -0.017141981 0.03103348 -0.009954375 0.06546392
0.052511457 -0.047471702 -0.026193436 0.0041170176 -0.017887462 0.07071227 -0.054092802 -0.06414154
0.026931074 -0.018334983 -0.031857017 -0.04020056 0.020572647 0.0347996 0.000765057 0.03954328
-0.041510895 0.04693447 0.024026798 -0.05886285 0.04524425 0.048230622 -0.06180902 -0.0025795281
-0.056589954 0.050733577 0.0049834144 0.010688894 -0.009542976 -0.033087306 0.010609918 0.001188215
-0.028801795 -0.05369222 0.011191161 -0.053402994 -0.0054355296 0.07181702 0.031597376 0.04771692
-0.052487478 -0.05916666 0.06203772 0.031341396 -0.056900438 0.043906096 0.021775708 0.0419217
0.012102312 0.01144953 0.057108194 0.009482768 -0.06812506 0.072095685 0.055972483 -0.06822949
-0.01875101 0.042278755 -0.030764548 -0.013596367 -0.020644194 -0.056565244 -0.046341937 -0.022119716
-0.043969214 -0.030137792 0.038628776 0.019777281 0.026217487 0.033229254 0.015963148 0.06537577
0.0047537503 -0.04350778 -0.045440078 -0.058949072 -0.021513568 0.03484973 -0.052477505 0.013274588
0.0549814 0.06264601 0.07206335 0.032234956 0.046316624 0.008484019 -0.05742025 0.055451605
-0.0056060655 -0.041778665 -0.006238001 -0.08085062 0.05236468 0.019903217 -0.001488626 -0.038634695
0.00991588 0.04908674 -0.020536462 0.058661487 0.039919995 -0.037496362 0.032955904 -0.068872884
-0.0807718 0.051534563 -0.048009217 0.021670926 -0.012581137 0.030456668 -0.032336995 -0.0034106902
0.032371324 -0.043947328 -0.06401601 -0.024768798 0.04924173 -0.030350456 -0.01665877 0.009877782
-0.0032306614 0.039183974 -0.0059703845 -0.04754504 -0.009509768 0.048603326 0.016377456 -0.026112188
0.017666554 -0.03824213 0.012945495 0.017227584 0.02881498 -0.05598812 -0.028710067 0.029323658
-0.0045106965 -0.04208714 0.012336367 0.04520066 0.015661959 -0.05942274 0.028921284 -0.0010971607
-0.03986843 0.0016716677 0.053385027 -0.03747085 0.065749854 -0.0014677742 0.0024457686 -0.012425867
0.06450876 -0.017206557 -0.021823814 -0.021266948 0.062349685 -0.029078394 -0.04203537 -0.07283478
00000000: 979e 21bd c97c 28bd 1138 72bd c05c 8dbd
00000010: 1e3a c83c 8a46 133c 4845 11bd 26d0 ccbc
00000020: df79 953d fb61 a7bc 304a 643d db94 013c
00000030: bad2 cabc 4124 9dbb 3e0b 07bd 0e24 93bd
00000040: 0743 8bbc 8166 4c3c c0de 6bbb e9f8 09bd
00000050: 9a4a 3ebd c6ef 9ebd 311a 013c e4fa 193d
00000060: 156e e0bc 9f72 b6bc d87f 813c e0db 89bd
00000070: 0c43 8fbc 989e 51bd 0608 25bb ab95 353d
00000080: 4b45 843d a4c2 f53c 7755 4a3d 3940 fabb
00000090: 5967 e83c a8f5 5abc 39a2 53bd 9230 623d
000000a0: 814c 88bc 281f 6ebd 0231 693c 868e 85bc
000000b0: 3638 5ebd c60c c23b f829 f5bc 7bab e7bc
000000c0: 7d49 42bd 87b4 f73c 9710 ae3c 8fd2 1f3c
000000d0: f0cc 07bd fbb7 dabb d3e8 793d 3d62 733c
000000e0: 49f3 423b e288 803c f801 ea3c d469 183c
000000f0: d10e 173d adca 06bc 3e86 aa3b 93d0 8d3c
00000100: 99d7 9539 898f a1ba c7af 983b 7b17 dbbc
00000110: 792d f1bc 7696 7c3d d155 bb3c 8ed6 0b3d
00000120: 3163 81ba 73c5 e1bb 226e 0bbd c230 84bd
00000130: d163 163d 966a cdbc b85b 6b3d f907 1fbd
00000140: f7b0 383d bff9 343d bdfc 40bd f5da 003d
00000150: aa30 31bd 1a81 383c addb b4bc 6c6f 01bd
00000160: 2621 1bbd c89a 173d d12f 8e3d d5c2 513d
00000170: 576d 8cbc ed39 fe3c ad17 23bc f311 863d
00000180: 4116 573d b071 42bd 9e93 d6bc 0ce8 863b
00000190: ba88 92bc 98d1 903d 6a90 5dbd a45c 83bd
000001a0: 8e9e dc3c 3f33 96bc 817c 02bd 58a9 24bd
000001b0: f887 a83c 068a 0e3d 1b8e 483a 22f8 213d
000001c0: 5407 2abd 5c3e 403d d9d3 c43c 2c1a 71bd
000001d0: 0952 393d 798d 453d 742b 7dbd 4d0d 29bb
000001e0: deca 67bd 03ce 4f3d e94b a33b 7920 2f3c
000001f0: 245a 1cbc 8e86 07bd 39d5 2d3c e1bd 9b3a
00000200: bef1 ebbc 60ec 5bbd 225b 373c 19bd 5abd
00000210: 871c b2bb cd14 933d 406c 013d d172 433d
00000220: 1cfd 56bd bd58 72bd 441b 7e3d d65f 003d
00000230: 6f10 69bd e1d6 333d f862 b23c 17b6 2b3d
00000240: c748 463c cf96 3b3c 48ea 693d 9d5d 1b3c
00000250: 2785 8bbd e7a6 933d 6743 653d e7bb 8bbd
00000260: b89b 99bc 7d2c 2d3d ef05 fcbc 4cc3 5ebc
00000270: 031e a9bc f5b0 67bd 0bd1 3dbd 6834 b5bc
00000280: 1019 34bd 88e3 f6bc 3539 1e3d f703 a23c
00000290: 0ec6 d63c 661b 083d 26c5 823c bbe3 853d
000002a0: 59c5 9b3b 3735 32bd 601f 3abd 9574 71bd
000002b0: 393d b0bc 97be 0e3d a7f2 56bd a87d 593c
000002c0: 2d34 613d 8d4c 803d f395 933d cd08 043d
000002d0: 80b6 3d3d 8e00 0b3c 7f31 6bbd 3921 633d
000002e0: 16b3 b7bb 1b20 2bbd 2568 ccbb 0395 a5bd
000002f0: 597c 563d 120c a33c 001e c3ba 6a3f 1ebd
00000300: 3776 223c 2d0f 493d 153c a8bc 0747 703d
00000310: 2683 233d c995 19bd c5fc 063d 3a0d 8dbd
00000320: af6b a5bd e815 533d 50a5 44bd 3a87 b13c
00000330: 1d21 4ebc 4380 f93c cc73 04bd e385 5fbb
00000340: cb97 043d 1d02 34bd d31a 83bd efe7 cabc
00000350: b2b1 493d 85a1 f8bc f977 88bc 6cd6 213c
00000360: 81b9 53bb 607f 203d 37a3 c3bb 96be 42bd
00000370: dcce 1bbc 4814 473d 042a 863c 3ae9 d5bc
00000380: 73b9 903c c8a3 1cbd 5719 543c dd20 8d3c
00000390: 650d ec3c cd53 65bd 6031 ebbc 2b38 f03c
000003a0: 77ce 93bb 9163 2cbd 791e 4a3c 5424 393d
000003b0: 824d 803c 4265 73bd 54ec ec3c 9bce 8fba
000003c0: 144d 23bd dc1b db3a 42aa 5a3d 097b 19bd
000003d0: dca7 863d 5462 c0ba 3049 203b dd95 4bbc
000003e0: 2b1d 843d c4f4 8cbc dbc7 b2bc 0638 aebc
000003f0: 6262 7f3d d035 eebc 482d 2cbd 672a 95bd

fc.0.bias f4 [160]
0.05606997 0.032870337 0.04210871 -0.008360845 -0.009950365 -0.068796255 -0.01564737 0.029452194
0.0073916665 -0.0070663122 -0.04310723 -0.018118508 0.029442595 0.023261713 0.1019662 0.029289106
-0.021708412 0.021961506 -0.06841441 -0.03444132 0.031525876 0.038166985 0.0084627895 0.028192617
0.12468428 0.0186135 0.057824112 0.05760903 -0.01794705 0.019035375 -0.03465954 0.002403577
-0.030926127 -0.0030452386 -0.070762806 -0.031500395 -0.060733672 0.086954825 -0.014792162 -0.021952763
0.008305862 0.03682911 -0.03693203 -0.0043139663 -0.032416318 0.054516718 0.032524537 -0.0258567
0.0067164674 -0.034769114 -0.05109144 -0.04402121 0.06484985 -0.035227783 0.001514723 -0.0064747515
-0.065100834 0.00833702 -0.0052094366 0.0008450188 0.04971602 0.030919999 -0.0004004394 -0.0058170976
0.035184473 0.008905814 0.052198395 0.023657534 0.0009866243 -0.05332355 -0.056006595 -0.0027625666
0.061930504 -0.06263138 0.095711365 0.012554928 -0.037923906 0.020911098 0.042197794 0.026743842
-0.006323179 0.045888096 -0.07995202 0.01221442 -0.058701985 0.0012513534 0.026316315 -0.018077739
0.007964005 0.08014545 -0.09135673 -0.030973587 0.042653512 0.054449413 -0.0031597314 -0.02161732
0.042203423 0.07329587 0.06732963 0.002867251 0.004520335 0.012912827 -0.06891665 0.053245593
-0.023296788 0.001095891 -0.061143257 0.05872501 0.04194022 -0.049739935 0.00542257 0.007560066
-0.030217547 0.023498131 0.042342678 0.012451437 -0.01349192 0.005088727 -0.054331314 0.07598975
-0.012011909 0.04250633 -0.045034114 0.05076663 -0.049847305 0.00862495 -0.020201433 -0.02963448
-0.037291247 -0.008641284 -0.028294131 0.013607457 -0.014776216 -0.019627951 0.058315244 -0.006383683
0.017941136 -0.055255495 -0.00999369 0.017187519 0.008701695 -0.015406223 0.007571198 -0.03383699
0.02517561 -0.044901263 0.030451756 -0.05255302 -0.05235721 0.020796644 0.03129589 0.020897217
-0.0457513 0.009365956 0.036248136 0.042749748 0.049183372 -0.040397838 0.03523637 -0.041643698
00000000: a0a9 653d 0ca3 063d 2f7a 2c3d edfb 08bc
00000010: db06 23bc 0de5 8cbd ea2e 80bc ba45 f13c
00000020: cb35 f23b 868c e7bb 3591 30bd 446d 94bc
00000030: 9931 f13c 598f be3c a8d3 d03d b5ef ef3c
00000040: d7d5 b1bc 9ee8 b33c db1c 8cbd 5712 0dbd
00000050: 4721 013d fc54 1c3d 83a7 0a3c 34f4 e63c
00000060: 795a ff3d 577b 983c fad8 6c3d 72f7 6b3d
00000070: b105 93bc 13f0 9b3c 29f7 0dbd 5585 1d3b
00000080: ca58 fdbc a092 47bb 17ec 90bd 8f06 01bd
00000090: dfc3 78bd 5f15 b23d d35a 72bc 48d6 b3bc
000000a0: 4f15 083c 1fda 163d 0a46 17bd 2c5c 8dbb
000000b0: f9c6 04bd ec4c 5f3d 7338 053d 6ed1 d3bc
000000c0: d015 dc3b 0f6a 0ebd 4245 51bd 964f 34bd
000000d0: 00d0 843d 024b 10bd ab89 c63a 272a d4bb
000000e0: 9653 85bd ff97 083c ecb3 aabb 4084 5d3a
000000f0: 06a3 4b3d f04b fd3c 11f2 d1b9 5a9d bebb
00000100: 981d 103d b1e9 113c fccd 553d 72cd c13c
00000110: 9e51 813a cb69 5abd 2c67 65bd 2d0c 35bb
00000120: d7aa 7d3d e244 80bd 5204 c43d 2fb3 4d3c
00000130: 1956 1bbd c04d ab3c 98d7 2c3d e715 db3c
00000140: ac32 cfbb 28f5 3b3d e2bd a3bd fe1e 483c
00000150: 7e71 70bd 7404 a43a 5095 d73c c417 94bc
00000160: 757b 023c 4c23 a43d 3d19 bbbd 52bc fdbc
00000170: 73b5 2e3d 5906 5f3d 7f13 4fbb ce16 b1bc
00000180: 7fdd 2c3d 251c 963d 1ee4 893d 7de8 3b3b
00000190: 511f 943b 5290 533c 2c24 8dbd 0d18 5a3d
000001a0: e8d8 bebc 00a4 8f3a 5a71 7abd a389 703d
000001b0: 82c9 2b3d 1abc 4bbd d0af b13b 6eba f73b
000001c0: ca8a f7bc 277f c03c 846f 2d3d 1d01 4c3c
000001d0: 370d 5dbc 56bf a63b 838a 5ebd 84a0 9b3d
000001e0: 99cd 44bc 1e1b 2e3d b175 38bd abf0 4f3d
000001f0: b02c 4cbd aa4f 0d3c 7a7d a5bc 02c4 f2bc
00000200: b5be 18bd 2c94 0dbc 18c9 e7bc d0f1 5e3c
00000210: f117 72bc ccca a0bc f7db 6e3d 372e d1bb
00000220: 4af9 923c 9653 62bd 93bc 23bc d7cc 8c3c
00000230: 8e91 0e3c 626a 7cbc d017 f83b a898 0abd
00000240: 153d ce3c 63ea 37bd f675 f93c d641 57bd
00000250: 8474 56bd b95d aa3c 1f30 003d a430 ab3c
00000260: b765 3bbd ab73 193c ed78 143d 5c1a 2f3d
00000270: 8174 493d 3478 25bd 0354 103d 9592 2abd

fc.2.weight f4 [10, 160]
0.018387401 0.05675485 -0.070779204 0.07852448 -0.008341402 -0.07411625 -0.048472244 -0.09550404
-0.02617206 -0.05342974 -0.06662525 -0.0005599813 0.0340641 0.06361808 0.056894615 -0.0062396573
-0.016368268 0.06819219 0.05023503 -0.02938804 0.055185057 0.06408829 -0.05980024 -0.013210044
0.036031302 -0.044139355 -0.020725178 0.07804724 -0.057078153 -0.033095106 0.009898822 0.012869537
0.03629614 0.074778154 0.08083943 0.08494708 0.057687595 0.051450968 -0.02840413 -0.03733041
0.02363071 0.040795024 -0.04802351 -0.03142382 -0.0043454324 0.0648776 -0.038041975 -0.07077512
0.08867812 0.039094154 0.09030415 -0.06017836 0.04644948 -0.060915872 0.023921823 0.017834561
-0.046598293 -0.100854576 -0.05369756 0.041136738 -0.011249541 -0.052607298 -0.06362691 -0.07767609
0.049738128 -0.047010444 0.03377456 0.057303254 -0.012353866 -0.061842043 -0.011705674 -0.025096342
-0.07859122 0.08205555 -0.013484158 -0.0077776965 0.026971895 -0.05666636 -0.021376016 0.035823364
0.061145827 -0.0074514817 0.05562812 -0.066565625 0.016008971 -0.09444336 0.055678185 0.045542873
0.01902001 -0.013756335 0.0047594346 -0.081284106 -0.012589634 0.047221296 0.0622757 -0.048292834
-0.090634346 -0.090513796 0.02778756 0.035741523 -0.08494677 0.03324931 -0.022305593 -0.05039767
0.050624605 0.0452423 -0.04223235 -0.0007858939 -0.020960916 0.03278428 -0.01853952 0.02238922
0.045254443 0.060908027 0.08532266 0.08764555 -0.0519297 -0.06468321 0.03577861 -0.03901566
0.10151485 0.039415132 -0.018455701 -0.006593838 0.023281414 0.0067093433 -0.06147766 0.05960147
0.0055915667 -0.04157239 -0.015797477 0.066194884 0.049637776 -0.04339264 0.042240564 -0.04382476
-0.06820312 0.010326357 0.028138408 0.0035516361 0.054346073 0.052616272 0.036793545 -0.010765851
-0.04202853 0.06428535 0.05072186 -0.007205473 -0.04576669 -0.07359977 0.02690286 -0.034015473
0.00649204 -0.0021046177 -0.05082908 0.03451687 0.00891074 0.049565665 -0.038110916 0.06899029
-0.07750935 0.07718298 -0.05461707 0.056244005 0.009668667 -0.0016405393 -0.110221095 -0.17851882
0.0735099 -0.11124101 -0.13305387 0.15441655 -0.090930365 0.048880346 0.101531 -0.092214875
0.123790115 0.023439957 -0.16123343 -0.0018023375 -0.09195498 -0.01698106 -0.014356433 -0.06648978
0.14132199 -0.11632641 0.024640365 0.01577629 -0.0068121585 0.05420225 -0.049518775 -0.023259684
-0.012726405 0.025298247 -0.021387434 0.04930814 0.06494974 0.17862082 -0.0716373 0.0311027
0.1524 0.0063090413 0.08570478 0.036718994 -0.008450041 0.12349798 -0.015234178 -0.01751327
0.0942723 -0.08571076 0.12334694 0.05517491 0.018674787 -0.08097091 -0.058428906 0.11202445
-0.03031702 -0.17361663 -0.09799706 -0.007767324 0.13842976 -0.057960343 0.037846528 -0.11124752
0.051209565 0.022508614 0.12376515 0.056958824 0.002369061 0.1085433 0.0046898914 0.0027141476
-0.05697849 0.07354012 0.067528546 -0.10274788 -0.0037018023 0.1841752 -0.08896365 -0.099963754
0.005773097 -0.0835366 0.05724109 -0.04503991 -0.087010644 -0.12330095 0.07809344 -0.030581051
0.043828484 0.017793717 -0.049208783 -0.06940043 0.06483592 0.15176843 0.17684913 0.012133453
00000000: 2da1 963c c677 683d b0f4 90bd 71d1 a03d
00000010: 60aa 08bc 43ca 97bd d58a 46bd 9f97 c3bd
00000020: ca66 d6bc 25d9 5abd d272 88bd b5cb 12ba
00000030: cc86 0b3d 324a 823d 540a 693d 0a76 ccbb
00000040: bf16 86bc 59a8 8b3d 3fc3 4d3d 30bf f0bc
00000050: ba09 623d b940 833d 19f1 74bd f16e 58bc
00000060: 8f95 133d 78cb 34bd d9c7 a9bc 3bd7 9f3d
00000070: c8ca 69bd bc8e 07bd ab2e 223c c0da 523c
00000080: 43ab 143d 4a25 993d 258f a53d bcf8 ad3d
00000090: d449 6c3d 40be 523d c7af e8bc c6e7 18bd
000000a0: 3195 c13c af18 273d 4db4 44bd 43b6 00bd
000000b0: 2164 8ebb 8cde 843d e7d1 1bbd 8cf2 90bd
000000c0: e09c b53d 3121 203d 62f1 b83d 967d 76bd
000000d0: cf41 3e3d ec82 79bd b3f7 c33c c919 923c
000000e0: dadd 3ebd d88c cebd f9f1 5bbd ff7e 283d
000000f0: ff4f 38bc c07a 57bd d34e 82bd a414 9fbd
00000100: 35ba 4b3d 068e 40bd 3157 0a3d d1b6 6a3d
00000110: df67 4abc 154e 7dbd 28c9 3fbc d896 cdbc
00000120: 6ff4 a0bd bd0c a83d a8ec 5cbc 0cdc febb
00000130: 2af4 dc3c fc1a 68bd c11c afbc 85bb 123d
00000140: 0c74 7a3d 8f2b f4bb 50da 633d 8f53 88bd
00000150: 3f25 833c 856b c1bd cf0e 643d 2a8b 3a3d
00000160: dacf 9b3c 4062 61bc 08f5 9b3b 4878 a6bd
00000170: c144 4ebc 1e6b 413d ce14 7f3d b5ce 45bd
00000180: 809e b9bd 4c5f b9bd bda2 e33c b465 123d
00000190: 92f8 adbd 6e30 083d 38ba b6bc ca6d 4ebd
000001a0: bf5b 4f3d fd4f 393d d4fb 2cbd 7204 4eba
000001b0: 3ab6 abbc cf48 063d 31e0 97bc 9969 b73c
000001c0: b95c 393d b27a 793d a6bd ae3d 837f b33d
000001d0: 3db4 54bd a178 84bd 978c 123d e2ce 1fbd
000001e0: 05e7 cf3d c371 213d 6930 97bc 1f11 d8bb
000001f0: aab8 be3c 0dda db3b 00d0 7bbd ac20 743d
00000200: 7639 b73b cf47 2abd b669 81bc 2f91 873d
00000210: fb50 4b3d 7bbc 31bd 7104 2d3d 9781 33bd
00000220: 14ae 8bbd e12f 293c 8582 e63c 91c2 683b
00000230: fd99 5e3d 2984 573d d4b4 163d 4063 30bc
00000240: 1c26 2cbd 0aa8 833d bac1 4f3d e31b ecbb
00000250: da75 3bbd 7abb 96bd 6363 dc3c cf53 0bbd
00000260: 2ebb d43b a0ed 09bb 2732 50bd 9061 0d3d
00000270: 5afe 113c 5e05 4b3d 311a 1cbd c84a 8d3d
00000280: 39bd 9ebd 1c12 9e3d 26b6 5fbd 1d60 663d
00000290: 5469 1e3c 5d07 d7ba 99bb e1bd a3cd 36be
000002a0: 5c8c 963d 54d2 e3bd 463f 08be 5f1f 1e3e
000002b0: b339 babd c236 483d 7cef cf3d 27db bcbd
000002c0: ac85 fd3d 2705 c03c 601a 25be 693c ecba
000002d0: e452 bcbd dd1b 8bbc 3f37 6bbc cb2b 88bd
000002e0: b6b6 103e 8a3c eebd 97da c93c 473d 813c
000002f0: 8738 dfbb 2e03 5e3d 33d4 4abd 188b bebc
00000300: 6982 50bc 453e cf3c b334 afbc 55f7 493d
00000310: 5f04 853d 60e8 363e 94b6 92bd 17cb fe3c
00000320: bf0e 1c3e 13bc ce3b fd85 af3d a866 163d
00000330: 0a72 0abc 82ec fc3d c698 79bc fd77 8fbc
00000340: d611 c13d 1f89 afbd 529d fc3d 16ff 613d
00000350: defb 983c 14d4 a5bd 2653 6fbd 136d e53d
00000360: 665b f8bc 8fc8 31be afb2 c8bd 0985 febb
00000370: 88c0 0d3e d367 6dbd f604 1b3d bdd5 e3bd
00000380: 1fc1 513d fc63 b83c 9578 fd3d a84d 693d
00000390: 4042 1b3b f34b de3d a9ad 993b d7df 313b
000003a0: 4762 69bd 349c 963d 684c 8a3d 7b6d d2bd
000003b0: f099 72bb 6c98 3c3e 9332 b6bd ccb9 ccbd
000003c0: 3f2c bd3b 3d15 abbd a275 6a3d c57b 38bd
000003d0: a332 b2bd 3585 fcbd 74ef 9f3d 1d85 fabc
000003e0: 7f85 333d 21c4 913c 268f 49bd d021 8ebd
000003f0: b2c8 843d 2f69 1b3e f017 353e 64cb 463c

fc.2.bias f4 [10]
0.019536506 0.091527574 0.088598296 -0.075590804 0.01810505 0.0397978 -0.06829658 0.070300326
0.06385155 -0.049867224
00000000: 060b a03c cf72 bb3d 0673 b53d 5acf 9abd
00000010: 0b51 943c 0503 233d 14df 8bbd 9ef9 8f3d
00000020: 9ac4 823d 9341 4cbd

fc.4.weight f4 [2, 10]
-0.028908845 -0.4850804 -0.7911995 -0.15452193 -0.25584197 -0.004342918 0.12627192 -1.1236023
-0.79587895 0.024053734 0.3190689 0.7233331 0.6463542 0.16434547 -0.21311045 -0.106430456
0.25204793 1.2158067 0.47017843 0.06433894
00000000: 3ed2 ecbc 755c f8be 0d8c 4abf ff3a 1ebe
00000010: b8fd 82be 094f 8ebb 6d4d 013e 33d2 8fbf
00000020: b9be 4bbf 560c c53c 005d a33e 5c2c 393f
00000030: 7877 253f 2e4a 283e a039 5abe 36f8 d9bd
00000040: 6d0c 813e 8e9f 9b3f 3abb f03e 22c4 833d

fc.4.bias f4 [2]
0.8327295 -0.7829373
00000000: c32d 553f 946e 48bf
