Algorithms/shawn/loss/exp_VH/fc_11.batch.pth (torch_old, 252279 bytes, 8 tensors)

fc.0.weight f4 [160, 226]
00000000: 1d3d c23c 317e 77bd 580f e2bc ce68 55bc
00000010: ff44 3b3d e137 15bd 2ad3 3f3b 833c e13b
00000020: 10de 51bd b1a2 483d fb5c 6cbd 109f 5cbd
00000030: 1db9 b4bc 7923 2c3c 468b 693d 4b5b ea3a
00000040: d8d2 553d e43b 3bbd fe60 e7bc da25 c9bc
00000050: 9282 e8bc efcc 4c3d 5bdc 9d3c e082 ad3b
00000060: 1173 df3b da50 c03c 764c abbb 9969 713c
00000070: c203 7d3d 3278 67bd eefd 2abd ce1a 673d
00000080: 576a 54bd 867a 6ebd b516 cc3c af05 e2ba
00000090: 8f08 02bd ab66 6a3d 0531 2bbc b926 593c
000000a0: aa23 f2bb 8ae9 0a3d b058 cdbc cf8a 8d3c
000000b0: 508e aabc 7888 3cbd 1737 b8bc d303 02bd
000000c0: cbd9 01bd 79de 683d de54 493c 238b ed3c
000000d0: 59b0 06bc 8cf0 523d f517 053c 9c81 1ebd
000000e0: a590 61bd 74d7 76bc 70f2 32bd 3a90 7cbd
000000f0: 7f01 9f3c 1562 72bd dbd4 c43c 01b9 bbba
00000100: c51e 5abc ef3c 83bb 9f9f 673c 3c7c 843d
00000110: 771d 5d3c 0710 823b 7f5c 763d 2cd8 f2bc
00000120: 69ba cab9 ede0 0dbd 6e3b 82bd b051 b73b
00000130: 4d6d 85bc 16c7 243c e009 ba3c d63e 5abd
00000140: 4761 60bd d042 18bd 3312 10bc e2e8 1bbd
00000150: b6d7 10bd 8fd3 77bd d76a e5ba 0cac b8bc
00000160: bbbb 793d 99c0 123c 0a92 743d 3efb 3c3d
00000170: 6dbb 663c e288 34bd 2022 023d f68b d63c
00000180: bbfc 56bd 75b6 53bd 9ff0 d5bc 7d9b 27bd
00000190: f0f3 ef3c 7e53 81bd 68a6 133d 61cb 27bd
000001a0: 9e57 423d 9456 553d ff35 51bb 5827 70bd
000001b0: 2bf5 913c c678 05bd d8e8 353d 0bfc d03c
000001c0: 3cbb 053d 2448 f43c 6f64 4d3d 86f5 db3b
000001d0: c8ca 123d 9e57 c6bc 7d54 db3c 067b 58bd
000001e0: 69ec 3cbd 5b57 85bc be60 cf3c f6c7 773d
000001f0: 8ca2 71bd 25b5 cc3c b043 5fbd 261d 48bd
00000200: ca23 ac3c edaf 043d 38ec 30bd ea51 dc3c
00000210: 30da 243d ece5 96bc ef9a 65bc 8774 8e3c
00000220: ca27 5a3d 27b7 80bd a715 d23c 41df 5e3d
00000230: 192e 63bd 5ef9 433d 961e 02bd 65ae 2c3c
00000240: f633 aebc afbe eb3c f76a d43c 0c40 42bd
00000250: 1eb2 7b3d ce34 313d b4f9 ee3a f1eb 06bd
00000260: de78 25bd 7342 85bd bd54 713d 2efc f0bb
00000270: f58d 753c 8336 c2bc 9a3e fe3c affe a63c
00000280: 0aea 2f3c 206b ed3c 73ab 2abb 769b 033d
00000290: 2344 9c3c 0622 4ebd 1da5 bab9 225a 273d
000002a0: f54e 21bc f7b5 1d3c 32f3 843d 7f4a 853c
000002b0: 2be5 803d a0b4 7a3d c59b bebb cb50 2dbd
000002c0: a409 033c b7ba 0a3d ebda 3ebd 52c8 ba3c
000002d0: 3263 473d 43f5 b43b 541f 4dbd 645c c0bc
000002e0: d4f2 2f3d 88a1 1e3c ce6c 823d 9eb3 49bd
000002f0: 6081 413d a4a7 11bd 245c 4f3c 4ac4 0a3d
00000300: 1ae9 e73b 3e97 7bbd dc07 5ebb 3a4c 5e3c
00000310: d09a 73bd 7a3e 303d 3fb1 2abc a020 193c
00000320: ddff 05bd 8914 33bd 924d be3c b2c1 283d
00000330: 8c3a 3abd 78e1 083d b335 12bd e556 a6bb
00000340: c51a 483c c6d3 74bd fbef 5d3d 8ca1 a5bc
00000350: dc59 36bd f140 f3bc 4f90 153d d8fb 363d
00000360: c096 db3c 49ea e83c d99c bfbc 052e 853d
00000370: a321 10bd 364e 803c 6940 283d ea35 08bd
00000380: b4b4 5fbd a3de 4e3d 0bc7 aebb bdd6 733d
00000390: 8287 0ebc bd0f 0dbd 9fef 2c3a f992 1e3d
000003a0: 487f 733d efeb 03bd 4c02 c73c b638 003d
000003b0: 771f 1dbd f3c6 463d 3ea3 2cbb 7fe7 7a3c
000003c0: 7331 86bd e2af 69bd d345 263d 0b77 82bb
000003d0: 4ca0 393b ab9a 58bc 5303 28bd abba 2d3c
000003e0: e5ac 883b 980c 533c c98d c5bb 6a79 81bc
000003f0: c980 fbbc 698e 33bc f783 743c e5a9 38bd
0.023710782 -0.06042308 -0.027595207 -0.013025476 0.045720097 -0.036430243 0.002927015 0.0068736686
-0.051237166 0.04898328 -0.05770586 -0.05386263 -0.022060925 0.010506504 0.057017587 0.0017879991
0.05220303 -0.045711413 -0.028244492 -0.024554182 -0.028382573 0.050000127 0.019270113 0.0052951425
0.006819137 0.023476053 -0.0052276207 0.014734649 0.06177116 -0.05651111 -0.041746072 0.056422047
-0.051859226 -0.058222316 0.024913171 -0.0017244125 -0.031746443 0.057226818 -0.010448699 0.013253861
-0.0073895054 0.033914126 -0.025066704 0.017278103 -0.020819813 -0.046028584 -0.022487206 -0.03174193
-0.031701844 0.05685279 0.0122883 0.02899701 -0.0082207555 0.051498935 0.008123388 -0.038697824
-0.055069584 -0.015066016 -0.043688238 -0.061660983 0.019409893 -0.05917557 0.024027279 -0.0014322103
-0.013313 -0.0040050666 0.014137178 0.06469008 0.0134957945 0.0039691958 0.060146805 -0.029644094
-0.0003866733 -0.034638334 -0.063589916 0.0055944547 -0.01628747 0.010057231 0.022709787 -0.05328258
-0.05478027 -0.037173092 -0.0087934015 -0.03806389 -0.035361968 -0.060504492 -0.0017503154 -0.022542976
0.06097005 0.008957052 0.059709586 0.04613804 0.014082772 -0.044075854 0.031770825 0.026189785
-0.052487116 -0.051687676 -0.026115714 -0.04091977 0.029291123 -0.06314753 0.03604737 -0.04096544
0.04744684 0.05208452 -0.0031923053 -0.05863127 0.0178171 -0.03258588 0.04441151 0.025510808
0.032649264 0.029819556 0.05014461 0.0067126183 0.03583792 -0.024211701 0.026773686 -0.0528517
-0.046123896 -0.016277006 0.025314685 0.060493432 -0.058992907 0.02498872 -0.05450791 -0.048855923
0.02101316 0.03239434 -0.043194026 0.026894528 0.040247142 -0.018420182 -0.01401399 0.017389549
0.053260602 -0.062849335 0.02564509 0.05441213 -0.055463884 0.047845237 -0.03176745 0.010539626
-0.021265011 0.028777448 0.025929911 -0.04742436 0.061449163 0.04326325 0.0018232376 -0.032939855
-0.04039847 -0.06506815 0.058918703 -0.007354281 0.0149874585 -0.023707634 0.03103571 0.020385114
0.010736952 0.028981745 -0.0026042133 0.03213068 0.019075459 -0.050325416 -0.00035599704 0.04085744
-0.009845485 0.009625903 0.06491698 0.016270874 0.0629371 0.061207414 -0.005816909 -0.04231338
0.007997904 0.03386947 -0.046595495 0.022800598 0.048678584 0.0055224015 -0.050078705 -0.023481555
0.04295619 0.009682067 0.06368409 -0.049243562 0.047242522 -0.035560265 0.012656245 0.033878602
0.0070773484 -0.061423533 -0.0033879196 0.0135679785 -0.059473813 0.043028332 -0.010418235 0.009346157
-0.032714713 -0.043720756 0.023230348 0.041200347 -0.04546599 0.03341815 -0.035695743 -0.0050762766
0.012213414 -0.059772275 0.05418394 -0.020218633 -0.04451929 -0.029694052 0.036514577 0.04467377
0.026805282 0.028432028 -0.02339022 0.06502918 -0.03518833 0.015662294 0.04107705 -0.03325454
-0.05461569 0.05050529 -0.0053337864 0.059530962 -0.0086993 -0.034438837 0.00065969856 0.038714383
0.059447557 -0.032207426 0.024293087 0.031304084 -0.038360085 0.048529577 -0.0026342417 0.015313982
-0.065524004 -0.0570525 0.040593933 -0.003981476 0.0028324304 -0.0132204695 -0.041018795 0.010603587
0.0041710013 0.012881421 -0.006028865 -0.015804965 -0.030701058 -0.010959246 0.014924041 -0.0450839

fc.0.bias f4 [160]
00000000: 8487 efbc 76e1 43bb 8320 7f3c 0309 aa3b
00000010: c944 ebbc b696 273d dc72 ecbc 78cd 843d
00000020: a55f 80bd f028 77bd 13bd ef39 86b1 fdbc
00000030: 5e85 a73b ebc9 f33c 9221 e6bc 0885 613a
00000040: 3251 b0bc f19d 823d e26b 073d 15e2 c6bc
00000050: d298 52bd b4f8 613c 49d6 193d 6401 ab3c
00000060: f1b8 063d 76f7 353d d415 46bc 3394 cdbc
00000070: d866 1bbd 1179 2c3c 14a8 813b dd11 573b
00000080: 9ae4 e73c 6c6d 1cbd 44fb 053c 47a3 a03c
00000090: 86aa 2cbd 8cb5 d83c 1c55 83bd 4461 85bd
000000a0: ee2f 83bd e75c 67bd 45e2 3f3d 2226 e6bb
000000b0: 28c2 febc 6772 ab3b 6009 16bd 12f7 0f38
000000c0: 4bf9 6b3d 2d9f 06bd ae5f 993c 934c 103d
000000d0: 3c66 723d b505 663d 06d3 17bd 2f9d 99bc
000000e0: f22f 9bbc 7279 853d f02c 713c ba75 1a3d
000000f0: cc92 f8bc 5be0 fdbb 0035 283c 178c 873d
00000100: b227 76bd fdb1 0b3d 3e84 4f3d 585d cb39
00000110: b816 a5bc 203d aa3b f520 52bd 7405 4f3c
00000120: 3af0 0b3d 3def dd3c 1d71 1fbd ea74 743c
00000130: fdfc 443d e0c2 043d 6350 a23c 6f69 813d
00000140: d41b fdbc 69fc 403d 771c c3bb 02ef 82bd
00000150: f4ac 353d 4f19 09bd c0e1 263d 3511 3d3c
00000160: a6eb 213d 8083 7f3d da4d 99bb 92b2 37bc
00000170: 2ea9 05bd 1b1a 1fbb 3f5a b2bc a646 803c
00000180: 0207 4f3c abbf 15bd 893d 42bb 66c1 75bc
00000190: 9c9b 473d 066a 3d3c 7cd3 3cbd a6fe 8fbc
000001a0: bdcd 473d da3d 2cbd 2b4b d33c 410d 873b
000001b0: 780b 1c3d 7994 f43c 361e ecbc adeb 3abd
000001c0: b937 fbbc 9c3b 64bd 4c8b 9d3c 8e9d 2b3d
000001d0: 7abd 54bd 1047 ad3c 6dcc 08bd 0237 5ebd
000001e0: 6c5f c5bc 530e 6bbd 2e34 333d 557c e3bc
000001f0: 2056 4f3c dcbd adbc 0e72 0fbd 3641 49bd
00000200: 97ba 4cbd 0810 d03b b677 cd3c c841 533d
00000210: c3c9 63bd 2a06 69bd 0e38 17bd 37ff 61bd
00000220: 1389 40bd 0c01 213d c036 0f3d dcbb ddbb
00000230: 0f2a 4fbc f901 473d 0662 9d3b bc45 32bd
00000240: 0654 243d 7b66 1d3c fdaf 1ebb 8d37 643d
00000250: 94d6 0fbd 138b ce3a 2cf3 a53b 0a5b a2bb
00000260: c417 17bd b72e 5a3d 2c1d 53bd fb5a d13c
00000270: dd27 7fbc 54aa 613d 31fd 223c 1ad9 0e3d
-0.029239424 -0.0029889024 0.015571716 0.0051890626 -0.028719323 0.040915214 -0.028863363 0.064845026
-0.06268243 -0.060341775 0.00045726504 -0.030968439 0.005112334 0.029759368 -0.02809218 0.0008602892
-0.021523092 0.06377781 0.03306187 -0.024277726 -0.051415272 0.013792206 0.037557874 0.020874687
0.032891218 0.04442545 -0.012090165 -0.025095081 -0.037939876 0.010526911 0.003956804 0.0032817044
0.028307248 -0.03819029 0.008177582 0.019609107 -0.04215481 0.026453756 -0.06412718 -0.065126926
-0.06405626 -0.056485083 0.046846647 -0.0070235888 -0.03109844 0.0052321437 -0.036630034 3.432396e-05
0.05761079 -0.032866646 0.018722381 0.035229277 0.05917953 0.056157786 -0.037066482 -0.018751709
-0.01894376 0.065173045 0.014720187 0.03770993 -0.030343436 -0.0077476925 0.010266542 0.06618517
-0.06009645 0.03410529 0.050663225 0.00038788724 -0.020152435 0.005195275 -0.05130096 0.0126355775
0.034164645 0.027091617 -0.038926233 0.014920453 0.04809283 0.03241241 0.019813722 0.06318938
-0.030897059 0.047115717 -0.005954321 -0.06393243 0.044354394 -0.0334714 0.040742636 0.011539747
0.039531372 0.062381268 -0.00467847 -0.011212008 -0.032632045 -0.0024277035 -0.021771548 0.015658688
0.012635948 -0.036559742 -0.0029638729 -0.014999723 0.048732385 0.0115609225 -0.046100125 -0.01757748
0.04878019 -0.042051174 0.025792679 0.004121453 0.038096875 0.029855954 -0.028823 -0.045634914
-0.03066622 -0.05572091 0.019231461 0.041898303 -0.05193851 0.02115205 -0.03339808 -0.05425168
-0.024093352 -0.057386708 0.043750934 -0.027769247 0.012654811 -0.021208696 -0.03502088 -0.049134456
-0.049982633 0.0063495673 0.025081497 0.051576406 -0.055612337 -0.056890644 -0.036918692 -0.055175032
-0.047005724 0.03930764 0.034964323 -0.0067667793 -0.012644305 0.048585866 0.004802945 -0.043523535
0.040119193 0.009606953 -0.0024213784 0.05571704 -0.035116747 0.0015758 0.0050643887 -0.0049547004
-0.0368879 0.053267207 -0.051541492 0.025556078 -0.015573469 0.05509408 0.009948061 0.034875013

fc.2.weight f4 [100, 160]
00000000: de0a 53bc 882b 88bc 9c7a a0bc 0d95 a0bd
00000010: 6904 ac3b 2730 bcbc 5d81 ab3c 9a35 663d
00000020: 2575 8e3d 7c9b 1a3d a06a 99bc df84 85bd
00000030: b18a 3c3c 04b2 76bb ed46 3ebc 149a bd3b
00000040: 18bc 2fbd 91f9 36bc 1628 34bd 0f7a 89bc
00000050: b373 c43c 17f2 44bc 2d18 fabb f3b8 6b3d
00000060: eaef 953c 042c 9f3d d584 823d cd10 773d
00000070: a63a 94bd 04d5 bcbc cf19 c43c 077e e2bc
00000080: d165 65bd 149b 81bb 7862 413c 2835 3cbd
00000090: 1565 c03c 694c 8dbc 4cd0 223d 032f f3bc
000000a0: 3782 90bc 34e5 6cbc 63de 9c3d ced4 a13b
000000b0: c40d b7bc 7105 9e3d 4112 4d3d cc1b 10bd
000000c0: 0fa7 84bd cea4 e23c dd55 9dbb c0b8 26bd
000000d0: 4c41 903c 1854 40bd b811 143d 32dc 9ebd
000000e0: 2819 99bd 0874 0cbc c3b5 d6bc b551 72bd
000000f0: 3d07 fe3c 6a56 db3b a236 8a3c 94ff d8bc
00000100: 3a9d 09bd 61a3 75bb 9fca 2bbd 5835 9dbd
00000110: a59c 18bd 64d1 813d a2ec 0c3d 0fc5 32bd
00000120: ab59 8cbd 4a2e 5a3d 4348 a0bd 180d 6abd
00000130: 7a50 19bd 9f2b 343d 922d 543d 842f 03bd
00000140: eccb 81bd e9f4 7fbc 24da 84bd a8f6 51bc
00000150: b43a 7b3d ab92 91bd 004a 8fbd d425 933c
00000160: 239b 8abb f269 ecbc ef27 733c 5f29 dc3c
00000170: 7a0d 213d 7b2a 07bd ccf8 1ebd c2fc 353c
00000180: 83a2 07bc 7ee8 4e3d 0a41 9c3d da93 503c
00000190: e63c a5bc 3bb2 4b3b db87 32bd f9e9 80bd
000001a0: c88b 89bd e2a5 813c 49d5 38bd 55b0 63bb
000001b0: d395 593d 429d 7a3d c453 603b 4cdf c73c
000001c0: 089f 1d3d 400c 5ebd 8c80 7fb9 d59a 2ebd
000001d0: 89f1 11bd f28f 78bd f728 3abd c39c 563d
000001e0: 345e 3a3d 9cdc d23c a677 23bc afd3 2e3c
000001f0: 72de 5c3d a73a 1f3d dce8 503d 5dab 2cbc
00000200: 6264 3ebd 810e 19bd 4c2a 37b8 3b50 213d
00000210: 9052 9c3d 92a8 383d 99d8 1ebd ce5e 7fbd
00000220: 60d6 d23c 97a6 50bc f49b 8bbd ba49 763c
00000230: f5e3 9a3c 04c4 633d 14a3 8a3d 937d 623d
00000240: e8eb 8fbd 7d9b 3cbd 5b24 7fbd d521 28bd
00000250: dace 453d 4f2b ccbc 421d 93bd ab15 c83b
00000260: ee69 143c a709 153c 20db 193d ba31 74bd
00000270: d14d 293b 4432 6ebd 7788 7a3d cd24 133d
00000280: 8f20 a13d 3843 babb 34df 2dbd 5168 9b3c
00000290: 1d3b 1abd 0efe 063c 345a 95bd 1999 4d3d
000002a0: 2379 833c 9471 2c3c 05f6 023d 237c fa3c
000002b0: dc53 713d d838 d6bc 911b d3bc a385 c43b
000002c0: 4825 96bd 8232 b93b 7d8b 183d 0ecb c73c
000002d0: add5 8abd 91cd d8bc 5358 59bd e81a 0fbd
000002e0: 7116 14bd 77e0 0fbc ab75 813d b2cd 833d
000002f0: c7c8 26bc 6f35 e73c b711 5ebd 85cf 9f3d
00000300: 74af 9e3c 02ed 98bd 5337 21bd e080 b1bb
00000310: b99e 2bbd 057e 0ebd 4ed5 b3bc a8f9 89bd
00000320: 0e9f 153d 6150 5bbd c6bd 64bc 7cb5 8b3d
00000330: 2c7a 2b3d c565 7bbd 0b9e 8ebd 6c35 443d
00000340: f520 baba aece 47bd ebb2 de3c d91c 5a3b
00000350: 5c88 8a3d 6a1d 343d a5e6 89bd e442 d8bb
00000360: 5e3b 53bd e740 983b 1f1c 5e3d 5739 de3a
00000370: f52b 1bbd 5c5d e3bc ff81 90bd 3167 8b3b
00000380: eda6 f03c 9241 a0bd 6fbc 91bd 9d0d 873d
00000390: da64 3bbd 54df c9bc 71e3 5dbd 8716 743d
000003a0: 4794 813d b0fe 45ba 25ff bf3c c889 a03d
000003b0: 764c 7f3d 1849 963d bf9f 0bbd 1fd8 dcbc
000003c0: f7d0 14bd dcd4 e8bb 1be6 21bc 9a9c 97bd
000003d0: fb45 953d cc72 0cbd cb78 cebc 1260 843d
000003e0: 5a61 8dbd 5ce2 8dbd 990a 59bd 4f45 8c3d
000003f0: 83b4 8e3d 84e1 7a3d a3ab 493c c419 8c3d
-0.012881009 -0.01662232 -0.019589715 -0.07840929 0.005249549 -0.02297218 0.020935709 0.056203462
0.06955937 0.037745938 -0.0187276 -0.06519484 0.011507676 -0.0037642727 -0.01161359 0.00578619
-0.04290399 -0.0111679 -0.04398354 -0.016781835 0.023980951 -0.012020609 -0.0076322765 0.05754943
0.018302877 0.07772067 0.06372992 0.060318757 -0.07237749 -0.023050793 0.023938088 -0.027647985
-0.056005303 -0.0039552543 0.011803262 -0.04594913 0.0234857 -0.01724835 0.03974943 -0.029685503
-0.017640216 -0.014458943 0.076596044 0.0049386984 -0.022345431 0.077158816 0.050066236 -0.03518276
-0.064771764 0.027666476 -0.0048014955 -0.040703535 0.017609261 -0.046955198 0.03614971 -0.07756843
-0.07475501 -0.008572586 -0.026209718 -0.059159953 0.03100931 0.006693651 0.016871754 -0.026489057
-0.03359721 -0.0037481415 -0.04194128 -0.0767619 -0.037258763 0.06338766 0.034405358 -0.04364496
-0.0685304 0.0532668 -0.07826283 -0.057141393 -0.037430264 0.043986913 0.05180127 -0.032027736
-0.06337723 -0.015622356 -0.064869195 -0.012815155 0.06133528 -0.07108053 -0.06996536 0.017962374
-0.0042299195 -0.028859112 0.014841064 0.026875196 0.039319493 -0.032999497 -0.03881149 0.011107625
-0.008278492 0.05051469 0.07629593 0.012730563 -0.02017064 0.0031081575 -0.043586593 -0.06294627
-0.06716114 0.01582617 -0.04512528 -0.0034742553 0.0531214 0.06118513 0.0034229616 0.024398468
0.038481742 -0.0542109 -0.00024366583 -0.042628128 -0.035630737 -0.060684152 -0.045449223 0.052395593
0.045499995 0.02573996 -0.009977257 0.0106705865 0.053923078 0.038874295 0.051003322 -0.010538903
-0.04648245 -0.037367348 -4.3669992e-05 0.039383154 0.07632935 0.045082636 -0.038780782 -0.062346272
0.025736988 -0.012735031 -0.06816855 0.015032226 0.018907527 0.055606857 0.06769386 0.05529554
-0.070274174 -0.046046723 -0.06229053 -0.04104789 0.048292972 -0.024922995 -0.07183315 0.0061060986
0.009058459 0.00909654 0.03756249 -0.059617735 0.0025833736 -0.058153406 0.0611653 0.035923768
0.07867538 -0.0056842826 -0.04244919 0.01897064 -0.03765403 0.008239282 -0.072925955 0.050194833
0.016048973 0.010525126 0.031972904 0.030576771 0.058917865 -0.026150152 -0.02576998 0.005997376
-0.073313296 0.005651773 0.0372424 0.024388816 -0.06779037 -0.02646521 -0.05306275 -0.03493777
-0.036154214 -0.008781544 0.063212715 0.06435718 -0.010179705 0.028223721 -0.054216113 0.07803253
0.019370772 -0.07467081 -0.039359402 -0.0054169744 -0.041899417 -0.03478815 -0.021952298 -0.06737071
0.03652864 -0.053543452 -0.013961261 0.06821725 0.04186456 -0.061376352 -0.06963738 0.04790251
-0.0014200496 -0.04878109 0.027184924 0.0033281355 0.0676429 0.043973364 -0.06733445 -0.006599771
-0.05157029 0.004646409 0.054226037 0.0016954344 -0.037883718 -0.027754478 -0.07056045 0.0042542447
0.029376471 -0.078250065 -0.07116019 0.065943934 -0.045750476 -0.024642624 -0.054171983 0.059591796
0.0632711 -0.0007552905 0.023437092 0.0783878 0.06232878 0.0733816 -0.034087893 -0.026958523
-0.036332097 -0.007105453 -0.009881522 -0.07402916 0.07288738 -0.034289166 -0.025204083 0.064636365
-0.06903334 -0.0692794 -0.052988622 0.06849157 0.06968024 0.061250225 0.012308988 0.06840852

fc.2.bias f4 [100]
00000000: c6f2 7fbd a8f7 503d 1158 cebc be84 943c
00000010: 6a1e 6e3d 51e0 89bd ff43 6abd 09cc 3cbc
00000020: e3e1 a53b 8b33 343d 4097 9abd be8b 423d
00000030: 44d2 86bd 6075 3dbd 8ca8 8d3d 4a5b 32bd
00000040: 3657 d4bc 83af 993c c436 6bbd 7d16 7dbd
00000050: 9b87 893d efbf 17bd 8feb e53b 04e3 d93c
00000060: 1694 74bd 4b60 61bd 3ffd 883d fb68 55bd
00000070: 00c2 7f3d b4b7 843d 4be5 8cbd c4d0 cb3c
00000080: fe25 e3bc bdef d7bc 207d 903d b9a1 b43a
00000090: 6e9f 723b 493e 30bc 144d 0dbd 863b 3c3c
000000a0: 3d40 893b 88b7 b3bb 499d d63c 18f9 dabb
000000b0: 538c 493b 67e5 95bc 2b84 c93c 69fe 97bd
000000c0: a4cb 933d ba6c 333d 1dcc 083c f804 b4bb
000000d0: c54b 993d 41ce aabc d6bc 913d 4602 4ebc
000000e0: dd84 9ebd 2535 673c 17ce 3b3d f065 b43c
000000f0: 5097 8ebc 0910 48bd a123 40bd c41d 413d
00000100: f9e0 7e3d f5d0 853c aa24 723d 6e55 933c
00000110: ac64 763c 26be 4e3d b94f 693d 114a 68bd
00000120: 2850 9e3d e0b0 a7bc ae3a 9fbd 4c1c b0bb
00000130: 459b 7abd 0038 78bc 3de0 9bbc 263e 963d
00000140: 909a c53c 27db b23c d88f 033c 752c 79bd
00000150: ac77 113d 9289 74bd 8d03 e6bc 4740 80bd
00000160: 448e 633a aef5 833d 64cc 773d b2f2 a43c
00000170: f443 cbbc d014 863d c3f1 823d b885 f3bc
00000180: ba3d 3c3d cd19 90bd 230e e63c 5b19 313d
-0.062487386 0.051017433 -0.025188478 0.018129703 0.058134474 -0.06732238 -0.057193752 -0.011523255
0.005062328 0.043994468 -0.0754838 0.04749655 -0.06583074 -0.046254516 0.069169134 -0.04354409
-0.025920492 0.018760448 -0.057425275 -0.061789025 0.06715318 -0.037048277 0.007016606 0.026597507
-0.05971154 -0.055023473 0.06688928 -0.05210207 0.062440872 0.06480351 -0.06879672 0.02487982
-0.027728077 -0.026359433 0.07055116 0.0013781107 0.0037021297 -0.010757037 -0.034497336 0.011488801
0.004188566 -0.005484525 0.026198046 -0.0066825263 0.0030753806 -0.018297864 0.024599155 -0.07421572
0.07216576 0.04380486 0.008349446 -0.0054937564 0.07485155 -0.020850303 0.07116096 -0.012573784
-0.077401854 0.014111792 0.04585084 0.022021264 -0.017406136 -0.048843417 -0.04690898 0.047147527
0.06222627 0.01633499 0.059116997 0.017985072 0.0150386505 0.05047431 0.056960795 -0.05671126
0.07730132 -0.020470083 -0.07774864 -0.005374467 -0.061183233 -0.01515007 -0.019027824 0.073360726
0.024121553 0.021833016 0.0080299005 -0.060833413 0.03551452 -0.05970151 -0.028077865 -0.0626226
0.0008680562 0.06443344 0.060497656 0.020135257 -0.024812676 0.065469384 0.06393769 -0.029726848
0.045957305 -0.07036171 0.028082913 0.04323707

fc.4.weight f4 [100, 100]
00000000: fdd7 973d 6068 883d 935d e73c 03b1 a1bd
00000010: 8bcf cdbc 9dd8 80bd d8e4 c4bd 95e4 593c
00000020: 9f3d 3e3d c08f 24bd ad6e 5f3d 36a8 3abd
00000030: d49d 693c cf5d aabd b58a 2a3d 3519 b13c
00000040: 9911 ab3c 1921 43bd 6fa7 073d 0418 8c3d
00000050: 96b9 743d 7524 683d 9044 b4bd 8028 53bd
00000060: 4b5e a33c fdf7 9dbc cc56 8f3c d538 c4bd
00000070: 3cda 3c3c deb6 78bd 99fc 203d 4561 68bd
00000080: 68bc 8c3b c11e 3abd dde5 853c 7642 3c3d
00000090: c8d2 bf3d 7f70 8abc 0c11 453d ae48 33bc
000000a0: beac adbd de9d 923d 229b 18bd 27b2 b13b
000000b0: 7a4c bd3c d8b8 abbd a011 1bbd c64b bebc
000000c0: a41c 883d 1362 3a3d e77b a4bd d708 133d
000000d0: b8ac 9dbd 56ef 91bd bad3 243d 3205 d93c
000000e0: 15fc afbd ac9b 9f3c 4d3a 763d 6b75 b1bd
000000f0: 645e 66bd d575 31bc 20fa 5f3d a425 6dbb
00000100: 80fb 5bbd a162 3dbd f160 ed3b 9d53 703d
00000110: 6b1a 003d 4d45 31bd 429e 983d dcaf 8cbc
00000120: 7223 603d 0887 a53d dec8 843d d46b 783d
00000130: cb64 24bd 88b1 59bd 1663 bfbd e22f 88bc
00000140: 24db adbd b90b 94bd 59f2 51bd 1e99 413d
00000150: f36e b3bd ef62 a33c 8b32 c53d 67a4 84bd
00000160: 8290 563d 4e00 33bd 763b a63d 8daa 923c
00000170: db8d c73c 6e9a 653d e392 67bd c97f 12bd
00000180: 503b aa3c 1b76 333d 46c2 473d 838e fdbc
00000190: 87b9 8e3d 0c3a ea3c bc23 f43c b880 f6bc
000001a0: dd42 60bd bfc9 a63d 5291 753d 8d24 b6bd
000001b0: 708d 3fbd 75b6 90bd 50e3 b33b a71d 2ebd
000001c0: e05e afbd 0e71 abbd 9e48 293d 03de 993d
000001d0: 8d8e 3abd 80b2 443a 4aee 1e3d 3a3f 40bd
000001e0: 9885 b5bd fb1d aebd d739 8b3d e619 5a3d
000001f0: e609 653d 7b06 8dbd 69a1 bf3d ca1a 333d
00000200: c5b8 81bd 4a57 71bd 7238 4b3d 3047 63bc
00000210: 404b 643b 0326 c4bd 15de 85bd 521f a5bd
00000220: e820 2f3c aed7 723d d7e0 823d b52d ba3d
00000230: df81 c2bd 6a87 763d 4b60 bd3d a34e ae3d
00000240: f6a3 093d 3ade 023d 19f6 a23d 3668 9dbd
00000250: b0cc 4abc 0050 75bc 8cd0 e63c 6acf 2abd
00000260: 860a 2f3d 0684 223d b025 4ebd 30fc 583c
00000270: 327e 533d 5c9e 07bd eb6a 8e3d c5ea a33d
00000280: 5265 4f3d 90c0 25bd eb8b 9ebd b53e 813d
00000290: 266c 013d f5d5 96bd d663 8bbd a258 463d
000002a0: c0fd 5cbd f0d6 2ebc 3e73 193d f95e 803d
000002b0: db80 883d 680f 503c 795f c03d 58e8 513c
000002c0: a411 ee3c 0509 893d b28e a4bd f58e 97bd
000002d0: c3e8 5ebd 6393 a0bd 09ff b43d 3d10 85bd
000002e0: 7bf6 8dbd ff53 c2bd 1fd5 943d c050 2b3b
000002f0: 289c 80bd 97ed c5bd ab68 a2bd 3ab9 5e3d
00000300: 5004 45bd e02a bebd 8acb 6dbd cc9e a0bc
00000310: ebba a43d 5d06 babd 0055 ceb9 215d c63d
00000320: 869a 01bd 1b11 673d bbad b73d 929a 2b3d
00000330: 11b0 0bbd 6e53 313d 3a35 b0bd c096 5bbc
00000340: 8c2d 86bd a952 823d 42c0 82bd b500 973d
00000350: aeeb 98bd 281e 67bc e249 853d c2fe 323d
00000360: 75e0 a4bd eb48 a2bd da41 483d b467 97bc
00000370: fa65 6c3d d7e6 b5bd c06e 92bd 393c 893d
00000380: 6328 69bd 80b6 edbc d958 e2bc 4522 b8bd
00000390: 086f 6d3d 6e17 dbbb c7de 953d a3d9 52bd
000003a0: 73ce 40bd 2172 963d 9662 e33c 3a63 b3bd
000003b0: 5a02 7dbd a969 b13b 1e2a 9cbd e928 b53d
000003c0: fd5e d63b e052 143c c210 1e3d 7c86 15bd
000003d0: 67f6 c6bd 5dbb 1ebd d025 6abc 20f6 b43c
000003e0: 3d68 4e3d 67ff 7ebd a411 663c 9a76 05bd
000003f0: 9d37 58bd c2b5 6c3d b39f 35bd 33a0 8e3c
0.07414243 0.06660533 0.028242862 -0.078950904 -0.025123378 -0.06291316 -0.09613961 0.013299127
0.046445485 -0.040176153 0.054548908 -0.045570575 0.014258821 -0.08318674 0.041636188 0.021618465
0.020882415 -0.047638986 0.03311866 0.06840518 0.0597473 0.056675393 -0.0880214 -0.051552296
0.019942423 -0.01928329 0.017497443 -0.09581152 0.0115266405 -0.06072127 0.039303396 -0.05673339
0.0042949207 -0.045439485 0.016344959 0.04596182 0.09366375 -0.016899345 0.04811196 -0.010942621
-0.084802136 0.07159017 -0.03725732 0.0054228487 0.023107756 -0.083848655 -0.037858605 -0.023229491
0.06646088 0.045503687 -0.08031445 0.035897102 -0.07698959 -0.07125728 0.04024098 0.026491735
-0.08593003 0.01948341 0.060114194 -0.08664974 -0.05624236 -0.010831316 0.054681897 -0.0036185766
-0.053706646 -0.046236638 0.0072442223 0.05867349 0.031275194 -0.04327898 0.0745206 -0.0171737
0.054721303 0.08082396 0.06483625 0.060649708 -0.040135186 -0.053147823 -0.09345071 -0.016624395
-0.084890634 -0.072287984 -0.05125651 0.047265165 -0.08761396 0.019944636 0.09628781 -0.0647667
0.052383907 -0.043701462 0.0811681 0.01790359 0.024359634 0.05605548 -0.056536566 -0.035766397
0.020780236 0.043813806 0.048769258 -0.030951744 0.0696898 0.028592132 0.029802196 -0.030090675
-0.054751266 0.08143949 0.05995304 -0.0889369 -0.046765745 -0.07066051 0.0054897442 -0.042508747
-0.08563018 -0.08371173 0.04132902 0.075130485 -0.045546103 0.0007503405 0.03880147 -0.046935298
-0.088633716 -0.08501812 0.067981414 0.053247355 0.055917643 -0.06886002 0.093569584 0.04372672
-0.0633407 -0.058921136 0.049614377 -0.013871953 0.0034834892 -0.09577563 -0.065364994 -0.080626145
0.010688998 0.05928772 0.06390541 0.09090749 -0.09497427 0.060187735 0.09246882 0.085110925
0.03360363 0.031950213 0.07957096 -0.07685892 -0.012377903 -0.014972687 0.028175615 -0.04170171
0.042734645 0.03967669 -0.05032891 0.01324372 0.05163402 -0.033110008 0.06953987 0.08003763
0.050633736 -0.040466845 -0.07741531 0.063107885 0.03159728 -0.07365028 -0.068061516 0.04842437
-0.053952932 -0.010671362 0.03746342 0.062681146 0.06665202 0.012698986 0.0939321 0.012811743
0.029061146 0.066911735 -0.080350295 -0.07400314 -0.054421198 -0.07840612 0.088377066 -0.06497238
-0.06931778 -0.09488677 0.07267212 0.002614066 -0.062797844 -0.09664457 -0.0793012 0.054375865
-0.048099816 -0.092855215 -0.058055438 -0.01960697 0.08043464 -0.09083245 -0.00039354712 0.09685732
-0.031641506 0.056412797 0.08968683 0.041895457 -0.034103457 0.043292455 -0.08603902 -0.013402641
-0.06551656 0.063634224 -0.063843265 0.07373182 -0.07466827 -0.014106311 0.06508233 0.043699987
-0.08050624 -0.07924064 0.048890926 -0.018482067 0.05771444 -0.0888192 -0.0715003 0.0670094
-0.05692328 -0.029017687 -0.027630256 -0.089909114 0.057967216 -0.0066861426 0.07317882 -0.051477086
-0.047071885 0.07345987 0.02775697 -0.0875916 -0.06176982 0.005414207 -0.07625221 0.088456936
0.006542085 0.009052962 0.0385902 -0.036505207 -0.09714966 -0.038752902 -0.014291242 0.022090018
0.050392378 -0.06225529 0.014042292 -0.03258381 -0.052787412 0.057790525 -0.044341754 0.017410373

fc.4.bias f4 [100]
00000000: fe00 c33c 52c2 b2bd 42b0 3fbd 5f43 c7bd
00000010: 5c27 363c dc66 563c 859b 93bd 0ebd 323d
00000020: 84ff bd3d 2d6e a43d f31d ac3c 30e1 95bd
00000030: 6a23 cbbd ec91 e1bb 401e 963c 9a3d a2bd
00000040: 8bed db3b 2447 bb3c 656b 1f3d 1a0a b23d
00000050: 367a 853d 4ab4 43bb 7d46 cbbd a1db 93bd
00000060: 7528 80bd 2e67 a73d 8a55 a6bd 381e 983d
00000070: 5f90 08ba 1164 c23d 2a50 403c e44c 45bd
00000080: 88ee bb3d 0c49 7e3c 761d 8b3d f2dd 91bd
00000090: aa8b c43d a310 65bb 697e 883c 1eeb 3a3d
000000a0: 31bf acba 02ab 863c 8f9f c83d 40ef c0bd
000000b0: f785 df3c 8419 633d 032b 3abd d4e5 02bd
000000c0: c81d cc3d 1d53 2c3d 44aa f839 6a6b 9f3d
000000d0: 5035 acbd a337 703d b7e5 73bd c09a 4dbd
000000e0: bc99 a93d 832d 8c3c 6c57 f9bc e717 36bd
000000f0: 1a93 9f3b e31b f7bb 4948 3abc 07e6 9c3b
00000100: 0d2e 9bbd 3a8c 0b3c 9963 d13d d723 bebd
00000110: acb1 dfbc e124 1c3d 2353 9cbd 8aa8 95bd
00000120: 2dd3 773d 5001 7dbd 7f79 363c 075c cbbd
00000130: 30f9 34bd 9da1 b93d 5910 6fbd 281e b2bd
00000140: adb8 813c 093c cb3d ab85 72bb 8ed7 bc3c
00000150: 738e 6cbd 58ec a93d 7f69 a03d 795f 043d
00000160: 9834 bcbd c223 adbd 9b92 023d 6e65 473c
00000170: e70e 3ebd e5ee b8bd 7d48 a6bd 266c 81bd
00000180: 9938 2bbc 982e 8ebc 2777 a93d 8982 1b3d
0.023804184 -0.0872847 -0.046798952 -0.09729647 0.011117782 0.013086047 -0.07207397 0.043637328
0.09277251 0.08028827 0.021010375 -0.07318342 -0.09918864 -0.0068838503 0.018324971 -0.07921906
0.006711667 0.02286107 0.03892078 0.08693333 0.065174505 -0.00298621 -0.09925554 -0.07219625
-0.062577166 0.08173977 -0.08121784 0.07427639 -0.0005209501 0.094917424 0.011737863 -0.04816903
0.091763556 0.015520345 0.067927286 -0.07122411 0.09596951 -0.0034952543 0.01666184 0.04563438
-0.0013179538 0.016438965 0.097960584 -0.09420633 0.02728556 0.055444255 -0.045451175 -0.031957462
0.09966618 0.04207145 0.00047429104 0.077841595 -0.08408606 0.05864681 -0.059545245 -0.05019641
0.08281276 0.017111545 -0.030437194 -0.04445639 0.004869831 -0.007541166 -0.011369773 0.0047881636
-0.07577143 0.008517319 0.10224075 -0.0928418 -0.0273064 0.038121108 -0.076330446 -0.07307537
0.060504127 -0.06176883 0.011137365 -0.09929662 -0.044182956 0.090640284 -0.0583652 -0.08697158
0.01583513 0.0992356 -0.0037005942 0.023052003 -0.057753038 0.08297032 0.07832622 0.032317612
-0.09189719 -0.08454086 0.031878095 0.012170179 -0.04640093 -0.090299405 -0.08119295 -0.06319456
-0.010450506 -0.017356202 0.0827468 0.037966285

fc.6.weight f4 [2, 100]
00000000: 1196 913c 8766 8c3d e063 5c3c 6050 55bb
00000010: c871 8c3d 7409 5e3d 006a 60bc 6fc5 8fbd
00000020: 9353 843d 5f05 993d 4319 69bd a7a7 853d
00000030: 2e23 0b3d 07a7 f93c 1496 c23d 1a34 95bd
00000040: b0aa a13d 83d7 523d fedb 74bd 7449 a43d
00000050: 1c23 6ebd 8748 623d ac2a d2bc 1139 aebd
00000060: b534 903d 212c b63d d3b0 cbbd 769e 24bc
00000070: 44e8 683d 0f87 833d 382d 19bd b4b4 c2bd
00000080: 7fe6 38bd be55 c93d 2c24 b6bd 92d8 593d
00000090: 5d36 ad3c 95df a73d dc71 963d db82 27bd
000000a0: deea 2bbd 5371 90bd 744d c8bc 899e 883d
000000b0: 75d6 78bd 965e 1fbd cc49 9cbd e124 68bd
000000c0: 5a9f 3f3d 2a58 8f3c 273c 8a3b bb47 edbb
000000d0: 1796 69bd e71d b23d 14cb a7bc 77fd 16bd
000000e0: bc17 5abd 0941 553d 20ef bb3d 4231 593d
000000f0: c87a 4dbd a325 36bd 5a81 2f3d 6e33 e5bc
00000100: 1d5d 753d 0871 af3d 1f00 ac3d e05a 50bd
00000110: 694b b6bd fcee 7d3d 0d97 d83c a5e1 923d
00000120: 4018 8cbc e3d2 42bd ad64 bbbd 4a19 5abd
00000130: 1d8c c63d e4ee 973d 8d1e 33bd 0a8a 13bd
00000140: a94f e53c 06c4 343d e60d c93b c502 84bd
00000150: 80c2 63bc 0093 843d 2666 94bd 7cd3 923c
00000160: 3e01 86bd 52f0 373d 8658 24bc a651 b73d
00000170: 326a 623d ea36 523d 1b46 b43d cad9 3abd
00000180: ded1 ac3d d7fd a73d f7bc 993d 6b5b 72bd
00000190: ab17 5dbd e007 bdbb c992 213d 5497 a4bc
000001a0: 5587 13bd 1c27 b83d 6217 123d b492 103c
000001b0: a39c 723d 08e3 87bd 544f f937 aa94 36bd
000001c0: 1877 17bc 85a0 7fbd 50de 8ebd d0a8 873b
000001d0: 8210 fe3c 9ee1 95bc 04a7 a73c 8d78 9fbd
000001e0: 46e8 b0bd 0139 14bd e2a9 243d d303 3b3d
000001f0: 64da d93c 5d68 39bd 68d9 b0bc 886c 883d
00000200: fd9a a7bd 1b0c 5b3d e253 e5bc ca40 cdbb
00000210: e6ba 2abd 7e21 28bd 2156 5bbd 2d3c 99bd
00000220: fee7 9c3d 0d50 d73b f1a9 64bd d9d8 12bd
00000230: be08 c43d 3642 723d e011 d03c c0d4 7fbc
00000240: 9b41 12bd 83f3 c13d 01e6 8e3d a32f 12bd
00000250: d7e5 b2bd 3ce0 943d 818b c03d 96c9 203d
00000260: d885 083c 8758 563b 565a 8abd 720d 893d
00000270: ddb1 1bbd 010d 77bd 9542 6abd a320 43bd
00000280: 7215 71bd ab53 723d 66c4 6ebd cbf9 9ebd
00000290: 471b 103d 0be0 87bd 597e a6bd ddf9 8ebd
000002a0: ee3d bd3d 163a b43d 8bc7 133d fb62 b7bd
000002b0: efcb 643d b079 1e3c c463 803d 865d 4f3d
000002c0: 6acd 86bd d2e8 b33d 4055 503d aae9 513d
000002d0: e16a 1ebd ba4a 083d 1367 643d 7adb 4ebd
000002e0: 525b 4b3d c6a7 5abc ac83 c03c eafd 8a3d
000002f0: ca02 31bd ccc4 b23c 5e7e c53d 5a76 aebd
00000300: 3088 753c 52e3 3d3d 5620 6b3d bd6e b5bd
00000310: 207e a3bd 9de7 5d3d d921 b63d 5d65 923c
0.017771753 0.06855493 0.013451546 -0.0032549128 0.068576396 0.054208234 -0.013697147 -0.07020079
0.06461253 0.074717276 -0.056908857 0.06526118 0.033969097 0.030475153 0.095012814 -0.07285328
0.07893884 0.05147506 -0.059780113 0.080218226 -0.05813895 0.05524495 -0.025655113 -0.08506978
0.07041303 0.08895136 -0.09945836 -0.010047546 0.05686213 0.06422245 -0.03739664 -0.09507123
-0.045141693 0.09830807 -0.08893618 0.053185053 0.021144086 0.08196942 0.07345936 -0.040896278
-0.041972034 -0.07052865 -0.024450995 0.06670863 -0.060751397 -0.038908564 -0.07631263 -0.056675795
0.04678283 0.017498095 0.0042185965 -0.007241217 -0.057027902 0.0869711 -0.020482577 -0.036862817
-0.05324529 0.052063975 0.09176469 0.05302549 -0.05016592 -0.044469487 0.04284797 -0.027978625
0.059903253 0.08566481 0.083984606 -0.050867915 -0.08901102 0.06199549 0.026439214 0.071719445
-0.017101407 -0.0475644 -0.09150062 -0.053246774 0.09694693 0.07418612 -0.043730307 -0.036020316
0.027992086 0.044132255 0.00613569 -0.06445841 -0.013901353 0.064733505 -0.07246046 0.01792311
-0.06543206 0.04490692 -0.010030871 0.0895112 0.055277057 0.0513219 0.08802434 -0.045617856
0.084384665 0.08202713 0.07506745 -0.059169214 -0.05397765 -0.005768761 0.039446626 -0.02009169
-0.036017735 0.089918345 0.03566683 0.008824039 0.05923141 -0.066351 2.9720053e-05 -0.04457537
-0.009244703 -0.062408943 -0.069759965 0.004139997 0.03101373 -0.01829606 0.020465381 -0.07786665
-0.08638053 -0.036187176 0.040201075 0.045657944 0.026593395 -0.045265544 -0.021588042 0.06661326
-0.081838585 0.05347834 -0.0279941 -0.006263827 -0.041682146 -0.041047566 -0.053548936 -0.07482181
0.076614365 0.006570822 -0.05582613 -0.035851333 0.0957198 0.059145175 0.025399148 -0.015614688
-0.035707098 0.09470274 0.069774635 -0.03568996 -0.08735245 0.07269332 0.09401608 0.039254747
0.008332692 0.0032706575 -0.067555115 0.066920176 -0.03801142 -0.060315136 -0.057192404 -0.047638547
-0.058858342 0.059161823 -0.05829277 -0.07762488 0.035182264 -0.0663453 -0.08129568 -0.069812514
0.09240328 0.088001415 0.03607897 -0.08954426 0.05585855 0.009672567 0.06269029 0.0506263
-0.065821484 0.08784641 0.05086255 0.05124823 -0.038676146 0.03327439 0.05576236 -0.050502278
0.049647637 -0.013345664 0.023500286 0.067867115 -0.04321555 0.021822356 0.09643243 -0.085186675
0.014986083 0.046359368 0.057403885 -0.08859012 -0.07983041 0.05417596 0.08893175 0.0178706

fc.6.bias f4 [2]
00000000: e118 86bd d726 a13d
-0.06547714 0.07868736
