Algorithms/shawn/loss/exp_VH/fc_3.batch.pth (torch_old, 211606 bytes, 6 tensors)

fc.0.weight f4 [160, 226]
0.004522416 -0.016729029 0.05665499 0.00901007 -0.051720563 0.029923405 -0.04646439 0.065384135
-0.051589653 -0.034694828 -0.06030802 0.00496261 -0.012757166 0.06536309 -0.038284823 -0.014877318
0.02223338 -0.0083537605 0.0626605 0.06280735 -0.05276048 -0.018444374 -0.055219904 -0.046614207
0.0062511163 0.04246815 0.021370389 -0.013309528 -0.036498178 0.060171053 -0.0004259617 -0.0032118682
0.03073753 -0.024590481 0.03621434 -0.055003893 -0.04146306 0.04087371 0.04327026 -0.03271257
-0.025805745 -0.050416026 -0.03181076 -0.04594346 -0.031903107 -0.06432612 0.050032146 -0.012017784
-0.03865897 0.015696224 -0.061738618 0.026399912 0.036635637 -0.019844936 -0.0054716463 0.018100455
-0.06419371 -0.054732922 0.010865856 0.035331957 -0.030610513 -0.010646233 -0.03383605 0.014928507
0.04661076 0.0495118 0.04355543 0.020920692 0.03083689 0.056231063 0.039128546 0.06072695
-0.042982183 0.017826239 0.0234505 0.010394626 -0.037091188 -0.032832198 -0.03093558 0.047291636
-0.035545226 0.03374417 -0.025412366 -0.01951385 0.010853414 -0.066088 -0.046062965 -0.050692383
0.055497143 0.032972287 -0.063774735 0.023648454 -0.06469718 0.011953746 0.02960541 -0.0044043795
-0.03443976 -0.06448716 -0.029685237 -0.055890784 0.04302441 0.012456223 -2.2189486e-05 -0.05169608
-0.050463237 -0.05953454 -0.037746426 -0.064150006 -0.040470194 -0.043355852 0.02676638 0.026395388
-0.04947373 -0.06391211 -0.04933469 0.012385465 0.040773302 -0.011134028 -0.06537582 0.045372553
0.044514745 0.043213926 -0.047743082 0.05791396 -0.05871257 -0.051071517 0.051469687 -0.0009444888
0.047570635 -0.045895584 0.030808829 0.06626838 -0.038699146 -0.06260434 0.046264295 -0.0028499113
-0.02788712 0.03853414 0.06070817 0.0482837 0.01895092 -0.023459865 0.057342112 0.038542822
-0.05304322 0.060262647 0.010282669 -0.06617191 -0.048162065 -0.054705646 0.03651313 -0.03128643
-0.024371007 0.0038485958 0.04136863 -0.034828424 0.03452697 -0.015139624 0.048918292 -0.025000865
0.003460837 0.016790431 -0.019191625 -0.053626947 0.008213916 -0.05979943 0.0077000484 0.05292796
0.03744735 -0.0026494362 0.049402203 -0.04925494 -0.04211945 0.058592346 0.01624191 0.013286846
0.033896778 0.022898331 0.0020845442 0.04374751 -0.04424373 -0.021278795 0.021500232 0.006596243
0.041510966 0.011601511 0.011871756 -0.031193478 -0.05300508 0.063311115 -0.0463285 -0.010242422
0.0013893206 0.032184716 0.011328425 -0.04886632 0.05790557 -0.04611803 -0.03849635 0.03864723
-0.021439372 -0.021116806 -0.044904917 0.0067002345 0.038857967 0.035615515 -0.06268056 0.048546724
0.039126895 0.05019732 0.06339151 -0.048731077 0.015116405 -0.054836124 0.011054546 0.002211216
0.04949487 0.06411534 0.010033791 0.04303356 -0.04622154 -0.022365399 -0.0051714825 0.032446437
-0.044154044 0.038839098 -0.007534226 -0.05452765 0.023845375 -0.059434816 -0.02673845 0.0423001
-0.0025252206 -0.05048502 -0.045818668 -0.03749474 0.04524653 0.0211261 -0.046688087 0.020782515
-0.064739436 -0.0632338 -0.015078824 -0.020450778 0.053537317 -0.0007516159 0.040671285 0.015834931
0.042659067 0.050210446 0.049723044 -0.022434488 0.015287125 0.00094681885 -0.050700765 0.043574017
00000000: c630 943b 510b 89bc 100f 683d f99e 133c
00000010: f1d8 53bd ee21 f53c 7251 3ebd 1ee8 853d
00000020: ac4f 53bd 2a1c 0ebd 8b05 77bd 649d a23b
00000030: 6f03 51bc 15dd 853d 8cd0 1cbd ffbf 73bc
00000040: c722 b63c 36de 08bc 2654 803d 24a1 803d
00000050: 601b 58bd a818 97bc 442e 62bd 8aee 3ebd
00000060: 2ad6 cc3b 15f3 2d3d f410 af3c 3510 5abc
00000070: 1d7f 15bd ec75 763d 9d53 dfb9 357e 52bb
00000080: 46cd fb3c fa71 c9bc 7d55 143d c34b 61bd
00000090: 2bd5 29bd 316b 273d 283c 313d 9efd 05bd
000000a0: 9266 d3bc 0981 4ebd 004c 02bd 362f 3cbd
000000b0: d5ac 02bd 6abd 83bd 82ee 4c3d 3de6 44bc
000000c0: de58 1ebd 5e95 803c a2e1 7cbd a144 d83c
000000d0: 400f 163d d991 a2bc 7f4b b3bb 6847 943c
000000e0: fe77 83bd a12f 60bd b406 323c 3eb8 103d
000000f0: e6c2 fabc 8a6d 2ebc ac97 0abd b296 743c
00000100: edea 3e3d e3cc 4a3d 2e67 323d df61 ab3c
00000110: a59d fc3c 8b52 663d 4145 203d d3bc 783d
00000120: 160e 30bd 5508 923c 431b c03c 394e 2a3c
00000130: eeec 17bd 0e7b 06bd 9d6c fdbc e0b4 413d
00000140: df97 11bd 5437 0a3d 982d d0bc 82db 9fbc
00000150: 85d2 313c 2559 87bd 85ac 3cbd d1a2 4fbd
00000160: f950 633d f30d 073d 549c 82bd 67ba c13c
00000170: f57f 84bd a5d9 433c 0b87 f23c 9d52 90bb
00000180: b510 0dbd d811 84bd 742e f3bc bced 64bd
00000190: 5d3a 303d 3015 4c3c 8f23 bab7 45bf 53bd
000001a0: 8ab2 4ebd 7dda 73bd ff9b 1abd 1461 83bd
000001b0: 13c4 25bd e895 31bd 2b45 db3c 243b d83c
000001c0: f7a4 4abd 5ae4 82bd 2c13 4abd 68ec 4a3c
000001d0: e801 273d 806b 36bc c2e3 85bd 92d8 393d
000001e0: 1855 363d 1601 313d 408e 43bd 3037 6d3d
000001f0: 987c 70bd 5e30 51bd e1d1 523d 9297 77ba
00000200: 6dd9 423d 02fd 3bbd cc62 fc3c b7b7 873d
00000210: ff82 1ebd b436 80bd a17f 3d3d 94c5 3abb
00000220: 8873 e4bc f9d5 1d3d 21a9 783d 21c5 453d
00000230: f63e 9b3c e72e c0bc 90df 6a3d 14df 1d3d
00000240: d943 59bd f7d5 763d a478 283c 2385 87bd
00000250: 9645 45bd 0713 60bd cb8e 153d 3326 00bd
00000260: b5a5 c7bc b938 7c3b 2772 293d 40a8 0ebd
00000270: 276c 0d3d 2f0c 78bc 8c5e 483d 9dce ccbc
00000280: 36cf 623b 168c 893c c137 9dbc eea7 5bbd
00000290: a993 063c 3ff0 74bd b050 fc3b fdca 583d
000002a0: 6462 193d 2aa2 2dbb f759 4a3d 8cbf 49bd
000002b0: 7285 2cbd 87fe 6f3d c10d 853c 12b1 593c
000002c0: 59d7 0a3d 4895 bb3c d99c 083b 9730 333d
000002d0: ea38 35bd de50 aebc 4121 b03c 4c25 d83b
000002e0: 6707 2a3d 4414 3e3c c181 423c 7789 ffbc
000002f0: db1b 59bd 42a9 813d f4c2 3dbd d5cf 27bc
00000300: dd19 b63a 1fd4 033d dc9a 393c 0d28 48bd
00000310: 642e 6d3d 42e6 3cbd 59ae 1dbd 8f4c 1e3d
00000320: 9fa1 afbc 27fd acbc 38ee 37bd a48d db3b
00000330: 8829 1f3d 93e1 113d aa5e 80bd eed8 463d
00000340: 8643 203d b49b 4d3d 68d3 813d 3d9a 47bd
00000350: ccaa 773c d89b 60bd 201e 353c 0cea 103b
00000360: 22bb 4a3d e74e 833d c564 243c f543 303d
00000370: cc52 3dbd a437 b7bc 8a75 a9bb 8ee6 043d
00000380: dfda 34bd bf15 1f3d abe1 f6bb 6358 5fbd
00000390: 6057 c33c ec71 73bd 980a dbbc df42 2d3d
000003a0: 2c7e 25bb 61c9 4ebd 5bac 3bbd 1694 19bd
000003b0: 6d54 393d a510 ad3c 023c 3fbd 1840 aa3c
000003c0: 1c96 84bd b980 81bd 2c0d 77bc 6488 a7bc
000003d0: f249 5b3d 1708 45ba ef96 263d 42b8 813c
000003e0: 46bb 2e3d 78a9 4d3d 64aa 4b3d 88c8 b7bc
000003f0: d976 7a3c f033 783a 9bab 4fbd ab7a 323d

fc.0.bias f4 [160]
-0.06238264 -0.0021733819 -0.02187896 0.062914185 0.020858638 -0.016661055 -0.0025852313 -0.05066864
-0.035838213 0.009542268 -0.057182 0.010667409 0.0336872 -0.035913307 -0.01603269 0.038301785
-0.026592785 0.054788724 0.008950224 -0.040619723 0.03054204 -0.017360266 0.043512683 -0.053571485
0.011215213 0.0032318668 -0.053485274 -0.047433548 -0.025288114 -0.01971682 -0.062396403 -0.050858237
0.012559649 -0.044987265 0.02166253 0.031514734 0.04775905 -0.061972596 -0.0023775317 -0.059216715
0.059616365 -0.018536787 0.020503687 -0.039389588 -0.0632067 -0.023669885 0.027298471 -0.028908249
-0.035157967 -0.038054164 0.0067525646 -0.046344675 -0.030131724 -0.06308214 0.015212161 0.015886076
0.03101654 -0.061830852 -0.004195239 -0.06633936 -0.045476407 0.00964586 0.06026962 0.017786141
0.04076619 -0.023243632 0.023684945 -0.027388249 0.058172096 -0.034704633 0.011154052 -0.044577334
0.00095953594 -0.0016640996 0.032155555 -0.056416392 0.016088264 -0.036784012 0.0057854005 0.041350074
0.0071025738 -0.03686903 0.0381474 -0.0034835686 -0.01757735 0.05099897 0.008520807 -0.016798854
0.038880587 0.053849623 0.043884207 -0.057211407 0.008068067 -0.04631509 0.0011196384 0.030382061
-0.041358534 -0.012486972 -0.018246597 -0.05117342 -0.04285677 0.0011036329 0.009583015 -0.015539318
-0.0024230436 0.011354906 0.035715874 0.059876166 -0.01957225 0.0089606885 -0.05927713 -0.0007795896
-0.043292362 0.0015351563 0.021801779 -0.06331838 -0.036440488 -0.0020411867 -0.061614238 -0.017858133
-0.011611645 0.026287302 -0.043919906 0.034574408 0.023022719 0.039150503 -0.047185495 0.0013849468
-0.0005312769 0.03447951 0.010317171 -0.022163628 -0.0073384685 0.030794974 -0.038696025 -0.044722565
0.03491309 -0.021099677 0.017736485 -0.01754584 -0.03743962 -0.0028505495 0.025627054 -0.04362963
-0.011281309 -0.021974858 -0.06645982 -0.020874482 0.0056763273 0.0326457 0.044394135 -0.028616609
0.06197397 0.023202201 0.0292668 -0.002966667 0.023472963 -0.049864348 0.038075943 -0.04817934
00000000: f084 7fbd 4c6f 0ebb 813b b3bc 27d9 803d
00000010: bcdf aa3c c47c 88bc fc6c 29bb eb89 4fbd
00000020: 17cb 12bd 2c57 1c3c ac37 6abd 5bc6 2e3c
00000030: 97fb 093d d519 13bd fd56 83bc 55e2 1c3d
00000040: 1dd9 d9bc 246a 603d f6a3 123c de60 26bd
00000050: 4d33 fa3c 1e37 8ebc 5b3a 323d c66d 5bbd
00000060: 03c0 373c bacd 533b 6013 5bbd ae49 42bd
00000070: 0529 cfbc 2b85 a1bc 5f93 7fbd ba50 50bd
00000080: fcc6 4d3c 9144 38bd 9e75 b13c 9815 013d
00000090: fe9e 433d fad6 7dbd 5dd0 1bbb 3a8d 72bd
000000a0: 4a30 743d 76da 97bc 59f7 a73c fa56 21bd
000000b0: 8472 81bd 59e7 c1bc 0ba1 df3c fed0 ecbc
000000c0: cd01 10bd afde 1bbd 9e44 dd3b ead3 3dbd
000000d0: ced6 f6bc 3631 81bd 6d3c 793c 8423 823c
000000e0: 6616 fe3c 5942 7dbd 3778 89bb eedc 87bd
000000f0: 7845 3abd ab09 1e3c 47dd 763d 3eb4 913c
00000100: 73fa 263d 6e69 bebc ee06 c23c 525d e0bc
00000110: dd45 6e3d 7226 0ebd 7cbf 363c b996 36bd
00000120: 5e89 7b3a eb1d daba 8bb5 033d e014 67bd
00000130: 89cb 833c d5aa 16bd 7593 bd3b b25e 293d
00000140: b5bc e83b fb03 17bd 7340 1c3d 954c 64bb
00000150: 60fe 8fbc 4ce4 503d db9a 0b3c c09d 89bc
00000160: 4041 1f3d 6c91 5c3d edbf 333d 8256 6abd
00000170: ed2f 043c e4b4 3dbd d5c0 923a cde3 f83c
00000180: 9167 29bd 2896 4cbc e379 95bc 389b 51bd
00000190: 958a 2fbd c6a7 903a 1402 1d3c a098 7ebc
000001a0: edcb 1ebb ed09 3a3c cf4a 123d b640 753d
000001b0: fc55 a0bc dacf 123c 93cc 72bd 5f5d 4cba
000001c0: 5553 31bd 4c37 c93a a599 b23c 11ad 81bd
000001d0: 9f42 15bd 6ec5 05bb 365f 7cbd 384b 92bc
000001e0: c53e 3ebc 7858 d73c 5ce5 33bd e59d 0d3d
000001f0: 249a bc3c 475c 203d 9445 41bd 1a87 b53a
00000200: 6445 0bba 633a 0d3d 5a09 293c 7f90 b5bc
00000210: 8977 f0bb be45 fc3c b97f 1ebd 022f 37bd
00000220: 0701 0f3d 3bd9 acbc 1b4c 913c 4bbc 8fbc
00000230: 495a 19bd 49d0 3abb d4ef d13c fcb4 32bd
00000240: 3dd5 38bc 9e04 b4bc 161c 88bd f600 abbc
00000250: 7c00 ba3b 7fb7 053d a0d6 353d 616d eabc
00000260: 6bd8 7d3d 8b12 be3c eec0 ef3c 6a6c 42bb
00000270: 5f4a c03c 8f3e 4cbd 85f5 1b3d b357 45bd

fc.2.weight f4 [100, 160]
-0.0068582655 0.007723691 0.076412395 0.0030421338 0.057236552 0.00012619387 -0.073122635 0.008121623
0.06378625 -0.062587045 -0.035069916 -0.023839984 -0.0673644 0.059976004 0.0639403 -0.03503069
-0.006641725 -0.031359866 0.03966896 0.07429251 -0.023597902 0.07273962 0.07710194 0.057248097
0.032465782 -0.044626877 0.021938074 -0.05036494 -0.013350454 -0.05574475 0.067959026 0.07338928
-0.02127929 -0.005051522 -0.004456957 -0.040194403 -0.020853832 -0.010078864 -0.036064472 -0.050709307
-0.041174784 0.013208451 -0.03547013 0.033496726 0.04265328 -0.055842336 0.02976202 0.035466526
0.021836627 -0.036261648 -0.06431823 -0.047896188 -0.0015983705 -0.064166196 -0.07316449 0.0014983425
-0.027112607 -0.07782101 0.014697221 -0.04243208 -0.05521371 0.0046379087 -0.0641024 -0.05019557
0.0643126 0.053623985 0.07508749 0.026363954 0.055516936 -0.0030206381 0.020403057 -0.05219898
0.020160006 0.027908223 0.07129011 0.041271664 0.061633985 0.03202472 -0.02522512 -0.05959386
0.010836608 0.014765921 0.06970018 0.029089285 0.07478409 0.015776495 -0.061286043 -0.054486915
0.044077728 0.05576817 0.0085851075 -0.024527593 -0.069771424 -0.036151845 0.027316306 -0.019230863
-0.004045129 -0.016752247 0.03494429 -0.0068339696 0.07039433 -0.07539513 -0.07368741 -0.008111339
0.020243565 -0.052388683 -0.02057327 0.058799878 -0.071714506 0.059339862 0.0789237 -0.050651524
-0.065049745 0.028693378 -0.069912545 -0.04617928 0.0062912316 0.029606076 -0.011265244 0.0017319182
0.022218676 -0.06541326 0.005818797 -0.0072318316 0.039993033 -0.036363672 -0.020848911 -0.05846371
0.024243604 0.016446963 0.04597484 0.0122557925 0.04223005 -0.04078862 -0.011275337 0.009797817
0.0058902167 0.06392112 0.008324862 -0.021986917 -0.015790751 -0.026140302 0.02371787 0.0030768875
0.0130946655 -0.06780809 -0.026962833 -0.033234175 0.013463143 -0.07222352 -0.014938077 -0.07072207
-0.024973266 0.033712007 -0.0019154317 0.073623024 -0.007078643 0.02803799 0.014929618 -0.069632456
0.05376283 -0.056998696 -0.04363076 0.03986001 -0.026565302 -0.06368591 -0.059986793 -0.04134681
0.014642334 -0.042658087 0.013235015 -0.022179982 -0.053829886 0.024862127 -0.044779893 -0.05999236
0.02188823 0.0130510945 0.016775457 -0.04972028 -0.07735204 -0.0006752304 -0.0044219214 -0.03729166
-0.037141167 -0.031593043 -0.031841695 -0.067631595 -0.03768977 -0.024988953 0.06804485 -0.056875866
0.0363809 -0.049863238 0.04030496 0.056299254 -0.013347181 -0.002796203 0.06779018 -0.04812068
0.015242818 -0.04940674 -0.015883764 -0.007362586 -0.029993003 -0.037346687 0.037112445 -0.047038075
-0.0406489 -0.070122845 -0.026901623 0.02675023 -0.04275635 -0.05665865 0.059581865 0.06429027
0.009111634 -0.058779623 -0.07517334 -0.05730679 -0.02733377 -0.038337097 -0.052761044 -0.0281259
-0.07303319 -0.01960756 0.05081857 -0.0386117 0.019966062 0.07089211 -0.040496383 0.026584791
-0.018105537 -0.007955396 -0.011010322 -0.0009976102 -0.060181048 0.06555696 0.07796617 0.07469839
-0.062464282 0.057074014 0.010306881 0.039370112 0.053893168 0.05693277 -0.043169845 -0.05002295
0.07437385 0.06432911 -0.0067901006 -0.00524711 0.06014622 -0.034331895 -0.020669354 0.034741946
00000000: 4dbb e0bb 0417 fd3b 1a7e 9c3d 895e 473b
00000010: e070 6a3d e952 0439 52c1 95bd 8e10 053c
00000020: 5ea2 823d a32d 80bd 79a5 0fbd 124c c3bc
00000030: 59f6 89bd 66a9 753d 22f3 823d 577c 0fbd
00000040: d4a2 d9bb 3473 00bd eb7b 223d ac26 983d
00000050: 6350 c1bc 83f8 943d 9fe7 9d3d fb7c 6a3d
00000060: d7fa 043d acca 36bd 7ab7 b33c 784b 4ebd
00000070: ddbb 5abc 9b54 64bd 1a2e 8b3d 1e4d 963d
00000080: e851 aebc 3d87 a5bb aa0b 92bb e3a2 24bd
00000090: a8d5 aabc d221 25bc 57b8 13bd 90b4 4fbd
000000a0: e4a6 28bd 4268 583c 2149 11bd dd33 093d
000000b0: 35b5 2e3d efba 64bd 7bcf f33c 5945 113d
000000c0: bae2 b23c 1887 14bd 47b9 83bd cb2e 44bd
000000d0: 6a80 d1ba 9169 83bd 44d7 95bd 0864 c43a
000000e0: 421b debc 9f60 9fbd 9dcc 703c 43cd 2dbd
000000f0: c527 62bd 99f9 973b 1e48 83bd df99 4dbd
00000100: 53b6 833d d3a4 5b3d 78c7 993d 38f9 d73c
00000110: ba65 633d e6f5 45bb 5024 a73c 99ce 55bd
00000120: 9926 a53c c99f e43c 8d00 923d 7a0c 293d
00000130: eb73 7c3d 5a2c 033d e9a4 cebc b118 74bd
00000140: 078c 313c c3ec 713c f8be 8e3d a74c ee3c
00000150: 6728 993d b53d 813c 1307 7bbd ac2d 5fbd
00000160: d98a 343d 2a6d 643d 8da8 0c3c 17ee c8bc
00000170: 52e4 8ebd f513 14bd 72c6 df3c 0b8a 9dbc
00000180: 008d 84bb 023c 89bc be21 0f3d 7eef dfbb
00000190: e72a 903d c368 9abd 6de9 96bd 6ce5 04bc
000001a0: d5d5 a53c 8495 56bd 4689 a8bc 24d8 703d
000001b0: 0edf 92bd 5b0e 733d c0a2 a13d f977 4fbd
000001c0: cd38 85bd 600e eb3c 4f2e 8fbd 7c26 3dbd
000001d0: ad26 ce3b 7188 f23c dc91 38bc 8801 e33a
000001e0: f103 b63c 63f7 85bd 9bab be3b 00f9 ecbb
000001f0: bccf 233d 13f2 14bd 56cb aabc a577 6fbd
00000200: 869a c63c c8bb 863c 1d50 3c3d 85cc 483c
00000210: 6bf9 2c3d f811 27bd 31bc 38bc 0687 203c
00000220: b802 c13b 13e9 823d 0165 083c e81d b4bc
00000230: 9b5b 81bc 3024 d6bc fa4b c23c 9ba5 493b
00000240: 028b 563c f8de 8abd 29e1 dcbc 8f20 08bd
00000250: 8494 5c3c ede9 93bd d6be 74bc bcd6 90bd
00000260: bc94 ccbc 9a15 0a3d 390f fbba abc7 963d
00000270: f6f3 e7bb edaf e53c 5b9b 743c 769b 8ebd
00000280: 6a36 5c3d 7777 69bd 2bb6 32bd 4044 233d
00000290: 7a9f d9bc c26d 82bd b6b4 75bd 465b 29bd
000002a0: 66e6 6f3c 3fba 2ebd add7 583c cbb2 b5bc
000002b0: ba7c 5cbd a9ab cb3c 1f6b 37bd 8dba 75bd
000002c0: f24e b33c 42d4 553c af6c 893c 7ea7 4bbd
000002d0: bf6a 9ebd f201 31ba c4e5 90bb 24bf 18bd
000002e0: 5621 18bd b567 01bd 706c 02bd 6f82 8abd
000002f0: 9760 1abd a2b5 ccbc 195b 8b3d abf6 68bd
00000300: 2304 153d 653d 4cbd d016 253d 0c9a 663d
00000310: 22ae 5abc 8040 37bb 94d5 8a3d 311a 45bd
00000320: 03bd 793c b95e 4abd ab1e 82bc d941 f1bb
00000330: e3b3 f5bc d7f8 18bd 3803 183d ffaa 40bd
00000340: 767f 26bd 919c 8fbd cb60 dcbc 4c23 db3c
00000350: 4821 2fbd e712 68bd 1d0c 743d 9eaa 833d
00000360: f748 153c e7c2 70bd 7bf4 99bd 86ba 6abd
00000370: 12eb dfbc 5c07 1dbd f71b 58bd 4a68 e6bc
00000380: 6d92 95bd 09a0 a0bc 2227 503d 4d27 1ebd
00000390: de8f a33c e22f 913d 89df 25bd 59c8 d93c
000003a0: 1052 94bc 5957 02bc a364 34bc 3ec2 82ba
000003b0: 6780 76bd ba42 863d baac 9f3d 78fb 983d
000003c0: 8cda 7fbd 71c6 693d 31de 283c 8e42 213d
000003d0: 15bf 5c3d 5632 693d ddd2 30bd dde4 4cbd
000003e0: 5151 983d fbbe 833d 7e7f debb f3ef abbb
000003f0: e25b 763d 9a9f 0cbd c752 a9bc 924d 0e3d

fc.2.bias f4 [100]
0.059289597 0.071048476 -0.07136053 -0.07643512 -0.009943753 0.044134643 0.056742474 -0.07342705
-0.03925832 0.038796626 -0.048891976 -0.05062712 -0.046871744 -0.0024871407 -0.024295526 0.018484887
0.06435057 -0.054981552 0.03314163 -0.017863493 -0.066833586 0.0644322 0.046215806 0.04799818
-0.025788015 0.013474476 0.029760845 -0.0024960202 0.07126118 0.07536579 0.046739507 -0.013133228
-0.073237315 -0.06894045 -0.048672527 -0.0694082 0.055109017 0.0031952604 0.060790863 0.058340356
0.04950371 0.059307188 -0.059163217 -0.012206012 -0.04473845 0.026602346 -0.03845665 0.000739412
-0.059583977 -0.02721944 -0.05536065 0.017743073 0.019985046 0.04871075 -0.0075401454 -0.016401712
0.02012992 0.0660286 -0.030247577 -0.051912062 0.0009623065 0.07552983 -0.014625792 0.049679365
-0.06315442 -0.0691045 0.03095216 0.013860655 0.06375168 0.04445197 0.02101456 0.049497474
-0.01030864 0.059303734 -0.0052840696 0.0058514467 0.005571461 0.03661916 0.0076192813 -0.040312998
-0.055032104 -0.018981995 -0.07599699 0.06786175 -0.010473213 0.013520942 -0.056568403 -0.07038104
0.072822295 0.0334676 -0.050821215 -0.04417557 0.012695575 0.06965634 -0.048714615 -0.04662843
-0.025625372 -0.03374938 0.025971394 0.022075567
00000000: a6d9 723d dd81 913d 7825 92bd 048a 9cbd
00000010: 1feb 22bc 87c6 343d cc6a 683d ec60 96bd
00000020: 55cd 20bd 36e9 1e3d f442 48bd 625e 4fbd
00000030: 96fc 3fbd 4cff 22bb 6907 c7bc 9e6d 973c
00000040: 3bca 833d 5634 61bd 85bf 073d 7656 92bc
00000050: 0ce0 88bd 07f5 833d c94c 3d3d bd99 443d
00000060: 6341 d3bc 0cc4 5c3c 04cd f33c 4594 23bb
00000070: 62f1 913d 6159 9a3d ed71 3f3d c02c 57bc
00000080: 72fd 95bd a730 8dbd d85c 47bd e325 8ebd
00000090: feb9 613d 9367 513b d7ff 783d 4cf6 6e3d
000000a0: 67c4 4a3d 18ec 723d 2155 72bd bafb 47bc
000000b0: aa3f 37bd 2aed d93c b884 1dbd 19d5 413a
000000c0: 540e 74bd 4efb debc d9c1 62bd ec59 913c
000000d0: aeb7 a33c ec84 473d 5313 f7bb e25c 86bc
000000e0: 81e7 a43c 013a 873d c4c9 f7bc bea1 54bd
000000f0: 4c43 7c3a 62af 9a3d 05a1 6fbc 977c 4b3d
00000100: 1b57 81bd a986 8dbd 628f fd3c cd17 633c
00000110: 3e90 823d 4513 363d ba26 ac3c ddbd 4a3d
00000120: 92e5 28bc 79e8 723d fd25 adbb 7ebd bf3b
00000130: cd90 b63b f9fd 153d 2aab f93b 3e1f 25bd
00000140: 5869 61bd 2180 9bbc 4fa4 9bbd 1afb 8a3d
00000150: d797 2bbc f186 5d3c 45b4 67bd ef23 90bd
00000160: db23 953d 5215 093d e829 50bd 71f1 34bd
00000170: 1a01 503c fca7 8e3d fa88 47bd 74fd 3ebd
00000180: 4dec d1bc ca3c 0abd f6c1 d43c d2d7 b43c

fc.4.weight f4 [2, 100]
0.038135488 -0.08090593 -0.031595755 -0.06187348 -0.095442675 0.07681601 -0.021997774 0.071430825
-0.009543047 0.05931187 -0.0975431 0.07750011 0.049707178 -0.03268233 0.029103458 -0.08108024
0.05200174 -0.023309095 -0.040269516 0.050176073 0.09349369 -0.01745657 0.02793509 0.07010339
0.043928467 -0.041321244 0.030329108 0.0850394 8.830947e-05 -0.06568211 0.06933882 0.009700148
-0.042318173 0.09232248 0.041673254 0.011266783 -0.09129386 0.09873896 0.09160928 -0.08689442
-0.068234056 0.07986334 -0.004655391 -0.07228533 -0.06870778 -0.093163714 -0.061490662 0.085681394
0.0093695745 0.06288234 -0.040916204 0.05478896 0.0924731 0.09885051 0.08790019 0.059636604
-0.03652604 -0.07722284 -0.06574953 0.086222365 -0.0902339 -0.04390841 -0.07652684 0.06100137
0.07749881 0.061755773 0.009099827 -0.07816231 0.045371965 -0.077996716 0.04835756 -0.0003563902
0.03381181 0.092837244 -0.045121577 -0.07805859 -0.030036772 0.092885375 -0.07534952 0.053737395
-0.005381589 0.008788009 -0.085845836 -0.023193574 0.04039085 -0.038880926 0.041051336 0.0778273
0.09414304 0.044481102 0.025246833 -0.08100629 0.09164957 0.07541662 -0.0799023 0.005555338
-0.035705507 -0.06722389 -0.05267497 0.08860078 0.05343708 -0.041673277 0.0092276735 -0.038860492
-0.07358432 0.029459598 0.06293762 -0.06679934 -0.09824834 0.057366442 -0.07682202 0.056467887
0.026961917 0.073391244 0.09456174 -0.018300634 0.091796 0.025235957 -0.062562324 0.071387336
-0.09538361 0.06354175 -0.098405786 -0.033526704 0.049696557 0.026208822 0.08206789 -0.018445585
0.09619796 -0.07988609 0.04928203 0.08129207 -0.09771526 0.024921225 0.04661079 -0.046670843
0.038684994 0.00575073 -0.010572885 0.09541182 -0.09210889 0.07625378 0.028254187 -0.024558306
-0.07609024 -0.050994616 -0.0011668968 -0.03093113 0.02525283 0.06661486 0.03199853 0.098719984
0.067337416 0.014031234 0.01720912 0.04484581 0.07157565 0.045192376 -0.058016166 -0.08613535
-0.06049392 -0.059456367 0.022860525 -0.07900679 0.06732087 -0.06541171 -0.09430242 0.0007901024
0.035897646 -0.06518753 -0.061451767 0.08982284 -0.0017264655 0.039995804 -0.026075566 -0.050242133
0.050060198 0.032120693 -0.017414095 0.008055051 -0.081528604 -0.09148527 0.039211206 0.013353825
-0.05465325 0.02886695 0.0260018 0.02064221 0.015102913 0.015399081 0.09269737 -0.063209295
0.063341714 -0.057986926 0.009468648 -0.0104206465 0.08778367 0.03098097 0.048881356 0.007670452
00000000: f533 1c3d 02b2 a5bd 8d6a 01bd 0c6f 7dbd
00000010: 7377 c3bd b651 9d3d ad34 b4bc 534a 923d
00000020: 715a 1cbc 01f1 723d adc4 c7bd 61b8 9e3d
00000030: c199 4b3d e8dd 05bd 606a ee3c 660d a6bd
00000040: c7ff 543d b7f2 bebc a6f1 24bd 6d85 4d3d
00000050: 9f79 bf3d 1501 8fbc 21d8 e43c 5e92 8f3d
00000060: 56ee 333d 7740 29bd c074 f83c 2329 ae3d
00000070: c932 b938 5884 86bd 8301 8e3d 5fed 1e3c
00000080: d255 2dbd 9213 bd3d 93b1 2a3d 5098 383c
00000090: 46f8 babd a737 ca3d a59d bb3d b4f5 b1bd
000000a0: 4cbe 8bbd 648f a33d 408c 98bb 550a 94bd
000000b0: aab6 8cbd 9ecc bebd a2dd 7bbd ba79 af3d
000000c0: d882 193c 75c8 803d c097 27bd 636a 603d
000000d0: 8962 bd3d 2372 ca3d 0405 b43d 8345 743d
000000e0: 549c 15bd 0227 9ebd b1a7 86bd 5a95 b03d
000000f0: 8dcc b8bd 4ed9 33bd 1bba 9cbd 93dc 793d
00000100: b2b7 9e3d 9ff3 7c3d 7117 153c 9013 a0bd
00000110: f4d7 393d bebc 9fbd 9412 463d e2d9 bab9
00000120: 417e 0a3d 7421 be3d 67d1 38bd 2fdd 9fbd
00000130: ad0f f6bc b03a be3d d950 9abd be1b 5c3d
00000140: 0a58 b0bb 95fb 0f3c f1cf afbd 7300 bebc
00000150: e070 253d 9b41 1fbd 7225 283d eb63 9f3d
00000160: 11ce c03d d131 363d 72d2 ce3c a0e6 a5bd
00000170: c5b2 bb3d 0774 9a3d d1a3 a3bd 8e09 b63b
00000180: f03f 12bd aeac 89bd b6c1 57bd 5374 b53d
00000190: d7e0 5a3d 99b1 2abd ab2f 173c 2e2c 1fbd
000001a0: 60b3 96bd 4155 f13c 70e5 803d 18ce 88bd
000001b0: 6d36 c9bd 13f9 6a3d dd54 9dbd df4a 673d
000001c0: 3ddf dc3c 264e 963d 96a9 c13d 36eb 95bc
000001d0: 8bff bb3d a3bb ce3c ad20 80bd 8633 923d
000001e0: 7b58 c3bd 2d22 823d f988 c9bd 4c53 09bd
000001f0: 9e8e 4b3d e2b3 d63c 3613 a83d 321b 97bc
00000200: 7003 c53d 519b a3bd f4db 493d 757c a63d
00000210: f01e c8bd 9927 cc3c f5ea 3e3d ed29 3fbd
00000220: 2874 1e3d 9f70 bc3b e539 2dbc 4667 c33d
00000230: 96a3 bcbd f12a 9c3d 5375 e73c 802e c9bc
00000240: 33d5 9bbd bbdf 50bd 8ff2 98ba 4863 fdbc
00000250: 06df ce3c 5f6d 883d e410 033d b42d ca3d
00000260: 33e8 893d 43e3 653c 24fa 8c3c 3db0 373d
00000270: 4196 923d a41b 393d 5ca2 6dbd bb67 b0bd
00000280: 79c8 77bd 8588 73bd ff45 bb3c 50ce a1bd
00000290: 86df 893d 93f6 85bd a121 c1bd e01e 4f3a
000002a0: 6909 133d 0a81 85bd d9b4 7bbd 0af5 b73d
000002b0: 924a e2ba a4d2 233d 6d9c d5bc b2ca 4dbd
000002c0: ec0b 4d3d fd90 033d 01a8 8ebc 55f9 033c
000002d0: 78f8 a6bd a15c bbbd ee9b 203d 00ca 5a3c
000002e0: 16dc 5fbd 627a ec3c ba01 d53c da19 a93c
000002f0: 3572 773c 6d4c 7c3c 1ed8 bd3d e073 81bd
00000300: 4db9 813d b383 6dbd 6322 1b3c 5cbb 2abc
00000310: edc7 b33d cecb fd3c d137 483d 6a58 fb3b

fc.4.bias f4 [2]
-0.02048841 0.05855495
00000000: 4fd7 a7bc 51d7 6f3d
