Algorithms/shawn/loss/exp_VH/fc_7.batch.pth (torch_old, 10013 bytes, 4 tensors)

fc.0.weight f4 [10, 226]
0	0x3c797cf2	0.015227543
1	0xbd2b0c10	-0.04175955
2	0x3d50288b	0.050819915
3	0xbd7f0bfa	-0.06226728
4	0x3d36ec37	0.044658866
5	0xbd224050	-0.039612114
6	0x3bc28370	0.0059360787
7	0x3d00c101	0.031434063
8	0x3cc370fc	0.023857586
9	0xbd70c0f8	-0.05877778
10	0x3d0abffb	0.033874493
11	0xbc37655a	-0.011193598
12	0xbc0524eb	-0.008126478
13	0xbd5d2cd5	-0.053997833
14	0x3cea3801	0.028591158
15	0x3d8149c0	0.06312895
16	0xb9026429	-0.00012435079
17	0xbcbd236b	-0.023088178
18	0x3d4ad6fa	0.049521424
19	0xbd13aacb	-0.036051553
20	0xbc871560	-0.016489685
21	0x3d6d501c	0.057937726
22	0xbcca4cec	-0.024694882
23	0xbca244b0	-0.019808143
24	0xbd694b74	-0.056956723
25	0x3bece5a2	0.007229523
26	0xbd131647	-0.035909917
27	0xbcbbe3d1	-0.02293578
28	0xbd7b8176	-0.06140276
29	0xbc9668c9	-0.018360512
30	0xbd4970ff	-0.049180027
31	0xbcfec0df	-0.031097827
32	0xbd3c2e29	-0.04594246
33	0xbd81c08f	-0.06335556
34	0xbd4b9367	-0.04970112
35	0xbbaaa525	-0.005207675
36	0x3d46fa9f	0.048578855
37	0xbcf02013	-0.02931217
38	0x3cbef91d	0.023312146
39	0x3c565b40	0.013083279
40	0x3d317ff3	0.043334913
41	0xbd1f1c76	-0.0388455
42	0xbc606d2d	-0.013697905
43	0xbd5b7f27	-0.05358806
44	0xbd5bc1b3	-0.053651523
45	0xbad84ffe	-0.0016503332
46	0xbc5084c1	-0.0127269635
47	0x3b09718c	0.002097222
48	0x3d5e6e3d	0.05430435
49	0x3c8c7ac4	0.017148383
50	0x38c1dd27	9.24415e-05
51	0x3b848adc	0.0040448736
52	0xbd74eb84	-0.059794918
53	0x3ccbcbc2	0.024877433
54	0x3d422c08	0.047405273
55	0x3d835065	0.064118184
56	0xbd2934ba	-0.04131005
57	0xbcfee42e	-0.031114664
58	0xbd0b8f9a	-0.034072496
59	0x3cac1925	0.021008084
60	0xbcd295a1	-0.025706114
61	0x3d1f2f3b	0.0388634
62	0xbd3fc56a	-0.046819128
63	0xbd1c85d6	-0.038213573
64	0x3bcf295f	0.0063220705
65	0x3ce38923	0.027775353
66	0x3d98e0b3	0.07464733
67	0xbc4fc19e	-0.012680439
68	0x3d1a909e	0.037735574
69	0x3d32b47c	0.043629155
70	0x3d58097e	0.052743427
71	0xbc71ce49	-0.014758655
72	0x3d7e8b0e	0.06214433
73	0x3d91dd15	0.07122246
74	0xbceaec0f	-0.028677015
75	0x3d12eb27	0.03586879
76	0x39ac4fdf	0.00032865905
77	0xbd7226e1	-0.05911911
78	0x3d683e97	0.056700315
79	0x3d188904	0.037240043
80	0x38c0d4d9	9.1949194e-05
81	0x3c9951de	0.018715795
82	0x3d304415	0.043033678
83	0x3ccbbd87	0.024870647
84	0x3d89fdb3	0.067378424
85	0xbd1d5a62	-0.038416274
86	0xbb6cf714	-0.0036158012
87	0xbd123a6a	-0.03570024
88	0x3d39e8a8	0.045387894
89	0x3ca75deb	0.020430526
90	0xbcf692f1	-0.030099364
91	0xbd3c2c34	-0.045940593
92	0xbd7308ba	-0.059334494
93	0x3cdb088d	0.026737476
94	0xbd7e38ca	-0.062065877
95	0xbcfdff84	-0.031005628
96	0xbd780438	-0.0605509
97	0xbc9b9ed0	-0.018996626
98	0x3c878093	0.016540801
99	0xbc960c2b	-0.018316349
100	0xbca6cc56	-0.020361107
101	0x3d065476	0.032795392
102	0xbcd56c7a	-0.026052702
103	0xbb4da8c4	-0.003138111
104	0xbca9104f	-0.02063766
105	0x3c8dded7	0.017318172
106	0xbd0bd8c6	-0.034142278
107	0xbd8133d4	-0.063087136
108	0xbd6997ee	-0.057029657
109	0xbce55c78	-0.027998194
110	0xbc69c7de	-0.014268843
111	0x3c9223e7	0.017839385
112	0xbc75966d	-0.014989478
113	0x3c6153ee	0.013752921
114	0x3d69264e	0.056921296
115	0xbd39decc	-0.04537849
116	0xbd14f2b6	-0.03636428
117	0xbd65ae84	-0.056074634
118	0x3c00e6eb	0.007867555
119	0xbcf0ee4a	-0.0294105
120	0xbcb54cf3	-0.022131419
121	0x3d53795e	0.051629417
122	0xbd470b8d	-0.048595
123	0xbc0aadfa	-0.008464331
124	0xbca67719	-0.020320462
125	0x3d0ee2a4	0.03488411
126	0x3ce1dbb2	0.02757058
127	0xbd866870	-0.065628886
128	0xbc28e25e	-0.010307876
129	0xbd1314e8	-0.03590861
130	0x3b64549e	0.0034840475
131	0xbc7cddac	-0.01543371
132	0xbd12294c	-0.035683915
133	0x3d1d2629	0.03836647
134	0x3aff5e0d	0.0019482985
135	0xbcfaa168	-0.030594543
136	0xbd863bff	-0.06554412
137	0xbd0e9006	-0.03480532
138	0xbcc0dea2	-0.02354366
139	0x3d04384e	0.03228026
140	0x3d2f35ee	0.04277604
141	0x3c60d9b8	0.013723783
142	0x3c1feae1	0.009760589
143	0xbd548209	-0.051881824
144	0x3cc1f961	0.023678483
145	0x3c2e7ee0	0.010650367
146	0xbd4eab39	-0.05045626
147	0x3c74afe9	0.014934518
148	0xbc991bf2	-0.018690083
149	0x3ceb9ed3	0.028762257
150	0x3d44a0c8	0.048004895
151	0x3d325ad2	0.043543644
152	0xbd1d61af	-0.038423236
153	0x3c143e43	0.0090480475
154	0xbce7e3a9	-0.028306799
155	0xbd0988f1	-0.033577863
156	0xbcd61261	-0.02613181
157	0xbd840b62	-0.064474836
158	0x3d395821	0.045250062
159	0xbd78dd48	-0.060757905
160	0xbd4d88f6	-0.050179444
161	0xbb664c5b	-0.0035140726
162	0x3d7a9b85	0.06118347
163	0x3d3fc134	0.046815112
164	0x3d731f8a	0.05935625
165	0x3d7477f4	0.05968471
166	0x3c241ea3	0.01001707
167	0xbcacbb34	-0.02108536
168	0x3cbede95	0.023299495
169	0xbc6f3e0c	-0.0146021955
170	0x3b50ac13	0.0031840845
171	0x3cfcb917	0.030849976
172	0x3d22929c	0.0396906
173	0x3d4f120e	0.050554328
174	0xbbcad906	-0.006190422
175	0x3d732fc7	0.059371736
176	0xbcc3acd1	-0.023886116
177	0xbd190407	-0.037357356
178	0x3c46d9b9	0.01213687
179	0xbcd99b20	-0.026563227
180	0xbd4875ef	-0.048940595
181	0x3abeb15f	0.001454871
182	0xbd80cd20	-0.062891245
183	0x3c3140e1	0.010818691
184	0xbc52dfd6	-0.012870749
185	0xbd6235ec	-0.055227205
186	0xba1dccfb	-0.0006019619
187	0x3c1d38db	0.009596075
188	0xbd0254e8	-0.031819254
189	0x3b470adb	0.003037146
190	0xbcdadd6b	-0.026716908
191	0xbd7f391c	-0.062310323
192	0x3d062f10	0.032759726
193	0xbc629df8	-0.013831608
194	0xbd13a76a	-0.03604833
195	0xbd7f6fcc	-0.062362477
196	0x3c9cbc11	0.019132646
197	0xbd80b337	-0.062841825
198	0x3d3b04ff	0.04565906
199	0xbd67ffdf	-0.056640502
200	0x3d4d149f	0.050068494
201	0x3c4cf8b1	0.0125104645
202	0x3d331a25	0.043726105
203	0xbd0f26b2	-0.034949012
204	0x3c6eed3d	0.014582929
205	0xbd2e3b6a	-0.04253713
206	0xbceffc3f	-0.029295085
207	0x3d6ddf01	0.058074
208	0x3c443bf9	0.011977189
209	0x3cdabca3	0.026701277
210	0xbcd317f4	-0.025768258
211	0x3cc20256	0.023682754
212	0x3d8671c1	0.065646656
213	0x3d5cf4fc	0.053944573
214	0xbb27af29	-0.0025586581
215	0x3d6f98d6	0.058495365
216	0x3d71b92d	0.059014488
217	0x3d842102	0.06451608
218	0xbc35d654	-0.011098463
219	0xbd64e8d5	-0.05588611
220	0x3d86a8ea	0.065751866
221	0x3d5042ff	0.050845142
222	0x3d154aa2	0.03644813
223	0x3c550275	0.013001074
224	0xbd31dcc7	-0.04342344
225	0x3c2b72e6	0.010464406
226	0x3d7e3667	0.0620636
227	0x3d86ebbd	0.06587932
228	0xbd08c9df	-0.033395644
229	0xbcd345a7	-0.025790049
230	0x3d63da88	0.05562833
231	0xbcbb6569	-0.022875505
232	0xbd4395ee	-0.047750406
233	0xbbcf87ad	-0.0063333125
234	0x3d42f116	0.0475932
235	0xbd414c00	-0.04719162
236	0xbd6408bb	-0.05567239
237	0x3ce3f330	0.027825922
238	0x3d181499	0.03712902
239	0x3d45283c	0.048134074
240	0xbd0b5474	-0.034016088
241	0x3ce4c3c4	0.02792538
242	0x3d86bb70	0.065787196
243	0x3d27dfcf	0.040984925
244	0x3c9aea6f	0.018910615
245	0xbd303495	-0.043018896
246	0xbca2e38b	-0.019883892
247	0xbbe61124	-0.0070210863
248	0x3d676786	0.056495212
249	0xbd6685bc	-0.056279883
250	0x3d1a5096	0.03767451
251	0xbcf4e166	-0.029892635
252	0xbd7f2315	-0.062289316
253	0xbc65be25	-0.014022385
254	0xbd3416fe	-0.04396724
255	0x3c170ae1	0.009218902

fc.0.bias f4 [10]
0	0x3d93cbc8	0.072166026
1	0xbd805467	-0.062660985
2	0xbc9cff07	-0.019164575
3	0xbd638f70	-0.055556715
4	0x3d55f5b3	0.05223627
5	0xbb3c8d16	-0.0028770617
6	0xbc3d91ed	-0.011570436
7	0x3d294c4b	0.041332524
8	0xbd61cff3	-0.055129956
9	0xbd935168	-0.071932614

fc.2.weight f4 [2, 10]
0	0xbea3032b	-0.31838354
1	0xbdbe1b10	-0.092825055
2	0x3d73f56a	0.059560217
3	0xbdcb458c	-0.099253744
4	0xbe80ac59	-0.2513149
5	0x3db56b7d	0.088583924
6	0xbc4a0c27	-0.012331999
7	0x3d978a41	0.07399417
8	0x3e8a4ed9	0.2701328
9	0x3e326e1b	0.17424814
10	0x3e6844f1	0.22682549
11	0xbe407d99	-0.18797912
12	0xbe07b456	-0.13252386
13	0xbe691f7f	-0.22765921
14	0x3e08f7aa	0.13375726
15	0xbddfedd1	-0.10934032
16	0xbcc99eb7	-0.024611814
17	0xbdf20045	-0.11816458
18	0xbe1c281e	-0.15249678
19	0xbe8f9df3	-0.28050193

fc.2.bias f4 [2]
0	0xbe134155	-0.14380391
1	0xbdfefa20	-0.12450051
