Algorithms/shawn/accuracy/exp/fc_3.batch.pth (torch_old, 211606 bytes, 6 tensors)

fc.0.weight f4 [160, 226]
0	0x3d66e9e2	0.05637539
1	0x3d1cde18	0.038297743
2	0x3d51003a	0.051025607
3	0xbb8e2063	-0.004337357
4	0xbc006b81	-0.007838131
5	0xbcbf1cf5	-0.023329237
6	0x3b79d6b4	0.0038122358
7	0xbc590940	-0.013246834
8	0xbdc3b261	-0.095555075
9	0x3c5f848c	0.0136424415
10	0xbcd27bf9	-0.02569388
11	0xbb061e9b	-0.002046502
12	0x3c991014	0.018684424
13	0x3cf12119	0.029434728
14	0x3bf1bfdf	0.007377609
15	0xbca5bcf0	-0.020231694
16	0x3d23d297	0.039995756
17	0xbd137429	-0.03599945
18	0x3d2bf666	0.04198303
19	0x3d569a6a	0.052393354
20	0x3c57f0b5	0.013179948
21	0x3c87989b	0.01655226
22	0xbd0747d4	-0.033027485
23	0x3cd50e58	0.026007816
24	0xbcba539b	-0.022744944
25	0x3c87eab2	0.016591404
26	0x3cb23a78	0.021756396
27	0xbd5358f4	-0.051598504
28	0x3cd62d5b	0.026144674
29	0x3bac3d7b	0.0052563525
30	0xbd1c74da	-0.038197376
31	0xbd4b5862	-0.049644835
32	0xbba39cb8	-0.0049930476
33	0x3d4080c3	0.046997797
34	0x3b4a7065	0.0030889746
35	0x3ceafa57	0.028683824
36	0xbd156718	-0.03647527
37	0x3d2d8048	0.042358667
38	0x3d2ea12d	0.042634178
39	0x3da79426	0.08182554
40	0x3cb99d42	0.022657994
41	0x3d4af578	0.049550503
42	0xbca31ebb	-0.019912114
43	0x3ce995fb	0.0285139
44	0x3c68e00b	0.014213572
45	0x3d04c653	0.0324157
46	0x3d3f92a4	0.046770707
47	0xbd37ec66	-0.04490318
48	0x3cea2f38	0.028586969
49	0x3da5cc08	0.080955565
50	0x3c2a6d9b	0.010402109
51	0x3bf3985f	0.0074339355
52	0xbdcb8785	-0.09937958
53	0x3d4929b4	0.049112037
54	0xbae7af06	-0.0017676062
55	0xbdb81458	-0.08988255
56	0x3abb7c03	0.0014303926
57	0x3d5543d5	0.052066643
58	0xbcde1af6	-0.027112465
59	0xbcda8b0b	-0.026677629
60	0x3cd58f0f	0.026069192
61	0xbdc34606	-0.0953484
62	0xbdd75c8e	-0.105157
63	0x3d00dbeb	0.03145973
64	0x3d2f9e3e	0.04287552
65	0x3ba12e53	0.0049188524
66	0xbd95ff36	-0.07324068
67	0x3d873e2b	0.066036545
68	0x3c0645e9	0.008195379
69	0x3d2fb81c	0.04290019
70	0xbc03006c	-0.007995706
71	0x3d358689	0.044317756
72	0xbd462ba3	-0.04838146
73	0xbd91f6ab	-0.07127126
74	0xbd1c259c	-0.038121805
75	0x3c58a466	0.013222789
76	0xbd3d935c	-0.04628311
77	0x3ca33aa3	0.019925421
78	0x3c13a985	0.009012585
79	0xbdafe975	-0.0858945
80	0x3bb14393	0.005409667
81	0x3d501c1d	0.05080806
82	0x3caa270b	0.02077057
83	0x3cc562aa	0.024094898
84	0x3d3609d4	0.044442967
85	0x3d423920	0.04741776
86	0x3ad6a0a8	0.0016374784
87	0xbdaa9d3f	-0.083307736
88	0xbd6810be	-0.05665659
89	0xbcdc681c	-0.026905112
90	0xbd4cac9f	-0.04996931
91	0x3d39e88a	0.045387782
92	0x3bec264b	0.0072067133
93	0xbc95088e	-0.018192556
94	0x3d7a0bce	0.061046414
95	0xbd17ee4d	-0.037092496
96	0xbcddc398	-0.027070805
97	0x3c8a72d0	0.01690045
98	0x3ccf6a91	0.02531937
99	0xbd086393	-0.033298086
100	0xbc7cf831	-0.015440033
101	0x3d2c34ea	0.04204265
102	0xbd0383ad	-0.032107998
103	0xbdaf054b	-0.085459314
104	0xbd41e0f6	-0.04733368
105	0x3d7d96b8	0.061911315
106	0xbc1760d0	-0.0092393905
107	0x3be9e320	0.007137671
108	0x3d64bdd5	0.0558451
109	0xbc4ec58a	-0.012620339
110	0x3baf0a0d	0.0053417743
111	0xbcc49513	-0.023996865
112	0xbcbb135f	-0.022836385
113	0x3d81e8fa	0.06343265
114	0xbc2a5632	-0.010396527
115	0x3d8dab00	0.06917381
116	0x3c655932	0.013998317
117	0x3c848383	0.01617599
118	0xbc721fe1	-0.014778108
119	0x3ca729aa	0.02040561
120	0x3ced31fc	0.028954498
121	0xbce58b5b	-0.028020551
122	0xbd816c01	-0.06319428
123	0xbd3cc23e	-0.04608368
124	0x3c969801	0.018383028
125	0xbd92ef40	-0.071745396
126	0x3d80f875	0.062973894
127	0x3cabb8af	0.020962087
128	0xbbb63a05	-0.0055611157
129	0x3c111ca8	0.00885693
130	0x3d0f870c	0.0350409
131	0xbdab7c7d	-0.08373354
132	0x3ca5a9cb	0.020222565
133	0x3cc6a536	0.0242487
134	0xbcfaff73	-0.030639386
135	0xbcf16ebb	-0.029471746
136	0x3c9c3a28	0.0190707
137	0xbc7e5b29	-0.015524664
138	0xbca29c9d	-0.01985007
139	0x3d8fde32	0.07024802
140	0xbc9848e7	-0.01858945
141	0x3d2bf7d7	0.041984405
142	0x3c4c1805	0.012456899
143	0xbc4845fb	-0.012223716
144	0x3d6bacbf	0.05753779
145	0x3ca8deb5	0.020614007
146	0x3cbdd6a2	0.023173634
147	0x3d26e76b	0.04074804
148	0xbd844a89	-0.06459529
149	0xbd05f493	-0.032703947
150	0x3d40ec0f	0.047100123
151	0x3d485a03	0.048913967
152	0x3d470e46	0.048597597
153	0xbd3ea8a9	-0.046547566
154	0x3bc33de5	0.005958306
155	0x3b41063f	0.0029453186
156	0x3ceac6ed	0.028659308
157	0x3cf8e85c	0.030384235
158	0xbd5e63f2	-0.054294534
159	0x3d00a02b	0.031402748
160	0xbd653cc5	-0.055966157
161	0xbd79802a	-0.060913242
162	0xbc64c9c3	-0.013964119
163	0x3c807420	0.015680373
164	0x3c013098	0.007885121
165	0xbc70f762	-0.014707418
166	0xbc235510	-0.009969011
167	0x3d2fa76e	0.042884283
168	0x3d46486e	0.048408918
169	0xbc37938e	-0.011204613
170	0x39a52961	0.00031502082
171	0xbc85b847	-0.016323222
172	0xbd238e89	-0.039930854
173	0xbcbb1b50	-0.022840172
174	0xbd9f78a6	-0.07786684
175	0x3d61c360	0.055117965
176	0x3d19eb6b	0.037578028
177	0x3c438aa3	0.011934909
178	0xbbe4e7a4	-0.0069856215
179	0xbd55c43c	-0.052189097
180	0x3d1d0b5f	0.038340922
181	0x3d778006	0.060424827
182	0xbb5d1f32	-0.0033740518
183	0x3c0473f1	0.008084283
184	0xbca690b4	-0.020332672
185	0xbcdbe0d4	-0.026840605
186	0x3cecca27	0.028904987
187	0x3d90d73e	0.07072304
188	0x3d3b3ad1	0.04571039
189	0x3cf20658	0.02954404
190	0xbc26f17e	-0.010189412
191	0xbd3d7b09	-0.046259914
192	0xbc42cde3	-0.0118899075
193	0x3d324749	0.043525014
194	0x3c2775e5	0.010220979
195	0xbd2e4ae6	-0.042551897
196	0x3c54bec5	0.012984936
197	0xbc61c0bc	-0.013778862
198	0xbd8bbe85	-0.06823448
199	0x3ca5b137	0.020226104
200	0xbca149a8	-0.019688442
201	0xbd062855	-0.032753307
202	0x3bde4c39	0.006783989
203	0xbd20ac42	-0.039226778
204	0x3c994175	0.01870797
205	0xbd73ad60	-0.059491515
206	0x3d290129	0.041260872
207	0xbd12293a	-0.035683848
208	0xbd49a2e5	-0.049227614
209	0x3d112723	0.035437714
210	0x3d106712	0.035254546
211	0xbc98d161	-0.018654527
212	0x3c7c8374	0.0154122
213	0xbd27832f	-0.04089659
214	0xbc927dc3	-0.017882233
215	0xbc8224f2	-0.015886758
216	0xbd3457ab	-0.04402892
217	0x3d6d11b2	0.057878204
218	0x3ca8a551	0.020586642
219	0xbc2ccd2f	-0.010546966
220	0x3ca4c68c	0.020114206
221	0xbcde6464	-0.02714748
222	0x3cccef8f	0.025016574
223	0xbd969ea4	-0.07354477
224	0xbd80aa93	-0.062825345
225	0x3c7eda03	0.015554908
226	0x3d21fd53	0.03954823
227	0x394a7d51	0.00019310905
228	0x3cbd30c5	0.023094544
229	0x3d886092	0.06659044
230	0x3cd59577	0.026072247
231	0xbc2ece21	-0.010669262
232	0x3c2aedca	0.01043267
233	0x3d95718a	0.072970465
234	0xbd398e80	-0.045301914
235	0xbd1c63ab	-0.03818099
236	0x3d6622d6	0.056185566
237	0xbd3b783d	-0.045768965
238	0x3c5c6cd2	0.013453679
239	0xbcfb2f58	-0.030662224
240	0xbd46dbd0	-0.048549473
241	0xbcfe8227	-0.03106792
242	0x3d2fc576	0.042912923
243	0xbd8f7947	-0.07005554
244	0xbd522415	-0.05130394
245	0x3d522418	0.051303953
246	0x3c7ccce8	0.015429713
247	0xbd6e2868	-0.058144003
248	0xbccb2702	-0.024798874
249	0x3d5994ea	0.05312053
250	0x3cd456f6	0.025920372
251	0x3c3ac5f4	0.011399735
252	0xbd3afc70	-0.0456509
253	0x3d3ec532	0.04657478
254	0xbb7d99de	-0.0038696448
255	0xbc6f9d49	-0.014624902

fc.0.bias f4 [160]
0	0xbc34d22d	-0.011036438
1	0x3d0ba83e	0.034095995
2	0x3d01ae3a	0.031660296
3	0x3db077fb	0.086166345
4	0x3c9b2412	0.018938098
5	0x3d056f6e	0.03257697
6	0xbb3eaf0f	-0.0029096042
7	0x3dd72a98	0.10506171
8	0xbd4f61df	-0.050630447
9	0xbcb62ffe	-0.022239681
10	0xbba5d6e0	-0.0050610155
11	0xbd22bdd9	-0.039731834
12	0xbc2adf2e	-0.010429187
13	0xbcf6dabf	-0.030133603
14	0x3a4b2c50	0.00077504385
15	0x3d020d12	0.031750746
16	0xbc2a1ee8	-0.010383345
17	0xbc964255	-0.018342176
18	0xbd4346c5	-0.047674913
19	0xbce0a766	-0.027423572
20	0x3bd458e4	0.006480323
21	0xbd5c538a	-0.053790607
22	0xbd840017	-0.0644533
23	0xbd14010d	-0.036133815
24	0x3c46eacb	0.01214094
25	0x3b23db78	0.002500264
26	0xbd69c530	-0.05707282
27	0x3c6af2e3	0.014340135
28	0xbcc1e0c6	-0.02366675
29	0x3d1f16e9	0.03884021
30	0x3bdae172	0.006679707
31	0x3d185f2b	0.037200134
32	0xbca9cf4b	-0.020728728
33	0xbcd75f28	-0.026290491
34	0x3d0bdf6f	0.03414863
35	0xbca1dbc2	-0.019758109
36	0xbcf2013c	-0.029541604
37	0xbd85c982	-0.06532575
38	0x3cb96247	0.02262987
39	0x3ca5aa63	0.020222848
40	0xbd389e9e	-0.045073144
41	0xba623574	-0.0008629181
42	0xbd1e69d4	-0.038675144
43	0x3d882980	0.066485405
44	0xbd893703	-0.06699946
45	0x3b8a8efc	0.004228471
46	0x3e10f2d7	0.14155136
47	0xbd31306f	-0.04325908
48	0xbada5699	-0.0016657888
49	0xbc60a36f	-0.013710841
50	0xbca152cd	-0.019692803
51	0x3d16fc42	0.036861666
52	0xbd673b5d	-0.056453098
53	0xbd613656	-0.05498346
54	0x3d2902bf	0.041262385
55	0x3cd74565	0.026278207
56	0x3d7e53d3	0.06209166
57	0xbc96b464	-0.018396564
58	0x3d84deba	0.06487794
59	0x3d3909b4	0.04517527
60	0xbd3c41a7	-0.04596105
61	0xbd5a2f90	-0.053268015
62	0x3daebbdd	0.08531926
63	0x3d500cb6	0.050793372
64	0x3d7f13bf	0.06227469
65	0x3c5d5cf3	0.01351093
66	0xbae46ccd	-0.0017427445
67	0x3beda645	0.007252487
68	0x3d548101	0.05188084
69	0xbc922d66	-0.017843913
70	0x3c8bb7dc	0.017055444
71	0xbccdd648	-0.025126591
72	0x3dc48518	0.09595698
73	0xbd513645	-0.051077146
74	0x399bcced	0.00029716585
75	0x3b565324	0.0032703364
76	0xbd2d1eb1	-0.042265598
77	0xbd8964c9	-0.06708676
78	0xbcbc4489	-0.022981899
79	0xbcda8043	-0.026672488
80	0x3cbb59fe	0.02287006
81	0x3d1b84cc	0.03796844
82	0xbd1863c4	-0.03720452
83	0xbc9828e1	-0.01857418
84	0x3d28498f	0.041085776
85	0xbc387e56	-0.01126059
86	0x3d190952	0.037362404
87	0x3d151e55	0.03640588
88	0x3bdc8aa6	0.0067303954
89	0x3d1418bd	0.036156405
90	0x3d060b4f	0.03272563
91	0xbd841265	-0.06448821
92	0x3c4a0b8c	0.012331855
93	0xbd7bc982	-0.06147147
94	0xbd3950a5	-0.045242924
95	0xbc2054c4	-0.009785835
96	0x3d2ce532	0.042210765
97	0xbcb746e4	-0.02237267
98	0xbc5ed267	-0.0135999685
99	0x3d9db876	0.07701199
100	0xbd802827	-0.062576585
101	0xbce27354	-0.027642883
102	0xbd23e0e5	-0.040009398
103	0xbd15a04c	-0.036529824
104	0x3d7a8017	0.061157312
105	0x3ca46967	0.020069791
106	0xbbf315f7	-0.00741839
107	0xbd5e76f9	-0.05431268
108	0x3d31fe59	0.043455455
109	0xbc6415e3	-0.013921234
110	0xbbcb5ff0	-0.006206505
111	0x3c78bcca	0.01518173
112	0xbd6bcf91	-0.057570998
113	0xbcbaaf46	-0.022788655
114	0xbd8558d7	-0.065110855
115	0xbd302acf	-0.043009575
116	0xbc5dad28	-0.013530053
117	0xbbef70f4	-0.0073071662
118	0x3db5a524	0.08869389
119	0x3d156ef7	0.036482777
120	0xbcca5723	-0.024699753
121	0x3c1f5a3b	0.009726102
122	0xbb8be6b3	-0.004269445
123	0x3b71cc92	0.0036895615
124	0xbcf1525e	-0.029458221
125	0x3cae4b28	0.021276072
126	0x3ba9c2ec	0.005180707
127	0x3d91bd92	0.07116236
128	0x3cbdf076	0.02318595
129	0x3c3d032e	0.011536403
130	0x3d314ec5	0.04328801
131	0x3dcc6b12	0.099813595
132	0x3bea2f9c	0.0071467888
133	0xbdce226c	-0.10065159
134	0x3ca30395	0.019899169
135	0xbd4bed66	-0.049786948
136	0x3c89d1c0	0.01682365
137	0x3c220015	0.009887715
138	0x3d2a4a15	0.041574556
139	0x3d69e49c	0.057102785
140	0xbd02356d	-0.031789232
141	0xbc218869	-0.009859183
142	0x3cc346ec	0.02383753
143	0x3da0ffab	0.07861265
144	0x3c758be0	0.014986962
145	0x3ba67494	0.005079815
146	0x3c334e2a	0.010943929
147	0xbd39b649	-0.045339856
148	0x3daa52cd	0.08316574
149	0xbca2c435	-0.01986895
150	0xbd5ab6a6	-0.053396843
151	0x3c9b3c79	0.018949734
152	0xbced9594	-0.029001988
153	0xbd37250c	-0.044713065
154	0x3bc35480	0.005961001
155	0xbd251587	-0.040303733
156	0x3ba2acb3	0.004964435
157	0xbc054fb4	-0.0081366785
158	0x3d4366c7	0.047705438
159	0x3c89d077	0.016823037

fc.2.weight f4 [100, 160]
0	0xbd05b5ef	-0.03264421
1	0x3af07582	0.0018345567
2	0x3d8bafaf	0.06820618
3	0x3caca4a4	0.0210746
4	0x3d9e4742	0.07728435
5	0xbd1a74d5	-0.037709076
6	0x3d3bba22	0.045831807
7	0x3cd34761	0.025790872
8	0xbd23716e	-0.039903097
9	0xbcce827d	-0.025208706
10	0x3db4c249	0.088261195
11	0xbda5d380	-0.08096981
12	0xbca04f61	-0.0195691
13	0xbc757399	-0.014981174
14	0x3d57951d	0.05263244
15	0x3d9b1556	0.07572429
16	0x3c8160d4	0.015793242
17	0xbdb51a8c	-0.08842954
18	0xbd54275b	-0.051795345
19	0xbd20cb7a	-0.03925655
20	0xbd54e183	-0.051972877
21	0x3cf6a09d	0.030105883
22	0xbd46d9bc	-0.04854749
23	0x3d5932eb	0.053027075
24	0x3d3198b0	0.043358505
25	0xbd9a7b9a	-0.075431064
26	0xbdc46874	-0.09590235
27	0x39341d3f	0.00017177033
28	0x3d1211ac	0.035661384
29	0xbd50c42a	-0.050968327
30	0x3b711379	0.0036785288
31	0x3d05137f	0.032489296
32	0x3d3853f1	0.045001928
33	0xbd094617	-0.03351411
34	0x3c9d64d5	0.01921312
35	0xbd4b3c4a	-0.049618043
36	0x3de14c29	0.110008545
37	0xbd9d69b0	-0.07686174
38	0xb983f0b4	-0.00025165605
39	0x3d9a4c6f	0.0753411
40	0x3cf559d3	0.029950058
41	0xbab24995	-0.0013602251
42	0xbd544e5f	-0.051832553
43	0xbc1d781e	-0.009611158
44	0xbd8efa39	-0.0698132
45	0x3b828ea9	0.0039842916
46	0xbbddeb3e	-0.006772428
47	0x3d4e4bf4	0.050365403
48	0x3bbe79af	0.0058128457
49	0x3ce5c753	0.028049147
50	0x3db5d5c2	0.08878662
51	0x3d941179	0.07229895
52	0x3d5d4114	0.05401714
53	0x3bcb4a00	0.00620389
54	0x3d57b044	0.052658334
55	0xbc673979	-0.014112824
56	0xbd78bc03	-0.060726177
57	0xbc2d68c9	-0.010584065
58	0x3c2cb286	0.01054061
59	0xbd867f7e	-0.06567286
60	0xbcde3ca4	-0.027128525
61	0x3d1bbe59	0.038023327
62	0x3d38ab8d	0.04508548
63	0x3d8a0f13	0.067411564
64	0x3d195b8d	0.037440825
65	0xb9d2fcca	-0.00040242664
66	0xbc9c6f0a	-0.019095916
67	0xbd8953e8	-0.06705457
68	0xbd699eec	-0.057036325
69	0xbd742080	-0.059601307
70	0x3d433e8f	0.047667082
71	0x3d828841	0.063736446
72	0x3d15a04c	0.036529824
73	0x3cbd438f	0.023103504
74	0x3d4a07c4	0.049323812
75	0x3d44e5a8	0.04807058
76	0xbd8ce317	-0.068792515
77	0xbc272179	-0.010200852
78	0x3b105810	0.0022025146
79	0x3cfa5754	0.03055922
80	0xbca402fe	-0.020020958
81	0xbb1bd8c2	-0.002378032
82	0x3d22a0a8	0.039703995
83	0x3d28aac8	0.041178495
84	0xba764a42	-0.00093952205
85	0x3d9cf52f	0.076639526
86	0x3cd9187a	0.02650093
87	0xbd5ffcb1	-0.054684345
88	0x3d2fac9e	0.04288923
89	0xbc850605	-0.016238222
90	0xbc8b08c2	-0.01697195
91	0xbd538c18	-0.051647276
92	0xbc50f352	-0.012753325
93	0x3c0bc038	0.008529715
94	0xbd3b2eb8	-0.04569885
95	0x3cd2893c	0.025700204
96	0x3a98530f	0.0011621433
97	0x3dcadf4f	0.09905874
98	0x3d476319	0.04867849
99	0x3d536d04	0.051617637
100	0x3c1ffb9e	0.00976458
101	0x3d8ce5b9	0.068797536
102	0x3d121af2	0.03567023
103	0x3d03b5d2	0.03215582
104	0x3d49d4f5	0.049275357
105	0xbb984d72	-0.004647904
106	0x3b11aba9	0.0022227562
107	0xbce8567d	-0.028361553
108	0x3d076987	0.033059623
109	0x3d98da43	0.07463505
110	0x3cd625dd	0.026141101
111	0x3da5eadd	0.08101437
112	0x3d7bad6f	0.061444696
113	0xbc1203a8	-0.0089120045
114	0x3d86e61a	0.06586857
115	0xbd20c2e1	-0.03924835
116	0x39ff000e	0.0004863743
117	0xbdab959a	-0.083781436
118	0xbd9559bc	-0.07292506
119	0x3c034c2c	0.008013766
120	0x3d85a5d0	0.06525767
121	0xbd11d49c	-0.03560315
122	0xbd4d37dd	-0.050102104
123	0x3d353bc3	0.044246446
124	0xbd9c2514	-0.076242596
125	0xbd037c9f	-0.03210127
126	0xbdba71a1	-0.09103704
127	0x3d3f03a6	0.04663434
128	0x3c3da150	0.011574104
129	0xbd256eb8	-0.040388793
130	0x3d725ed4	0.059172466
131	0x3d296b7e	0.04136228
132	0xbd17d550	-0.037068665
133	0x3d1e85fb	0.038701992
134	0xbcefa74b	-0.029254576
135	0x3d5f348d	0.054493476
136	0x3bf5b909	0.0074988646
137	0x3cba06b5	0.022708276
138	0xbcb2cd90	-0.021826535
139	0xbd6b23bc	-0.057407126
140	0xbd591eb3	-0.053007793
141	0xb9e1020a	-0.00042916863
142	0x3d2f8f60	0.042861342
143	0x3ce87fcf	0.028381256
144	0xbc116afa	-0.008875603
145	0xbd0bacec	-0.034100458
146	0x3d56e8b2	0.05246801
147	0xbd1b1714	-0.037863806
148	0x3c3c0b40	0.011477292
149	0xbd08e72d	-0.03342359
150	0x3d75408c	0.05987601
151	0x3dc819e2	0.09770562
152	0x3d98d69b	0.07462808
153	0x3d0fd082	0.035110958
154	0xbb95b6a7	-0.004568893
155	0xbdd45320	-0.10367417
156	0xbd5985b7	-0.053106036
157	0xbd9cb765	-0.07652167
158	0x3d76e79a	0.060279466
159	0x3d1adf89	0.037810836
160	0xbd13286e	-0.03592723
161	0x3d8bcd69	0.06826288
162	0x3b825a77	0.0039780694
163	0xbd4d58dc	-0.05013357
164	0xbd16502e	-0.03669756
165	0x3d91f328	0.071264565
166	0x3ba44860	0.0050135106
167	0x3d745b58	0.059657425
168	0xbccafe8d	-0.024779582
169	0x3d4a45d3	0.049382996
170	0x3d01fadb	0.031733375
171	0xbca66b9f	-0.02031499
172	0xbd3d5c25	-0.046230454
173	0xbd6077b1	-0.054801647
174	0xbcc4705b	-0.023979357
175	0xbceb7ace	-0.028745081
176	0x3d89e35e	0.0673282
177	0xbd957201	-0.07297135
178	0xbd6c365b	-0.057669025
179	0xbc024884	-0.007951859
180	0x3d45c27c	0.048281178
181	0xbd6594b5	-0.05605002
182	0x3d131211	0.0359059
183	0x3c2cfa27	0.010557688
184	0xbd9e47be	-0.077285275
185	0xbd9f5b46	-0.07781081
186	0x3c3f1389	0.011662372
187	0x3c86859d	0.016421134
188	0xbd2b5f19	-0.04183874
189	0x38002df9	3.0560393e-05
190	0xbd9e0b9c	-0.07717058
191	0x3d68bde4	0.05682172
192	0xbc0002f0	-0.0078132
193	0x3c110d67	0.008853293
194	0xbd407bd3	-0.046993088
195	0xbd204f5a	-0.039138176
196	0x3d033c16	0.032039724
197	0x3b591d17	0.003312891
198	0x3b9dfc19	0.004821312
199	0xbd108eed	-0.035292555
200	0xbab5369b	-0.0013825478
201	0x3d9793b9	0.07401223
202	0xbd77aa5c	-0.0604652
203	0xbd6aeea9	-0.05735651
204	0xbd81e662	-0.0634277
205	0x3cb14d49	0.021643298
206	0xbd8354f9	-0.064126916
207	0x3d749d4d	0.059720326
208	0x3c8d0464	0.017214008
209	0xbd80bcb8	-0.06285995
210	0xbbef5d80	-0.0073048472
211	0xbc4a9372	-0.012364255
212	0x3d949d8d	0.07256613
213	0xbd9cefeb	-0.07662948
214	0x3da0d3eb	0.0785292
215	0xbd89a312	-0.06720556
216	0xbd5a434a	-0.053286828
217	0xbd80a0ac	-0.06280646
218	0x3d30b6a9	0.04314295
219	0xbd74cbba	-0.0597646
220	0x3d4605cd	0.048345376
221	0xbd21c0bd	-0.03949045
222	0xbd3c894d	-0.046029378
223	0x3d0a2307	0.03372481
224	0x3d36b55a	0.044606544
225	0xbd61be31	-0.05511302
226	0xbd94c81a	-0.07264729
227	0xbd9c4ff7	-0.076324396
228	0x3ca455b2	0.020060394
229	0x3b87d161	0.004144833
230	0x3d0d6cd4	0.034527615
231	0xbcf69d32	-0.030104253
232	0x3cc69a38	0.02424346
233	0x3d301768	0.042991072
234	0xbd729f29	-0.05923382
235	0xbb61d163	-0.003445708
236	0xbccd4197	-0.02505569
237	0x3d96a94a	0.07356508
238	0xbb1f6ce7	-0.0024326385
239	0xbd267f3c	-0.040648684
240	0x3d9a3771	0.07530106
241	0xbd0fc553	-0.035100292
242	0xbcdd554d	-0.027018214
243	0xbd5dd8e2	-0.054161914
244	0xbd065f42	-0.03280569
245	0x3bd03247	0.00635365
246	0x3d8d86aa	0.06910451
247	0x3bd4df83	0.0064963712
248	0x3d28d48c	0.041218325
249	0xbd8ae412	-0.06781782
250	0x3d5436eb	0.051810186
251	0x3cbc59e5	0.022992084
252	0xbd92ac05	-0.07161716
253	0xbd2f4a65	-0.042795558
254	0xbcc2787a	-0.023739088
255	0x3d98bdfc	0.07458112

fc.2.bias f4 [100]
0	0x3cc5f18c	0.02416303
1	0xbd7ce63a	-0.061743
2	0xbd4e238d	-0.050326873
3	0xbcd80450	-0.026369244
4	0xbd8df97c	-0.06932351
5	0xbd37776e	-0.04479163
6	0x3db03d26	0.08605413
7	0xbd3f6fe0	-0.04673755
8	0x3d83f2f3	0.06442823
9	0x3b3203a6	0.002716282
10	0xbd77e4cc	-0.060520932
11	0x3dc3200a	0.09527595
12	0x3d891d09	0.06694991
13	0x3e2d84e7	0.1694523
14	0x3d063ce5	0.032772917
15	0x3cf17799	0.029475974
16	0x3bcdcf96	0.0062808497
17	0x3d4d5a1f	0.050134774
18	0x3d31d244	0.043413416
19	0x3dafd2cc	0.08585128
20	0x3d58f3c9	0.052966867
21	0x3d603a76	0.054743253
22	0xbd97a68f	-0.074048154
23	0x3d5d6f47	0.0540612
24	0x3d500925	0.05078997
25	0x3cf7bc7b	0.030241242
26	0x3d9ccf37	0.076567106
27	0x3d598558	0.053105682
28	0x3d76666d	0.060156275
29	0x3c29286c	0.010324579
30	0xbd618b2f	-0.055064376
31	0xbd8b5f7d	-0.06805322
32	0x3e1b03c2	0.15138152
33	0x3cbb509f	0.022865592
34	0x3da14289	0.07874019
35	0xbd1909a0	-0.037362695
36	0x3d6831bc	0.056688055
37	0x3d8820dd	0.06646893
38	0xbd6c5d72	-0.057706304
39	0x3d0ac5b1	0.03387994
40	0x3d2416e3	0.04006089
41	0xbb768854	-0.003761788
42	0xbd0d516d	-0.03450148
43	0x3ab4c1ee	0.0013790706
44	0x3d80419e	0.062625155
45	0xbd3f4b70	-0.046702802
46	0xbced92d6	-0.02900068
47	0x3ba86ea2	0.0051401416
48	0x3cf336c5	0.029689202
49	0x3e07ca67	0.13260804
50	0x3d78ec58	0.06077227
51	0xbc0c28d3	-0.008554655
52	0x3d51dc0c	0.051235244
53	0xbd099f0d	-0.03359895
54	0x3d94750f	0.0724889
55	0x3d3d6be3	0.046245467
56	0x3d250481	0.0402875
57	0x3bb57f37	0.005538847
58	0x3d88a532	0.066721335
59	0x3d659c87	0.05605748
60	0xbd97c255	-0.07410113
61	0x3cee5277	0.029092057
62	0x3d49bd64	0.049252883
63	0x3dcea5f3	0.10090246
64	0xbd991182	-0.074740425
65	0x3d4b1b1e	0.049586408
66	0x3d798db3	0.06092615
67	0x3d26e48c	0.040745303
68	0x3cf548a9	0.029941874
69	0xbd945be4	-0.07244089
70	0x3dbf2831	0.09333838
71	0x3e2f3c5d	0.1711287
72	0xbae50b86	-0.0017474748
73	0x3be6c693	0.007042715
74	0xbb592976	-0.0033136285
75	0x3dc5187c	0.09623811
76	0x3cee5963	0.029095357
77	0x3d21010d	0.039307643
78	0xbd91dbcd	-0.07122002
79	0xbd7f77af	-0.06237
80	0x3cb6865e	0.022280868
81	0x3e2533aa	0.1613299
82	0x3d8b9883	0.06816199
83	0x3ca0b328	0.019616678
84	0xbd58f48f	-0.052967604
85	0xbcb6246c	-0.022234164
86	0xbc6156b0	-0.013753578
87	0x3d88b7d7	0.0667569
88	0xbc97465d	-0.018466169
89	0x3d59f0a8	0.053208023
90	0x3da1b56d	0.07895932
91	0x3d5f6a4a	0.054544725
92	0x3d18ce13	0.037305903
93	0xbd2427c3	-0.040076982
94	0x3de168cb	0.11006316
95	0xbd984f8c	-0.07437047
96	0xbd8e714b	-0.06955203
97	0x3c5f056d	0.013612133
98	0x3c55848d	0.013032091
99	0xb9d0955e	-0.0003978414

fc.4.weight f4 [2, 100]
0	0x3e2ad7ea	0.16683927
1	0x3d9e4198	0.07727355
2	0xbc3ad3b0	-0.011403009
3	0xbc3c1e55	-0.011481841
4	0xbbb6ca57	-0.00557832
5	0x3d1a7887	0.0377126
6	0xbee7e975	-0.452953
7	0x3cab0b75	0.020879487
8	0x3ea853ce	0.32876438
9	0x3d8c0cfe	0.068384156
10	0xbcbb4bff	-0.022863386
11	0x3e6c0c02	0.23051456
12	0xbe666cef	-0.22502492
13	0x3efde422	0.49588114
14	0x3e0c9aa0	0.1373086
15	0x3d356379	0.044284318
16	0x3dfa0da2	0.122096315
17	0xbe3a44fa	-0.18190375
18	0xbea9f3cf	-0.33193824
19	0xbf22afb4	-0.6354935
20	0xbc862285	-0.016373882
21	0xbd4bcb57	-0.049754467
22	0x3b876386	0.004131737
23	0x3c14398b	0.009046922
24	0x3e15a7df	0.14614819
25	0xbd88bdf0	-0.06676853
26	0x3d5f05a3	0.054448735
27	0xbdcbe573	-0.09955873
28	0xbe00765b	-0.12545149
29	0xbc0ff899	-0.008787298
30	0x3917b3e8	0.00014467502
31	0x3ccdcfe9	0.025123553
32	0x3ed419ed	0.4142603
33	0x3dab819b	0.0837433
34	0xbdcf9b34	-0.101370245
35	0x3ccc0898	0.024906442
36	0xbe36341c	-0.17793316
37	0xbd29347c	-0.04130982
38	0x3cd5d2c0	0.02610147
39	0x3d494272	0.049135633
40	0xbcec897d	-0.028874153
41	0xbc300bd1	-0.010745005
42	0x3d03b99c	0.032159433
43	0xbdb084f8	-0.08619112
44	0x3aca8cff	0.0015453397
45	0x3cec028f	0.028809814
46	0xbdb22f7a	-0.08700462
47	0x3d675ceb	0.056485098
48	0xbe87e163	-0.26539144
49	0x3e946e41	0.28990367
50	0x3e0645c1	0.13112547
51	0xbdfc2eb4	-0.123135954
52	0xbe338e4b	-0.17534749
53	0xbddab4f0	-0.10679042
54	0xbe34171f	-0.17586945
55	0xbdbbd203	-0.09170916
56	0xbd971076	-0.073761865
57	0x3dce390e	0.10069476
58	0xbda24131	-0.079225905
59	0xbe88523c	-0.2662524
60	0x3cf34ee1	0.029700698
61	0x3e0b51d2	0.1360543
62	0xbe88722c	-0.26649606
63	0x3da4ab33	0.08040466
64	0xbd1efa6b	-0.038813036
65	0x3dcc2cb3	0.09969463
66	0x3ba5f51d	0.00506462
67	0xbf00f108	-0.50367785
68	0x3c15964d	0.009130073
69	0xbd45901c	-0.048233137
70	0x3df1d0a8	0.11807376
71	0x3efba55b	0.49149594
72	0x3ce0fa7b	0.027463188
73	0xbd3c9cd7	-0.04604801
74	0xbe604515	-0.21901353
75	0x3e5879aa	0.21140161
76	0xbe09063e	-0.13381287
77	0x3e1f8c69	0.15580906
78	0x3daef20b	0.0854226
79	0xbcc7d573	-0.024393773
80	0xbe2fbb27	-0.17161237
81	0x3f0b73e8	0.54473734
82	0xbdf7f059	-0.121063896
83	0x3db869a5	0.09004525
84	0x3cbe855c	0.02325695
85	0xbd50b0ba	-0.05094979
86	0x3e2ce9d5	0.16886075
87	0x3e2b85fa	0.16750327
88	0x3c92c1ab	0.017914614
89	0x3e618860	0.22024679
90	0xbf2c9725	-0.6741813
91	0x3e6f7299	0.2338356
92	0xbdf1d5b1	-0.118083365
93	0x3d82c640	0.063854694
94	0x3edc14d0	0.4298463
95	0x3d8c271f	0.06843399
96	0x3d9eb887	0.077500395
97	0xbda879ae	-0.082263336
98	0xbcc9fdb1	-0.024657102
99	0x3dc4a1c5	0.096011676
100	0xbe5d347d	-0.21602054
101	0xbd71391a	-0.058892347
102	0xba4baf50	-0.0007769959
103	0xbcafb2bc	-0.021447532
104	0x3da8548c	0.08219251
105	0xbcb7d152	-0.022438679
106	0x3ebdad9b	0.37046513
107	0x3d5351e0	0.051591754
108	0xbeb0bf6c	-0.34521043
109	0xbca61e74	-0.020278193
110	0xbd992464	-0.07477644
111	0xbea43272	-0.32069737
112	0x3e85b2ca	0.26112968
113	0xbee6d3eb	-0.45083556
114	0xbe337113	-0.17523603
115	0xbe378a93	-0.17923956
116	0xbde3f279	-0.11130232
117	0x3e5a882f	0.21341012
118	0x3e994835	0.29937902
119	0x3f1ffcb1	0.6249495
120	0x3d6c296d	0.057656694
121	0xbc45f1bb	-0.012081559
122	0x3d267165	0.040635485
123	0x3db236e7	0.08701878
124	0xbd43b77e	-0.047782414
125	0x3db3f1bb	0.08786341
126	0x3ded604d	0.115906335
127	0x3df191d7	0.11795395
128	0x3db6d8dc	0.089280814
129	0xbcdfbc1f	-0.027311383
130	0x3e192e62	0.149591
131	0x3d74dd6e	0.059781484
132	0xbedd401f	-0.43212983
133	0xbe14806e	-0.14502117
134	0x3e189a0d	0.14902516
135	0xbad75051	-0.0016427134
136	0x3e7958ea	0.24350324
137	0x3e09505c	0.13409561
138	0xbdcbda13	-0.09953704
139	0x3d5b7cb7	0.053585734
140	0x3da69a82	0.08134939
141	0xbd0e6067	-0.034759905
142	0xbdc53c06	-0.09630589
143	0xbcb659f0	-0.022259682
144	0xbdaa46eb	-0.08314308
145	0x3cfc1803	0.030773168
146	0xbd940aab	-0.07228597
147	0xbca30e65	-0.019904325
148	0x3e8fed06	0.28110522
149	0xbe90288c	-0.28155935
150	0xbe456ae0	-0.19279051
151	0xbcaf75cb	-0.021418473
152	0x3e30548c	0.17219752
153	0xbd3ed88f	-0.046593245
154	0x3e4ba578	0.1988734
155	0xbc55732b	-0.013027946
156	0x3e4acaad	0.19803877
157	0xbe58199c	-0.21103519
158	0xbd13dbc8	-0.03609827
159	0x3ea6b7ac	0.32562006
160	0xbdafe54b	-0.08588656
161	0xbd7f423d	-0.06231903
162	0x3e74846e	0.23878643
163	0xbe19c8c0	-0.15017986
164	0xbd8bb3f2	-0.06821431
165	0xbca91475	-0.020639637
166	0x3d79aee1	0.060957793
167	0x3f0384f7	0.51374763
168	0x3daf8305	0.08569912
169	0xbbbb6005	-0.0057182335
170	0xbe891ff8	-0.26782203
171	0xbefc9df5	-0.49339262
172	0xbd6794d5	-0.05653842
173	0x3d56b93b	0.052422743
174	0x3e3978f8	0.18112552
175	0xbe4b1a28	-0.19834197
176	0x3ccbac48	0.024862424
177	0xbb64162e	-0.003480326
178	0x3d5a7938	0.05333826
179	0xbd3febc4	-0.046855703
180	0x3e3d5a80	0.18491554
181	0xbf0a0df0	-0.53927517
182	0x3d871907	0.065965705
183	0xbdc43a2a	-0.095814064
184	0x3d43ccd2	0.047802754
185	0x3d993ba3	0.07482078
186	0xbe56abd2	-0.20963982
187	0xbd9ee6c6	-0.0775886
188	0xbc8f61af	-0.017502634
189	0xbe52ee72	-0.20598772
190	0x3f385a72	0.7201301
191	0xbebb1de5	-0.36546245
192	0x3e5fd18a	0.21857277
193	0x3dbafb94	0.09130016
194	0xbec4909d	-0.3839158
195	0x3d8339c7	0.064075045
196	0x3dc1a90f	0.094560735
197	0xbbf992ed	-0.007616392
198	0x3dec69bb	0.11543604
199	0x3cff7f04	0.031188495

fc.4.bias f4 [2]
0	0x3e1bb242	0.15204719
1	0xbb43fbc3	-0.00299047
