Algorithms/shawn/accuracy/exp/fc_4.batch.pth (torch_old, 211644 bytes, 6 tensors)

fc.0.weight f4 [160, 226]
000000 f5 58 f9 bb fe 91 cd 3c b0 71 83 bd c3 bf 7b bd
       -0.0076094815 0.025094029 -0.064181685 -0.061462175
000010 17 f4 0b bd 58 ae 73 3c 29 e8 3c 3d 72 fe d0 bc
       -0.03416833 0.01487311 0.046119843 -0.025511954
000020 90 7b 71 3d 15 22 4f bc cb 8d 34 bd 23 d4 78 bd
       0.05895573 -0.012642403 -0.044080537 -0.060749184
000030 86 1d 38 bd 51 12 c5 3c ef d7 38 3d f3 78 25 bc
       -0.04495003 0.024056586 0.045127805 -0.010099637
000040 ae ca 36 3d 48 7a 13 bd 4d 52 1e 3d 8f c2 47 bb
       0.044626884 -0.03600529 0.038652707 -0.0030480956
000050 ac 41 0b bc bc ff cb bc 4a 92 39 bd 3b 32 17 bd
       -0.008499544 -0.024902217 -0.045305528 -0.036913138
000060 fa 17 fc bc d3 34 ef bc b6 f9 6b bc b4 e5 3e bd
       -0.030773152 -0.029199993 -0.014402797 -0.04660578
000070 e3 2a 54 3b d7 bf cb 3b 20 f1 5a bc cd 13 e2 bb
       0.0032374195 0.0062179375 -0.013363153 -0.006899333
000080 e5 d1 e2 3c 5f 4a 61 bc 68 1e 8c 3c 09 2d 58 bd
       0.027687976 -0.013750642 0.017104343 -0.052777324
000090 e6 e9 81 bd b8 39 36 bd 46 b8 38 3d cb 10 03 3d
       -0.06343441 -0.04448864 0.04509761 0.031998437
0000a0 f8 ea 4e bd d3 81 8e 3d 44 9c b7 bc cb e1 75 bd
       -0.050517052 0.06958356 -0.02241338 -0.060029786
0000b0 b6 8c 4a bd e0 80 5b 3d 16 37 0c bd 85 d4 24 3c
       -0.0494506 0.0535897 -0.03423222 0.010060434
0000c0 f7 3e 4b bd 3b 4c 6e ba e7 ab 1e 3d e1 78 63 3d
       -0.049620595 -0.0009090339 0.038738158 0.0555352
0000d0 29 e9 c4 bb 80 47 3e bd d1 2f d1 3a 47 bb d2 3b
       -0.00600924 -0.046454906 0.0015959685 0.0064310166
0000e0 38 ef c1 bc ff 4a 6f bd 5b 99 37 bd c8 3c 51 3d
       -0.023673639 -0.05842113 -0.044823986 0.051083356
0000f0 fc f0 7d 3c 9f a0 63 3d 84 01 e7 3c 78 b8 40 bd
       0.01549935 0.055573102 0.028198965 -0.047050923
000100 df 15 2d 3c 63 b5 a6 3c b1 86 2e bd a0 f7 ff 3c
       0.0105642965 0.020350164 -0.04260892 0.031246006
000110 85 ba 47 bc 92 4f b1 3b f2 43 2c 3d 36 ff 91 bd
       -0.012190466 0.005411097 0.042056985 -0.07128756
000120 42 96 50 bd eb 9a 82 3c 44 42 8b bc 0c 68 3a bd
       -0.050924547 0.015943011 -0.016999371 -0.045509383
000130 50 5e da bc 58 a2 51 3d 7b 11 59 3d a8 f8 63 bc
       -0.0266563 0.051180214 0.052995186 -0.013914265
000140 07 ca 12 38 7f 9d 75 3c 5c 65 05 3d ab 57 14 3d
       3.4997265e-05 0.014991163 0.032567367 0.03621642
000150 ad 09 bb bc 99 bf 39 bd 7d ef 70 bd f3 37 24 bc
       -0.022831762 -0.045348737 -0.058822144 -0.010023105
000160 59 0d 5e bd fd 3b 1c bd 0a e3 59 3c 5e 76 e5 3c
       -0.054211948 -0.038143147 0.013298759 0.028010543
000170 dd 10 0c 3c e5 27 35 3d bc 82 70 bd bb 80 2d 3d
       0.008548942 0.0442275 -0.058718428 0.042359095
000180 68 02 e5 3c 3a c9 6a 3c 9e c3 44 bd 3f d5 ad bc
       0.027955249 0.014330203 -0.048038118 -0.021219848
000190 66 48 75 bd df e8 f3 bc 9c bd 8e bc eb a3 c6 3c
       -0.059883498 -0.029774128 -0.017424397 0.024248084
0001a0 f2 11 ae bc c2 21 0e 3d de 21 88 bc 7a b0 3a 3d
       -0.021248791 0.034700163 -0.016617712 0.045578457
0001b0 76 49 95 3b fc 08 c1 bc fc 08 f0 3b 42 37 d2 bb
       0.0045558764 -0.023563854 0.00732529 -0.0064152787
0001c0 46 89 13 bc 52 96 1e 3d a2 83 68 bd 4a 91 e8 ba
       -0.0090048965 0.038717575 -0.05676616 -0.0017743495
0001d0 07 5b be bc 99 69 a0 bc a2 35 8b 3b 11 a4 7d 3c
       -0.023236765 -0.019581603 0.004248337 0.015481011
0001e0 8c bd 38 bd 02 2a 1b 3d 93 7b 58 3b 5d de 84 bd
       -0.04510264 0.03788186 0.003303264 -0.06487725
0001f0 61 f2 7a bd c8 74 04 3b b0 ed c7 bc 01 2e 0c bb
       -0.061266307 0.0020211209 -0.02440533 -0.0021389725
000200 4f bc 96 3d e2 2a 47 3d 14 d5 0c bd 77 59 b9 b9
       0.07360136 0.04862488 -0.034382895 -0.00035352606
000210 ec a8 a3 bc 99 1e d0 3c ec 09 7f bb 57 c4 68 bd
       -0.01997801 0.025405215 -0.0038915826 -0.05682787
000220 90 f4 1d 3c fe 3e 61 3c 88 84 6a 3d bb bc 84 bd
       0.009640828 0.013747929 0.057255298 -0.0648131
000230 56 3d 56 3d 8f e4 04 bd ec 3d 02 3d 39 73 41 bd
       0.05230459 -0.032444533 0.031797335 -0.047229026
000240 60 3d c7 bc 49 62 5e bb ec 62 07 bd e3 02 34 bd
       -0.024321258 -0.0033933094 -0.033053324 -0.043948065
000250 30 d0 6c bd 43 9f 52 bd df 73 66 bd 10 59 69 bd
       -0.05781573 -0.051421415 -0.056262847 -0.056969702
000260 0f 3c f8 bc b5 c0 fd bc dd d5 71 3d 7c b1 98 bc
       -0.030302076 -0.030975679 0.059041847 -0.018639319
000270 b6 39 7c 3c f7 45 da 3c e7 d6 02 3d 64 79 2c 3c
       0.015394619 0.02664469 0.031943228 0.010526989
000280 c2 4b 52 bc 5d 1c 18 3d 79 a4 ee bc 6c b9 30 3d
       -0.012835445 0.037136424 -0.029131161 0.043145582
000290 25 99 5e bc 7f f9 31 bd 53 53 97 bc ea 41 10 3c
       -0.013586317 -0.04345083 -0.01847235 0.008804778
0002a0 2d c5 37 bc ff 8a 81 bc 5b dc 36 3c 35 05 1b 3c
       -0.011216444 -0.015813349 0.011160935 0.009461691
0002b0 e4 4b 78 bd 4a 8c 7d ba f2 e6 51 3d 61 f9 17 bd
       -0.06061925 -0.0009672089 0.051245637 -0.03710306
0002c0 71 91 44 3d 79 2d c4 bc 33 d8 80 bd d3 4e ac 3b
       0.047990266 -0.023947464 -0.06291237 0.00525842
0002d0 33 57 28 bd 54 24 0b bd 44 11 27 3d c5 85 ba bb
       -0.041098785 -0.033970192 0.04078795 -0.005692216
0002e0 05 2b 64 bc 28 7c 4c 3d f0 a5 a0 3b 6e a2 b5 bc
       -0.013926272 0.049923092 0.004902594 -0.02217218
0002f0 57 66 35 3d b1 1c a9 3c c4 f3 47 bd 56 04 8b 3d
       0.044287052 0.020643564 -0.048816457 0.067879364
000300 03 f0 16 3d 29 7f cf bc ca fb 85 39 3b 82 8b bb
       0.036849987 -0.02532919 0.00025555334 -0.004257468
000310 f2 96 68 3d 40 21 63 3d d0 fd de 3c 2e 7d 1c 3d
       0.056784578 0.05545163 0.027220637 0.03820532
000320 02 a8 2d bd ee 0f d5 3b 78 15 7f bc 1f 74 8a bc
       -0.042396553 0.006502143 -0.015569083 -0.016901074
000330 17 e0 a5 bc ed 6d 10 3d 74 a1 21 3d 94 9a 3f bc
       -0.020248456 0.035261083 0.039460614 -0.011694569
000340 e8 d6 82 bd d9 a5 19 bd 93 26 85 3c 77 39 fb bc
       -0.06388646 -0.03751168 0.016253745 -0.03066705
000350 55 18 23 3d f5 a8 6d bb d9 58 2a bc 28 e7 5f bd
       0.039818127 -0.0036264036 -0.0103971595 -0.054663807
000360 69 65 26 bd d2 18 33 bb 4a 03 e4 3b ea 3d 99 3a
       -0.040624056 -0.0027328026 0.0069584 0.0011691425
000370 e0 cd 5d 3d 64 d4 63 3c 9c d5 5f 3d 3a 57 f4 ba
       0.054151416 0.013905618 0.054647073 -0.0018641718
000380 7d fe 83 3a ea d1 83 3b 82 5b c3 3b 3f 42 17 bd
       0.001007035 0.0040228264 0.0059618363 -0.03692841
000390 76 4a 02 bd 41 8b ab bb bd b9 fa bb f7 13 97 3d
       -0.031809293 -0.005235106 -0.0076515363 0.07376855
0003a0 2f 43 17 3d f9 01 1d bc 6b 48 92 bc e0 1f ee 3c
       0.036929306 -0.00958299 -0.017856797 0.029067934
0003b0 7e 3b 8b bb 95 03 1f 3d 6c c6 f1 bc 17 63 74 bd
       -0.0042490354 0.038821775 -0.02951356 -0.059664812
0003c0 ba bf c8 bb c5 ba b6 3c 27 db 3a 3c 30 31 8b 3c
       -0.006126371 0.022305856 0.011404789 0.016991228
0003d0 d9 1a b4 3c a5 34 bd bc 2b 79 b2 3c 64 ae cb bb
       0.021985458 -0.023096392 0.021786293 -0.0062158573
0003e0 1e d0 04 bd 24 28 62 3d 0d a6 84 bd 34 d8 05 3d
       -0.03242504 0.055214062 -0.06476984 0.03267689
0003f0 70 0a 71 bd 45 c7 ef 3b d3 ff 3c 3d f9 6e 23 bd
       -0.058847845 0.007317456 0.04614241 -0.039900754

fc.0.bias f4 [160]
000000 ed 53 c7 bd a3 b5 56 bd 95 72 0b bc 5d 33 46 bd
       -0.097328044 -0.052419316 -0.008511205 -0.048388828
000010 76 b7 5d bd 68 8e 00 be b8 5a 3f bd cf 27 37 bd
       -0.05413004 -0.12554324 -0.046717376 -0.0447157
000020 fd 79 f6 bd 32 aa 82 bd be f5 ac bd 72 7d a6 bd
       -0.12034986 -0.063801184 -0.08445309 -0.081293955
000030 11 69 96 bd 96 a9 8d bd 36 45 f2 bc cc f3 b7 bd
       -0.073442586 -0.069171116 -0.029574018 -0.089820474
000040 cb fe 87 bd ed 2c a6 bd 9c b7 8f bd f8 8b af bd
       -0.06640395 -0.08114038 -0.070174426 -0.08571619
000050 3f 93 d6 bd 35 4b 2e bd 75 39 70 bd 55 38 ca bd
       -0.10477304 -0.04255219 -0.058648545 -0.09874026
000060 e4 5f 93 bd 15 50 8f bd d8 76 8f bd 73 1f 83 bd
       -0.07196024 -0.06997696 -0.070050895 -0.06402483
000070 7c 2e ef bd d0 11 bf bd df c9 e4 bd 7c 17 e5 bd
       -0.11678788 -0.09329569 -0.11171316 -0.1118612
000080 52 95 5a bd b6 4e 46 bd df 25 a6 bd d7 1b db bd
       -0.05336506 -0.04841491 -0.08112692 -0.106986694
000090 2f dd 00 be a7 b7 8c bd c2 52 95 bd 55 39 21 bd
       -0.12584375 -0.068709664 -0.072911754 -0.039361317
0000a0 b8 f7 bf bd 02 10 73 bd 9b b6 5d bd 2e 5b 91 bd
       -0.093734205 -0.059341438 -0.054129224 -0.07097469
0000b0 69 6b e9 bd c3 0e 57 bd c0 f2 51 bd 36 a5 c4 bc
       -0.1139744 -0.052504312 -0.051256895 -0.02400456
0000c0 f9 5b 1c be c2 69 b8 bd 20 2a 9d bd 4f 15 92 bd
       -0.1526946 -0.09004547 -0.0767405 -0.071329705
0000d0 e9 e2 a5 bd 18 ea c5 bd e4 54 8c bd 48 ab b7 bd
       -0.0809992 -0.096637905 -0.06852129 -0.08968216
0000e0 fe e1 e2 bd b1 1d e6 bd 0c fc 34 bd 27 9e c5 bd
       -0.11078261 -0.11236132 -0.044185683 -0.09649306
0000f0 59 d6 d8 bd 37 f1 af bd 1c 44 96 bd ca 73 a1 bd
       -0.105877586 -0.0859093 -0.073372096 -0.07883413
000100 5d a5 ef bd ea 96 14 be 77 27 cb bd eb 26 9f bd
       -0.117014624 -0.14510694 -0.09919637 -0.07771095
000110 15 2e bb bd b8 33 60 bd ad 03 dd bd 5f 8b ab bd
       -0.09139649 -0.054736823 -0.10791717 -0.08376192
000120 6c 48 fa bd d4 e9 78 bd 1f 6b f7 bd b3 fe 90 bd
       -0.122208446 -0.06076987 -0.120809786 -0.0707983
000130 c7 d9 2c bd 7d f3 05 bd dc 6e 99 bd 5f c8 92 bd
       -0.042199876 -0.03270291 -0.07491848 -0.07167124
000140 f6 47 70 bd 01 c4 c4 bd 94 43 e4 bd 7f 30 8b bc
       -0.058662377 -0.09607697 -0.11145702 -0.016990898
000150 0d 00 bd bd 36 f8 1f be 2c 8c 41 bd 7c 3a 9c bd
       -0.09228525 -0.15622029 -0.04725282 -0.076283425
000160 81 e2 68 bd 18 ca eb bd 36 c8 80 bd 92 d2 65 bd
       -0.056856636 -0.11513156 -0.06288187 -0.05610902
000170 ab a1 b6 bd d3 e5 21 bd 80 e5 18 bc a6 e7 90 bd
       -0.089175545 -0.039525818 -0.009332061 -0.070754334
000180 29 e8 c0 bd ab e0 b5 bd 79 c6 91 bd 51 0d aa bd
       -0.09419281 -0.08880743 -0.07117934 -0.08303321
000190 ed b5 8d bd 03 1d 95 bd 02 ac c9 bd 7f d3 84 bd
       -0.06919465 -0.07280924 -0.09847261 -0.06485652
0001a0 74 e8 4f bd e5 fb b5 bd 40 38 8c bd 0c 2c 0f be
       -0.050758794 -0.08885936 -0.06846666 -0.13981646
0001b0 56 9c 8e bd 23 87 c8 bd 6e 0d a7 bd b8 8e 1a be
       -0.069634125 -0.097914 -0.081568584 -0.15093505
0001c0 41 47 a7 bd 4b 5b 06 be c9 d3 87 bd 98 18 c2 bd
       -0.081678875 -0.13120763 -0.06632192 -0.09477347
0001d0 a7 cb e1 bd 37 3f 97 bd 1f 18 07 be 2d 4c 45 bd
       -0.11025172 -0.07385104 -0.13192795 -0.04816835
0001e0 b2 43 79 bd 27 8a a1 bd 7d e2 ca bd 40 c0 c4 bd
       -0.060855575 -0.078876786 -0.099064805 -0.09606981
0001f0 fd 89 c3 bd a9 43 e4 bd b0 28 f8 bd df df c0 bd
       -0.095478036 -0.11145718 -0.121171355 -0.094177
000200 7a d9 eb bd 75 aa 99 bd 97 84 80 bd 54 29 9a bd
       -0.1151609 -0.07503215 -0.062752895 -0.07527414
000210 9a 06 bc bd 28 d2 93 bd 4d 92 fa bd a0 ed fe bc
       -0.09180947 -0.072178185 -0.12234936 -0.031119168
000220 aa 6f fb bd 0c c1 8a bd 04 c3 ba bd 60 a9 66 bd
       -0.122771576 -0.06775102 -0.091192275 -0.056313872
000230 53 bf 9e bd dd 6a e5 bd 5d 58 86 bd 07 e0 a1 bd
       -0.07751336 -0.11202023 -0.06559823 -0.07904058
000240 55 dd d5 bd 78 30 74 bd d8 f1 20 bd 91 61 7e bd
       -0.10442606 -0.059616536 -0.03929314 -0.062104765
000250 7c 44 9b bd aa 4a a3 bd 5b 87 6b bd 33 09 de bd
       -0.07581422 -0.079732254 -0.057502132 -0.10841598
000260 ef 85 78 bd cf b8 df bd bd df 86 bd 49 bd 45 bd
       -0.060674604 -0.10923921 -0.065856434 -0.04827622
000270 38 93 c9 ba 4c f1 d7 bd 93 39 99 bd af d1 bd bd
       -0.0015378958 -0.105440706 -0.074816845 -0.092685096

fc.3.weight f4 [100, 160]
000000 3c 19 5f 3d b4 4e 08 bd 6c 0e b6 bd 11 71 1a bc
       0.054467425 -0.033278182 -0.088894695 -0.009426371
000010 31 fd 8a bc 94 af d9 3d 56 f9 d5 3c f4 da 8b bb
       -0.016966434 0.10629192 0.02611987 -0.0042680446
000020 72 f9 06 3d 61 5a 6c bd 77 4e aa 3d 35 1f 82 bc
       0.032952733 -0.05770338 0.08315747 -0.015884021
000030 c0 ca ab bd b5 35 55 3d 8f 1a 92 bc ac aa fd 3a
       -0.08388281 0.052053172 -0.01783493 0.0019353232
000040 a2 e6 5b bd 06 06 08 bd 45 65 f3 bc 80 a7 86 3c
       -0.053686745 -0.03320887 -0.029711375 0.016437292
000050 93 7d 8e 3d 79 bb bf 3c 51 99 4e 3d c1 86 57 bd
       0.06957545 0.023404824 0.050439183 -0.052618746
000060 42 a0 7d bc d6 26 8d 3c 38 74 00 bb 13 23 93 3c
       -0.015480103 0.017230432 -0.0019600522 0.01796106
000070 83 43 43 3d 42 b8 3e bd 3b 28 dc 3b 7f 5b d2 3c
       0.047671806 -0.04656244 0.006718663 0.025678394
000080 0c 38 27 bd bd 83 98 3c b5 13 e1 bd 11 fe b2 3c
       -0.040824935 0.018617505 -0.10990087 0.021849664
000090 92 b2 69 bd cd 3f e8 3c d5 ba 31 3d 26 cf 12 bd
       -0.057055064 0.028350735 0.043391068 -0.035842083
0000a0 e1 13 ea bb a4 32 60 3c ad 04 09 3d df 84 2c 3d
       -0.007143483 0.013683949 0.033451725 0.042118903
0000b0 0a 3b 16 bd 3c 10 3e bc 5c f2 8b bd 59 2b 2f bd
       -0.036677398 -0.01160055 -0.06833336 -0.04276595
0000c0 7b 16 d0 bd 44 a1 b6 bd a5 a0 d2 bc 4d a6 8f bd
       -0.10160538 -0.08917478 -0.025711367 -0.07014141
0000d0 55 72 d6 bd be fb 8c bc 92 b5 ae 3c 30 08 1a 3a
       -0.10471026 -0.017209884 0.021326814 0.0005875854
0000e0 19 35 60 bc da ee 98 3d 26 a7 9c 3d 36 03 6e 3d
       -0.0136845345 0.07467432 0.076490685 0.05810853
0000f0 e1 62 88 bb ea af 07 3a cd 98 22 bd cf 78 23 bd
       -0.004162178 0.00051760545 -0.039696503 -0.039910134
000100 96 00 ba 3d 78 c7 21 bc b1 6b 6b bb 2d 3c 9e ba
       0.09082143 -0.009874217 -0.0035922343 -0.0012072377
000110 c8 42 ad bc 84 33 d1 3c c9 73 aa bc f7 58 8f 3b
       -0.021150008 0.02553726 -0.020807164 0.004374619
000120 28 a1 09 bd 84 37 55 3d c4 80 cb bc b4 83 ba bd
       -0.033600956 0.052054897 -0.024841674 -0.09107152
000130 2a ca 7a 3d e6 de 8a bd 54 cc 47 bd 45 01 8f bc
       0.061227955 -0.06780796 -0.048778847 -0.01745666
000140 8f 8b 75 3d e6 10 f4 b8 17 ef bf bc 5e 3d 98 bd
       0.059947547 -0.00011637974 -0.023429437 -0.0743358
000150 dc ce b6 3c f8 25 80 bd 20 b1 ae 3d 61 86 b1 3d
       0.022315435 -0.06257242 0.08529878 0.08668209
000160 13 0f 1b 3d 87 f5 23 bd be a7 8d 3d b6 7b 81 3c
       0.037856173 -0.040029075 0.0691676 0.01580606
000170 08 07 a7 ba a6 4a 14 bd 86 0a b3 bb fa 78 c8 bd
       -0.0012743184 -0.036204003 -0.005463901 -0.097886994
000180 d8 57 5b 3d 62 93 33 bd 47 a7 8d bd 82 92 8d bc
       0.05355057 -0.043841727 -0.06916671 -0.017281774
000190 bb d1 26 bd d0 55 f8 3b b8 e6 bc 3c f2 74 ba bc
       -0.04072736 0.007578589 0.023059234 -0.022760842
0001a0 4e a2 6e bd de f7 3c bb 9e 2e 20 3d d8 d8 8e bd
       -0.058260255 -0.0028834264 0.039106958 -0.069749534
0001b0 3d 38 9e bd 13 89 88 3c e4 43 25 3d 7e 71 74 3d
       -0.0772557 0.016666925 0.04034795 0.059678547
0001c0 d6 99 2b bc e2 31 07 3c c9 fb 0a bc 24 8e 43 3c
       -0.010473689 0.008251639 -0.008482882 0.011935744
0001d0 77 eb a2 ba 68 04 05 bd b0 66 80 bc 4f ff 8b 3d
       -0.0012429793 -0.032474905 -0.015673965 0.068358056
0001e0 b4 92 1e 3c 17 5f e7 3d 36 f4 05 3d 8d 0d bf 3d
       0.009678531 0.11297434 0.0327036 0.093287565
0001f0 dd c9 82 3b 4c ff 7f bd 9d a5 de 3c e9 53 56 3d
       0.003991349 -0.06249933 0.02717858 0.052326117
000200 25 98 36 bd 50 89 6b 3a 1a 9f 32 3d 1a 9f 97 3d
       -0.04457869 0.0008985 0.043608762 0.07403393
000210 cf ca 0f bd 05 5a 35 3c b8 5f a0 bd cf 09 26 3c
       -0.035105523 0.011068826 -0.07830757 0.0101341745
000220 c9 90 a4 38 0e 59 0a bd 8d 91 2e 3d bb 04 29 bc
       7.847098e-05 -0.033776335 0.042619277 -0.010316069
000230 1b d6 72 3d cd dd 9f 3d 26 fa de 3c aa a5 d1 bc
       0.059286218 0.07805977 0.02721889 -0.02559169
000240 a9 4d 31 bd 11 78 f3 bc ac 1f 82 3d fa f1 62 bc
       -0.043286953 -0.029720338 0.06353697 -0.013851637
000250 64 e8 91 bb f4 12 9d 3d 33 ad 6b bd 17 18 8b bd
       -0.004452752 0.07669631 -0.057538223 -0.06791704
000260 37 d8 96 bd 32 d6 f4 bc 78 f0 20 bd 0b c5 63 3c
       -0.073654585 -0.029887293 -0.03929183 0.013901959
000270 e2 69 85 3c 13 5c 93 3d 6e f0 14 bd 0c ba bf bb
       0.01628584 0.07195296 -0.036362104 -0.005851036
000280 fc b1 89 bd 44 80 7d bd a2 3a 88 bd c3 7c 45 3d
       -0.06723401 -0.0618899 -0.06651808 0.048214685
000290 86 3d 08 bd 9f 27 bf 3c 3a ab 29 bd 71 7f 76 bd
       -0.0332618 0.023334322 -0.04142306 -0.06018013
0002a0 55 4d 76 bd f0 95 44 bd 2d 9b 54 3d 1b a9 4b bd
       -0.060132343 -0.047994554 0.0519058 -0.04972182
0002b0 00 30 a6 bb 64 0e 9f 3b 15 f2 93 bc 6d e0 f5 3c
       -0.00507164 0.0048540104 -0.01805977 0.030014241
0002c0 ee 95 f0 bc bb 09 21 bd c3 1b 7b 3c 8a 5f 75 3c
       -0.029368367 -0.03931592 0.015326443 0.014976392
0002d0 b8 ae 1c 3d 59 d6 a0 bd 5e d3 3f bd 51 ae 6b 3d
       0.038252562 -0.078533836 -0.046832435 0.057539288
0002e0 32 f8 0f bd 55 42 85 3d a4 77 7f 3c 90 80 1a bd
       -0.035148807 0.065067925 0.015592489 -0.037720263
0002f0 7a 26 90 bd d2 a1 4d bd b3 9c c4 3c e9 69 04 3d
       -0.07038589 -0.050203152 0.024000501 0.032327566
000300 61 26 9d bd c5 a7 25 bd ea 84 5f bd a5 6d 82 bc
       -0.07673336 -0.0404432 -0.054570116 -0.015921423
000310 00 90 70 3d 2c c5 4a bd 08 7a 8c 3b 8c b2 4f 3c
       0.05873108 -0.049504444 0.004287008 0.012676846
000320 e6 3d cc 3c b0 ba 7c bd 4a 15 88 3d ea a9 09 3d
       0.02493186 -0.061701477 0.066446856 0.03360931
000330 77 e0 23 3d 75 4a 3a b9 a1 67 4a bd 21 ac 7f bd
       0.04000899 -0.0001776608 -0.049415234 -0.062420014
000340 e4 dd 19 bd 29 d1 df bc 9d a8 67 bb b1 09 ab 3b
       -0.037565127 -0.027321415 -0.0035348304 0.005219661
000350 f7 eb 84 b9 5d dd 42 bd 99 d8 b3 3c 5c cf 1a 3d
       -0.0002535281 -0.04757439 0.021953868 0.03779541
000360 55 a8 d4 3c 8b 3d 42 bd 0b 2d 8f bd d8 59 9b 3d
       0.025959173 -0.047421973 -0.06991013 0.07585496
000370 c0 e6 14 bd e5 7d 24 3d 07 bd 2e 3d d5 9d 36 3d
       -0.036352873 0.040159125 0.04266074 0.044584114
000380 a2 74 f6 3c dc 0e a4 3d cf 80 e3 3c 35 4c 61 3d
       0.030084912 0.08010647 0.027771382 0.055004317
000390 3c f0 92 3c 03 0e ea bc 1d 9f c6 3c 0c 5e c9 3c
       0.017936818 -0.028571134 0.024245793 0.024580978
0003a0 a8 77 9c bd df 95 57 3d f6 26 1d bd de b5 29 bc
       -0.0764001 0.052633163 -0.038367234 -0.010358302
0003b0 74 50 6c bd 76 21 16 bd 4d e1 76 3d 48 ea c0 3b
       -0.057693914 -0.036653005 0.060273457 0.0058873035
0003c0 0a cb 1d bd 4b 34 35 3d 87 3c 5b 3d 61 16 55 3b
       -0.03852371 0.044239324 0.05352452 0.003251456
0003d0 d0 c9 9c 3b ee f2 21 bd 1a f5 fb bc 0e ca 66 bc
       0.0047848 -0.039538316 -0.030756522 -0.0140862595
0003e0 a8 7c a7 3b cb dd 28 bd 56 29 82 3c 70 a1 60 3d
       0.0051112957 -0.041227143 0.015888851 0.05484146
0003f0 28 c9 6b bd ad cc 98 bb 4a 34 60 3d 71 ed 0f bd
       -0.057564884 -0.004663071 0.054737367 -0.03513855

fc.3.bias f4 [100]
000000 26 a3 a7 3c ec 3e 48 bd fa dd e1 3c 0f c9 5e 3c
       0.020463537 -0.048888132 0.027571667 0.013597741
000010 48 4c b6 3c 65 77 c4 3c 1e 60 71 3c 7b e9 d1 3c
       0.02225317 0.023982713 0.014732389 0.025624027
000020 b2 29 9d 3c 3c 52 92 3c 63 fa b5 3c 88 92 74 3c
       0.019184921 0.017861478 0.02221412 0.014927514
000030 ca d8 c0 3c 8b f1 ba 3c 27 ac 87 3c 64 7b 49 3c
       0.023540873 0.022820255 0.01656158 0.012297485
000040 c5 c4 9b 3c ba 22 a3 3c 8d c2 e6 3c 42 32 c2 bd
       0.019014725 0.01991402 0.02816894 -0.09482242
000050 0e c3 ca 3c 3b 63 b8 3c 9d 61 82 bc 5e e1 80 3c
       0.024751212 0.022508254 -0.015915686 0.015732463
000060 6a ff 94 3c fb 10 fd 3c 82 4c fe bc f7 bd 34 3c
       0.018188197 0.030891886 -0.031042341 0.011031619
000070 e0 37 73 3c 0c 23 88 3c c4 3b a5 3c 60 ef b8 3c
       0.014844865 0.016618274 0.0201701 0.02257508
000080 b0 62 b3 3c 82 e0 b8 3c 6d 76 9c bc a1 76 a6 3c
       0.021897644 0.022567991 -0.019099439 0.020320239
000090 c1 f4 b6 3c eb 34 62 bd 42 75 b9 3c 6d d0 cf 3c
       0.022333505 -0.055226248 0.02263892 0.02536794
0000a0 d0 58 f3 3c 8d 89 b4 3c 0a 44 bd 3c 17 cd 82 3c
       0.029705435 0.022038246 0.023103733 0.015966935
0000b0 c1 c6 d7 3c 1e 48 b5 3c 6d 05 7f 3c e5 e6 80 3c
       0.02633989 0.022129115 0.015565258 0.0157351
0000c0 2d 58 90 3c ec a9 15 3d 44 1a 9a 3c 66 ed b3 3c
       0.01762017 0.036539003 0.018811353 0.021963786
0000d0 4e 5f e0 3c 5b 9a c2 3c 70 ab c7 3c 5f f3 a7 3c
       0.027389195 0.023755243 0.02437374 0.02050179
0000e0 ab fc fe 3c df 04 de 3c 5b f3 f3 3c 91 60 03 3d
       0.03112634 0.027101932 0.029779127 0.032074515
0000f0 33 ae a5 3c 16 f7 b2 3c 79 d5 91 3c 37 f6 d2 3c
       0.020224666 0.021846335 0.017801987 0.02575217
000100 77 d3 ed 3c cd a4 f4 3c f9 31 b5 3c d3 ae ab 3c
       0.029031498 0.02986374 0.022118555 0.020957386
000110 28 6c a5 3c cf 4a c2 3c 74 ee d2 3c f1 d4 cb 3c
       0.020193174 0.023717312 0.025748469 0.024881812
000120 a8 f4 ac 3c d4 e3 54 3c e1 f7 24 bc 3b 37 b9 3c
       0.021112755 0.012993772 -0.010068865 0.022609344
000130 2d b3 cc 3c 9f 7f c6 3c 27 5f b5 3c f2 7d 24 3c
       0.024987781 0.024230776 0.022140099 0.010039793
000140 f6 a1 8b 3c 74 09 a4 bd c2 1c de 3c f4 45 b5 3c
       0.017045002 -0.080096155 0.027113322 0.022128083
000150 ab 68 89 bd 2f db 8b 3c 58 71 b0 3c 4b 28 eb 3c
       -0.06709417 0.017072288 0.021538422 0.028705737
000160 d2 f1 88 3c 19 69 e0 3c c8 a4 ab 3c 36 2c aa 3c
       0.016716871 0.027393864 0.020952597 0.020773035
000170 bf 18 e3 3c 21 35 07 3d d3 09 e2 3c 3f ba d5 3c
       0.02772176 0.033009652 0.027592575 0.026089786
000180 ae b9 f4 3c ef 53 b0 3c 5e 4d bf 3c 40 ae a4 3c
       0.029873695 0.021524398 0.023352321 0.02010262

fc.6.weight f4 [2, 100]
000000 79 f3 ee 3d 26 ee cf 3b 94 26 3b 3e 0c 14 85 be
       0.116675325 0.006345528 0.18276435 -0.25991857
000010 74 15 04 3e 59 93 12 be b3 47 69 be 49 8b 57 3e
       0.12898809 -0.14314021 -0.22781257 0.21049227
000020 1f 91 49 be 93 3f 0b 3e e0 18 87 be 72 36 a5 bd
       -0.19684266 0.1359847 -0.26386166 -0.08067025
000030 0c 20 8a bd ae 53 b0 bd 7d 01 24 be 06 a8 3d bd
       -0.06744394 -0.08609711 -0.16016193 -0.046302818
000040 73 85 3d 3e fb ac 15 be 48 19 ea bd 55 71 bb bd
       0.18507938 -0.14616768 -0.11430603 -0.09152476
000050 b9 2c d6 3d 64 c7 13 3e 63 79 1e 3c c7 a2 22 be
       0.10457749 0.1443153 0.009672496 -0.15882407
000060 01 4a 12 3b 12 5e 4b 3e 3f 18 ed 3c e0 af bd 3d
       0.0022321942 0.19860104 0.028942226 0.09262061
000070 08 cf 2a be dd 61 9f bd 9f d2 1e be c0 25 91 3e
       -0.16680539 -0.07782338 -0.15510033 0.28349113
000080 7d c4 34 3e ae 0e 3a 3e dd 59 75 bc 49 13 6b 3e
       0.1765308 0.18169662 -0.014975038 0.22956575
000090 ac 75 51 3e a0 8f 35 bd 79 6f 57 3e 1a 2e 60 3e
       0.20455045 -0.044326425 0.21038617 0.21892586
0000a0 28 ad 89 3e c0 be 31 be 37 dc 60 3e ed 98 28 be
       0.2688992 -0.17357922 0.21959005 -0.16464587
0000b0 35 1c 5b 3d 0e 3f 3d be f9 8d 48 be 2a 51 34 be
       0.053493697 -0.18481085 -0.19585408 -0.17609087
0000c0 30 cd 0e be 3d 35 6c 3e 1e e3 66 be 1b 6b 33 3e
       -0.1394546 0.23067184 -0.22547576 0.17521326
0000d0 3f 0d fc 3d 0a 3b 2b 3e c6 92 fa bc bf f0 71 be
       0.12307214 0.1672174 -0.030587565 -0.23626994
0000e0 f5 0c 7b 3e f2 35 36 3e da ed 3e 3e 35 eb 28 3e
       0.24516661 0.17794016 0.1864542 0.16495974
0000f0 70 e8 85 bd 7f 4a 62 3e 48 51 5e be 22 87 38 be
       -0.065384746 0.2209873 -0.21710694 -0.18020299
000100 b4 0a 41 be b4 5c 88 3e 47 1f 74 be d2 e2 4d 3e
       -0.18851739 0.26633227 -0.23840056 0.20106056
000110 c8 18 23 be fb 17 3b 3e ff 46 5e be 43 9b 41 3e
       -0.15927422 0.18270867 -0.2170677 0.18906884
000120 07 25 a3 3c 9a 8a 7d be b4 fe a8 3d 84 44 31 3e
       0.019915117 -0.24759904 0.08251706 0.17311293
000130 18 43 58 3e a8 ea 30 3e aa a9 3a be cb 6c 47 be
       0.21119344 0.17277014 -0.18228784 -0.19475095
000140 e4 f2 cf 3d 9a 01 a7 3d f7 80 80 be 8a 45 e8 3d
       0.101537496 0.08154602 -0.25098392 0.113413885
000150 6d 52 cb bd 0a 8f 40 be c4 3f 14 be 4f 31 54 3e
       -0.09927831 -0.18804565 -0.1447745 0.20721935
000160 6e 7d 2d be 57 d5 2f 3e 5b 06 46 be 02 99 31 be
       -0.16942379 0.17171226 -0.19338362 -0.17343524
000170 5e d8 08 3e 1a e9 47 3e 04 9a 43 3e f3 15 2e 3e
       0.13363788 0.19522515 0.19101721 0.1700056
000180 3d 2e 26 3e 47 7c 54 be 2e db ed bd b8 6b 3b be
       0.16228576 -0.20750533 -0.11614071 -0.1830281
000190 20 12 4b be de 51 92 3d ad 1f 81 be 70 68 c6 3d
       -0.19831133 0.07144521 -0.2521948 0.096878886
0001a0 64 21 4d be 6b 12 86 3e 09 55 bd 3d c2 82 1a be
       -0.20032269 0.26185927 0.09244735 -0.15088943
0001b0 11 b3 36 3e cb 6d 09 be 7c 92 19 3e 16 f0 25 3e
       0.17841746 -0.13420789 0.14997286 0.16204867
0001c0 0a 6e 4a 3e 66 99 85 3e 0d 46 1c 3e 3f d4 d6 3d
       0.19768539 0.26093596 0.15261097 0.104897015
0001d0 e7 9c 00 be 81 9f 33 3e b3 f2 0a 3e 44 86 6c 3d
       -0.12559853 0.17541315 0.13569145 0.057745233
0001e0 f1 45 5b be 82 7c f3 bd 9b be ab 3b 00 e6 0d 3e
       -0.214134 -0.11888982 0.005241228 0.1385727
0001f0 e2 44 f0 3d 4d 35 93 be a5 70 da 3c 83 43 cc bc
       0.11731888 -0.28751603 0.026665041 -0.024934536
000200 ee 3f 37 3e 3c 19 58 3e 15 2c 09 3e c0 cc ec bd
       0.17895481 0.21103376 0.13395722 -0.115624905
000210 63 91 42 be 7e 36 10 be 19 d6 da 3d 3c 4a d3 bd
       -0.19000773 -0.14083287 0.10685367 -0.103168935
000220 13 89 77 be 63 13 31 bc 20 0d 22 be 24 fe 4e be
       -0.24173383 -0.010807845 -0.1582532 -0.20214134
000230 15 3d 52 be ea 73 46 3e 82 cb 37 be ac de 1c 3e
       -0.20531113 0.19380155 -0.17948726 0.15319318
000240 60 59 8e bd 7f 51 53 3e e6 03 11 3e f5 65 0a 3e
       -0.06950641 0.20636557 0.14161643 0.13515456
000250 5d f3 cc 3d ca 20 a7 bd 01 69 d1 3d 0c 94 8f be
       0.10007355 -0.08160551 0.10225106 -0.28042638
000260 f5 37 3e be 21 d1 51 be e3 6c 11 3e 21 07 95 3e
       -0.18576033 -0.20489933 0.14201693 0.29107
000270 aa 28 74 be d3 26 18 be 35 d8 60 be 12 9a 01 be
       -0.23843637 -0.1485856 -0.21957476 -0.1265643
000280 e4 f4 34 3e 06 22 05 be 97 9e e6 3d af 4b 70 3e
       0.17671543 -0.1300126 0.11260717 0.23466371
000290 72 54 46 3e 33 da 87 be 4e 80 5e 3e d5 e7 b2 bd
       0.19368151 -0.2653366 0.21728632 -0.08735625
0002a0 04 ba 55 3e 2c da cc bd 1e 81 88 3e f2 b8 f3 bd
       0.2087174 -0.100025505 0.2666101 -0.1190051
0002b0 78 af e6 bd 1b 1d 0b 3e 2b cb db bb c4 8d 97 bd
       -0.11263937 0.13585322 -0.006707569 -0.074000865
0002c0 fb eb 5e be 03 7a 3f be a1 91 53 3e 88 3f ec 3d
       -0.21769707 -0.18698888 0.20661022 0.11535555
0002d0 c4 b4 20 be bd 5a 65 3d 2d 47 28 3e fb a8 57 be
       -0.15693957 0.055994738 0.16433401 -0.21060555
0002e0 69 29 97 bd fd 36 52 3e bd 99 1d 3e 70 d2 71 be
       -0.07380945 0.20528789 0.15390678 -0.23615432
0002f0 a1 f8 2a 3e 01 63 98 bd b6 90 2b 3e 96 45 38 3e
       0.16696407 -0.074407585 0.16754422 0.17995295
000300 14 9b 39 be 54 8c 71 be b5 bf 88 be e4 67 39 be
       -0.18125564 -0.23588687 -0.2670876 -0.18106037
000310 ce f7 df bd 73 29 68 3e 9f 07 59 3e 89 7b 1a 3e
       -0.10935937 0.22672062 0.21194313 0.15086187

fc.6.bias f4 [2]
000000 ec b2 d6 bd c5 d0 0e 3d
       -0.104833454 0.034867067
