Algorithms/shawn/accuracy/exp/fc_8.batch.pth (torch_old, 10032 bytes, 4 tensors)

fc.0.weight f4 [10, 226]
0	0xbdb4f890	-0.08836472
1	0xbd258d23	-0.0404178
2	0xbd09e083	-0.033661377
3	0xbd12c8bb	-0.035835963
4	0x3da374b5	0.079812445
5	0x3cc6df9c	0.024276547
6	0x3d1783a7	0.036990788
7	0x3c9a55e6	0.018839788
8	0x3d5d586b	0.0540394
9	0xbd59835c	-0.05310379
10	0xbc83dfd9	-0.01609795
11	0xbc1bcacb	-0.009508799
12	0xbd71d64c	-0.05904226
13	0x3d2a38ff	0.041558262
14	0xbd7cfe9e	-0.06176626
15	0x3d25c6d5	0.040472824
16	0xbdb5544e	-0.088539705
17	0x3d15160d	0.036397982
18	0xbd2c3868	-0.04204598
19	0x3da9ccbe	0.082910046
20	0x3a3b7c14	0.0007151973
21	0x3df2ecd6	0.11861579
22	0xbcd0e2cd	-0.025498772
23	0x3cba8c00	0.022771835
24	0xbd247baa	-0.040156998
25	0x3bb9230b	0.0056499294
26	0x3d8f8bfe	0.07009123
27	0x3d1668ab	0.036720913
28	0x3cbe9da1	0.023268523
29	0x3d5ad11e	0.053422086
30	0x3d37da17	0.04488572
31	0x3d106538	0.03525278
32	0x3cff1bf3	0.031141257
33	0xbd63900e	-0.055557303
34	0xbca54456	-0.020174187
35	0x3e00d7f0	0.12582374
36	0x3d6ec61f	0.05829441
37	0xbd1e5ba7	-0.038661625
38	0xbda251e9	-0.07925779
39	0x3c9a100e	0.018806484
40	0xbd77e9ba	-0.060525633
41	0x3d261430	0.040546596
42	0x3c1fc0d5	0.009750565
43	0xbc909f97	-0.017654223
44	0x3c7e2458	0.015511595
45	0xbc832c19	-0.016012238
46	0x3c0f2cd7	0.008738718
47	0x3cec70f8	0.028862461
48	0x3cb7d4b9	0.022440301
49	0x3d94f99e	0.07274173
50	0xba94e8c1	-0.001136087
51	0xbc8d7dbb	-0.017271867
52	0xbd137bae	-0.036006622
53	0xbcbb055b	-0.022829702
54	0xbc4affa3	-0.01239005
55	0xbd17c6db	-0.037054878
56	0x3e0fabe3	0.14030413
57	0xbcfac9db	-0.03061383
58	0xbd39f0a6	-0.045395516
59	0x3ce8904a	0.028389115
60	0xbdb0ce47	-0.08633094
61	0xbbe0de73	-0.0068624555
62	0x3cf609ec	0.030034028
63	0x3b7acba7	0.003826836
64	0xbd4c64e7	-0.049900915
65	0xbacabde3	-0.0015467968
66	0x3db81fb8	0.08990425
67	0xbc8cc87c	-0.017185442
68	0xbd021480	-0.03175783
69	0x3de689e0	0.11256766
70	0x3d3cd393	0.04610021
71	0xbbfafebe	-0.007659762
72	0xbced5e81	-0.028975727
73	0x3c25f72f	0.010129734
74	0x3d4b4103	0.049622547
75	0x3cd60405	0.026124964
76	0x3d4b6403	0.049655925
77	0x3ad3d21c	0.001616064
78	0xbcb120d9	-0.021622108
79	0xbcd2cac6	-0.025731456
80	0x3d1dc369	0.038516436
81	0xbdb86fdc	-0.090057105
82	0xbc824d79	-0.015906082
83	0x3d6f1437	0.058368888
84	0x3d631b0e	0.055445723
85	0xbcc75a4e	-0.024335053
86	0x3d14ed2c	0.036358997
87	0xbc121d09	-0.008918055
88	0xbdc1108b	-0.094269834
89	0x3b35557e	0.0027669366
90	0xbdcea083	-0.10089209
91	0xbd96900a	-0.07351692
92	0x39e7b357	0.00044193372
93	0x3d3927f7	0.04520413
94	0xbd3a9075	-0.04554792
95	0x3d24f014	0.04026802
96	0xbd46d991	-0.04854733
97	0xbcf66c27	-0.030080868
98	0xbc901ec7	-0.0175928
99	0xbcd3e3a4	-0.025865383
100	0xbc88103b	-0.016609302
101	0x3df39be7	0.118949704
102	0xba4e8ca7	-0.0007879235
103	0x3bc0d0be	0.005884259
104	0x3c8297bd	0.015941495
105	0xbd94ec74	-0.07271662
106	0xbd5b2928	-0.053506047
107	0xbd07a7c1	-0.033118967
108	0xbbf704f0	-0.0075384304
109	0x3c262ff6	0.010143271
110	0xbd8c4f97	-0.06851118
111	0xbd5f6f60	-0.054549575
112	0xbd0347f7	-0.032051053
113	0x3d96af54	0.0735766
114	0x3d0b96f2	0.0340795
115	0x3d63c390	0.055606425
116	0x3c627cde	0.013823716
117	0xbd7c38b1	-0.061577503
118	0xbc9feb6c	-0.019521438
119	0xbc9f45b2	-0.019442413
120	0xbcdc5eb7	-0.026900632
121	0xbc9f0bd2	-0.019414816
122	0x3d43cfc5	0.047805566
123	0x3d117778	0.035514325
124	0x3c73c66b	0.0148788495
125	0x3d35cd25	0.044385094
126	0xbc661409	-0.014042863
127	0xbb7153c0	-0.00368236
128	0xbc7549cf	-0.014971211
129	0x3d70737d	0.05870389
130	0xbd2385a9	-0.03992239
131	0x3da3387a	0.079697564
132	0xbd971dee	-0.073787555
133	0x3cee4cd4	0.029089369
134	0xbdba3cee	-0.09093653
135	0x3d03fce2	0.03222359
136	0xbb8f32a0	-0.0043700486
137	0x3d855ba5	0.065116204
138	0x3c84ffdd	0.016235286
139	0xbd64e924	-0.055886403
140	0xbd0d0bd7	-0.03443512
141	0xbc0547ae	-0.008134766
142	0xbd261009	-0.040542636
143	0xbd388e89	-0.045057807
144	0xbc266f22	-0.010158332
145	0xbcf3d0ca	-0.029762644
146	0x3d5614f6	0.052266084
147	0x3d27cc0f	0.04096609
148	0xbdee0850	-0.11622679
149	0xbdaf2b97	-0.08553236
150	0xbc7749d3	-0.015093285
151	0x3db096c4	0.08622506
152	0xbd1f93c7	-0.03895929
153	0x3d0c050e	0.034184508
154	0xbd76e45a	-0.060276367
155	0x3cbe436c	0.023225509
156	0x3bf04dff	0.0073335166
157	0xbd18b599	-0.03728256
158	0x3b9d0a6d	0.0047925026
159	0xbc22a290	-0.009926453
160	0xbd23014b	-0.039796155
161	0xbcc84f0c	-0.024451755
162	0xbd80dfd2	-0.0629269
163	0x398d9be8	0.00027009775
164	0x3d224e1d	0.039625276
165	0x3d366107	0.044526126
166	0x3c21db49	0.009878942
167	0xbc91441b	-0.01773267
168	0x3d10a1fa	0.035310723
169	0xbe1482c5	-0.1450301
170	0x3c9a9a74	0.018872477
171	0x3d6463e1	0.055759314
172	0xbca18171	-0.019715043
173	0x3dc0c03e	0.09411667
174	0x3c676f8d	0.014125717
175	0xbbdfea4d	-0.0068333508
176	0xbd4073f9	-0.0469856
177	0x3d4df0d6	0.050278507
178	0x3d1964cf	0.037449654
179	0xbdbc7f7b	-0.092040025
180	0x3c7d3add	0.015455929
181	0x3cbcbda4	0.023039646
182	0xbde89135	-0.11355821
183	0xbd0a9c63	-0.03384055
184	0x3cb3a9e6	0.0219316
185	0xbc7e1e44	-0.015510146
186	0xbc46d9a9	-0.012136855
187	0xbcd1d941	-0.02561629
188	0xbcd7a691	-0.026324542
189	0xbd442f75	-0.04789682
190	0x3c013bbd	0.007887778
191	0xbcf573d9	-0.029962467
192	0x3b407d10	0.0029371418
193	0xbd13aa04	-0.03605081
194	0x3d5db81a	0.05413065
195	0xbc6ba665	-0.014382933
196	0xbd610928	-0.054940373
197	0xbd7389d0	-0.0594576
198	0x3d22ac9c	0.039715394
199	0xbd3adbee	-0.045619898
200	0x3ccb4ea3	0.02481777
201	0x3d6c3299	0.05766544
202	0x3b7e17fe	0.0038771625
203	0x3da77c16	0.081779644
204	0x3d373561	0.04472864
205	0x3bb94e3f	0.0056550796
206	0xbd81afc4	-0.06332353
207	0x3c852744	0.016254075
208	0xbc339073	-0.010959732
209	0x3d7d8a1e	0.061899297
210	0x3d7af4e8	0.061268717
211	0xbc0090e5	-0.007847046
212	0x3d671300	0.056414604
213	0x3d752bf2	0.059856363
214	0xbe045929	-0.12924637
215	0xbd61ec8e	-0.055157237
216	0xbbb20559	-0.0054327664
217	0x3d80072a	0.062513664
218	0x3d9b66d5	0.07587973
219	0x3c665e49	0.014060565
220	0xbc808a64	-0.01569099
221	0x3c210024	0.009826694
222	0xbd59ef84	-0.053206936
223	0x3c1c970f	0.0095575
224	0xbacc425f	-0.0015583745
225	0x3b85840d	0.0040745796
226	0xbdeb0d8f	-0.114771955
227	0xbc98ecc0	-0.018667579
228	0xbcf0dc14	-0.029401816
229	0xbc6eff3b	-0.014587219
230	0x3da5d4dc	0.0809724
231	0x3ca1be8d	0.019744182
232	0x3d3bb04a	0.04582242
233	0x3c0dac24	0.008646999
234	0x3d3cb100	0.046067238
235	0xbcd06d10	-0.02544263
236	0xba470742	-0.0007592329
237	0xbc613d31	-0.013747499
238	0xbd630791	-0.055427138
239	0x3d4e1895	0.050316412
240	0xbd29e6ff	-0.04148006
241	0x3d24cb93	0.040233206
242	0xbdac10f0	-0.08401668
243	0x3d5d7d6f	0.0540747
244	0xbccd1994	-0.02503661
245	0x3da6c818	0.081436336
246	0xbb17789b	-0.0023112658
247	0x3dd65087	0.10464578
248	0xbc187360	-0.009304851
249	0xbb856b30	-0.0040716156
250	0xbd279f10	-0.04092318
251	0x3c901f0e	0.017592933
252	0x3d8ee498	0.069771945
253	0x3d40d9f6	0.047082864
254	0x3d2be6c3	0.04196812
255	0x3d98c6d4	0.074597985

fc.0.bias f4 [10]
0	0x3cfa6af0	0.03056857
1	0xbd3d1525	-0.046162743
2	0xbd8d3506	-0.06894879
3	0xbd6a5e58	-0.05721888
4	0xbcbce22f	-0.023057071
5	0xbde43fc3	-0.11144974
6	0x3c174fb9	0.009235316
7	0x3d4e09a2	0.050302155
8	0x3cd34cfd	0.025793547
9	0x3d7721dd	0.06033503

fc.3.weight f4 [2, 10]
0	0xbe3c26c4	-0.18374163
1	0xbeb59181	-0.35462573
2	0x3eda84f9	0.42679575
3	0xbeda7267	-0.42665407
4	0x3e5f3913	0.21799116
5	0x3f24e071	0.6440497
6	0xbef233a8	-0.47305036
7	0xbe3abfa1	-0.18237163
8	0xbeb38579	-0.3506277
9	0xbec83486	-0.39102572
10	0x3ed01c5c	0.40646636
11	0x3ed4d2c5	0.41567054
12	0xbf268e0a	-0.65060484
13	0x3eb3b858	0.3510158
14	0xbf345c47	-0.70453304
15	0xbeea9be4	-0.4582206
16	0x3e346103	0.17615132
17	0x3effd8af	0.49970004
18	0x3ec14a0d	0.3775181
19	0x3e92e6fd	0.28691855

fc.3.bias f4 [2]
0	0xbe750f88	-0.23931706
1	0xbe90444f	-0.28177115
