algorithms/SemiAutoEncoder/SemiAutoEncoderResults/Semi_AutoEncoder_300-100_all_IO_noleave_VH_ratio_2.pt (torch_old, 789413 bytes, 8 tensors)

encoder.0.weight f4 [300, 226]
00000000: c96a 99bd 3fd9 22bd 89fd 933c f96b fe3c
00000010: 98a4 3e3e 71ba 883d 1918 c0bc 84ab aa3d
00000020: 76fa b93d f472 7f3d d23b 23be 4146 603d
00000030: ed75 97bd 0568 293d 25d4 623d 020c 45bd
00000040: d02d c83c cd0b 0abe f107 483d d448 023e
00000050: 3421 973d 40a9 3c3c 365e 023e 8c90 0580
00000060: 2a33 80bd ce49 103e 2b04 bbbb bf69 2bbe
00000070: 2bf0 1b3e a28c c1bc dfa0 043e cdca 543e
00000080: e490 803d 27bf 373e 781d a63d 0508 17bd
00000090: e36e 8c3d 0ace 783c eabd b43d 2fec 3a3e
000000a0: c858 b03d 9f83 393d 9a81 673e 7322 81bc
000000b0: 58d2 4bbd a45c 5dbd f783 e73c f4ba 373d
000000c0: 54a4 d23c f608 9dbd d460 20bb 3004 8d3d
000000d0: 9ea2 223e b55b e03d a1b9 683e a07e f33d
000000e0: f6e2 3b3d 58dd c33d 0e4e ebbd 97ee 14bd
000000f0: ca64 1f3d e2b0 8bbd 13ae 05bd 1a5c 0dbd
00000100: 7749 f1bc 6e4c 30bd aa0c 603e b5f2 9d3d
00000110: 158c 033d 1e16 4b3e 0d0d 773e 2bae 47bd
00000120: a642 ab3d 5e10 333e 16e2 59bc 087d 933d
00000130: a1ee 1c3e 18b7 d63d 9654 b0ba 5fca 4ebe
00000140: 6d75 8fbc 5825 123d 70f6 b63b d12d 203e
00000150: b418 d1bd b7ae 7dbd 4c79 aa3d b938 cf3d
00000160: 00b5 493d 4993 1bbe ac66 383d 1062 653d
00000170: 4f38 023e 069b 00be f41c a2bc 12bb 0cbe
00000180: 89f2 6b3e 1838 4fbd f090 ae3d dc27 153e
00000190: 4bf8 d9bd 4065 c6bd 536e 21be e064 5d3e
000001a0: 3c8f de3d e7cf 8cbb 9e59 92bd 7817 0880
000001b0: 27cb 94bd b021 afba 7253 d5bd e9c8 023c
000001c0: c712 bd3d a383 0b3e 5fe0 ed3d 7679 503d
000001d0: 1342 bcbb b04d 00be a064 a2bd 1d2d d53d
000001e0: 40de c13b 285d 173d 1b9b c7bb b346 753e
000001f0: 695b c93d dba1 163e e8c1 f43d 2586 e7bd
00000200: afcb b33d 5860 943c 75a2 6f3e 803f 973c
00000210: eac9 81bd 06a5 373c 613e d13d 00d3 a3bc
00000220: 1dfb 0680 73ee 3a3e fba7 96bd 05e6 e33d
00000230: 306e 933e d0f5 d9bc 94ab bb3d 3593 0cbe
00000240: b991 b5bd 4969 02bd f3ed 06be 988f 013e
00000250: 24af e13d 69dd 853d a7ac e8bc 030b 9dbc
00000260: 2009 a6bd 06fd 42bc a4cb 7c3d 48bf dabd
00000270: 4028 743d 1dac 3e3e 03b1 173e f7f7 bb3c
00000280: aec7 3dbd cfe7 b83d 1d8a 463e 2039 06bc
00000290: f43f 87bd e183 a0bd b7e3 e6bb 769c d3bd
000002a0: 0626 5fbd c268 863d 2878 10bd 6990 053e
000002b0: e4f8 3c3c cf41 a9bb fdc5 333e 9f87 b73d
000002c0: f8c8 ee3d dbdb 2f3d 4580 2c3d 8aef a5bd
000002d0: 11ab eabb e88a 243e 8ef4 73bd a8b8 b2bd
000002e0: 74a3 ba3d 243d 8fbc cab9 9cbd 4fd2 a33d
000002f0: 3306 1f3d 197a 88bd 4d17 863d fd61 213d
00000300: 104f 6e3e 5d6b 453d ca45 8bbd b888 35bc
00000310: 0ed2 09bd b2bc 533e 3c60 e83d 9c1c ed3b
00000320: afe2 71bc 2b3d 24be 23a3 473e 4280 9b3d
00000330: ac16 e23d 9cd7 debc d5f2 133e f29f 13bd
00000340: 4de1 463e ff99 27be 13fa d43d 12be 2d3d
00000350: 2c02 5ebd e0ec 253e e04f 063d aa30 4ebc
00000360: 0c7f f9bd 5d9c 07bd ff2c ce3d 154a 153e
00000370: 2240 1100 4a2e 0f3c de17 943d 39d9 0d3e
00000380: 1c7c 2a3b 9da0 c9bd 535c 2f3e 0fe7 333e
00000390: 051e 013e 23a4 0cbe fc36 023d 773d 9c3d
000003a0: fc3a 483b 4035 0bbd a87e 1cbd ccac fb3d
000003b0: 2c17 833d e247 4e3d 2199 e83c 6937 823d
000003c0: 434e 863e 7a22 163e 488a 2d3d 7f9c 0c3b
000003d0: 335d c5bc 3bec f5bd 241d 55bd c8c8 a33b
000003e0: 761d 2e3e 1ccc 0b80 f8df 863d 2bbd ec3c
000003f0: ae66 2fbc 3b53 753d 504b f33d c6bb d93d
-0.07491071 -0.039757963 0.01806523 0.031057345 0.18617475 0.06676186 -0.02344899 0.08333495
0.09080975 0.062365487 -0.15940788 0.0547545 -0.073955394 0.041358966 0.055378098 -0.048107155
0.024435908 -0.13481064 0.0488357 0.12723094 0.0737938 0.011514962 0.12731251 -5.11031e-40
-0.06259759 0.14090654 -0.005707284 -0.16739558 0.15228336 -0.02362663 0.12951992 0.20780487
0.06277636 0.17944013 0.081110895 -0.036872882 0.068570875 0.015185842 0.08825286 0.1825416
0.08610684 0.04529154 0.22608033 -0.015763497 -0.049761146 -0.054043427 0.028261168 0.044856027
0.025713123 -0.07667725 -0.0024471777 0.06885564 0.15882346 0.10954992 0.22727062 0.11889386
0.045870744 0.09563702 -0.11489497 -0.03636035 0.03891448 -0.06820847 -0.032636713 -0.034511663
-0.029453976 -0.04304164 0.21879831 0.07712308 0.032116015 0.19832656 0.24126072 -0.048750084
0.083623216 0.17486712 -0.013298532 0.07201582 0.15325405 0.10484141 -0.0013452943 -0.20194386
-0.017512048 0.035680145 0.005583577 0.15642478 -0.1020979 -0.0619342 0.08323917 0.10118241
0.04924488 -0.15192904 0.04501979 0.056001723 0.12716793 -0.12559137 -0.019789197 -0.13743237
0.23041739 -0.050590605 0.085237384 0.14565986 -0.10643061 -0.09687281 -0.15764742 0.21620512
0.108671635 -0.004297245 -0.07145999 -7.43103e-40 -0.07265311 -0.001336148 -0.104163066 0.007982471
0.09232097 0.13624434 0.11615061 0.050897084 -0.0057451813 -0.12529635 -0.07929349 0.10408995
0.005916387 0.036954075 -0.006091488 0.23952751 0.09831888 0.1471018 0.11951047 -0.11304883
0.08779084 0.018112347 0.23401816 0.018462896 -0.0633734 0.011208778 0.10216976 -0.019998074
-6.41095e-40 0.18255024 -0.073562585 0.11127857 0.28795004 -0.02660647 0.09163585 -0.1372803
-0.08865685 -0.03183869 -0.13176708 0.12652433 0.110197335 0.06536371 -0.02840264 -0.01917029
-0.08107209 -0.011901146 0.061717644 -0.10681015 0.059608698 0.18620344 0.14813618 0.022945387
-0.046333008 0.09028589 0.19388624 -0.008192331 -0.06603995 -0.07837654 -0.0070461887 -0.10332577
-0.05447962 0.0656295 -0.03527084 0.1304337 0.0115339495 -0.0051653157 0.17555995 0.089614145
0.116594255 0.04293428 0.042114515 -0.08102329 -0.007161506 0.16068614 -0.059559397 -0.08726627
0.091132075 -0.017485209 -0.07652624 0.079990976 0.03882427 -0.06663913 0.06547413 0.03940009
0.23272347 0.048198093 -0.068004206 -0.01107996 -0.03364759 0.2067745 0.1134648 0.0072360765
-0.014763518 -0.16038959 0.19495825 0.075928226 0.110394806 -0.02720242 0.14448102 -0.036041208
0.19421883 -0.16367339 0.1039926 0.042417593 -0.05420129 0.16203642 0.03279102 -0.012584845
-0.121824354 -0.033108104 0.10067176 0.14579041 1.58421e-39 0.0087390635 0.07231115 0.13852395
0.0026013916 -0.09845088 0.17125063 0.1756861 0.12609108 -0.13734488 0.03179072 0.07628911
0.0030552736 -0.03398633 -0.038206726 0.12288818 0.06400904 0.05036152 0.02839333 0.06358225
0.26231584 0.1466159 0.042368203 0.0021455584 -0.024092292 -0.12007948 -0.052029744 0.0049983
0.17003426 -1.083411e-39 0.065856874 0.028898796 -0.010705633 0.059893828 0.11879599 0.10631518

encoder.0.bias f4 [300]
00000000: 1ea9 493e d2fe 8b3d cea5 703e a039 3f3e
00000010: 5497 0d3e 29f2 853d 680b 823e b146 773d
00000020: 8210 413e f5ec 973d 8d44 9f3d cc9d 213e
00000030: 80ce 1e3e 09cb ea3d 6a3a 243e 456a 8f3d
00000040: f987 b53d 288b 153e aadf 2f3e 0675 7a3d
00000050: 122a 0f3e 16f7 e93d 0347 463d 074d af3d
00000060: a1c6 4c3e 0fe5 e03d 4a5e be3d c197 103e
00000070: cfb2 5d3e 0185 3c3e 173d 3e3e 908a 213e
00000080: 400f 153e 99d8 0f3e d677 743d 9993 ab3d
00000090: 1d1d 393e 2397 f33d 705c 0d3e d442 113e
000000a0: 79dc 5f3e cd1b 7f3e b66b dd3d 17d2 ae3d
000000b0: d505 2f3e e3b4 103e b390 d93d 22a4 2e3e
000000c0: 7278 093e 25f1 bd3d a607 a73d 9d20 e33d
000000d0: 6eae 0a3e 4d7e 483e 87fd 263e 63cf 183e
000000e0: db7e 073e 7dfc 0f3e 51ca b03d d50d 3f3e
000000f0: d800 673d 7c02 093e 4824 d63d 6534 243e
00000100: 7df9 653e 6d2c f03d f9e6 2e3e c6db 443e
00000110: 03e7 e93d c86d 0f3e d963 6a3d f874 413e
00000120: ddd8 573e 4766 063e 03fc fb3d 61c9 303e
00000130: fd63 533e a4b9 873d 9c57 b43d d079 343e
00000140: 63ba 173e d3ac ef3d ba75 8d3d f1e1 ba3d
00000150: 7522 883e 0bb1 823e a280 d33d bd8d c73d
00000160: 0a2e f03d 1f52 323e bb47 163e e455 513e
00000170: 63ce 833d f834 f03d 3b38 633d 1529 273e
00000180: 5847 883d 6561 9d3d ecc9 db3d 3e34 ba3d
00000190: 04a0 063e 53a1 213e cb75 393e 5f5f 633d
000001a0: 8df5 f03d 6bcb 6f3d b073 2a3e dc67 973d
000001b0: d966 383e 6d40 253e 8c3b 173e 6e86 fa3d
000001c0: 6279 4c3e 3fdf 423e 7f6c a33d 4129 113e
000001d0: 3084 f03d fa22 8d3d ca36 013e 6391 cf3d
000001e0: 49be 483e 8cd8 d13d 6e3d 113e 2d6b 5f3d
000001f0: 9a4f b53d 96ba f33d 8dd8 3f3e 031a 0b3e
00000200: fb5e 0f3e b5c5 a63d db10 163e 7457 5f3e
00000210: 9958 833e 4f16 153e 01e1 c23d 229a 583e
00000220: 0f74 d43d 7fc2 633e f7c8 243c 144c f43d
00000230: 5e4b 053e 5904 063e 1aa4 553e 1798 023e
00000240: d44a 083e 6fe3 ec3d 5375 193e efec 373e
00000250: e740 023e 28ba 623e 175d 263e 19e7 303e
00000260: 286f 073e 9db3 143e aa31 293e 7c4f fc3d
00000270: 9d72 e03d 99b4 fb3d bc85 ff3d ef99 d73d
00000280: 5933 763e 0424 213e 607a 263e 1852 603e
00000290: 2e36 3b3e afa7 293e 4f6f 323e c48f fe3d
000002a0: c0d4 833d e653 223e 6d6e 0c3e ab32 863d
000002b0: a31c 363e 2d6b 123e a85b 0e3e 3be2 763d
000002c0: 7006 d33d 729f 283e bd1d 853d 4b14 af3d
000002d0: d59d 523e d7d6 ff3d d397 de3d b50f b13d
000002e0: d9a7 4a3e 73c4 943d 610c 113e cca3 073e
000002f0: 6cb5 453e bd85 213e 2bd9 273e 46dc 053e
00000300: 919a 0d3e 088f 003e 7235 873d e344 1c3e
00000310: d7c0 1d3e d6be 413e b23d fa3d c411 103e
00000320: 8ae8 e63d 48cb 1e3e d233 833d 77fe f73d
00000330: 77d6 593d 5ed5 bc3c bb91 1a3e 5bea a13d
00000340: 8118 d53d f9ec d63d df02 303e c2a3 4f3e
00000350: 95d1 253e 906f 093e 1e94 523e 44a0 9f3b
00000360: d7a0 4b3e ec44 103e 347d 4e3e a365 e73d
00000370: bc56 1a3e 855e 153e 7687 ca3d c96c 263e
00000380: 401e 553e a97b 803e 0194 423e 7b76 0c3d
00000390: 7a3c 5a3d 42a8 123e 607d 733e 85e7 b83d
000003a0: 9817 a83d 2f5f 183e c92d d63d 0f42 683d
000003b0: 088e ec3d 4b4d 493e 4141 2c3e ce9b fa3d
000003c0: 2ecb 143e ef4a 483e 18a1 223e 1e3d 483e
000003d0: aea6 173e 7957 8d3d 23a7 463e 4a08 e63d
000003e0: bd29 f13d 6bd4 993d 4b35 c93d 8d11 dc3d
000003f0: 7e97 173e e77a 0e3e 3182 8e3d a88d 473e
0.1969342 0.068357125 0.2350075 0.18674326 0.13827258 0.06540329 0.25399327 0.06037015
0.18853953 0.07418243 0.07776747 0.15782851 0.15508461 0.11464507 0.16037908 0.07002691
0.08863825 0.14603865 0.17175165 0.06114676 0.13980892 0.11424081 0.048407566 0.08559614
0.19997646 0.109811895 0.09295328 0.1412039 0.21650241 0.18410112 0.18577991 0.15775514
0.14556599 0.14047469 0.059684597 0.083777614 0.18077512 0.118940614 0.13804793 0.14185649
0.21861447 0.24912949 0.1081156 0.08536165 0.17092068 0.14131503 0.10623302 0.17054799
0.13424852 0.0927451 0.08155756 0.11090205 0.13543102 0.1957943 0.1630765 0.14922862
0.13231985 0.1406116 0.08632339 0.1865762 0.05639729 0.13379854 0.10456139 0.16035612
0.22458453 0.117272235 0.17080297 0.19224462 0.11421015 0.14006722 0.05722413 0.18892276
0.2107882 0.13124953 0.12303927 0.1726432 0.20643611 0.06627205 0.08805773 0.17624593
0.14817195 0.117028855 0.0690722 0.09125126 0.2658879 0.25525698 0.10327269 0.09743831
0.11727531 0.17414139 0.146758 0.20442921 0.064358495 0.11728853 0.055473547 0.16324265
0.06654233 0.07684592 0.10731873 0.09091996 0.13146979 0.15784197 0.1811134 0.055510875
0.11765585 0.058543604 0.16645694 0.073928565 0.18007983 0.16137858 0.14768809 0.12232672
0.19968179 0.19030474 0.07979678 0.14175893 0.11743963 0.06891437 0.12618557 0.10135152
0.19603838 0.10246381 0.1418359 0.05454557 0.088530734 0.11900823 0.18734951 0.13584141
0.14001076 0.081431784 0.14654867 0.21810704 0.25653532 0.14559291 0.09515572 0.21152547
0.10373699 0.22242163 0.010057679 0.11928573 0.13017032 0.13087596 0.20863381 0.1275333
0.13309795 0.11566817 0.14986162 0.17961477 0.12720071 0.22141325 0.16246448 0.17275657
0.13225996 0.14521642 0.16522852 0.12319848 0.10959361 0.12290306 0.1247668 0.105274074
0.24043025 0.15736395 0.1625762 0.21906316 0.18282387 0.16567872 0.17425273 0.12429765
0.06437063 0.15852317 0.13713999 0.06552633 0.17784362 0.14298697 0.13902152 0.060274344
0.10303962 0.16467074 0.06499813 0.085487925 0.2056802 0.12492149 0.10868802 0.08645574
0.19790591 0.07264032 0.14164878 0.13246077 0.19307488 0.15773673 0.16391437 0.13072309
0.13828494 0.12554562 0.06601991 0.15260653 0.15405594 0.18920454 0.12218799 0.14069277
0.11274822 0.15507233 0.06406368 0.12109082 0.053183045 0.02305096 0.15094654 0.07906028
0.104050644 0.10494418 0.17188595 0.20277312 0.1619323 0.13421464 0.20564315 0.0048714
0.19885574 0.14088792 0.20164949 0.112986825 0.15072149 0.14586838 0.098891184 0.16252436
0.2081232 0.25094345 0.19001772 0.03429268 0.05328033 0.14321998 0.23778296 0.09028534
0.08207625 0.1488006 0.104579516 0.056703623 0.11550528 0.19658391 0.16821767 0.12236749
0.14530632 0.19559835 0.15881765 0.19554564 0.14809677 0.0690145 0.19399695 0.1123205
0.11775539 0.07511219 0.09824618 0.10745535 0.14803883 0.13914071 0.06958426 0.19487631

encoder.2.weight f4 [100, 300]
00000000: d8bf 9d3d 745b a9bd 65a8 923d 1ebc cb3d
00000010: d8ca 873e b3e9 d33c d5d9 7abd f2cc 8e3e
00000020: a3e4 973d 122d e5bc abd2 65be 727f 893c
00000030: 623d 2a3e f038 923e 04e8 c63d 2d58 60be
00000040: 2308 39be 4d23 fd3c 074a 853e 6d7d 273e
00000050: 34d1 0abe 75a6 b4bd 6b33 6f3d 27f0 083e
00000060: 0595 5c3e 56e4 bc3d af46 b1bd 60db 65bd
00000070: 504f fcbd b43c 7f3e 50f6 4f3d ae1e 82bd
00000080: e628 2c3e 0c8e 78be 3a26 0e3e 2b8a 50be
00000090: aca1 35be 79cf 49be 7b36 0cba 395b 47bc
000000a0: 4148 32bc a024 3abe 0868 41bc 5ed8 083e
000000b0: 1ac5 383e b8d2 623e f262 b6bc b0a6 6b3d
000000c0: f9a8 923d c6f0 8dbb a4a3 86bd fc2d 4e3d
000000d0: 2fde 9ebe 1fa1 743e 6882 b6bc bcf9 72be
000000e0: 188a 783e 1a58 b83d a99c 243c 56eb 43be
000000f0: e84b 0e3d e9d6 233e 922d 203e c238 d7bd
00000100: e1ed 163e 8e5a 5abe 94f5 8d3d 0156 53be
00000110: 5f0b e8bd 5d38 37be 4edc 683d 24f5 60be
00000120: 6feb e03d 67e1 36bd 1199 cf3d 29f0 7f3e
00000130: 80b8 b3bd 48c7 bb3d c18b 423d bd23 433d
00000140: b1df 8d3d f3b5 24bd 7d08 9f3e 8ff1 863e
00000150: b140 443c 358f b2bd e7ad 3a3e 7e25 d23d
00000160: 2f28 82be 0980 7a3e 8ac6 d43d 8a90 113d
00000170: 39e2 503e c0da 903e d9ee 3fbd 5094 45be
00000180: 88da 59bd 8296 3bbd 780a 66bb 5b0d 133e
00000190: 59e1 fc3d 2d39 00bd 3ea5 a4bc bc44 0dbe
000001a0: 83a1 99be 6bcb 103d 6d10 93bc c959 54be
000001b0: 8f45 e1bc e3e1 8cbd 3a93 973e 5bd4 d1bd
000001c0: 6834 7f3e 5fb4 233e 98f7 893b 1479 17be
000001d0: 2ddb 2ebe 645c f6bd b39b 1cbd e4f9 423e
000001e0: f539 3dbe 5909 3a3d f04e 373e 5795 023e
000001f0: 7e95 8b3d e5f7 a03d 0d91 22be b364 98be
00000200: a031 34be 22e3 223e 2eb2 f83d 2fb9 13be
00000210: 6fae dabc 356a 933c 779d 793e c4a0 d5bd
00000220: 0994 2d3e 1d38 bf3e b5cd 193e d754 7f3e
00000230: 9b58 393d 118f 3a3e 5553 683e 51f0 383e
00000240: 8c70 333e a258 5abd 2b47 b83d 3bbe 2fbe
00000250: 3b26 44be 0a4a 273e c0ff 603e 2bee 6fbe
00000260: b89d 13be 28fa eebc d17d ac3d 44e3 19bd
00000270: cd0d 51be 9f6f cfbc b7a8 2cbd 9f60 203d
00000280: 4391 393d 38e5 b33c 1795 6b3e fbca 613d
00000290: 0f00 673e 50ab 373b 848c 83be 6472 aa3d
000002a0: f060 c1bb d31f a9bd 3fb2 1bbe 9d1b a93c
000002b0: a450 973e 0334 4abe a738 62be 2410 c7bc
000002c0: bf36 363d a7da f33d fae7 263d 2123 59be
000002d0: de9e 5bbd dccd 4ebe 8ac8 81be dd8b 1dbe
000002e0: 6147 9d3e 181c 0f3d 8a67 a03b c4fa 1dbe
000002f0: cfef b6bc 6799 32be 32e9 9f3e 5486 073e
00000300: ddd5 d5bc c435 56be 442b 163e 044c 43be
00000310: adc4 843d 1830 8bbd c6ab 033e 9cbe 2d3d
00000320: eb67 8ebc 9bfb 2ebe 1a65 e33d ade2 643e
00000330: 5865 893d 21c8 253d 69f7 743d 38c2 3dbe
00000340: 8a42 623e d9c5 943d 7ce7 6f3d 592b 1aba
00000350: 9e61 fbbd 8831 0fbe 2ec6 7bbd 561d bfbe
00000360: 9a72 7d3e 670e d63c 4832 6cbd 9bc9 6abe
00000370: 7b8a 1cbe fed0 263d bacb 9db7 daca 00bd
00000380: 944c 8f3e 0588 36be bfa4 24be 20f8 333d
00000390: a217 acbd 1ac7 ad3d 511f 96be 25ea a1bd
000003a0: 5e32 42bd 27c7 1bbe dc37 b6be ae8c 1cbd
000003b0: 9888 2b3e 2a29 303d 1678 ba3d 4a61 ba3d
000003c0: a119 533e 6b7c 4abe 6976 b33d d469 313d
000003d0: 9389 06bd baed 633e 3d37 4f3d 2a9f 6f3e
000003e0: 9d61 afbd 9a88 2cbc 194a c43e 0a8e 56be
000003f0: 5cb0 e0bd fad7 763e 8b3e 55be ec66 fa3d
0.07702607 -0.082693964 0.07161025 0.0994799 0.26521945 0.025868272 -0.061242897 0.27890736
0.07416656 -0.027975593 -0.22443645 0.016784403 0.16624978 0.28559065 0.09712222 -0.21908636
-0.1806951 0.030900622 0.2603304 0.1635644 -0.13556367 -0.08820812 0.058398645 0.13372861
0.21541221 0.09223239 -0.0865606 -0.056117415 -0.12319815 0.249255 0.05077201 -0.06353508
0.16812477 -0.24272937 0.1388177 -0.20365207 -0.17737454 -0.19708051 -0.00053486944 -0.012167745
-0.0108814845 -0.18178034 -0.011804588 0.13363788 0.18043938 0.22150695 -0.022263978 0.057532012
0.07161135 -0.004331681 -0.06574181 0.050336823 -0.31028888 0.23889588 -0.02227898 -0.23728079
0.24271429 0.09001179 0.010047116 -0.19132742 0.03474036 0.1599995 0.15642384 -0.105088726
0.14739181 -0.21323606 0.06931606 -0.20638277 -0.11330294 -0.17892595 0.056850724 -0.21968514
0.109824054 -0.044648554 0.10136617 0.24993958 -0.08775425 0.09168869 0.04749656 0.047641505
0.069274314 -0.040212583 0.31061164 0.2635617 0.011978314 -0.08718721 0.18230401 0.10261057
-0.25421283 0.24462904 0.10389431 0.035538234 0.20398797 0.28291893 -0.046858642 -0.19294858
-0.053186923 -0.045797832 -0.0035101455 0.14360563 0.12347669 -0.031304527 -0.020098325 -0.13795751
-0.30006036 0.035350244 -0.017952168 -0.20737375 -0.027498988 -0.06879022 0.29604512 -0.10245582
0.24922335 0.15986775 0.0042104237 -0.14792281 -0.17075796 -0.12029341 -0.038234424 0.19040638
-0.1847914 0.04541907 0.17901206 0.12752281 0.06815623 0.07859782 -0.15875645 -0.29764327
-0.17597055 0.15906957 0.1214336 -0.1442611 -0.026694505 0.01799498 0.24376474 -0.10431054
0.16951002 0.373475 0.15019877 0.24934708 0.045250516 0.18218638 0.22688039 0.18060423
0.17523402 -0.053307183 0.08997949 -0.17162411 -0.19155209 0.16336837 0.21972561 -0.23430698
-0.14415634 -0.029172018 0.08422435 -0.037570253 -0.20415421 -0.02532178 -0.042153087 0.039154645
0.045304548 0.021959886 0.23006092 0.055125218 0.22558616 0.0028025694 -0.25693142 0.083225995
-0.0059014484 -0.08258023 -0.15204714 0.02064305 0.2955371 -0.19746403 -0.22091924 -0.024299689
0.044485804 0.11906939 0.040748574 -0.21204807 -0.053618304 -0.20195717 -0.25348312 -0.15385385
0.3071852 0.0349389 0.0048951553 -0.1542769 -0.022331147 -0.17441331 0.312326 0.13234836
-0.026102955 -0.20918947 0.14664942 -0.19071966 0.064828254 -0.067962825 0.12858495 0.042418107
-0.017383536 -0.17088167 0.11103268 0.22352095 0.06708783 0.04047406 0.05980626 -0.1853112
0.22095695 0.07264299 0.05857037 -0.0005881093 -0.122744784 -0.13983738 -0.061468296 -0.3732707
0.24750748 0.026129914 -0.05766514 -0.22928469 -0.15287201 0.040726654 -1.8810726e-05 -0.031443454
0.27988112 -0.17825325 -0.1607847 0.043937802 -0.08402945 0.08485241 -0.29320768 -0.07905988
-0.047411315 -0.1521269 -0.35589492 -0.0382201 0.16751325 0.043008007 0.09104936 0.09100588
0.20615245 -0.19774024 0.08762819 0.043313816 -0.032846045 0.22258654 0.05058979 0.2340056
-0.0856354 -0.010530615 0.38337782 -0.20952621 -0.10971138 0.24105826 -0.2082464 0.12226662

encoder.2.bias f4 [100]
00000000: bda8 3a3d 8fba 63bc 5629 99bc 898a 783d
00000010: 6bbf 5c3d ee7a cb3a d22c 51bc c1ff 9f3c
00000020: 27d3 93bc 0cc6 253b 4d5f f03c 30a1 913c
00000030: a89f 3c3c 95ab 1c3d 0b9f 44bc f6fa 0e3c
00000040: 4177 42bd 2f86 cbbc 2178 1e3d 0fb4 a0bc
00000050: f874 4bbc 053d ccbb 4a5c 4d3d 38d1 b5bc
00000060: 74eb 4ebb 2bc9 b83c 9eea e13c 0238 32bd
00000070: c263 ecbc 0316 963d 7c73 103d 199d a9bc
00000080: f39e 82bd 24d9 1bbd 4614 46bb d48c 573d
00000090: e788 0fbd d9fb f13c defa 0a3d a56a 623c
000000a0: 2f6a 5dbd adc5 113d c2cb ddbc 7a22 2c3c
000000b0: cd1c 4a3d 4c67 40bc b4dd a4bb 594a 0ebd
000000c0: 35ff ad3c 5fa0 db3c bcc2 7dbc 2655 bc39
000000d0: 7ac2 113d f953 963c 55cd 373d 4c66 c53c
000000e0: 42b4 533d 4106 dc3c ddd5 4d3c 424c 583d
000000f0: 3614 773d 1cea f4bb bf43 3fbd 3642 f73b
00000100: 3b49 493c 6128 733c e9f7 80bd 0627 8abd
00000110: ce87 77bd 4d1e 4d3b 36c8 643d 90cd 07bd
00000120: f92d 05bd a3eb 9a3d b98a 0e3d 7d04 64bd
00000130: bd5a 393c 4ddc 3d3d b6e5 453d a9eb 0abc
00000140: ce57 3bbb ca7f 4abd 1839 493c 5e17 a0bc
00000150: 61ad 6ebd b2a7 a7bc d9af 3e3d 7f75 be3c
00000160: caaa 79bd f417 093d 7b37 4bbd 9380 833c
00000170: 8f02 5c3c 5587 453d 710c 39bc ff5b 3ebc
00000180: f473 ad3c 66fb e6ba 1cd1 053d 6f80 823d
0.045571078 -0.0138994595 -0.018696468 0.060678992 0.053893488 0.0015524307 -0.012767034 0.019531133
-0.018045021 0.0025295047 0.029342318 0.017777056 0.011512674 0.03824957 -0.012000809 0.008726826
-0.04747701 -0.024844257 0.038688783 -0.019617109 -0.012418024 -0.00623286 0.05013684 -0.02219449
-0.0031573446 0.022556862 0.027577695 -0.043510444 -0.028856162 0.07328417 0.035266384 -0.020704793
-0.063779734 -0.03804888 -0.0030224486 0.05262454 -0.03504267 0.029539036 0.03393065 0.013819371
-0.054056343 0.03558891 -0.027074698 0.010506267 0.049343873 -0.011743378 -0.005031312 -0.034738872
0.021239856 0.02680987 -0.015488323 0.00035921595 0.035585858 0.018350588 0.044873554 0.02409663
0.05168558 0.02685845 0.012563196 0.0528071 0.06032201 -0.007474197 -0.046695467 0.0075457348
0.012285526 0.01484117 -0.06297285 -0.067457244 -0.060432248 0.0031298578 0.055855 -0.033155024
-0.032514546 0.075644754 0.034800265 -0.055668343 0.011313138 0.046352673 0.048314773 -0.008479037
-0.0028586271 -0.049438275 0.012281679 -0.019542392 -0.058270816 -0.020465706 0.04655442 0.023249386
-0.060953893 0.03347011 -0.049613457 0.01605252 0.013428344 0.048224766 -0.01129447 -0.011618613
0.021173455 -0.001762253 0.032670125 0.06372153

decoder.0.weight f4 [300, 100]
00000000: 01f8 f1bd e1c6 b6bd 98ed 1fbe cf21 6f3e
00000010: 3b69 d1bb 2e7c 74be 306e e53d 1381 f0bd
00000020: abc6 ad3c 9a64 823e 2d97 2fbe c4b5 9d3e
00000030: 47e9 6c3e cfee d3be 43d3 2ebe 7cca 1c3e
00000040: 8e7e 2cbe 4c28 073d 6053 56be 25f0 193e
00000050: a51d b4be 0f20 603e 64e9 783e f82e ddbd
00000060: 926b 03bd 6c48 97bc 356b 0abd 62d2 4ebd
00000070: b35f 04bd 6862 5d3e 9aa5 81bd a900 3dbe
00000080: 6564 2d3e 8b3d ef3d 8ade ea3e a519 fd3c
00000090: 8d4d 1b3b 2d81 fabc a2df 3a3e 828b 0bbe
000000a0: 0212 843e aa91 3d3e 91e0 3a3e d53b 26bd
000000b0: 12e7 23be 5b63 163e 4af0 1e3e 910a 5f3e
000000c0: 7232 3cbe 84e4 203e 35a5 f13d f070 5a3d
000000d0: a0b1 4dbd de33 0cbe 8e67 2c3e dc4b 7cbd
000000e0: 9fbe 6f3d 5e52 943d 6eb5 273d bd68 0f3e
000000f0: 6fd9 393e 5e7c 4ebe f332 64bd d5de 23be
00000100: 2314 243e 6658 f6bb 2741 793e 4be1 783e
00000110: 4004 acbb 1355 713e 4068 8fbe de48 61be
00000120: d268 0ebe a345 e03d d5fb b83c 7ec0 f6be
00000130: cad9 323e 591b 183e 1b13 90bd d3eb 4ebe
00000140: 87f2 6e3e e068 5b3e f6e8 8fbd 9d63 24be
00000150: bfec d93c cf98 b53c 37e6 f13d 389d 933d
00000160: 1560 80bd 91e7 b83b 88ce 273e 3a74 1ebe
00000170: ae98 673e dbd3 8b3d 7e6c 81bd 71b5 c4be
00000180: 0b42 463e cb7d 553e bd1b e43e 913f ab3e
00000190: 000f 91be f5c6 7cbe a939 04be 29b5 623b
000001a0: 746d 10be 600a b0bd 289b 853e cf3f 433d
000001b0: 92cd a33e 79ca 623d 9abf 34be eadf 8bbd
000001c0: 6e10 81be 53f0 623e a9b1 0cbe 82f3 44be
000001d0: 02d7 123e 8a84 ae3d 22ce 4f3e 0e0c da3d
000001e0: 504e d03d be44 3c3e 7d5e a93e 5dbd 54bd
000001f0: 9b1b 253e 97bb d13b d87d 01be 4e60 8d3e
00000200: 4ce4 1dbe 0206 ba3d fffc 47be 6031 c23d
00000210: 270f 31be 27d6 1abe 4c4d 50be 5226 b4be
00000220: c9a3 153e 919e b1bd 5dda 85be 5b42 54bd
00000230: ee53 ba3d da5e a2bd 9a92 2b3e 070e 71be
00000240: 67c4 b5bd 6df3 a03e eb9c 96be 0428 3dbd
00000250: 9d3b 57be b322 5f3e 33ae 6abe 0506 7ebd
00000260: 1fad 7c3e 76bf ba3d f5b1 88bd 3310 cbbe
00000270: 684f 1abe a670 7e3e 3040 3ebe 0853 b13e
00000280: e964 84bd e3dc be3d 3875 4a3e b07f 97bd
00000290: c93c 39bd 5de3 963c 8ac2 fa3d 83e7 87bb
000002a0: 3073 5d3b 45db 05be 5e2f 49be bb28 f33d
000002b0: 3427 35bd e589 2abe c079 af3d 6240 aebd
000002c0: 5cf2 383e c20f 14be f02d c43d 522d b93d
000002d0: 50e5 9d3e 978f 98be 116b 313d f9d2 00bc
000002e0: 8e43 b23e ee66 8cbe c0df 163e 7d72 903e
000002f0: 1a77 ed3d 19cd 323e 5c0c 94bd d855 3bbe
00000300: ac58 edbd 9c89 a3be 5902 9fbc ce89 063e
00000310: eb1c 7f3e 91d5 60be d2d9 7c3e b6b3 dfbd
00000320: c1d6 703e 8e72 2abe b91f 6e3d 490e 96bd
00000330: 9f78 7a3b 07c2 14be 9c10 6d3e ff81 bebd
00000340: aac6 a53d 550f 7e3e fe65 c13d a7be d53d
00000350: ac54 34bd a508 81be a868 24be f8a0 2d3d
00000360: fc9a 12bb 583e df3c 2787 ddbd 6825 6e3d
00000370: c98d 823d 4db6 633e 4338 3d3e be92 ec3d
00000380: 714e 363d 217d 51bd 0576 2fbe 739c 253e
00000390: adb4 023e 3deb a73d 6ddc a83d c073 4d3e
000003a0: 60f9 86be ae49 6abd f5fb 92be 0bf6 403d
000003b0: 41c9 86be ea96 4ebe d468 9fbd c8fc 113e
000003c0: 21da 3ebe e6b8 ffbd 9c77 4cbe 787e c13d
000003d0: 0b63 333c 1086 c23b f0b2 0fbe e6cb e73c
000003e0: a56a 3a3d 971c e8bc c823 fb3d fb54 143e
000003f0: 7134 05be fcdd 91be bef6 8abe ed81 6c3c
-0.11814881 -0.08924652 -0.15617979 0.2335274 -0.0063907183 -0.23875496 0.11202657 -0.11743369
0.021212896 0.25467378 -0.17147513 0.3080274 0.23135863 -0.41393134 -0.17072777 0.15311617
-0.16845152 0.032997414 -0.20930243 0.15033014 -0.35178867 0.2188723 0.24307781 -0.10799974
-0.03208501 -0.01846715 -0.033793647 -0.050493605 -0.03231783 0.2161957 -0.06330414 -0.18457283
0.16932829 0.1168166 0.4587291 0.030896017 0.0023697347 -0.030579174 0.18249372 -0.13627437
0.2579499 0.18512598 0.18249728 -0.040584404 -0.16006115 0.14686339 0.1552135 0.21781375
-0.18378618 0.15712172 0.11799089 0.05333036 -0.050218225 -0.13691661 0.16836378 -0.061595783
0.0585314 0.07242273 0.04094451 0.14004798 0.1814935 -0.2016463 -0.05571265 -0.16002972
0.16023307 -0.007517862 0.2434126 0.24304692 -0.00524953 0.2356761 -0.28009224 -0.22000453
-0.13907173 0.10950782 0.02258102 -0.48193735 0.17465892 0.14854182 -0.07034894 -0.20207147
0.23334704 0.21426725 -0.07026856 -0.16053624 0.026602147 0.022167591 0.11811488 0.072077215
-0.06268326 0.0056428392 0.16387379 -0.15474024 0.22616836 0.068275176 -0.06319521 -0.3841968
0.19361131 0.20848767 0.44552413 0.33446935 -0.28331757 -0.24685271 -0.1291262 0.0034592843
-0.14104253 -0.08595729 0.26094937 0.047668274 0.31992775 0.055368874 -0.17651215 -0.068298176
-0.25207847 0.22161989 -0.13739647 -0.19233516 0.14339831 0.085213736 0.20293477 0.106468305
0.10171187 0.18385598 0.330799 -0.051938403 0.16123812 0.0064005363 -0.12645662 0.27612537
-0.1541912 0.09083177 -0.19530104 0.09482074 -0.17290936 -0.15120755 -0.20341986 -0.35185486
0.1461326 -0.08672822 -0.2614316 -0.051821094 0.090980396 -0.07928248 0.16755143 -0.23540507
-0.088753514 0.3143572 -0.29416594 -0.04618074 -0.21018834 0.2179058 -0.22918014 -0.06201746
0.24675415 0.091185495 -0.066745676 -0.39660797 -0.15069354 0.2484766 -0.18579173 0.3463366
-0.064645596 0.093194745 0.19771278 -0.07397401 -0.045223985 0.018418962 0.12244137 -0.0041474714
0.003379058 -0.13071926 -0.19646975 0.11873003 -0.04422684 -0.16654165 0.08568144 -0.08508374
0.18061203 -0.14459136 0.095790744 0.09041847 0.30839014 -0.2979705 0.043314997 -0.0078628
0.34817165 -0.2742228 0.14733791 0.28212348 0.115949824 0.17461051 -0.0722892 -0.18294466
-0.115891784 -0.31940925 -0.0194103 0.13138506 0.24913375 -0.21956469 0.24692467 -0.10922949
0.23519422 -0.16645262 0.05813572 -0.073269434 0.0038218868 -0.1452714 0.23150867 -0.093021385
0.08094533 0.24810536 0.094432816 0.10436755 -0.044026062 -0.25201908 -0.16055548 0.04238984
-0.002237021 0.027251408 -0.10816794 0.058141142 0.063746996 0.22237511 0.18478493 0.11551426
0.0445084 -0.051144723 -0.17134865 0.16172962 0.12764235 0.08199165 0.08245168 0.20063686
-0.26362133 -0.057199173 -0.28707853 0.047109645 -0.2632542 -0.20174757 -0.07783666 0.14256585
-0.18637897 -0.124864385 -0.19967502 0.0944795 0.010948907 0.0059363917 -0.14033103 0.028295469
0.04551186 -0.028333945 0.12262684 0.14485542 -0.13008286 -0.28489673 -0.27141374 0.014435274

decoder.0.bias f4 [300]
00000000: 9c31 213c 39d8 6fbc 29ac 023e a980 d3bc
00000010: b09e 153d 6441 7b3d 783d 733d 1399 4a3c
00000020: 2e07 67bd eec4 943d 582e cd3c 1080 7c3d
00000030: e961 a03d f25f 633d 2d29 1a2e 33a2 433d
00000040: 7c07 8b3c f8d2 823d 3a18 223b fc61 2abc
00000050: 7f95 843d 0b42 ea3c 6acc 503c ed4a 61bc
00000060: 9a3b fa3c 9049 d63c 49e8 c43d 4f0e 243d
00000070: f281 2e11 6d09 913d 744c 933d 4aa9 be3d
00000080: e92d 13bb 8a12 223d 6bda 303a 8a27 0abb
00000090: c695 8c3d be0c 483d 48e0 fcb9 2e2f 12bd
000000a0: 006f 903d 3db9 7fbc 29e2 923d e2d7 283d
000000b0: d0e6 a33c f479 c0bc 90c9 b23c e00b 273d
000000c0: 877b 0bbc 67ce 783d 9bb0 473d 1031 103d
000000d0: c9f7 923d 6188 763d 3f25 763d eb0f ecbc
000000e0: b82b 8f3d 4dd2 1b3d 29f1 c23c f965 953d
000000f0: 6dc9 b53d 25b7 a13d f236 b13d 89f3 903d
00000100: aeeb 5c3d 1eb4 cc3a 2407 493d 892e 933d
00000110: c96c c33c 2756 f03c 9b4e ab3d ae2a 7aaa
00000120: 7053 3f3d f6d7 a03c a1db 823d fc8b 20bd
00000130: f020 273d 5f4a 933d f6e8 ae3d 8b75 a0bb
00000140: 0c94 3b3c 8982 983c 419e 003d 2157 843c
00000150: b14a 513c 940b 093d 4cb8 a73c a79b b6bc
00000160: 0f86 99bd c06d 993d 70b4 c63d 020f ba3d
00000170: 98ce 2cbd 785d 893d 7eec 13bd 3ada ccbb
00000180: 8556 ab3c f3a1 49bc a40a 4dbd e411 eebc
00000190: fc95 8f3d 4dc3 293d 9d19 5b3d 80d4 14bd
000001a0: de3d cc3b 5ce6 bc3d d9a1 4d3d 7aec 49bd
000001b0: 6a44 ed3c 63ec cf3d 69aa 313d 58eb 69bd
000001c0: b881 85bd 430b 513d 995b 913c bc6b 9c3d
000001d0: e1f1 ac3c adc2 bc3c 709d 273d 4cbc 933d
000001e0: 73bb 023d 70e4 ea3c bd0b 153d 9453 1abd
000001f0: 7815 943d 729c 9c3d 568f ab3d 78f2 df3c
00000200: e558 963d ff13 05ba c64e a93d 8602 ab3d
00000210: cfdd 613d e190 013d 384a 103d 470b e0bc
00000220: 6b2b 82bd 1068 9b3c c816 a83d 5ed7 af3d
00000230: 1ea2 85bc 28c8 ac3d 1c04 0d3c 10b0 f4bb
00000240: 9f50 313d e1fc fcbc 702d 7e3d 32aa 573c
00000250: a9dd 223c eeab a2bd a2bd db3c 211b e13c
00000260: 8dab 87bb 883f 4abb fa73 71bc 2286 5e3d
00000270: 6082 033d bf9e f0bb b278 c93d 569e 393c
00000280: cac1 ca3d 13c2 a83c 573f 10bd 9c47 ca3d
00000290: 01fb 233d 5d44 87bc 37f6 bdbc a50b cfbb
000002a0: 10ff 873d 1534 663c a935 ee3c 4d37 d23d
000002b0: 2810 b9bb cd2f 903d 75fa 473d 7348 dc3a
000002c0: 42b9 e9bb e4cf 1a3d 1dfc abbb 10d3 233d
000002d0: e430 bd3c c154 c93d 7505 d43c 457b 92ba
000002e0: 2be6 523d 2c74 80bd 2fa6 30bd 45ea b13d
000002f0: dd1c 163c 4b7e aa3d 84b5 b3bc 1d49 933b
00000300: 9a16 8e3d 075f 183d 105a 30bd 9214 dfbc
00000310: a761 84bc 6478 e1bb 2df7 14bb d190 bb3d
00000320: 6cf9 fb3b 4b9c 913d 439c 7f3d 46e2 9f3b
00000330: 77aa 9b3d 6f6b 123d b75f 21bd f9e8 14bd
00000340: 2080 373d 188d 01bd 80a7 9e3d a7e7 073d
00000350: 418a 1c3d 947e 003d 6cfc a23d 4a4a 893d
00000360: 3cb9 83bc f0d5 5c3d 5b03 f4bc f00b 263d
00000370: f717 d73d d683 813d 1165 0cbd aedd fbbb
00000380: bf0d 603d 89df f33c a0ab fc3c d681 abbc
00000390: 1cfc da3d d203 173d 0215 26bd 7d3e 903c
000003a0: a400 b63d 725e d63a 0588 40a4 bd70 b93c
000003b0: 3665 06bd 4e87 393d b12b 99bc 4c43 1fbd
000003c0: 2fdc d23c a22e 473d a92d 333d 6270 6bbc
000003d0: 6bd7 803d 6b4e 873c 4783 e93b b104 2ebd
000003e0: 9922 f9bc 305a 573d e3db b7bc 2506 72ba
000003f0: 7dab c93d 31f2 a53b 0b0a a13d 3c52 f9bc
0.009838488 -0.014638954 0.12760986 -0.025818186 0.03652829 0.06134166 0.059384793 0.012365597
-0.05640333 0.07264124 0.025046512 0.061645567 0.07831175 0.055511422 3.5052117e-11 0.047762107
0.016971342 0.06387895 0.0024733678 -0.010399338 0.064738266 0.028595945 0.012744049 -0.013750774
0.030545998 0.026158124 0.096146174 0.04005271 1.3766222e-28 0.07081876 0.07192317 0.09309633
-0.0022457785 0.03956846 0.0006746414 -0.0021080696 0.068645045 0.048840277 -0.00048232288 -0.035689525
0.070524216 -0.015608129 0.07172043 0.041221507 0.02000752 -0.023495652 0.021824628 0.04078281
-0.008513338 0.060743716 0.04875241 0.03520304 0.071761675 0.060188655 0.060094114 -0.028816184
0.069907606 0.038042355 0.023796635 0.0729484 0.088763095 0.0789626 0.08653058 0.07077701
0.0539357 0.0015617644 0.049079075 0.0718661 0.023855584 0.029337956 0.08364602 -2.2219268e-13
0.04671043 0.019634228 0.06389547 -0.039196 0.040802896 0.071919195 0.085405275 -0.0048968247
0.011448871 0.018616932 0.031400923 0.016154828 0.0127741555 0.033458307 0.020473622 -0.022291018
-0.07496273 0.07491636 0.097023845 0.09084894 -0.04218921 0.06707281 -0.03611421 -0.0062516006
0.02091528 -0.012306678 -0.050058976 -0.029061265 0.07011029 0.04144602 0.053491224 -0.03633547
0.006232961 0.09223625 0.050203178 -0.049297787 0.028963286 0.10152509 0.043375406 -0.057109207
-0.065188825 0.05103613 0.017743872 0.07637736 0.02111143 0.023042047 0.04092163 0.07213649
0.031917047 0.02867338 0.036388148 -0.037677363 0.07230657 0.07647027 0.083769485 0.027337298
0.07341174 -0.0005076527 0.08266978 0.08350091 0.055143174 0.031632308 0.03522703 -0.027349127
-0.063559376 0.01897052 0.0820747 0.08586 -0.016312655 0.08436614 0.008606937 -0.0074672773
0.043289777 -0.0308823 0.06205505 0.013163136 0.009940543 -0.07942949 0.026823822 0.027478756
-0.0041403235 -0.0030860621 -0.014737124 0.054327138 0.032106757 -0.0073431428 0.09837474 0.011329254
0.099002436 0.020600354 -0.035216656 0.0987694 0.040034298 -0.01651209 -0.023188693 -0.006318527
0.06640446 0.014050503 0.029078322 0.10264454 -0.005647678 0.07040367 0.04882284 0.001680626
-0.00713268 0.037795916 -0.00524856 0.039996207 0.023094602 0.09830619 0.025881508 -0.0011175653
0.051489037 -0.06272158 -0.043127235 0.086872615 0.009162155 0.0832487 -0.02193714 0.0044947998
0.06937905 0.0372 -0.04305464 -0.027231488 -0.016159846 -0.0068808068 -0.0022730336 0.09158481
0.0076896455 0.07109889 0.062404882 0.004879269 0.07600873 0.035746988 -0.03939792 -0.036354993
0.044799924 -0.031628698 0.07746792 0.033179905 0.038217787 0.031370714 0.07958302 0.06703623
-0.016079538 0.053914964 -0.029786756 0.04053873 0.10502618 0.06323974 -0.034276072 -0.0076863384
0.05470061 0.029769676 0.030843556 -0.020935934 0.10692617 0.036868878 -0.04054738 0.017607922
0.08886841 0.0016355051 -4.1748576e-17 0.022636766 -0.032811366 0.045295052 -0.018697591 -0.03888254
0.025739757 0.048628457 0.043744717 -0.014370056 0.06291088 0.016516885 0.007126245 -0.042484943
-0.030412005 0.052576244 -0.022443717 -0.0009232483 0.09847162 0.005064272 0.07863244 -0.03043472

decoder.2.weight f4 [227, 300]
00000000: e0c9 f9bc 7afb 28bd 4157 93bd fd5a 0d3e
00000010: 8410 8dbd 4b72 3fbe d0a9 8a3d 3f5c 97bb
00000020: 9a91 553d 43ee a7bd ebe0 043e 8d52 da3d
00000030: 465a 3cbd 2b21 20bc 3c7b f11a b95b c0bd
00000040: e5f2 693d 9f95 c63d 7e1f 05bd 8301 0bbe
00000050: d85e 663e 90a7 49bd eb73 d9bc 47a7 ec3b
00000060: 6ff9 fa3c e30a 863d 1511 123e 9bb2 0a3e
00000070: 5b28 0280 eb7c acbd 8086 97bd 51ea 3f3d
00000080: bf5a 1cbe 68fb ebbd f279 d33c a70f cfbd
00000090: 8019 88bd db6f 853d 6174 0400 1942 fd3d
000000a0: 5092 de3b 5f25 62bd 8e22 c73c e1b0 9a3c
000000b0: 60c4 7c3d 6ec6 013e f961 e43b bae5 5abe
000000c0: 2093 4dbe 90cf aebd 45eb 173e 11e3 aa3b
000000d0: 2f76 b33d 36ea 83bd 31d8 66bd e070 33be
000000e0: 92e5 d0bd ea97 28bc 8ef5 f8bc a32d 0a3d
000000f0: 4e11 173d cc59 403d 80d7 fb3d 88f2 48bd
00000100: 20e3 9f3d 7cb8 093e 55b4 8ebd 79bd 0abd
00000110: 0d5d 83bd 81ed 553d bfaa b23b c146 1f0e
00000120: 690e 9b3d 2015 b53c 20e7 173e 84b2 f5bd
00000130: 7bac 673e 5ad9 40bd 1cbf 43be d026 55bd
00000140: 010d 5cbe fd97 c8bc fdb7 35be 75a7 6dbe
00000150: 000e 1d3e 871f 3d3e 28cb 073e 29fb 813b
00000160: 078e d0bd 2f6c c73c 7ef7 d7bd b95f cdbd
00000170: 1f9e 58bd 2f37 04be e11f 1abd 6065 bbbd
00000180: d4f4 32bd 3315 84bd 54c7 57bd fc56 adbd
00000190: 33ce 82bc eb82 293e 6197 b63b 0f79 2bbe
000001a0: 1eb0 9f3d ba27 113e 2bff 083e b6e1 20be
000001b0: 68b0 f03d c434 e93d 4b01 ae3d 4986 7fbe
000001c0: f6fd 30bd e266 5e3d b91f a9b9 5f50 dabc
000001d0: e932 61bd 2c46 9b3d 684f ccbd f676 453d
000001e0: 54e9 d8bd 7cc2 3236 a1eb c13c f73c 493d
000001f0: d67e 49be cad5 ab3b 74d8 8b3b 6551 033e
00000200: e6b1 22bd ad43 323e 996f 00bc fc29 2c3e
00000210: c788 b9bd 75d9 563e da8e 7ab7 dad6 cb3d
00000220: aadb 393d 7133 da3c 903e 52be 2bc4 7f3d
00000230: 617f 0abe f718 7d3d 4af6 d23d ed6c 443e
00000240: ab40 60bc 3952 d2bd a543 8b3d 81db f7bd
00000250: 8fbd 7ebc 835f 4cbe ac42 333d c7d1 453e
00000260: 3719 253c abd1 13bd 0e5d 16bd fc87 dd3d
00000270: d8b4 803d a7bb a3bc f66b 2a3d 927f d23d
00000280: 4a65 a6bd 75ed 123e 7099 b03d 6f0a edbc
00000290: 768b a2bd a9ce b9bd 0e19 b13d 3be5 8d3d
000002a0: 6a1b 443d 8b49 503e 0cb5 9733 cceb b63d
000002b0: ef8d a1bd 2753 4e3e 4ebe f7bd 0249 bc3c
000002c0: 226d 8ebd 4637 873d c760 913b c1ea 923d
000002d0: bed6 013e 2175 61bd 9986 aabd b4e0 3629
000002e0: 29f1 183e 0519 fcb9 8a49 34be dd73 bb3d
000002f0: 5598 38be 64e4 eebc cc5e 7dbd 32ae 61bd
00000300: 6789 ccbd 098d b0bd 7d2a ed3d 2320 273d
00000310: 9d29 01bd 4fdb 95bc 819c d7bd a024 593b
00000320: d09c 3cbe 3084 7b3d 7883 0b3e 0115 903d
00000330: 16bc 0dbe 758a c6bc d382 4e3e fb98 a63d
00000340: c91b 11bc 8412 ff3d 9c84 a6bc e3ca 28bd
00000350: 96c6 823b 6f82 8ebd 6b54 dcbb a177 bbbd
00000360: 3d69 01be 8591 34be 33fe 553d d6bd 3f3d
00000370: c360 c3bd c6fa 3e3e 543d 0dbe 49ed dfbd
00000380: 856b 34be fb2c 42be 3663 05be a76f 89bd
00000390: e4b0 2abe 3e4d e0bc 8aca c63d ba75 1c3e
000003a0: 2c0a e3bc 1ce7 943d 9073 0d00 2cb6 1bbd
000003b0: 40e8 823c 97ed 53be bad7 06be 8e19 92bd
000003c0: 3312 953d 54a0 27bd 9214 923d 228a 0bbe
000003d0: c485 22bd 222d 02be c782 473e b586 9e3d
000003e0: 0e3f 2a3d 2aa0 f03d 5473 6fbe 6f8b 9cbd
000003f0: b5ed e4bd f139 6ab5 9f21 a53d b5c8 1d3e
-0.03049177 -0.04125545 -0.07194377 0.1380424 -0.06887916 -0.18695943 0.067706704 -0.004619151
0.05214081 -0.08199742 0.12976424 0.106602766 -0.04598453 -0.009773533 9.987436e-23 -0.09392495
0.057116408 0.09696507 -0.032500736 -0.13574795 0.22497118 -0.049232066 -0.026544532 0.0072220895
0.030636517 0.06545045 0.14264329 0.13544695 -1.98148e-40 -0.08422264 -0.07398701 0.04685432
-0.15268992 -0.11522561 0.025814984 -0.10110407 -0.06645489 0.06515475 4.09091e-40 0.12366123
0.006792344 -0.05521142 0.02430847 0.01888317 0.061710715 0.12673351 0.006969687 -0.21376696
-0.20075655 -0.08535683 0.14835842 0.0052150567 0.08762776 -0.064411566 -0.05635852 -0.17523527
-0.10200037 -0.010290125 -0.030390527 0.03373493 0.036881737 0.046960637 0.12296963 -0.04905942
0.078069925 0.13449281 -0.06967989 -0.0338721 -0.064142324 0.052228455 0.0054524834 1.963233e-30
0.07571108 0.0221048 0.14834261 -0.1199694 0.2262439 -0.047082283 -0.19115871 -0.052038968
-0.21489336 -0.024486536 -0.17745967 -0.23208411 0.15337372 0.18469058 0.13261092 0.003966708
-0.101833396 0.024343578 -0.10545252 -0.10028023 -0.05288517 -0.12911676 -0.03762806 -0.09150195
-0.043690518 -0.06449356 -0.05268033 -0.084638566 -0.015967464 0.16553847 0.005572245 -0.16745399
0.077972636 0.1417531 0.13378589 -0.15711102 0.11752397 0.11387017 0.0849634 -0.2495357
-0.043210946 0.054297335 -0.00032257827 -0.026649652 -0.054980192 0.075817436 -0.09976083 0.048209153
-0.10591379 2.6637272e-06 0.023671927 0.049130406 -0.1967729 0.0052439915 0.0042677466 0.12824018
-0.03972044 0.17408629 -0.007839107 0.16812891 -0.09059291 0.20981391 -1.4934421e-05 0.09953089
0.045375504 0.026635857 -0.20531678 0.06244294 -0.13525154 0.061791386 0.10300882 0.19182177
-0.013687293 -0.10269589 0.068000115 -0.12102414 -0.015548124 -0.1995831 0.043764755 0.19318305
0.0100768125 -0.036088627 -0.036709838 0.108169526 0.06284493 -0.01998694 0.041606866 0.10278238
-0.08124788 0.14348395 0.08623016 -0.02893564 -0.07936756 -0.090726204 0.08647357 0.06928488
0.047877707 0.20340554 7.064418e-08 0.089316934 -0.078884 0.20148908 -0.120968446 0.022984032
-0.06954409 0.066023394 0.0044365856 0.07173682 0.12679574 -0.055043343 -0.08326454 4.0607017e-14
0.14935745 -0.00048083827 -0.17606178 0.091529585 -0.1802686 -0.02916164 -0.061857983 -0.055097766
-0.09987145 -0.0862065 0.115803696 0.040802132 -0.031533826 -0.018293051 -0.105278976 0.0033133402
-0.18419194 0.06140536 0.1362437 0.07035256 -0.1384128 -0.024235943 0.20167093 0.081346475
-0.008856722 0.124547035 -0.020326905 -0.041209113 0.0039909584 -0.06958472 -0.0067239306 -0.09153677
-0.12637801 -0.17633636 0.052244376 0.0468119 -0.0953994 0.1865035 -0.13792926 -0.109339304
-0.1761914 -0.18962471 -0.13026127 -0.06710749 -0.16669041 -0.027380582 0.097066 0.15279284
-0.027714811 0.07270643 1.235317e-39 -0.03801553 0.015979886 -0.20696102 -0.1316823 -0.071337804
0.07278862 -0.040924385 0.0713283 -0.13626912 -0.03967835 -0.1271253 0.19483481 0.07740537
0.04156404 0.11749299 -0.23383838 -0.07643782 -0.111781515 -8.725611e-07 0.08063053 0.15408595

decoder.2.bias f4 [227]
00000000: 5eb8 3abd 0e93 80bc 1cfe 87bc 681a 4a3b
00000010: 7ebc 92bb 664c dfbc 6770 f13b 2de7 c33c
00000020: 6a28 4fbd 054b b6bc dcaa 1dbb 4848 633c
00000030: 353b 7f3b 6b0c aa3b 8d22 613d c246 1ebc
00000040: 946b b83c e23c afbc 8370 f33c d7bd 45bb
00000050: ac33 8d3c 6a33 85bc 04c2 dbbc 04fc c6bc
00000060: a0e8 ec3c 0429 30bd 37d2 3bbd 79de 67bd
00000070: 03f7 f9bc 052b 06bd e492 4a3d dfc6 d0ba
00000080: 9218 e93b 30b9 aa3c aa91 ff3c e05f 4a3a
00000090: 087d 1d3c 65e1 703c 9d46 28bc 3975 20bc
000000a0: a9f4 973a 1f86 ebbc 657d b33b 4df7 aebc
000000b0: 7188 c53c 5083 dfbb c96e 47bc 14da 053d
000000c0: be46 98bc 9f5d f3bc 0c64 ffbb d9b2 0e3d
000000d0: 818a b2bc 976d fabc 586e 3fbc 642d a2bc
000000e0: 1b46 32bd 0ef9 213b 2771 41bc 5b6b aebb
000000f0: 059c 99bc cfc6 76bd 7e63 4c3c 8174 b33c
00000100: cd6e 893c 6b95 b73b cea5 6ebc 0985 28bc
00000110: 26b1 05bd 6bd4 4f3c ecd1 753c 1afa af3c
00000120: c7ef babb 54d3 373d d507 c4bc 46b0 4f3c
00000130: f2ee 0b3d 249d 64bc 80e9 ecbc 8ac5 7abc
00000140: c74b 023c 4c46 833c 0e6e 243d e024 a3bc
00000150: c616 68bd be06 06bd 295c 8ebc 4279 4fbd
00000160: eeb6 113d f6e3 c13c e5f6 303d b25a c13c
00000170: 01e5 18bd 5213 abbc 5e10 ef3c 9861 d63c
00000180: 0052 25bd bd16 6c3c 79e8 32bd 3704 a8bc
00000190: 585b adb9 aa81 d13c 23da b9bc f073 a5bc
000001a0: e919 97bc 13da 303d bf63 f3bc 8694 dfba
000001b0: 83c7 923c 5022 efba 3815 9b3c bec1 943c
000001c0: 1909 2bbc a0ce 1fbb eab7 923c 3bfe 063c
000001d0: 9df2 c03c 44eb a3bc 8809 9bbb 1842 e73c
000001e0: 94ef c13c 0923 42bd 59e6 dfbc fe86 80bc
000001f0: e91f dc3c dc59 7ebc 83da ebbc c63c 323d
00000200: 47a0 ef3c d45f 003c e2fe 0ebc e506 57bc
00000210: f9e6 eb3c 1293 19bd 1d81 353d e834 353b
00000220: 8266 49bd cff6 0abd 125a 4abd cc76 19bd
00000230: d411 8cbc 5a67 0dbd 8109 0cbd bfb7 51bb
00000240: 318f 263d 471d 2b3c 6877 743c dc73 bc3a
00000250: 613c 5dbd edb9 ea3b 8256 94bb 39e2 13bc
00000260: e83d 173c baa2 37bd d649 3dbd cb65 a73c
00000270: 9bb5 40bc 60bd 32bc e25e 38bd 356c 04bd
00000280: 8e9f 41bc c600 1f3d 8ab2 29bc a44c fe3b
00000290: 2825 84bc c785 29bd 9ec7 44bd 3237 8ebc
000002a0: ed53 2dbd eb44 abbc b8a1 d7bc e7bf 1c3d
000002b0: b53c 9e3c e83a 9fbc 4f7a bb3c a0b2 14bd
000002c0: 4a79 e93c 47d3 383c 4a5d 5bbb c095 45bc
000002d0: 6ac0 47bd 0df9 d33b 25a0 e0bc 3e8c 92bd
000002e0: a6ef ac3c 1b5b 05bd 0b1c 62bc c1c8 08bd
000002f0: c278 9539 8a6f 693d 1a6d b7bb 6707 8bbc
00000300: d1cb 78bc ba87 a23c 39c0 84bc 949b b73c
00000310: 63ae 1bbd 2b23 7cbc e081 6cbd 496c 30bd
00000320: 1a09 8ebd b9e8 efbc aff1 3b3c 7404 553d
00000330: 2807 923c fd0d 5ebd b8d8 0d3d ddfd 9a3c
00000340: fc6e b3bc 3bd9 13bc ac8e 5fbb 90b5 273b
00000350: 3d39 c33b e567 ca3c e3a3 cc3a 2f03 a23c
00000360: 19fe acba d63e a7ba c85a 873b 3098 f3bc
00000370: a93f f63b de8c 403d eb89 e5bc 7d6b b53c
00000380: f28c 6d3c 12a9 cebb e25b 753c
-0.045585983 -0.015695121 -0.016600661 0.0030838493 -0.0044780364 -0.02725811 0.0073681357 0.023913944
-0.05057565 -0.022252569 -0.002405814 0.013872214 0.0038945202 0.0051894686 0.05496459 -0.009660425
0.022512235 -0.021391336 0.029716736 -0.0030172968 0.017236553 -0.016259868 -0.026825912 -0.024290092
0.028919518 -0.043007866 -0.045854773 -0.05660865 -0.030513292 -0.03275587 0.049456492 -0.0015928409
0.0071135247 0.020840257 0.031197388 0.0007719975 0.009612329 0.014702176 -0.010270742 -0.009793573
0.00115933 -0.028750477 0.0054775947 -0.021358157 0.024112912 -0.0068210736 -0.012172409 0.03267868
-0.01858842 -0.029707728 -0.007793909 0.03483853 -0.02179456 -0.030569835 -0.011684023 -0.019797035
-0.04352389 0.0024715099 -0.011806763 -0.0053228564 -0.018751154 -0.060248192 0.012474893 0.02190614
0.016776467 0.005602529 -0.014565898 -0.010285624 -0.032639645 0.012684922 0.015003663 0.021481562
-0.005704853 0.044879273 -0.023929516 0.012676304 0.034163423 -0.013953481 -0.028919935 -0.015305886
0.007952637 0.016024731 0.04014402 -0.019915044 -0.056662343 -0.032721274 -0.01737793 -0.05065275
0.035574846 0.02366827 0.043204207 0.023602817 -0.03732777 -0.020883236 0.02918261 0.026169583
-0.040361404 0.014409718 -0.043678734 -0.020509822 -0.00033065188 0.025574524 -0.022687024 -0.020196885
-0.018444972 0.04317672 -0.029710649 -0.0017057813 0.0179174 -0.0018244479 0.018931016 0.01815879
-0.010439181 -0.0024384633 0.017909963 0.008239324 0.023553187 -0.020009644 -0.004731361 0.028229758
0.02367381 -0.047396693 -0.027331518 -0.01568937 0.026870685 -0.015524354 -0.028790718 0.04351499
0.02925123 0.007835347 -0.008727761 -0.013124202 0.02879666 -0.037493773 0.044312585 0.0027649943
-0.049170025 -0.03392678 -0.049402304 -0.03746681 -0.017098345 -0.03452239 -0.03418875 -0.003200039
0.0406639 0.010443992 0.014921047 0.001437779 -0.05401266 0.0071632774 -0.004526914 -0.009026104
0.009231068 -0.044832923 -0.046212994 0.02043428 -0.011762048 -0.010909408 -0.045012362 -0.032329757
-0.011817826 0.038819097 -0.010357508 0.007760601 -0.016130999 -0.041387346 -0.048041932 -0.017360304
-0.042316366 -0.020906886 -0.02632223 0.03826895 0.019316057 -0.019437268 0.02288547 -0.036303163
0.028500218 0.011280841 -0.0033472353 -0.012059629 -0.048767485 0.006468898 -0.027420113 -0.07155655
0.021110367 -0.032557588 -0.013800631 -0.03339458 0.00028509466 0.056991138 -0.0055977227 -0.016971303
-0.015185312 0.01984011 -0.01620494 0.022413053 -0.038008105 -0.015389244 -0.057741046 -0.04307202
-0.0693533 -0.029285775 0.011471196 0.0520062 0.017825678 -0.05421256 0.034630507 0.01891988
-0.021903507 -0.00902396 -0.0034112139 0.0025590397 0.005957751 0.024707744 0.0015612807 0.019776909
-0.0013198286 -0.0012759815 0.004130695 -0.029735655 0.007514913 0.04700934 -0.028019866 0.022145981
0.014498936 -0.006306776 0.01497552
