algorithms/SemiAutoEncoder/SemiAutoEncoderResults/Semi_AutoEncoder_100-50_all_IO_noleave_VH_ratio_10.pt (torch_old, 225206 bytes, 8 tensors)

encoder.0.weight f4 [100, 226]
-0.17751984 -0.026915759 -0.04596273 0.080491416 0.16289485 0.09790816 0.24213995 0.5468412
-0.0064437534 0.15727092 0.06180011 0.047749937 -0.04573958 0.025945902 0.07337854 0.07111911
-0.0459217 0.113021314 0.12853433 -0.21666126 0.20430918 0.32202852 0.11775956 1.559277e-39
0.0029418296 0.31457484 0.11939635 -0.2924204 0.110787064 0.03824337 0.10692724 -0.31278813
-0.013188877 0.18973728 -0.032036785 0.5107423 -5.7670994e-05 -0.18235956 -0.013430646 0.026724359
0.17655924 0.22180817 0.04641575 0.14794976 0.099710695 0.04133898 0.15011552 0.12138562
0.11028231 0.101938665 -0.01789904 0.13050525 0.41358876 0.16217099 -0.116613366 0.104478054
0.057896163 0.16751046 0.2296658 -0.050003957 -0.03043918 0.11863417 0.12204157 0.15188265
-0.00739688 -0.0010668383 -0.105917245 -0.06347483 0.060747955 -0.15187943 -0.11742986 0.14197977
0.16125424 0.053508747 0.10514627 -0.02137579 0.046517167 0.11197163 0.11248781 0.23268126
0.1015158 0.60121614 -0.0031961906 0.07214949 0.2465542 0.025107881 0.13161892 -0.12726256
-0.23660903 0.20983933 0.17958549 -0.22017175 0.36166155 0.14266063 0.28982875 0.091749914
0.18466969 0.011142869 -0.084744915 0.122394346 -0.12083471 0.12136497 0.037007734 -0.06424234
0.022431297 -0.02276362 0.099143006 1.07727e-39 0.020991303 0.40249667 0.16399083 -0.14278631
0.046058126 0.42248404 0.08761925 -0.1130029 0.042055078 0.06767395 0.13123035 -0.03896498
-0.26972255 0.25567538 0.07573497 0.13988763 0.0056599122 0.07540521 0.24844496 0.070925444
0.0863823 -0.121539444 0.20161527 -0.14417872 0.38842812 0.07714283 -0.15641284 -0.26455086
6.31398e-40 0.20249078 -0.1061222 0.07328498 0.45598105 0.023700353 0.15901712 0.08067596
0.17885925 0.16775692 0.06713099 0.006166247 -0.33243504 0.95328826 0.04783827 0.1808129
0.054870535 0.019681897 -0.10412061 0.20414747 0.17405023 -0.32952178 0.14895016 0.08470433
0.19379824 0.12964387 0.11883122 -0.004338335 -0.08312755 -0.2897797 -0.068774566 0.12435745
0.08301854 0.14965403 -0.020955263 0.045611896 0.062575914 0.0144909425 0.040590297 0.09781968
0.18972316 -0.09797175 -0.043026302 0.3386531 0.18316683 0.01246977 0.41927516 0.31076896
0.1149359 -0.002338515 0.20566297 0.08934483 0.25582692 -0.02481891 -0.10615759 -0.088761576
-0.06298181 0.02564064 -0.0931789 0.22784337 0.08981486 -0.14085849 0.20308344 0.08602159
0.2329226 0.0043899324 0.18037748 -0.08955243 0.032039586 -0.054091264 0.06603956 0.08397587
-0.0032444843 -0.057151582 0.82077533 -0.025810897 0.036246125 0.30195075 0.062448293 -0.41152063
0.3700519 -0.10089891 0.23445198 0.005004554 4.79444e-40 0.05722134 -0.059662603 -0.061888453
0.04926758 -0.18099567 0.018638637 -0.019274268 -0.06563732 -1.2914314 0.18567781 0.15117756
0.20006727 0.14336035 -0.030809455 -0.07146965 0.26424888 0.13082014 -0.24068859 0.15039346
0.08924747 0.2535789 0.14793216 0.23682639 -1.3027927 0.03240407 0.09526199 0.020705001
-0.0055453684 1.03039e-39 -0.005788329 -0.0027183578 0.25300607 -0.0723131 0.13749675 0.10152442
00000000: c3c7 35be 707e dcbc 6a43 3cbd afd8 a43d
00000010: e8cd 263e 1384 c83d 89f3 773e c9fd 0b3f
00000020: 1f26 d3bb a10b 213e 1d22 7d3d 7095 433d
00000030: 6d59 3bbd 808c d43c 7d47 963d e5a6 913d
00000040: 6418 3cbd b877 e73d 819e 033e 73dc 5dbe
00000050: 6d36 513e ece0 a43e ed2b f13d a1fa 1000
00000060: b6cb 403b f40f a13e 1386 f43d 20b8 95be
00000070: 54e4 e23d 14a5 1c3d abfc da3d c425 a0be
00000080: 2916 58bc 7d4a 423e 0139 03bd 02c0 023f
00000090: c2e3 71b8 77bc 3abe 360c 5cbc 0bed da3c
000000a0: f2cb 343e ae21 633e 711e 3e3d 2480 173e
000000b0: 1f35 cc3d 1053 293d e2b7 193e 0699 f83d
000000c0: b1db e13d 38c5 d03d 02a1 92bc 2ba3 053e
000000d0: e8c1 d33e 2710 263e fdd2 eebd 97f8 d53d
000000e0: 8724 6d3d dd87 2b3e 832d 6b3e f3d0 4cbd
000000f0: 965b f9bc 79f6 f23d eef0 f93d 2087 1b3e
00000100: 8761 f2bb 27d5 8bba 24eb d8bd 17ff 81bd
00000110: d9d2 783d 4886 1bbe 117f f0bd 2563 113e
00000120: d51f 253e fd2b 5b3d ed56 d73d 481c afbc
00000130: c988 3e3d 6251 e53d 0260 e63d ff43 6e3e
00000140: 84e7 cf3d 4de9 193f 2e77 51bb 1dc3 933d
00000150: b478 7c3e 0baf cd3c 1cc7 063e 1e51 02be
00000160: a349 72be 1fe0 563e 42e5 373e b474 61be
00000170: b42b b93e a115 123e 6f64 943e 61e7 bb3d
00000180: 0d1a 3d3e 9490 363c be8e adbd e3a9 fa3d
00000190: 3078 f7bd 338e f83d 6c95 173d 7d91 83bd
000001a0: d7c1 b73c c57a babc 7d0b cb3d feba 0b00
000001b0: f4f5 ab3c 0b14 ce3e 36ed 273e 9336 12be
000001c0: 72a7 3c3d d44f d83e b971 b33d 106e e7bd
000001d0: f241 2c3d a498 8a3d 4061 063e be99 1fbd
000001e0: 1319 8abe e2e7 823e f01a 9b3d b43e 0f3e
000001f0: c976 b93b 0c6e 9a3d 5b68 7e3e 5c41 913d
00000200: 34e9 b03d ace9 f8bd 3c74 4e3e 96a3 13be
00000210: 0de0 c63e 0ffd 9d3d b02a 20be 3673 87be
00000220: 15e0 0600 be59 4f3e 9956 d9bd 7016 963d
00000230: 5976 e93e 3e27 c23c 62d5 223e 7039 a53d
00000240: e126 373e 78c8 2b3e f97b 893d 3b0e ca3b
00000250: ed34 aabe b30a 743f 10f2 433d 0427 393e
00000260: edbf 603d ee3b a13c 303d d5bd 090c 513e
00000270: 393a 323e 14b7 a8be 6486 183e 7779 ad3d
00000280: 0c73 463e 5dc1 043e c85d f33d 9728 8ebb
00000290: c73e aabd 015e 94be aed9 8cbd 1eaf fe3d
000002a0: a005 aa3d e83e 193e 5faa abbc 8ad3 3a3d
000002b0: cd27 803d 6b6b 6d3c 0342 263d af55 c83d
000002c0: ca46 423e 6aa5 c8bd 593c 30bd f063 ad3e
000002d0: 1690 3b3e 024e 4c3c 3cab d63e 1c1d 9f3e
000002e0: 8363 eb3d c541 19bb 5099 523e 6cfa b63d
000002f0: bffb 823e 0751 cbbc 2769 d9bd a1c8 b5bd
00000300: 9bfc 80bd 520c d23c 94d4 bebd c64f 693e
00000310: daf0 b73d 353d 10be 1bf5 4f3e 162c b03d
00000320: 4383 6e3e 6cd9 8f3b e0b4 383e 4467 b7bd
00000330: f13b 033d cd8e 5dbd c03f 873d 8afb ab3d
00000340: 6aa1 54bb c717 6abd 551e 523f 6071 d3bc
00000350: d176 143d 4a99 9a3e c8c9 7f3d d5b2 d2be
00000360: 7177 bd3e 16a4 cebd 2e14 703e 3efd a33b
00000370: 7f38 0500 ec60 6a3d c660 74bd bf7e 7dbd
00000380: cdcc 493d ee56 39be 0eb0 983c 12e5 9dbc
00000390: dc6c 86bd a04d a5bf 5322 3e3e 4ace 1a3e
000003a0: 6fde 4c3e 0ecd 123e 1c64 fcbc ae5e 92bd
000003b0: a14b 873e b7f5 053e 1277 76be be00 1a3e
000003c0: 61c7 b63d 18d5 813e 877b 173e 9e82 723e
000003d0: e9c1 a6bf 21ba 043d b818 c33d 899d a93c
000003e0: ecb5 b5bb 4f38 0b00 06ac bdbb 7a26 32bb
000003f0: 038a 813e e418 94bd f3cb 0c3e 09ec cf3d

encoder.0.bias f4 [100]
0.2984234 -0.24246907 0.02459528 0.25851378 -0.094603114 0.14098652 -0.1249836 0.0046687294
0.13173635 0.06749724 -0.13496421 0.050139185 0.0602917 0.624346 0.44019106 0.15439607
0.16886872 0.7534583 -0.15363637 0.36095673 0.2216062 0.42606652 0.079516195 0.289839
0.49964786 0.39884782 0.6799184 0.29096073 0.031332396 0.5219883 -0.036286622 0.2421097
0.50375617 0.021115262 0.57837445 0.11406424 0.043027107 0.57555044 0.21391276 0.007949729
-0.080659 0.05087326 0.49971643 0.27589497 0.1398333 -0.12896785 0.17663364 0.41444367
0.3197195 0.3269835 0.49233335 -0.09620836 0.62837183 0.18308355 0.404613 0.28463593
0.4104857 0.47724292 0.26352817 0.08154263 0.23479931 0.5395268 0.3419582 0.3027596
0.48553196 0.11396207 0.33631274 0.5815122 0.1943749 0.07758302 0.07697426 -0.0087712975
0.60971767 0.26539484 0.19654459 0.4341667 -0.29234394 0.6385206 -0.0045169387 0.30244794
-0.088028416 0.15232433 -0.17984195 0.049349118 0.60241044 0.06907394 0.03898454 0.09662318
0.3997698 0.5673805 -0.053749215 0.008812203 -0.1256678 0.8011863 -0.2639937 -0.063126236
-0.096270084 -0.0027680139 0.11416667 0.043103293
00000000: f4ca 983e d049 78be 0a7c c93c eb5b 843e
00000010: 47bf c1bd c55e 103e 67f7 ffbd 24fc 983b
00000020: e5e5 063e fe3b 8a3d 0f34 0abe bf5e 4d3d
00000030: 6ef4 763d 24d5 1f3f b960 e13e 011a 1e3e
00000040: eceb 2c3e a5e2 403f da52 1dbe 52cf b83e
00000050: bcec 623e 6425 da3e 63d9 a23d c765 943e
00000060: d8d1 ff3e c835 cc3e 220f 2e3f cef8 943e
00000070: 6656 003d 06a1 053f 48a1 14bd 9beb 773e
00000080: 2af6 003f eaf9 ac3c 5910 143f 839a e93d
00000090: 313d 303d 4657 133f f20b 5b3e 953f 023c
000000a0: 8c30 a5bd 7b60 503d d5da ff3e 1b42 8d3e
000000b0: 7630 0f3e 2610 04be 73df 343e f631 d43e
000000c0: 46b2 a33e 626a a73e 1e13 fc3e e308 c5bd
000000d0: fadc 203f 417a 3b3e 6f29 cf3e cdbb 913e
000000e0: 2f2b d23e 2f59 f43e 2aed 863e d3ff a63d
000000f0: 3b6f 703e 6e1e 0a3f 2515 af3e 4e03 9b3e
00000100: a597 f83e f264 e93d 2f31 ac3e fcdd 143f
00000110: 370a 473e d9e3 9e3d aea4 9d3d 7db5 0fbc
00000120: 7516 1c3f d5e1 873e fc42 493e 194b de3e
00000130: 1bae 95be 1676 233f d402 94bb 75da 9a3e
00000140: 3e48 b4bd e9fa 1b3e 7d28 38be 4d22 4a3d
00000150: 9237 1a3f a376 8d3d 41ae 1f3d 60e2 c53d
00000160: a1ae cc3e d93f 113f 2328 5cbd 0f61 103c
00000170: 0faf 00be 8c1a 4d3f 2f2a 87be 5448 81bd
00000180: 4029 c5bd 9167 35bb 37d0 e93d 148d 303d

encoder.2.weight f4 [50, 100]
-0.20642194 -0.15839632 -0.8455357 -0.18399915 -0.558917 -0.005197928 -0.4719782 -1.330457
0.11162252 -0.39227542 -0.43725684 0.28678194 -0.585139 0.12550496 0.35402796 0.0690132
-0.41537368 -0.15164742 -1.0369822 -0.3137052 0.009430685 0.05877268 -0.45908922 -0.06864723
-0.066663176 -0.3657756 0.15784413 0.6551204 0.024232352 0.14701062 0.73679584 -1.1078306
0.21915285 0.023676421 0.56168216 0.30991367 0.0007061574 -0.16148241 0.011893156 0.08314213
0.2237785 0.062285 -0.68484426 -0.4248214 -0.09954198 0.70617497 0.114757836 -0.123754844
0.6560751 -0.030972173 0.28314722 -0.5083324 0.50931996 0.17898189 -0.018019922 0.14403515
-0.20959847 -0.06639354 0.17739214 -0.00037593918 0.10286901 -0.08264279 -0.29085958 -0.13203779
0.10397607 0.07508517 0.26232553 -0.23986326 0.29530916 0.052108087 0.11976788 -0.050438836
0.25644565 0.04698745 0.31402564 0.40460017 0.13338482 0.23904486 -0.22886279 0.5669157
0.04020367 -0.22881034 0.6738266 -0.09012808 -0.29945144 0.108691625 -0.030036999 -0.033933092
0.039476164 -0.16588739 1.3184768 0.7089378 -0.2043943 -0.38721597 -0.7390541 -0.5855623
-0.121382765 -0.04397948 -0.011680713 0.28703475 -0.21701886 -0.18167463 -0.5853778 -0.07114845
0.1425948 -0.24826533 0.23955351 -0.3201083 0.4540155 -0.5622035 0.064957075 -0.3801522
0.15475902 -0.32860428 0.058935095 -0.11776351 -0.06083731 0.23715036 -0.10508299 0.40630576
0.4665184 0.13463289 -0.2092209 -0.042942405 0.1764247 -0.46729335 -0.2883605 0.25652486
0.35081443 -0.018816197 -0.1627511 -0.2601554 0.06332797 -0.15205169 0.08955758 0.26990783
-0.28065625 0.0981314 -0.5536751 0.30083483 -0.045903064 0.283202 0.42616215 0.23538782
-0.43842098 -0.370785 -0.085919864 0.14524527 0.25773922 0.36349082 0.30275127 0.33587193
0.24229568 -0.31687343 0.0033375882 -0.15335126 -0.2543089 0.072639674 0.46973288 -0.34267962
0.10971937 -0.004097184 -0.063945584 0.1575784 -0.3206467 -0.2235111 -0.61624926 0.32326356
-0.2572601 -0.2332032 0.30771878 -0.38194177 -0.08779362 -0.37501878 -0.35966843 0.06971843
-0.5058063 -0.03144789 -0.108552955 -0.2938093 0.3527586 -0.3131026 0.13278219 0.37247527
-0.22741175 0.3347999 0.35610542 -0.20993839 -0.18143155 0.34680814 -0.43045455 -0.48940343
0.21214734 -0.1760838 -0.08056576 -0.07739298 0.06598526 0.29690126 -0.13118857 -0.14477064
0.097735666 -0.40731826 0.38638017 0.15632714 -0.8815894 0.05123131 0.16278787 -0.28740132
0.52305204 -0.758689 0.00051337463 -0.38369593 0.9765822 0.29477474 -0.15160015 0.11542021
0.14278685 -0.52178156 -0.31608897 0.7900117 -0.77259785 -0.51227987 -0.80515295 -0.62577623
-0.2658389 -0.008765975 -0.5913946 0.35639566 -0.16443099 -0.16151907 0.11765769 0.41377923
-0.1674755 0.15835422 0.16449544 -0.03800549 0.10161879 -0.11743004 0.0018638364 -0.039238717
-0.39607406 -0.059768796 0.033891983 -0.24849257 0.13723521 -0.065899305 0.79224175 0.17415716
0.030066011 -0.83737385 -0.36399764 -0.5150769 0.30186924 -0.32038373 -0.43544886 0.01060739
00000000: 4660 53be a532 22be 0775 58bf 466a 3cbe
00000010: 2f15 0fbf 6153 aabb 20a7 f1be 6a4c aabf
00000020: 599a e43d 53d8 c8be 21e0 dfbe 15d5 923e
00000030: abcb 15bf 5f84 003e 2743 b53e cb56 8d3d
00000040: dcab d4be 7649 1bbe d5bb 84bf f89d a0be
00000050: 2983 1a3c 9fbb 703d be0d ebbe eb96 8cbd
00000060: b486 88bd f046 bbbe e4a1 213e f8b5 273f
00000070: ed82 c63c f489 163e a79e 3c3f 65cd 8dbf
00000080: 9b69 603e 0ef5 c13c 67ca 0f3f 01ad 9e3e
00000090: 6c1d 393a a55b 25be 83db 423c 6c46 aa3d
000000a0: 3126 653e 8e1e 7f3d f451 2fbf 3182 d9be
000000b0: aadc cbbd e2c7 343f 2806 eb3d 2e73 fdbd
000000c0: 8af4 273f 5bb9 fdbc acf8 903e 1222 02bf
000000d0: cb62 023f 0747 373e 849e 93bc f37d 133e
000000e0: fba0 56be 56f9 87bd 49a6 353e b419 c5b9
000000f0: fdac d23d a040 a9bd 8ceb 94be ea34 07be
00000100: 68f1 d43d 41c6 993d 884f 863e b79e 75be
00000110: c332 973e 4a6f 553d dd48 f53d f498 4ebd
00000120: d84c 833e ea75 403d f8c7 a03e c127 cf3e
00000130: 0896 083e 2dc8 743e 025b 6abe 6321 113f
00000140: 9aac 243d 424d 6abe e67f 2c3f 1295 b8bd
00000150: b351 99be b799 de3d 2710 f6bc 6dfd 0abd
00000160: c2b1 213d 62de 29be d9c3 a83f f37c 353f
00000170: bd4c 51be 2c41 c6be a632 3dbf 69e7 15bf
00000180: 8797 f8bd d423 34bd 7660 3fbc 38f6 923e
00000190: 313a 5ebe ea08 3abe 52db 15bf 47b6 91bd
000001a0: 5f04 123e 4439 7ebe 844d 753e 3ce5 a3be
000001b0: b874 e83e 92ec 0fbf 3708 853d 4fa3 c2be
000001c0: 2679 1e3e d23e a8be ed65 713d ff2d f1bd
000001d0: 8b30 79bd 8bd7 723e c035 d7bd 4f07 d03e
000001e0: 80db ee3e 34dd 093e 013e 56be 60e4 2fbd
000001f0: ada8 343e 1341 efbe fda3 93be 3a57 833e
00000200: f39d b33e 6d24 9abc 39a8 26be 1733 85be
00000210: 18b2 813d 70b3 1bbe f769 b73d 5c31 8a3e
00000220: 2db2 8fbe 1ef9 c83d a7bd 0dbf 0607 9a3e
00000230: da04 3cbd daff 903e ed31 da3e 8109 713e
00000240: b778 e0be 88d7 bdbe c1f6 afbd 2dbb 143e
00000250: 65f6 833e 781b ba3e 3702 9b3e 68f7 ab3e
00000260: 5c1c 783e 3c3d a2be 70bb 5a3b 1d08 1dbe
00000270: c734 82be 1cc4 943d d480 f03e b473 afbe
00000280: 8db4 e03d ac41 86bb e7f5 82bd 3b5c 213e
00000290: ce2b a4be 18e0 64be 83c2 1dbf cd82 a53e
000002a0: 99b7 83be d2cc 6ebe 518d 9d3e df8d c3be
000002b0: 24cd b3bd 7602 c0be 7626 b8be 89c8 8e3d
000002c0: 867c 01bf 81cf 00bd 0351 debd 2c6e 96be
000002d0: c69c b43e fc4e a0be 0ef8 073e 14b5 be3e
000002e0: a0de 68be e46a ab3e 7353 b63e 17fa 56be
000002f0: 31c9 39be d690 b13e 8a64 dcbe 1693 fabe
00000300: 273d 593e 504f 34be a9ff a4bd 3680 9ebd
00000310: 4823 873d 7103 983e 4c56 06be c13e 14be
00000320: a329 c83d 058c d0be 9fd3 c53e 3914 203e
00000330: d8af 61bf ecd7 513d ddb1 263e 4426 93be
00000340: bde6 053f 7139 42bf fd93 063a cb73 c4be
00000350: 4b01 7a3f b7ec 963e 123d 1bbe 6e61 ec3d
00000360: b736 123e 7a93 05bf 6ad6 a1be 353e 4a3f
00000370: f9c8 45bf c624 03bf 811e 4ebf df32 20bf
00000380: 091c 88be 2a9f 0fbc a365 17bf 7e79 b63e
00000390: 9960 28be 4165 25be 84f6 f03d dfda d33e
000003a0: b37e 2bbe 9c27 223e 7e71 283e a5ab 1bbd
000003b0: 831d d03d 297f f0bd f94b f43a c7b8 20bd
000003c0: 38ca cabe 20d0 74bd 52d2 0a3d d674 7ebe
000003d0: 6387 0c3e 37f6 86bd 5bd0 4a3f 4156 323e
000003e0: ff4c f63c 225e 56bf e65d babe 14dc 03bf
000003f0: 9b8e 9a3e 5609 a4be 27f3 debe 9eca 2d3c

encoder.2.bias f4 [50]
-0.12984148 0.006768425 0.090414315 0.01879439 0.058429662 0.018528186 0.021206401 -0.04840346
0.025250973 -0.039666727 -0.025983157 -0.005166113 0.20008597 0.10069544 0.072663106 0.13496593
-0.05642344 0.02526963 -0.049393374 0.038228262 -0.019655926 -0.025678858 -0.03519648 0.22215156
0.025918191 0.048690446 0.081947535 -0.033435643 0.035471432 -0.036110993 0.08637466 0.089460224
-0.01536955 -0.0072920606 -0.112729385 0.015569503 0.06351043 0.018206578 -0.096801795 -0.1627917
-0.11281238 0.004975163 0.0639984 -0.05991704 -0.023591636 -0.0511737 0.12918195 -0.12882438
-0.13665253 0.019876858
00000000: 2af5 04be aac9 dd3b 242b b93d b1f6 993c
00000010: f153 6f3d 6cc8 973c 0cb9 ad3c b542 46bd
00000020: 21db ce3c 9479 22bd a1da d4bc 7f48 a9bb
00000030: 56e3 4c3e 6939 ce3d 65d0 943d 8234 0a3e
00000040: 441c 67bd 4102 cf3c b550 4abd 3d95 1c3d
00000050: 7705 a1bc 785c d2bc 2f2a 10bd b37b 633e
00000060: 6352 d43c a26f 473d 1cd4 a73d d0f3 08bd
00000070: 7e4a 113d 1fe9 13bd 33e5 b03d ec36 b73d
00000080: 91d0 7bbc 3df2 eebb aade e6bd 3b17 7f3c
00000090: c211 823d f625 953c 0540 c6bd deb2 26be
000000a0: 2d0a e7bd b106 a33b 9811 833d 926b 75bd
000000b0: 3f43 c1bc 839b 51bd 4648 043e 8aea 03be
000000c0: a4ee 0bbe cbd4 a23c

decoder.0.weight f4 [100, 50]
-0.02812722 -0.35620937 -0.04814033 -0.29074943 0.21697909 -0.18566011 0.3291194 0.118598424
-0.027911564 -0.037360832 -0.118862435 0.0041451985 -0.1457476 -0.16438034 -0.24970086 -0.28706044
0.29534486 0.024871388 0.1390792 -0.26581404 -0.04707422 0.0012481111 0.21845093 0.0703668
0.41503805 -0.09455245 0.4532554 0.0690385 0.1497736 -0.20513968 0.018942144 -0.19072339
0.102194846 0.20467764 0.04257428 -0.19383998 -0.33262905 0.10915888 0.061897416 -0.11039682
0.032429177 0.11191879 0.093148544 -0.32510322 0.09524079 -0.159786 0.20531483 -0.29998866
0.22327143 -0.19292818 -0.23821642 -0.46464506 0.341098 -0.41130674 -0.4110263 -0.63688195
-0.25560766 -0.1658818 0.4607042 -0.6102314 0.021051418 -0.23239808 0.4249082 -0.22632404
-0.08916571 -0.05715443 0.1672791 -0.576826 -0.21565033 -0.34445876 0.038900595 0.61939144
0.525711 -0.10928961 0.10581609 0.45286646 0.15947436 -0.46221995 -0.22191411 0.4317751
0.003107409 0.20827094 -0.36852485 0.32056716 0.2793966 0.1500158 0.43647975 0.004449284
0.7810544 -0.028635228 0.63279647 0.14318757 0.05584554 -0.2819921 -0.028248819 -0.5151278
-0.007575909 0.602554 0.1749996 -0.17267638 -0.0042310474 0.57295185 0.42268983 -0.4147799
-0.027927939 -0.33122307 -0.0013013156 0.24222375 -0.19210894 -0.28811115 0.35871625 -0.3420589
0.45985395 0.47314304 -0.117616594 -0.33117202 -0.035251915 -0.45180658 0.090086974 -0.41322297
0.559468 -0.19844395 0.06149353 0.14103675 -0.070452325 0.16185018 -0.05174813 0.15485567
-0.009544743 0.14265302 -0.16901718 0.36425683 0.13731417 0.18355323 -0.021218609 -0.22457863
0.267577 0.09404787 -0.19083773 0.19581261 -0.21798034 0.65491176 -0.4241289 -0.45848504
-0.15089488 0.074571535 0.16374083 -0.34149504 -0.3741495 0.6043358 -0.11532686 -0.06919781
0.022141734 -0.4637487 -0.4784932 0.33948496 0.04083194 0.34683266 -0.5597361 0.12976354
-0.9718338 -0.006481669 -0.47493106 0.72188056 -0.30286747 -0.056859374 -0.35761416 -0.20782995
0.4239945 -0.12423141 0.3719688 -0.29484895 0.056796256 0.60341007 0.22897977 0.5952255
-0.27995795 0.24175365 0.39112929 0.7320255 -0.83267444 0.437216 0.12527542 -0.1782582
0.22570267 -0.7309 0.47561288 0.083097234 0.013066376 -0.042468753 0.60949534 0.32130843
-0.13548884 0.3684705 -0.20048593 0.56701905 0.15570635 -0.9863664 0.48328775 0.53100353
-0.7368877 -0.40923694 -0.533428 -0.33522943 0.34893367 0.36970016 0.32702926 0.13783221
-0.37229675 -0.058845714 0.06868809 -0.43229884 0.08706031 -0.39857113 0.10229499 -0.095588304
-0.10323691 -0.21357805 -0.3460737 -0.17629884 0.14194663 -0.38231292 0.31489053 0.092372805
0.77509785 -0.19694376 0.23558544 0.549304 -0.036926538 -0.05805456 -0.3069914 0.42530167
0.14099091 -0.04486806 -0.10731097 -0.032375704 -0.44354445 -0.4107905 -0.18375462 -0.25739446
-0.21472755 -0.19109337 0.047210194 0.06946409 -0.11747273 -0.18576206 -0.11055686 -0.19806634
0.3948107 0.12111896 -0.047620986 -0.3715136 -0.50938714 0.31249076 -0.05895826 -0.53729147
00000000: 0e6b e6bc 1361 b6be cb2e 45bd 1cdd 94be
00000010: c42f 5e3e af1d 3ebe 5782 a83e bbe3 f23d
00000020: cba6 e4bc ac07 19bd 266e f3bd 72d4 873b
00000030: dc3e 15be 5253 28be 95b1 7fbe 96f9 92be
00000040: 7137 973e 15bf cb3c c76a 0e3e c718 88be
00000050: e6d0 40bd a997 a33a 9ab1 5f3e 781c 903d
00000060: de7f d43e b7a4 c1bd 1711 e83e 0f64 8d3d
00000070: 405e 193e 2310 52be 8e2c 9b3c fe4c 43be
00000080: 884b d13d 0497 513e 5e62 2e3d fd7d 46be
00000090: 5b4e aabe b18e df3d 2588 7d3d ba17 e2bd
000000a0: 75d4 043d ae35 e53d aac4 be3d ee73 a6be
000000b0: 9a0d c33d f19e 23be 0d3e 523e 1d98 99be
000000c0: 44a1 643e f78e 45be 01ef 73be f5e5 edbe
000000d0: 66a4 ae3e cc96 d2be 0a72 d2be b20a 23bf
000000e0: 02df 82be ebdc 29be 6ce1 eb3e 2038 1cbf
000000f0: 0674 ac3c c3f9 6dbe 918d d93e 7dc1 67be
00000100: 839c b6bd c31a 6abd 364b 2b3e deaa 13bf
00000110: 71d3 5cbe e65c b0be 3b56 1f3d 7090 1e3f
00000120: ff94 063f 3bd3 dfbd 1bb6 d83d 1dde e73e
00000130: 3f4d 233e 18a8 ecbe 743d 63be a011 dd3e
00000140: aca5 4b3b fa44 553e 4aaf bcbe 6121 a43e
00000150: 120d 8f3e be9d 193e 467a df3e 4dcb 913b
00000160: 2ef3 473f 6d94 eabc f3fe 213f c39f 123e
00000170: 4bbe 643d 4561 90be 116a e7bc 6adf 03bf
00000180: 553f f8bb fb40 1a3f 1833 333e 14d2 30be
00000190: 99a4 8abb f9ac 123f cd6a d83e 085e d4be
000001a0: 22c9 e4bc 1296 a9be e890 aaba 8109 783e
000001b0: 35b8 44be 4e83 93be a8a9 b73e 5822 afbe
000001c0: fa71 eb3e ce3f f23e f8e0 f0bd 618f a9be
000001d0: 5064 10bd 3153 e7be 857f b83d f691 d3be
000001e0: 4b39 0f3f e434 4bbe a4e0 7b3d f06b 103e
000001f0: 4f49 90bd 0ebc 253e d9f5 53bd 7c92 1e3e
00000200: 8e61 1cbc a213 123e d712 2dbe df7f ba3e
00000210: 169c 0c3e 61f5 3b3e a6d2 adbc f1f7 65be
00000220: daff 883e 2b9c c03d f76a 43be 1a83 483e
00000230: 3d36 5fbe 4ca8 273f 6c27 d9be 8dbe eabe
00000240: 3084 1abe f6b8 983d adab 273e 70d8 aebe
00000250: 8690 bfbe c0b5 1a3f 7d30 ecbd 95b7 8dbd
00000260: 9562 b53c 7870 edbe 10fd f4be f9d0 ad3e
00000270: 643f 273d 0d94 b13e dd4a 0fbf bce0 043e
00000280: 1aca 78bf 2e64 d4bb 2a2a f3be 2acd 383f
00000290: 7211 9bbe 60e5 68bd 3419 b7be 60d1 54be
000002a0: cf15 d93e 0a6d febd b272 be3e 71f6 96be
000002b0: 31a3 683d 1579 1a3f ac79 6a3e b360 183f
000002c0: a656 8fbe 458e 773e 1942 c83e 0666 3b3f
000002d0: 272a 55bf c7da df3e 3348 003e 5189 36be
000002e0: 9a1e 673e 431c 3bbf 8883 f33e e22e aa3d
000002f0: 5a14 563c b7f3 2dbd e307 1c3f 8a82 a43e
00000300: 96bd 0abe 2aa8 bc3e 2f4c 4dbe 2928 113f
00000310: 7c71 1f3e 8282 7cbf 7e71 f73e d9ef 073f
00000320: aca4 3cbf 8187 d1be bd8e 08bf 31a3 abbe
00000330: 6fa7 b23e 5749 bd3e 6170 a73e e323 0d3e
00000340: ae9d bebe 3408 71bd 57ac 8c3d 4656 ddbe
00000350: ad4c b23d 8411 ccbe 0980 d13d cdc3 c3bd
00000360: e06d d3bd 34b4 5abe 9230 b1be af87 34be
00000370: 755a 113e 85be c3be 5539 a13e f42d bd3d
00000380: d06c 463f a0ab 49be 4f3d 713e 309f 0c3f
00000390: 4840 17bd 9eca 6dbd fa2d 9dbe 24c1 d93e
000003a0: ec5f 103e 92c7 37bd dbc5 dbbd 639c 04bd
000003b0: 4218 e3be 2253 d2be 2c2a 3cbe 35c9 83be
000003c0: 8ae1 5bbe fbad 43be 7a5f 413d 3043 8e3d
000003d0: 8b95 f0bd 6938 3ebe a36b e2bd e7d1 4abe
000003e0: a124 ca3e 380d f83d 390e 43bd 0837 bebe
000003f0: 3267 02bf cafe 9f3e 377e 71bd ef8b 09bf

decoder.0.bias f4 [100]
-0.268617 0.19641814 0.37599394 -0.18481082 0.7043662 0.54571116 0.25794107 -0.66517663
-7.0589185e-06 0.21486002 -0.49224168 0.69974864 -1.6017883 0.9416698 1.0992453 -0.015888907
0.13691172 1.2659193 0.66402745 0.5011004 0.94490004 -0.41620126 -0.89187396 0.1493874
0.48305428 0.64428896 -0.05238538 0.18249997 0.21038735 -0.5200036 0.059684273 -0.55458325
0.069270805 1.0943505 0.72111464 0.10510724 -0.75013113 -0.13449956 0.63893867 0.88111717
-0.20903513 -0.08412722 0.09551641 1.2276849 0.70550424 -0.34970853 -0.45584452 -0.38790524
-1.4970719 -0.56506824 -0.010072783 0.524629 -2.9468727e-06 -0.5398742 0.053564884 0.9153259
-0.47384986 0.486627 -0.7680624 0.37281448 0.7705242 -0.007796332 -0.2557312 0.3057605
-1.3005297 -0.8668935 -0.7366424 1.066742 -0.077714324 0.6278373 1.2342949 -0.025877947
0.23010299 -0.17969355 0.20702888 0.36022836 -3.596865e-26 0.17188436 0.14683135 -0.18158503
-0.20294951 -0.22209187 0.036710463 0.3112185 -1.7835604 -0.14970583 -1.2165612 -0.013460653
0.34868 -0.15978324 1.6017001 -0.2403755 -0.37925577 -0.25728843 1.203875 1.0337924
-0.18196648 0.18486792 0.051485382 0.03460017
00000000: 2b88 89be d621 493e 4782 c03e 0c3f 3dbe
00000010: 5851 343f bab3 0b3f da10 843e 0449 2abf
00000020: a6db ecb6 4404 5c3e 1a07 fcbe ba22 333f
00000030: 6607 cdbf 4611 713f 12b4 8c3f 7429 82bc
00000040: 9632 0c3e a509 a23f b4fd 293f 1e48 003f
00000050: f8e4 713f 5518 d5be da51 64bf 03f9 183e
00000060: e452 f73e 1ff0 243f 0d92 56bd 46e1 3a3e
00000070: c86f 573e f51e 05bf 7f77 743d 2bf9 0dbf
00000080: dadd 8d3d ad13 8c3f f89a 383f 7742 d73d
00000090: 9808 40bf 41ba 09be 7c91 233f e590 613f
000000a0: 4e0d 56be e44a acbd 1c9e c33d c724 9d3f
000000b0: ed9b 343f ff0c b3be 7464 e9be 849b c6be
000000c0: 0da0 bfbf 50a8 10bf 5008 25bc 164e 063f
000000d0: e3c2 45b6 3235 0abf da66 5b3d cc52 6a3f
000000e0: 739c f2be 2d27 f93e bd9f 44bf 8ae1 be3e
000000f0: 1341 453f 5f78 ffbb 33ef 82be a48c 9c3e
00000100: c277 a6bf bbec 5dbf 9994 3cbf 008b 883f
00000110: b028 9fbd f2b9 203f 60fd 9d3f fdfd d3bc
00000120: 1ea0 6b3e 9601 38be 61ff 533e da6f b83e
00000130: ae1b 3295 7402 303e f55a 163e 6df1 39be
00000140: ffd1 4fbe 0d6c 63be b65d 163d 0858 9f3e
00000150: b54b e4bf 7c4c 19be 47b8 9bbf 128a 5cbc
00000160: 2f86 b23e 389e 23be 8204 cd3f ff24 76be
00000170: d02d c2be 4fbb 83be 9318 9a3f 4f53 843f
00000180: 6c55 3abe 044e 3d3e 56e2 523d e8b8 0d3d

decoder.2.weight f4 [227, 100]
-0.03991947 0.0764655 -0.28895825 0.04864641 -0.15912536 -0.24093975 0.19678693 0.09196377
-1.1422545e-08 0.01073907 0.16748825 -0.25516853 0.16097182 0.06015682 0.04875514 0.07700824
-0.44549146 -0.26862177 -0.08979901 -0.046811305 0.09456868 0.48112085 0.18321554 0.22181368
-0.14508793 0.092655495 0.07542569 0.127861 0.15333195 -0.029786818 0.09927842 0.21695803
0.23278223 0.2221835 -0.36753833 -0.43566534 0.15998505 -0.2775415 0.014074952 0.019936241
0.047170863 -0.009463164 0.0915577 -0.37689313 0.16416052 0.2292216 -0.017777422 0.3234649
-0.083165385 0.04587815 -0.52618635 0.35790342 -1.4911361e-14 0.15404515 0.08665 -0.5782247
0.3108552 -0.08494707 0.011034128 0.040953103 0.2231011 -0.18152776 -0.16282685 -0.23275998
0.14274305 0.16082528 -0.4172725 -0.19567603 0.2707733 -0.45546225 -0.07578362 0.03387111
-0.31907594 -0.034665544 0.17816155 -0.09522239 6.30681e-37 0.035918638 0.13313442 0.0037442097
0.47151294 -0.06711694 -0.025161337 -0.23816708 -0.2461906 0.2046661 -0.25336877 -0.04901294
-0.20809332 0.078445256 -0.30256987 -0.004630839 0.41083762 0.22006734 0.03548247 -0.063135356
0.08459212 -0.095860444 0.04605561 0.08020591 -0.15495718 0.1594256 -0.102489516 -0.023823727
-0.22087865 0.35678664 -0.068513915 -0.11392098 -1.6817506e-08 0.14199352 -0.10208239 0.34836796
-0.012494309 -0.43048593 -0.12459821 -0.19162609 -0.21974699 0.025907194 0.010424397 0.09788079
-0.034368806 -0.07129636 -0.18824938 -0.13936557 0.17826907 0.020892996 0.039512563 -0.04502722
-0.08382682 -0.17138764 0.16205695 0.10056323 -0.1540235 -0.029165808 0.26865256 -0.16741642
-0.3151885 0.026614023 0.20172955 -0.0602232 0.034787923 0.29098958 0.024036136 0.29976305
-0.039420865 0.1323266 0.13678274 0.1356259 -0.1581422 -0.07804377 -0.035332475 -0.05657537
-4.8047686e-15 -0.04719528 0.07248057 -0.0037069803 -0.19481468 -0.120804936 -0.31915063 0.19052494
0.20330468 -0.19845282 -0.18189111 0.08384888 -0.31108564 0.020000791 -0.116842724 -0.03347735
0.18691532 -0.013300511 0.18310532 0.06782308 -0.034945313 -0.15944842 -0.016933117 0.049670305
-2.76333e-40 -0.03839626 0.08571208 -0.17773391 -0.30211616 -0.33264783 -0.025711264 -0.13216753
-0.27947363 0.05599114 -0.09175576 -0.00569551 -0.029770203 -0.015325523 0.18515837 -0.20306861
0.12886652 0.11730505 -0.15127008 0.17534833 -0.0690061 -0.1067757 0.21708202 0.13020214
0.0616899 -0.3053793 -0.49578285 0.06869088 -0.22501734 0.03731033 0.09245275 -0.094361566
-1.5867515e-08 -0.030140411 0.2849335 -0.5912964 0.016819632 -0.06894435 -0.06360873 -0.22805317
-0.19026098 0.26199925 0.04092334 -0.18031944 -0.2971278 -0.0076647736 0.70662314 0.036261205
-0.38628483 -0.26455295 -0.7236022 0.20044446 0.010028673 -0.098525956 0.22390996 -0.2692884
0.0016685006 0.115991816 0.37262815 0.04633422 0.08658819 0.5720432 -0.022398503 0.021949004
-0.59999543 -0.23347692 0.052350577 0.14919734 0.078581795 0.023218611 0.11314112 -0.31387466
0.096330576 -0.020124044 -0.29674762 -0.09411081 -1.5232457e-15 0.024732148 0.2498934 -0.119328864
00000000: 9982 23bd f299 9c3d 56f2 93be 7541 473d
00000010: c2f1 22be e9b8 76be 8382 493e 8057 bc3d
00000020: e23c 44b2 edf2 2f3c 0a82 2b3e 73a5 82be
00000030: ccd5 243e ff66 763d 78b3 473d 7fb6 9d3d
00000040: 7517 e4be cb88 89be 8be8 b7bd 36bd 3fbd
00000050: 39ad c13d 7955 f63e db9c 3b3e 2023 633e
00000060: ee91 14be 2ac2 bd3d c978 9a3d feed 023e
00000070: 0d03 1d3e 7c03 f4bc 7c52 cb3d 3f2a 5e3e
00000080: 775e 6e3e 1284 633e fc2d bcbe 870f dfbe
00000090: 1fd3 233e eb19 8ebe a19a 663c 5451 a33c
000000a0: 3c36 413d 630b 1bbc 9a82 bb3d 23f8 c0be
000000b0: b219 283e 11b9 6a3e f5a1 91bc 319d a53e
000000c0: 9d52 aabd baea 3b3d 26b4 06bf 1e3f b73e
000000d0: 424f 86a8 03be 1d3e 8e75 b13d 8906 14bf
000000e0: 6a28 9f3e bbf8 adbd 7dc8 343c 71be 273d
000000f0: 9d74 643e 6ae2 39be 15bc 26be a258 6ebe
00000100: 3c2b 123e 62af 243e bea4 d5be 4c5f 48be
00000110: cca2 8a3e 5932 e9be 7134 9bbd 6fbc 0a3d
00000120: ec5d a3be 75fd 0dbd fb6f 363e f503 c3bd
00000130: 109c 5603 6c1f 133d 6454 083e 6a61 753b
00000140: 256a f13e 9b74 89bd 261f cebc 12e2 73be
00000150: 6319 7cbe fd93 513e 8db9 81be cbc1 48bd
00000160: 6a16 55be e8a7 a03d 70ea 9abe 4bbe 97bb
00000170: 4f59 d23e 5559 613e 1156 113d 1c4d 81bd
00000180: a23e ad3d 7b52 c4bd cfa4 3c3d ff42 a43d
00000190: 18ad 1ebe 7740 233e 06e6 d1bd fa29 c3bc
000001a0: 032e 62be bdac b63e 0651 8cbd 674f e9bd
000001b0: 1676 90b2 c066 113e 9210 d1bd 495d b23e
000001c0: eeb4 4cbc a768 dcbe 592d ffbd a139 44be
000001d0: 5b05 61be 533b d43c 17cb 2a3c b975 c83d
000001e0: 4ec6 0cbd d303 92bd 72c4 40be d9b5 0ebe
000001f0: 2b8c 363e ca27 ab3c edd7 213d 766e 38bd
00000200: 65ad abbd 3e80 2fbe 42f2 253e 18f4 cd3d
00000210: 56b8 1dbe 22ed eebc d48c 893e 366f 2bbe
00000220: 6360 a1be a705 da3c 3192 4e3e 9aac 76bd
00000230: c87d 0e3d 96fc 943e 6ee7 c43c 8b7a 993e
00000240: c677 21bd a080 073e c610 0c3e 84e1 0a3e
00000250: 07f0 21be 69d5 9fbd c9b8 10bd 93bb 67bd
00000260: 2b1c ada7 d74f 41bd b170 943d cff0 72bb
00000270: 807d 47be 9468 f7bd b667 a3be f818 433e
00000280: 1a2f 503e 3737 4bbe aa41 3abe f6b8 ab3d
00000290: 9e46 9fbe b3d8 a33c 3d4b efbd 8c1f 09bd
000002a0: bb66 3f3e 63ea 59bc f67f 3b3e d4e6 8a3d
000002b0: d122 0fbd 7246 23be 52b7 8abc 1773 4b3d
000002c0: 4e02 0380 6645 1dbd d189 af3d e1ff 35be
000002d0: f8ae 9abe d150 aabe 6ea0 d2bc ed56 07be
000002e0: 2b17 8fbe f756 653d 72ea bbbd 67a1 babb
000002f0: a4e0 f3bc e717 7bbc 289a 3d3e 38f1 4fbe
00000300: 96f5 033e a13d f03d 8be6 1abe 838e 333e
00000310: 1253 8dbd 38ad dabd c04a 5e3e b653 053e
00000320: 8cae 7c3d ad5a 9cbe 40d7 fdbe cead 8c3d
00000330: f26a 66be b7d2 183d de57 bd3d a340 c1bd
00000340: 094d 88b2 06e9 f6bc cee2 913e 335f 17bf
00000350: 53c9 893c b232 8dbd 4b45 82bd c586 69be
00000360: c6d3 42be c424 863e 3b9f 273d a9a5 38be
00000370: 2321 98be c828 fbbb 41e5 343f a186 143d
00000380: 20c7 c5be 7c73 87be fe3d 39bf 5041 4d3e
00000390: 4e4f 243c fac7 c9bd a748 653e 2be0 89be
000003a0: 97b1 da3a 1e8d ed3d 1ec9 be3e f3c8 3d3d
000003b0: 2655 b13d 6c71 123f 117d b7bc 66ce b33c
000003c0: 4d99 19bf 9314 6fbe 8f6d 563d 30c7 183e
000003d0: 7eef a03d f534 be3c 88b6 e73d 2eb4 a0be
000003e0: f748 c53d 2edb a4bc 4eef 97be 2bbd c0bd
000003f0: d985 dba6 139b ca3c 0ee4 7f3e b162 f4bd

decoder.2.bias f4 [227]
-0.25656372 0.26176378 -0.050535716 -0.06462931 -0.020332823 0.0053035314 -0.09749374 -0.17219023
-0.09079067 -0.07440563 -0.39970934 0.40997007 0.028672054 -0.123120524 0.196685 -0.043901563
0.33747646 -0.29724395 0.054647394 -0.17614053 -0.198925 -0.2436918 -0.030052284 -0.001093387
-0.14994024 -0.35708404 0.24619746 -0.23725401 0.17992845 0.0022050603 -0.19741498 -0.36242285
-0.15595765 -0.07128771 0.07467839 -0.30304313 0.12538803 0.15725932 -0.33393627 0.124390215
-0.38357612 -0.23450795 0.09984607 -0.02508022 0.054956283 0.05685034 -0.011322098 -0.08575975
0.081335574 -0.26748675 0.076107904 0.28328478 -0.37020898 -0.08677089 0.21709014 0.04056674
-0.35758474 -0.02986798 0.09596337 0.06681179 0.07906804 -0.22624245 -0.14112566 0.12889165
0.12603243 0.19466704 -0.23128088 0.14610161 -0.35204563 -0.14381503 0.17466287 -0.02973467
-0.089837946 -0.1458154 -0.3431786 -0.08287307 0.060270492 0.08060637 0.17809033 0.00113449
0.09982858 -0.0081934 -0.007848513 -0.37552458 -0.15293913 -0.10691732 0.0016762223 -0.045739327
0.07240038 -0.05908398 0.14823535 0.04843792 -0.02715333 0.2794456 0.004964681 0.019650638
-0.05589087 0.100315005 0.18398546 -0.01517023 0.078931995 0.075753346 0.20598103 -0.32076502
0.12082067 -0.17346773 -0.1733789 -0.0010939235 0.04181834 -0.47428167 0.04111303 0.0630513
0.06402432 -0.11706596 0.12677568 -0.3500998 0.17992567 -0.10238486 -0.039646946 -0.32463196
-0.2628564 -0.23758882 -0.23081306 -0.008947763 0.30153742 0.07129702 -0.24503274 -0.08166818
-0.084719025 0.2908213 -0.06274144 0.083063215 -0.17879117 -0.21350788 -0.20916212 0.05003842
-0.0010932658 -0.23576774 -0.082618654 0.26764223 -0.14718422 -0.10891265 -0.38832274 0.12193029
0.20636329 0.1424148 0.19287533 -0.0642686 -0.024624199 -0.04175123 -0.01687969 0.02481017
0.118543856 0.029667493 0.062096566 0.09150574 -0.28926006 -0.18608442 -0.09332935 0.21274313
-0.10114195 -0.1468874 0.06887386 -0.012100749 -0.00822255 -0.026091618 0.015884345 -0.0049144956
-0.051113624 -0.15772888 -0.28070834 0.19018362 -0.03711216 0.107757434 -0.22082828 0.17649251
0.020124223 0.011922138 0.123509124 -0.19836973 -0.20743024 0.071146466 -0.17735107 -0.44863155
0.21178804 -0.11513751 -0.20232378 -0.043294445 -0.30559862 0.12750575 0.20246348 -0.042662285
-0.101141244 0.106716104 0.079972975 -0.004065225 0.20265944 -0.06792437 -0.25820488 -0.036189735
-0.29633605 0.0842142 0.030686492 0.13899794 -0.087635525 -0.39194697 0.17450008 0.28445408
0.1633313 -0.01341198 -0.17537592 -0.10171991 -0.04217688 -0.07558482 -0.11201615 0.05453457
-0.119968064 0.017517189 -0.14413686 -0.17424095 -0.0010933276 0.09976812 -0.12210726 -0.06772175
0.012852407 -0.08444274 -0.0055669053
00000000: 525c 83be e705 863e 8afe 4ebd 5f5c 84bd
00000010: 0591 a6bc 3fc9 ad3b ccaa c7bd a352 30be
00000020: 75f0 b9bd fb61 98bd b4a6 ccbe 99e7 d13e
00000030: a8e1 ea3c 9d26 fcbd cb67 493e 20d2 33bd
00000040: b7c9 ac3e 5c30 98be f2d5 5f3d 2f5e 34be
00000050: ffb2 4bbe 588a 79be 3530 f6bc fb4f 8fba
00000060: ef89 19be b8d3 b6be 301b 7c3e b7f2 72be
00000070: 2a3f 383e c682 103b 2727 4abe 7d8f b9be
00000080: 5db3 1fbe 4aff 91bd fcf0 983d 7828 9bbe
00000090: b865 003e 9608 213e b2f9 aabe 4cc0 fe3d
000000a0: 1764 c4be da22 70be 197c cc3d 0975 cdbc
000000b0: d719 613d e7db 683d 5280 39bc cfa2 afbd
000000c0: 4493 a63d 06f4 88be 76de 9b3d b40a 913e
000000d0: 088c bdbe f0b4 b1bd e14c 5e3e 4f29 263d
000000e0: 5915 b7be b2ad f4bc 7188 c43d 9fd4 883d
000000f0: 6dee a13d 1aac 67be 3f83 10be 2cfc 033e
00000100: a50e 013e cc56 473e e5d4 6cbe a99b 153e
00000110: 533f b4be 3f44 13be d3da 323e 1f96 f3bc
00000120: f5fc b7bd a250 15be 1bb5 afbe 5bb9 a9bd
00000130: 31de 763d f414 a53d 505d 363e 2bb3 943a
00000140: ed72 cc3d 9c3d 06bc 0d97 00bc c244 c0be
00000150: 139c 1cbe 78f7 dabd b0b4 db3a 2959 3bbd
00000160: a746 943d 0b02 72bd 02cb 173e d766 463d
00000170: a970 debc 7e13 8f3e c3ae a23b 60fa a03c
00000180: d3ed 64bd f471 cd3d af66 3c3e 8e8c 78bc
00000190: 19a7 a13d 9224 9b3d b1ec 523e 503b a4be
000001a0: d470 f73d 86a1 31be 3d8a 31be fb61 8fba
000001b0: b549 2b3d 0cd5 f2be 2366 283d 0a21 813d
000001c0: 2f1f 833d 47c0 efbd 7cd1 013e 4840 b3be
000001d0: 6f3e 383e 27af d1bd d664 22bd 2936 a6be
000001e0: 1d95 86be 7c4a 73be 425a 6cbe a399 12bc
000001f0: 1d63 9a3e 2c04 923d dde9 7abe a641 a7bd
00000200: 2b81 adbd 88e6 943e 967e 80bd 0c1d aa3d
00000210: 0815 37be cfa1 5abe 982e 56be 16f5 4c3d
00000220: ea4b 8fba 196d 71be f833 a9bd 6708 893e
00000230: 76b7 16be 980d dfbd 3dd2 c6be 96b6 f93d
00000240: e650 533e 2fd5 113e 1c81 453e 419f 83bd
00000250: b0b8 c9bc 5603 2bbd 4747 8abc b33e cb3c
00000260: 1fc7 f23d 3e09 f33c f858 7e3d 5d67 bb3d
00000270: e519 94be ea8c 3ebe 7523 bfbd 56d9 593e
00000280: 8323 cfbd a769 16be bd0d 8d3d 3842 46bc
00000290: e0b7 06bc 17be d5bc e31f 823c c709 a1bb
000002a0: 855c 51bd ae83 21be 01b9 8fbe 7fbf 423e
000002b0: ec02 18bd eeaf dc3d cf20 62be 74ba 343e
000002c0: 8edb a43c 1255 433c 5af2 fc3d 6f21 4bbe
000002d0: 9868 54be 3db5 913d 859b 35be 09b3 e5be
000002e0: f7de 583e 37cd ebbd f72d 4fbe 8455 31bd
000002f0: 6c77 9cbe de90 023e 9652 4f3e a6be 2ebd
00000300: 2423 cfbd f98d da3d dfc8 a33d 9435 85bb
00000310: f585 4f3e ef1b 8bbd 6e33 84be b03b 14bd
00000320: 5cb9 97be 7f78 ac3d 3d62 fb3c 7a55 0e3e
00000330: 417a b3bd 46ad c8be 26b0 323e f7a3 913e
00000340: 5240 273e ecbd 5bbc bf95 33be 8752 d0bd
00000350: aac1 2cbd 37cc 9abd b968 e5bd a45f 5f3d
00000360: d1b1 f5bd 3580 8f3c 9d98 13be 386c 32be
00000370: fd4d 8fba 3a53 cc3d 5f13 fabd b3b1 8abd
00000380: e792 523c 51f0 acbd 966a b6bb
