algorithms/SemiAutoEncoder/SemiAutoEncoderResults/Semi_AutoEncoder_200-50_all_IO_noleave_VH_ratio_10.pt (torch_old, 447191 bytes, 8 tensors)

encoder.0.weight f4 [200, 226]
00000000: 954b a43d 8a22 94bb 3df0 28be 77e6 38bc
00000010: d8ee e53d 85b4 923d 5a73 113e 8542 193e
00000020: fcb6 37be f588 8c3d e5fb a6be 881d 9e3d
00000030: a57a a7bd 5545 443c edd3 87bd d0db 5f3d
00000040: 318a 50bd 4d3a ff3d 92c5 b1bd 09e9 aa3d
00000050: 7d74 35be c185 073c 1e0a 70be 4e10 0700
00000060: 90ea 093d 2e31 9f3c ea9e 8cbd fa0b 853d
00000070: 968b 023d 3159 1dbd 7699 cdbc 869d 47be
00000080: 6680 c13d 5cc9 723e 0c42 09bf 677a 633e
00000090: 3a0c 6a3e 02ea c93d e91d 9f3c 177b 6d3c
000000a0: ee7e bfbd b130 23bd 5bdf bf3d da85 133e
000000b0: 43ab ed3d 444f 5cbc 231d 4e3e 6853 29bd
000000c0: 994b 033e f54a 473e 5fdf 253e 9179 5b3e
000000d0: 52f2 933d e2bd 00be f4d9 a03e 0674 683d
000000e0: 35e1 853d 297e 633e ee40 ad3c 48af bf3d
000000f0: 104f 303c 949c 13bc 59b2 15bf 42b7 22be
00000100: 9528 f03c a881 59bd fa71 e13d 83b8 563e
00000110: 254e a23d 5045 fc3d 6c2b 89bd 6728 5f3d
00000120: db75 4e3e 93f4 603d 7940 09bd ba95 8e3d
00000130: 2685 c03d 0ed5 573e d365 87be 031b 96bb
00000140: fce6 00be e0e2 d1bd 1a72 e7bd 86f7 cc3d
00000150: 4319 4fbc 6df9 e5bd 7ad0 923d 4e07 5abe
00000160: e942 bfbc 6cf4 13be 5200 fc3d 52ec 06be
00000170: 499f adbd 7523 173e ad34 dfbd 0acb 62bd
00000180: d250 e03d 110d bebb 1cba ec3c 9848 d73c
00000190: 9ffd 44bd c8c6 323e 6a53 50bf 32c8 1dbd
000001a0: 3348 0b3e 99f0 02bc f020 8d3b e627 0f80
000001b0: f34d 7a3e ee5b 353d d279 59be 1253 f33d
000001c0: 0a07 8ebe fd16 423d ec56 163d a9c1 c53d
000001d0: 8ef3 d0bd 231b a83d d134 02bd efe2 9ebc
000001e0: 1991 863c 968e 8c3e 6c53 0a3e 849c 763e
000001f0: a611 9fbd b67f 473e f28e d53c 6010 c6bb
00000200: 6a5c 103e e107 823d 081a a43d ea66 6d3c
00000210: 20ea c8bd 435e 7c3e 536f 873d 92d3 213e
00000220: 326e 1200 f6b8 b53d 74e1 903d 01ed 0a3e
00000230: f18e 153d a56f 093e 64d1 673d 6d4c 2a3e
00000240: 1025 b63d d8d3 90be eac7 5cbf 3b30 5b3e
00000250: 32c9 85bd 5417 b6bd 1ae8 0e3e c4e5 f73d
00000260: c414 3a3e 3ea9 2d3d ccaa cc3d b99d 49be
00000270: 54cc 6dbe 6505 033e 1bdf 1a3b 5762 903d
00000280: f0bc 103e 31b1 e63d 5ace 23be cf32 f4bd
00000290: 26c3 a1bd 093f a8bc 20ca e33d 70fc 5fbf
000002a0: 85f7 0abe a1ea 013d 20a9 e4bd 90f6 163d
000002b0: 0d40 303e 1c53 c4bb c34b f73d e072 a63d
000002c0: 6693 293d d1dc 233e 3360 07bf d1ec dbbc
000002d0: c112 5abd 4aae 203e b019 ed3c 6a67 183e
000002e0: 4af9 133d 143e 33bd b37c a43d d2d8 8bbc
000002f0: 56b7 873d 6719 14bd b750 bebe 97ed 483e
00000300: c088 0c3e 417f 7ebd 720a 84be f7e2 aa3e
00000310: 3ffd eebd fe31 153e f982 213d 601e 153c
00000320: 8d07 423e 072a 32bc fb40 c63d b694 9d3d
00000330: f6ac 38be bc24 ee3d 8eca 50be 0769 2e3e
00000340: 4d62 153d acdc 14be 1b1c 48be 78b8 44be
00000350: c020 8dbf ff14 64be 17ac 39be a05a 043e
00000360: 890e a23d 7182 c13c c040 143e 97cd 9a3d
00000370: 7001 0480 7b9e 6d3d c4de 0b3e 7de7 493e
00000380: c62c abbe 1e7b 28be bb1b 223e 7079 233e
00000390: 5b01 6b3d 5835 e83c 122d 003b c3f5 853d
000003a0: 2fcb d1bb 6918 1abd 0980 ed3d 5397 283e
000003b0: 14ba 4bbe 7675 1d3e 6a4b 3ebe 58e1 0a3e
000003c0: 14bb d93d fd7f 273e 1443 ad3d ac73 afbd
000003d0: cd47 babd a878 27bd 8f78 023e 3eab b2bc
000003e0: 68a6 ed3c 3962 0000 026f d33d d8df f23c
000003f0: ec80 b83d 57be 233e adc0 683c 170e 223d
0.08022229 -0.004520719 -0.16497894 -0.011285416 0.112271965 0.071633376 0.1420416 0.14966781
-0.17940897 0.0686206 -0.32614055 0.077204764 -0.081776895 0.011979421 -0.066322185 0.05465299
-0.05091304 0.12462292 -0.08680262 0.08345229 -0.17720218 0.0082716355 -0.2344136 6.48697e-40
0.03367096 0.01943263 -0.06866248 0.06496425 0.0318714 -0.038415138 -0.02509759 -0.19493684
0.09448318 0.23709625 -0.53616405 0.22214662 0.22856227 0.098590866 0.019423442 0.014494679
-0.09350382 -0.039841358 0.093687735 0.14406529 0.11604931 -0.013446633 0.20128302 -0.041339308
0.12821807 0.19462188 0.1619849 0.21433093 0.07223953 -0.12572435 0.31416285 0.056751274
0.065370955 0.22216095 0.021149125 0.09359604 0.0107610375 -0.009009499 -0.5847526 -0.1589022
0.029316226 -0.053102165 0.110080674 0.20968823 0.07925061 0.12317908 -0.06697735 0.05448189
0.20162146 0.054920744 -0.03350875 0.06962152 0.09400396 0.21077368 -0.26444873 -0.0045808568
-0.12588114 -0.10248351 -0.1130106 0.10008149 -0.0126403 -0.11229215 0.0716867 -0.21291849
-0.023347335 -0.14448708 0.123047486 -0.13176087 -0.08477647 0.1475962 -0.10898719 -0.055369414
0.10952915 -0.0057998975 0.028897338 0.026279733 -0.048093434 0.17458642 -0.8137728 -0.038521
0.1360176 -0.007991933 0.004306905 -1.391845e-39 0.24443798 0.044277124 -0.21237877 0.11881079
-0.27739745 0.047385205 0.03670399 0.09656078 -0.10202704 0.08208301 -0.03178865 -0.01939532
0.01642661 0.27452534 0.13508385 0.24083143 -0.07767038 0.19482312 0.026069138 -0.0060444325
0.14097753 0.06349159 0.080127776 0.014489869 -0.09810281 0.24645333 0.0661303 0.15803364
1.69257e-39 0.08873169 0.07074252 0.13566972 0.036513273 0.13421495 0.056596175 0.16630717
0.08893788 -0.28286624 -0.86242545 0.21405117 -0.065325156 -0.08891168 0.13955727 0.12104371
0.18171984 0.04239773 0.099935144 -0.19689073 -0.23222476 0.12795027 0.0023631516 0.07050007
0.14134574 0.11264265 -0.15996686 -0.119237535 -0.0789855 -0.02053787 0.11122537 -0.87494564
-0.13570984 0.0317179 -0.111650705 0.036856234 0.17211933 -0.0059913527 0.12074997 0.081273794
0.041400336 0.16002204 -0.52881163 -0.026846321 -0.05324054 0.15691486 0.028942913 0.148832
0.036126412 -0.043760374 0.08031597 -0.017071161 0.066267654 -0.036157038 -0.37170956 0.19621883
0.13724041 -0.062133078 -0.2578922 0.33376285 -0.116693966 0.14569852 0.039431546 0.00910148
0.18948193 -0.010874278 0.09680363 0.0769438 -0.1803473 0.116281 -0.20389768 0.17032252
0.0364707 -0.14537305 -0.19541971 -0.19210994 -1.102562 -0.22273634 -0.18132053 0.12925196
0.079129286 0.02362177 0.14477825 0.075587444 -3.67858e-40 0.058012467 0.13659197 0.19717212
-0.33432597 -0.16453215 0.15830891 0.15964293 0.05737434 0.028345749 0.0019558114 0.06541016
-0.006402395 -0.037620936 0.115966864 0.16463976 -0.19895202 0.15376839 -0.18583456 0.13562524
0.106313854 0.16357417 0.0846006 -0.085669845 -0.09095726 -0.04088655 0.12741302 -0.02181017
0.029010013 3.5236e-41 0.103239074 0.029647753 0.09008965 0.15990578 0.014206094 0.03956422

encoder.0.bias f4 [200]
00000000: 8292 1a3d a7c7 bb3d ac58 f83d 615a a53c
00000010: 2ffc 9c3d 754b 61bd e7f7 e23d bc40 d43d
00000020: 380d 27bd 0a91 be3d f091 323d 9385 4f3d
00000030: 67bc aa3c 23a9 1a3e e25d cbbc 7efc 003e
00000040: 2cea c83d 1080 85bc 0aeb 973d 3774 f13d
00000050: 3fb1 13bc cc19 973d d6dc a03c 1450 143e
00000060: 61d1 6a3e 42ee 1e3d aab9 963d d144 953d
00000070: 235e 003e 952d be3c 9557 953d 7857 4f3d
00000080: 5590 143e 200b 69bb 38a9 2e3d df66 693d
00000090: e41d bb3d b19b c63d 53f3 263d 399a c93e
000000a0: 45d2 8abc ab0f 063e 15a3 86bc c547 b73d
000000b0: 989a 623e 48a7 9d3d 8bbb 9a3d 1b7d 153d
000000c0: 45b5 8b3d 11cb 473e 93cb 773d d109 423c
000000d0: 534d 213e 22be 4a3d 2841 5d3d d3f7 e6bb
000000e0: 5b05 04bd f767 753d dc58 db3c ebd1 f4bc
000000f0: 0903 813e 8b91 443d 3ce9 4e3d 33ad 283e
00000100: 91d3 db3c 730d de3d 8e59 4fbc 891d bbbb
00000110: 569d a33d 6ac0 b13d 2d29 503e 9e04 99bd
00000120: a051 85bd 9979 603c d2c1 103e 769c ed3c
00000130: 510d 0c3e dee9 39bd 31df 55bd de1f 0f3d
00000140: 601f 87bd eb94 a0bb 15f6 953e 1768 8f3d
00000150: f1a5 9cbb 108f 603e a96e a83d 0e87 db3c
00000160: 9197 333d b62a 7b3e 295e af3c 6414 ba3c
00000170: 7f18 183e 4568 673d b575 1c3d 0f01 923e
00000180: a140 083e 0fa9 303e f16c b23d 77a0 a13d
00000190: 2daf 453d 6957 e13b c131 ac3d 4870 f63d
000001a0: 0498 cf3c 62fe 073c 3eff fa3c b96b 333d
000001b0: 04a2 193d 507d c83d 94cd 7b3d 68e5 963e
000001c0: 4296 f43d 7d68 083e 11d9 e43c a826 19bd
000001d0: 9306 ca3d 4210 443e 7b74 bf3d b947 4a3e
000001e0: e98c 1c3d f465 913c 8a50 423d cb5f cb3e
000001f0: 0be8 513c 629b 9f3d 8047 83bc 4217 05bd
00000200: b9de 553c 44e4 a83d fcf0 fe3c a851 883a
00000210: 83b2 453e ecb3 233e bde6 533d 12b7 d33c
00000220: 384a e63c c1dc f93c acd1 943d d29c 4b3d
00000230: 368a 8f3e 2347 083d 3cbd f53a 34eb 683d
00000240: df30 993d 1c11 313d 6cde 84bc 8299 a43e
00000250: 5127 cd3d 2bd0 b43e 0dad 183d c6c4 533d
00000260: a0b8 b73d ab04 8dbc f550 0c3e c487 133d
00000270: 403e 2a3d c68b 643d 700f ff3b 622b c23d
00000280: 108d 373d 10e3 a03d bec8 4bbb 7983 953e
00000290: 4330 0d3e def4 723d 2471 563c 7858 ba3d
000002a0: 0fc9 febc a12e 133d 63dd 313d 2c9c c43d
000002b0: f7b7 003c c4dd 013e 5d89 533d e60e 38bd
000002c0: 20b4 d73d 75e1 9c3d 659f 9e3c b8c0 2b3d
000002d0: d86f 40bc 6b4b 16bb dce6 5d3e 0bb2 f23c
000002e0: 3a36 613e 24d6 cbbc 0a50 9738 e258 f33c
000002f0: 794e 0bbd bee6 ae3e da84 bb3e 413c 1d3d
00000300: f9e5 303e fac0 9ebc 3531 073e 6662 a2bc
00000310: aa59 c13d f8be 18bc 800c 5f3e 5e76 283d
0.037737377 0.0916894 0.12126288 0.020184698 0.07665288 -0.055003602 0.1108244 0.103639096
-0.04078409 0.09305008 0.043596208 0.050664496 0.02084179 0.15103583 -0.02482504 0.12596318
0.0981029 -0.016296417 0.07417877 0.11789744 -0.009014427 0.07377967 0.019636553 0.14483672
0.22931434 0.03880144 0.07359631 0.07288516 0.1253591 0.023215095 0.072920956 0.050620526
0.14508183 -0.003555961 0.04264185 0.05698287 0.091365606 0.096976645 0.040759396 0.39375475
-0.016945967 0.13091914 -0.016435185 0.08949236 0.22129285 0.07697922 0.07555302 0.036496263
0.06821684 0.19511057 0.060496878 0.011843161 0.15752153 0.04949773 0.054017216 -0.007048586
-0.03223167 0.0599136 0.02677577 -0.029885253 0.25197628 0.047990363 0.0505154 0.1647232
0.026834281 0.10842409 -0.012655629 -0.005710308 0.07988994 0.08679278 0.20328207 -0.07471584
-0.06509709 0.013700866 0.14136437 0.02900527 0.13676955 -0.04538905 -0.052214805 0.0349425
-0.06597781 -0.004900565 0.29289308 0.070022754 -0.004780524 0.21929574 0.08224232 0.026797798
0.043845717 0.24528012 0.021407204 0.022714801 0.14853095 0.056495924 0.03819819 0.28516433
0.13305904 0.1725199 0.08712185 0.07891934 0.048262764 0.006876875 0.08407927 0.12033135
0.025341041 0.008300396 0.030639287 0.043803904 0.037508026 0.097895265 0.06147535 0.29471898
0.11942722 0.13321109 0.027935537 -0.03739038 0.09864535 0.19146827 0.09348389 0.19753923
0.03822032 0.01774881 0.04744009 0.39721522 0.012811671 0.07793309 -0.016025305 -0.032492884
0.0130535895 0.08246663 0.03112077 0.0010400312 0.19306378 0.15986603 0.05173372 0.02584413
0.028111562 0.030500771 0.07266554 0.049710102 0.28035134 0.033270966 0.0018748413 0.056864932
0.074800245 0.043229207 -0.01621934 0.32148367 0.10017265 0.3531507 0.03727441 0.05170133
0.08970761 -0.01721414 0.13702758 0.036018148 0.041563272 0.05579736 0.0077838227 0.09480931
0.044812262 0.07855809 -0.0031094993 0.29201868 0.13787942 0.059315555 0.013088498 0.09098905
-0.031101732 0.03593314 0.04342402 0.096001 0.007856361 0.12682253 0.05164467 -0.044936083
0.10532403 0.0766019 0.019363115 0.041931838 -0.011745416 -0.0022933136 0.21670097 0.029625913
0.21993342 -0.024882384 7.2151495e-05 0.029705469 -0.034010384 0.34160417 0.36624795 0.03838754
0.17275228 -0.019379128 0.13202365 -0.01982231 0.0944093 -0.009322874 0.21782112 0.04112851

encoder.2.weight f4 [50, 200]
00000000: 6714 73bd 76e7 21be 83d0 02be 6491 bf3d
00000010: 6846 9fbe 1371 80bd de76 89be 1963 9c3e
00000020: 1dd7 d8bd 623e c93e 577c 343e 5e2f 0a3e
00000030: af88 043f 7d7c 58be b069 1a3c 0be5 933d
00000040: cb5b 8cbe 5fc4 f1bd 3caa 9b3e 7986 d23d
00000050: 6cff 623e e06f 173d 8180 943e 0c29 94bd
00000060: 0af8 07be 870c 303e 78b7 84ba 1cbb 96bd
00000070: c457 2fbe 760d febd 07e9 003f 819b 693d
00000080: 6921 52be 6adb 193e e9af b53d f8f4 583e
00000090: 1a40 9e3d e3d2 bfbb 574d 483e 94db bbbe
000000a0: f14e 1d3d 4743 66be ae15 513e 32f0 4d3e
000000b0: 6660 c4ba 0c32 14be 7878 0fbe 71d2 2bbe
000000c0: cc6b 413d c04f 43be 6fc4 af3d 73cd 153e
000000d0: 6433 9a3e 6af1 243e 7ddb 9a3d dc1e 333f
000000e0: 7ad6 333d c90f 873d 23e1 223f d529 21bd
000000f0: e1e2 67be 7c15 99be 9607 033f eab0 b03e
00000100: ee68 2f3d 49ca 0cbe 1411 023f 7e23 0fbe
00000110: ab95 a63e e403 843e 0e49 083d 15fb d63e
00000120: ec25 31be 1dad aabe 3c6e c33e 5ed6 26be
00000130: 603c a2be 29eb 0dbc d073 423e 1e65 75bd
00000140: 83f9 243e c716 1c3e 7074 953e 34c3 99be
00000150: 2253 e23e bd9e ebbd b8b9 4e3e b395 2ebc
00000160: c4f9 bb3e 0246 f9be 5add 693d d569 2f3e
00000170: 5cce 313e ff0d 923e 3132 31bb bc9b 8fbe
00000180: 7519 cfbd 1f1e 1abe 2069 02be 8e15 17be
00000190: 0f73 9c3d 0b42 fabd 7f71 b83d ee73 413e
000001a0: 4450 8fbe b7fc 613e 868f 353e afdc 0c3d
000001b0: e358 4b3e 3e89 6e3e bc0a 933d b5e7 e1bc
000001c0: 8aa0 083e 3b6d 893e 1e63 ce3e aedf f03d
000001d0: e2d5 d93e 006a 43be f010 083e 494f dd3d
000001e0: 3852 bb3d 12de d83e 405f f13d 33e1 0ebe
000001f0: c94a 803e 2ab7 883e 930e cd3e 684d f03e
00000200: 6863 46be 1124 e6bd b96c 8abd d58b 4b3e
00000210: 3905 023d 0503 b7bd f261 0e3e b012 6b3e
00000220: 2b6e 943e 6313 0f3e 927f b93d 7628 623e
00000230: a077 c1bc 1441 c73e ffeb b53d 79e2 853e
00000240: 2d68 c33d f060 f23d 1fa7 c93d 1016 68be
00000250: 90ec 183e f125 b9be 2467 ab3b ad57 d53d
00000260: fdb0 bd3c 10eb 1fbe 4293 47be fcad c53c
00000270: c317 e13e e793 e7bd 2a54 49bd 04b5 733e
00000280: 82b7 b7be cb95 86be 708d d73d 3281 e0bd
00000290: be69 9abe a15c c5be 211f 733e 7ea8 90bd
000002a0: f41b 0d3e 1f89 8a3c f301 88bc e1d1 233e
000002b0: f756 3d3c f636 b63d 8c62 71bd 3a2c 98be
000002c0: e636 1abd 51ae 81bd fbce 863e 545a e3bd
000002d0: 4edf afbd 8525 643d 02c9 34be bd41 40bd
000002e0: 6e8b 61be 93fc df3e bb23 5c3d d6d2 953e
000002f0: 8979 8f3e 55fd 30bd 1882 4ebd 7034 a4be
00000300: 09fd 76bd 6382 bcbc 68d0 23be cb40 b23e
00000310: daf9 bcbe 096d 60be aad0 8c3b 75ca 09be
00000320: d453 a1bd d2e1 1e3d 08e2 53be 5ad4 083d
00000330: 3e6f 9ebc 26bf b7be 8deb 063d 3094 463c
00000340: 88b4 11bd 98bc 8fbe f47c 3f3e a4d1 95bd
00000350: 3d9d 3a3e b1b2 09be 3b26 3a3d 8956 2ebe
00000360: 6ab7 8b3e 76db 26be b0bb 313e 1259 283e
00000370: 7ca4 503c 1f9e 0dbe eaab 0cbe 4376 8e3e
00000380: 6c76 043e b6b8 3bbe 01a9 5ebd 97c0 11bd
00000390: 690e 00be acc6 5ebe 1206 93be 849a f13c
000003a0: 5b3c 10be 47e9 a3bd 0998 44be dca3 613e
000003b0: 0c6a 23be b9bd d5be 74be 083e 5588 da3d
000003c0: ed6c 2ebe a356 30be 41ca c83e d9e0 243d
000003d0: 1751 1f3e ddc1 97bd 3774 8ebe 0ab0 1bbd
000003e0: 717e 4b3d 78c0 eebd 78a3 b1be 17bb 1e3e
000003f0: 60ef 063e 6d28 1abd ad0e 143d 975c 8e3e
-0.05934563 -0.15810952 -0.12774853 0.09353903 -0.31108403 -0.06271567 -0.268485 0.30544356
-0.105879046 0.39305407 0.17625557 0.13494632 0.5177106 -0.21141239 0.009424612 0.07221421
-0.27413782 -0.11805033 0.30403316 0.10279555 0.22167748 0.036971927 0.2900429 -0.072343916
-0.13278213 0.17192279 -0.0010125479 -0.07359907 -0.17123324 -0.12404911 0.5035557 0.057033066
-0.20520557 0.15025106 0.08871443 0.21187198 0.0772707 -0.005853997 0.19560753 -0.36690962
0.038405363 -0.22486602 0.20418426 0.20111158 -0.0014982342 -0.14472216 -0.14010799 -0.16779496
0.047221944 -0.19073391 0.085823886 0.14629154 0.30117333 0.16107717 0.07561395 0.6996896
0.043905713 0.06594808 0.6362478 -0.039346535 -0.22645141 -0.29899204 0.5118345 0.34509975
0.042824678 -0.1374904 0.5080731 -0.13978383 0.32536063 0.25784218 0.033272795 0.41988435
-0.17299622 -0.333352 0.3817004 -0.16292712 -0.31686687 -0.008662024 0.18989491 -0.059910886
0.16110806 0.15243064 0.29190397 -0.3003174 0.4420405 -0.11504886 0.20188034 -0.010655808
0.36713994 -0.48686224 0.057095863 0.17130215 0.17363876 0.28526303 -0.0027037973 -0.28048503
-0.101122774 -0.15050553 -0.12735415 -0.14754316 0.07639133 -0.12219628 0.09006023 0.1889188
-0.27990925 0.2206906 0.17730531 0.034390148 0.19858126 0.23294541 0.07179782 -0.027576307
0.13342491 0.2684115 0.40309995 0.117614135 0.42545992 -0.19083405 0.13287711 0.10806138
0.09146541 0.42356926 0.117857456 -0.13953094 0.25057057 0.26702243 0.40050182 0.46934056
-0.19373858 -0.11237348 -0.067590185 0.1987756 0.031743262 -0.08936123 0.1390455 0.22956347
0.289903 0.13972239 0.09057535 0.22085747 -0.023616612 0.38916838 0.08882903 0.26149347
0.09541354 0.118348956 0.09846329 -0.22664666 0.14933991 -0.3616176 0.005230801 0.104171135
0.023155684 -0.15617013 -0.19489768 0.024130814 0.4396344 -0.11307507 -0.04915253 0.2379952
-0.35882193 -0.26286158 0.10525024 -0.10962142 -0.301588 -0.38547233 0.23742343 -0.07063387
0.13780195 0.016911088 -0.016602492 0.15998031 0.011556379 0.08897202 -0.058931872 -0.29721242
-0.03765001 -0.06332076 0.2632979 -0.11101213 -0.08587514 0.055699844 -0.17654803 -0.046937693
-0.22025844 0.43747386 0.053745013 0.29262418 0.2802241 -0.043210346 -0.050417036 -0.32071257
-0.060299907 -0.023011392 -0.1599747 0.34815058 -0.36909372 -0.21916594 0.0042973356 -0.13456137
-0.07877317 0.038789578 -0.20691693 0.03340564 -0.019340154 -0.35888022 0.032939482 0.012120292
-0.03557256 -0.28073573 0.1870001 -0.073153764 0.18224044 -0.13447072 0.045446616 -0.17025198
0.2728837 -0.16294655 0.17356753 0.16440228 0.012734529 -0.1382985 -0.13737455 0.27824602
0.129358 -0.1833218 -0.054360393 -0.03558406 -0.12505497 -0.21755475 -0.2871557 0.029492624
-0.14085524 -0.080034785 -0.19198622 0.22035164 -0.15958422 -0.4174631 0.13353902 0.106705345
-0.1703374 -0.1722055 0.39216807 0.040253494 0.15558277 -0.07410023 -0.2782304 -0.03800968
0.04968113 -0.11657804 -0.3469503 0.15501057 0.13177252 -0.03763621 0.03614681 0.27805015

encoder.2.bias f4 [50]
00000000: 3cf0 bcbd 2338 f9bd 657b 873d 49cd 833c
00000010: 99ed 8f3d ce16 8f3d 9bd0 96bd 7a8f 833d
00000020: 13b4 953c 69d1 45bd 372a 953d 082d a6bd
00000030: 0143 0e3d e82d b7bd 5575 883d 1de2 21bd
00000040: 4ab9 f83c 6746 25bd 02e8 ccbd 4dbc 12be
00000050: 700f 30bc 86db 003d 323c 16be 4250 84bc
00000060: d298 fbbd fc65 51bd 2078 53bc e44e 6ebd
00000070: ff8e 533d 17f6 0abd 8b0d a53c a8da 61bd
00000080: a301 5a3d 0efd ba3c 6520 71bd e3c5 cc3d
00000090: 7670 0ebe 2896 b6bc 60c9 9ebd 3571 953c
000000a0: fa75 783c 9958 66bd f765 c33c 6bd8 c93c
000000b0: ce3f 763c c814 e5bc 5d75 f0bc 7cdd 433d
000000c0: c41f 3c3d 9df9 123c
-0.092255086 -0.1216891 0.066153325 0.016089099 0.0702774 0.069867715 -0.07364007 0.0642385
0.018274343 -0.048295412 0.072834425 -0.08114058 0.03473187 -0.08944303 0.06663004 -0.03952228
0.03036179 -0.040350344 -0.100051895 -0.14329644 -0.010745868 0.031459354 -0.146714 -0.016151551
-0.122850075 -0.05112265 -0.012907058 -0.058180705 0.051650044 -0.033926096 0.02014806 -0.055140167
0.053224217 0.022825744 -0.058868784 0.099986814 -0.13910088 -0.022288397 -0.07753253 0.018242458
0.015164847 -0.056236837 0.023852332 0.024639329 0.015029861 -0.02796401 -0.029352838 0.047818646
0.04592873 0.008970645

decoder.0.weight f4 [200, 50]
00000000: e7ff e03d a175 bfbd 859d 693e d981 2ebe
00000010: 29b5 593d 4388 2a3e 4c52 00be c025 5fbe
00000020: f00b 43be e89d aebd 0c4c 5d3e 554e 76be
00000030: f89d 0cbe 337f 6e3e c485 abbd e058 16be
00000040: 3cc7 a1be 0e41 1b3e 0d4b 5e3e 6d20 283e
00000050: 39ca 2cbd 878f e1bb 7c3e a3bc c6c6 b43d
00000060: 3d60 0d3e ebcf 8abe bd3c 193e 8ab3 203e
00000070: 231e 42bd b09b a5bd 59f2 31bc 1eef 093e
00000080: 8871 43be 59e1 20be f626 cfbb a7e5 27be
00000090: 5488 c3bb 1b7c 183e e686 ecbd 4bf5 15be
000000a0: c1f9 6ebd af08 6b3e c3d3 2f3e cdd8 033e
000000b0: d746 3c3e f115 de3d e9cb 393e 7fdf de3b
000000c0: eca5 88be c0a0 ee3d ee84 093f bf7b 003f
000000d0: f8eb 733f e4e5 e23e dcca 5dbf 468f 43be
000000e0: 003b e53e 7ab8 32bf 65c2 193f 83f0 a3bc
000000f0: 3b9f 233e 8314 1c3f ad34 20bf 9649 853e
00000100: 6b38 f2bc 0a5a 85be 8ca4 dcbd 0603 86bd
00000110: 8c10 463f 1a45 a8be 367b 6cbf 3ab2 fa3e
00000120: a75a a8be 3e25 e03b e622 9cbe 0acf 803e
00000130: 6b85 0d3f 32ed 053f ae4e 1fbf 7074 1e3f
00000140: a68f 3bbe b0ea e33d 679b de3d ef22 eebd
00000150: c105 2d3f d8fc c33e ca3f a6be e56d a63c
00000160: a97f 193f 4bcc 2a3f db70 2e3e 164a 123f
00000170: 0a51 0b3d 5c4a 7dbe 5e52 bebe e2b7 b1bc
00000180: 3d75 4d3f 538f f73e b6dd 7b3e 8076 6bbe
00000190: fd81 da3e b7bb 8ebe b034 0cbf 282d 48be
000001a0: a89e 13bf 6db1 7abe 3419 9dbd 8c3a a5be
000001b0: a62d e83b 146f 363f 95a1 57be ad27 ac3e
000001c0: 783d 4fbe b4ff 8c3e 89cf 8bbc b557 653e
000001d0: be3a 15be 38d7 cf3e dfc3 2d3e f057 663e
000001e0: 56f3 f2be c073 f7bd 21ec 443e da99 143e
000001f0: c0b0 e33d d927 1a3f 557e 73be 3e3a 23be
00000200: e97c 853d efb5 4ebe 40aa ecbd 0769 663e
00000210: 014c b0be 05a5 35be 2516 6b3e dea7 533d
00000220: 3c67 383e 1b9e 52be acd6 2bbd 9e10 353e
00000230: f36f 21bc 77f4 8e3e 56a5 d2be 5183 603e
00000240: 2cfc e93e 671c fabd d5f0 2c3e f106 08bf
00000250: e1c2 22bf 4af2 81be 2618 5b3e bf5b 73be
00000260: bcdc 20be 4340 263e f07b 7abd 463c 433e
00000270: 6865 793d b7aa 8c3e 612b 2b3e 6690 8abe
00000280: 569c 27be 76a2 f7bd 899a 763d ac15 9f3e
00000290: 1419 1a3e 74e2 a9be a4fc 3cbe 4eca 743d
000002a0: 5dd8 12be 2028 5e3e 8471 863d 06ae 5ebe
000002b0: 7418 033e 57ea 87bd 8932 a43d 1c90 7fbd
000002c0: 3e70 1d3e ebc2 91be 5098 3f3a 6558 cabd
000002d0: af02 a23d 8bf6 853e 6b67 3e3b 823c 14be
000002e0: dd01 143e 5227 b53d 586a 8c3d b3af 803e
000002f0: fc0b 87bb f703 c23c 35e3 873d ecdb 9cbe
00000300: f46c 803e 0c8c da3d 9792 e7bd d758 d13d
00000310: 37cc ab3e 0886 93bd 4899 5abe 9196 89bd
00000320: 629b 813d 91f7 a0be f08e 8f3e 91e3 2b3c
00000330: 981e 933e a37f 92bc 1f5b ecbe b22f c0bd
00000340: 8d02 03be b2cf 133f b472 9a3e 6173 f8bb
00000350: 4217 f8bd d6a2 d93b 5336 903e 47bf 0d3e
00000360: bc86 d03e b2dd 263e cfcf 32bc d3ee 373e
00000370: 4ed1 ccbd 1d27 9e3e 91e6 d1ba 5883 453d
00000380: 451b ce3d a657 553c e03c e4bd 4099 5c3d
00000390: abfd ccbd 5834 773e a9d5 21be c70e 88be
000003a0: d500 19be b589 b6bd 98b5 07be d2c1 cbbd
000003b0: 0c42 4c3e 3aff 81be f683 d43d 7600 88be
000003c0: 26d8 03bd 44a9 0f3e 42f3 3bbe 9222 113e
000003d0: f542 43bd 2f98 713c ed27 223e 0018 afbd
000003e0: b2fd bcbd d230 a5bd 8771 57bb 1c98 fbbd
000003f0: a769 173f dd7d ec3d d29d f1be b20f 85bc
0.109863095 -0.09348608 0.22813995 -0.1704172 0.053151283 0.16653542 -0.12531394 -0.21791744
-0.19047523 -0.08526212 0.21611041 -0.24053319 -0.13732135 0.2329071 -0.08375123 -0.1468234
-0.31597316 0.15161535 0.21708317 0.1641862 -0.042185042 -0.006883565 -0.019927256 0.088269755
0.13806243 -0.27111754 0.14964576 0.15693489 -0.047392022 -0.08086336 -0.010861003 0.13470122
-0.19086277 -0.15710963 -0.006321783 -0.16396199 -0.0059671793 0.14891092 -0.11549167 -0.14644353
-0.058343653 0.22952531 0.17170624 0.12875672 0.18386398 0.10844029 0.18144192 0.006801545
-0.26689088 0.116517544 0.5371846 0.5018882 0.95281935 0.44316018 -0.86637664 -0.19097623
0.44771576 -0.6981274 0.6006225 -0.020012146 0.1597871 0.609688 -0.62580377 0.26032704
-0.029567918 -0.26045257 -0.10773572 -0.065435454 0.77369 -0.3286522 -0.92375505 0.489641
-0.32881662 0.006840377 -0.30495375 0.25157958 0.55281705 0.52315056 -0.6222943 0.6189642
-0.18316516 0.111287475 0.108694844 -0.11627757 0.67586905 0.38278842 -0.32470542 0.020316074
0.5996042 0.66717976 0.17035238 0.57144296 0.03401283 -0.24735397 -0.37172216 -0.021694127
0.80257016 0.48351535 0.24596295 -0.22994423 0.42677298 -0.2787759 -0.54767895 -0.19548476
-0.57663965 -0.24481745 -0.07670823 -0.3227123 0.00708552 0.7126324 -0.21057732 0.3362402
-0.20238292 0.27538836 -0.017066734 0.22396739 -0.1457319 0.40593886 0.1696925 0.22494483
-0.47451276 -0.120826244 0.19230701 0.14511815 0.11117697 0.6021705 -0.2377866 -0.15940186
0.06517965 -0.2018659 -0.1155591 0.22501002 -0.34432986 -0.17738731 0.22957666 0.051673763
0.18008131 -0.20568125 -0.041952774 0.1768212 -0.009853351 0.27920887 -0.41141766 0.21925093
0.45700204 -0.122124486 0.16888745 -0.5313559 -0.6357861 -0.25380164 0.2139593 -0.23765467
-0.15709203 0.16235451 -0.061153352 0.19065961 0.060887724 0.27473995 0.16715766 -0.27063292
-0.16368231 -0.12091534 0.06020597 0.31071222 0.15048629 -0.33180583 -0.1845575 0.059763245
-0.14340349 0.21694994 0.0656462 -0.21746072 0.12802297 -0.06636494 0.08017451 -0.062393293
0.15374848 -0.28469023 0.0007308768 -0.09880141 0.07910668 0.2616466 0.002905334 -0.14476207
0.14453836 0.088453904 0.06856221 0.25134048 -0.0041213017 0.023683531 0.06635133 -0.30636537
0.25083125 0.10671243 -0.11307257 0.10222023 0.3355424 -0.07203299 -0.21347535 -0.067181714
0.06328465 -0.31438878 0.2803874 0.010491268 0.2873428 -0.017883128 -0.4616327 -0.09384097
-0.12793942 0.5773879 0.30165637 -0.0075821136 -0.12113811 0.006641726 0.28166446 0.13842498
0.40727794 0.16295508 -0.010913803 0.17962198 -0.10000859 0.30889216 -0.0016014149 0.048220962
0.10063795 0.013021385 -0.111444235 0.053857088 -0.10009321 0.24141061 -0.15804161 -0.26573774
-0.14941724 -0.08912984 -0.13252866 -0.09949078 0.1994707 -0.25390035 0.10376732 -0.26562852
-0.032188557 0.14029413 -0.18354514 0.14173344 -0.047671277 0.014745756 0.15835543 -0.085494995
-0.09228076 -0.08065952 -0.0032874064 -0.12284872 0.5914559 0.11547444 -0.4719072 -0.016242836

decoder.0.bias f4 [200]
00000000: fd57 f63c 70e5 0dbe 1beb 8bbf 247a 46bd
00000010: 30ec ac3e 345a cd3e 3375 273e b32b 12be
00000020: 6abd e53e 9e5f 513d 2f40 5e98 ca8b bdbe
00000030: 60c4 3ebc 92d4 0abe 2fe2 063e 006b b23b
00000040: 1b58 9e3d efd1 b4be 96be d43c 44ce 823d
00000050: 0683 2e3e d59d cf3d f531 fb3d d97c 2d3f
00000060: a63b 0abe 89a6 8b3e 0067 943e c1ef 343d
00000070: 7a6c 833f 29dc d73b b07c 923e e94f 8e3e
00000080: 1da0 e0be e4aa c33d a01e 4c3e cebd b13d
00000090: eb50 d8bc 272a 183e c198 863e 7bf9 b13d
000000a0: 5aea 313d 111e a1bc 72de 7a3d acd2 2ebe
000000b0: e0eb 81be a683 f4ba 72d9 ee3e 332c 953d
000000c0: 3888 2fbf efbd 9a3e b5c2 45bc 3d5b f1bd
000000d0: 5f69 be3d 82c1 893c b3ea 2dbe 59f4 3f3d
000000e0: c05e 403f 5829 bc3c 241e 293f 44c7 363e
000000f0: fd5b 2abe ca1d 1d3e 0c74 cd3e b25b c23e
00000100: 3eb0 a8bd 47ca a9be 8b74 273e 58a1 d33d
00000110: dbc8 c63c 1846 153e 8389 a3bc 5dba ef3d
00000120: dabd 3b3e 1094 273d 0efb 663d 1c47 6a3e
00000130: e0ca bb3e 88c8 41bc ceda 943e 920f d13d
00000140: 9184 613e 6dc9 bdbb 8c41 c03d 20c9 57bc
00000150: ad16 7c3d 32c9 0fbe bc76 443e b262 8cbd
00000160: 7a64 863e a9e7 e63d 3206 22be 75c5 e1bc
00000170: 5990 a83e 9dd9 103e e6ec 5c3e fbba 1abd
00000180: 34b2 38bf dcff 0f3d 61cc 0abd e20e b33c
00000190: e7ba f93e 3856 d5be ae1b d13d 5ebb 16be
000001a0: a2e9 29be c856 4fbf 40ef c93d cbd6 0a3e
000001b0: 5eac 2f3e 44ff 143e ca29 0d3e aedb 73ba
000001c0: 3a83 183e 3da4 ba3e c8b0 823e 6d12 44bd
000001d0: a21f ab3d 392b 45bd feca 0bbe f94f 5cbe
000001e0: 5077 2fbd dbc5 863e 82e6 2a3e f11e 543e
000001f0: 3376 6d3d e7ba 033e fa96 d7bd b735 613e
00000200: 2864 4a3e 9478 66bd c3b0 cdbd 7e97 4c3e
00000210: 84aa 303f b824 173e 0b75 4c3d b8f5 97be
00000220: d2ff c33d e830 5dbf 60f9 443e 65c5 293e
00000230: fc61 e5bc ee90 3b3e 4bb1 6a3b 0861 5d3e
00000240: 4cac babd d909 a63f c3b9 aebe ac33 573e
00000250: 16ce 6e3d 49af fa3d 2c5a d8bd f2f2 633f
00000260: 80b6 27be 537b 0c3d a13d 853e 308c ff3e
00000270: c0a7 063d 2c1e a0be 1931 263e c7b7 4dbc
00000280: 8bfb d63e 17d5 92be 6664 8cbe 9a41 713e
00000290: c30a 973c 2ce7 acbe 2d3e 693e c342 c23d
000002a0: d7ff 5a3e f900 be3d c20d 093e 9e40 1bbf
000002b0: a3e7 ae3d 6565 643d 2bd3 da3d 9257 10be
000002c0: 52b6 823e b84d 87be 1c6e 39be 88ab 5c3e
000002d0: 3fa0 5b3d 9767 673f aaee 163e 2343 973d
000002e0: 6b93 cfbc cf06 a0bc 87ea 06be cec3 98bd
000002f0: a4ca fa3d 0332 523d bb26 243c e2ba ad3e
00000300: ea6d ebbe 0003 173f 8744 223e 4a46 db3f
00000310: 1303 d3be 6db0 a2bf a790 f43b a6ae 4ebe
0.030071253 -0.13857055 -1.0931123 -0.048456326 0.33773947 0.40107882 0.16353302 -0.14274482
0.44871074 0.05111658 -2.8725232e-24 -0.37020713 -0.011643499 -0.13557652 0.1317222 0.0054448843
0.077316485 -0.35316417 0.025969785 0.06386998 0.17042169 0.10137526 0.12265388 0.6776863
-0.13499317 0.27275494 0.28984833 0.04417396 1.026748 0.0065875244 0.28610754 0.27795342
-0.43872157 0.09554079 0.19933558 0.086787805 -0.026405772 0.1485983 0.26288417 0.08690163
0.043436386 -0.019667657 0.061247297 -0.17072552 -0.2537527 -0.0018654957 0.46650273 0.07283821
-0.6856723 0.30223033 -0.012070348 -0.117849804 0.09297442 0.016815905 -0.16984062 0.046863887
0.7514458 0.022968933 0.66061616 0.17849451 -0.16636653 0.15343395 0.401276 0.37960583
-0.082367405 -0.33162138 0.16353051 0.10333508 0.024265697 0.1457752 -0.019963032 0.11705468
0.18334141 0.040912688 0.05639177 0.22878689 0.3667822 -0.0118275955 0.29073185 0.10208048
0.22023226 -0.005791834 0.09387502 -0.0131705105 0.061545063 -0.14041594 0.19185919 -0.06854762
0.26248533 0.112746544 -0.15822676 -0.027559975 0.3292263 0.14145513 0.21574745 -0.037775975
-0.72146916 0.035156116 -0.033886317 0.021857683 0.48775408 -0.41667342 0.102103576 -0.14719912
-0.1659303 -0.8099179 0.098600864 0.135585 0.17155597 0.14550501 0.13785473 -0.0009302449
0.14893809 0.3645343 0.25525498 -0.047869135 0.08355643 -0.048136923 -0.13651654 -0.21514882
-0.042838395 0.26322827 0.16689494 0.20714928 0.05797405 0.12864266 -0.10526843 0.21993147
0.19764769 -0.056267336 -0.1004348 0.19979665 0.69010186 0.14760101 0.04991631 -0.29679656
0.09570278 -0.8640275 0.19235754 0.16579206 -0.028000824 0.18317005 0.0035811241 0.21619046
-0.09114894 1.2971755 -0.341261 0.21015805 0.058302008 0.12240464 -0.10564074 0.8904258
-0.16378212 0.0342973 0.26023582 0.49911642 0.032874823 -0.3127302 0.16229667 -0.012556023
0.41988787 -0.286782 -0.27420348 0.23560181 0.018437749 -0.3377012 0.22777624 0.0948539
0.21386658 0.09277529 0.13384154 -0.60645473 0.08540275 0.05576076 0.10684808 -0.14095905
0.25529724 -0.26426482 -0.1810841 0.21549809 0.05361962 0.9039244 0.1473948 0.07385852
-0.025338849 -0.019534497 -0.13175403 -0.07459222 0.12245682 0.051317226 0.010019 0.33931643
-0.45982295 0.5898895 0.15846454 1.7130826 -0.41213283 -1.2710091 0.007463533 -0.2018381

decoder.2.weight f4 [227, 200]
00000000: a41d dcbd c840 e43d d6be 21be ca12 cb3d
00000010: 00d9 46bd a702 c8be 8ec1 14bd 785d 333a
00000020: 8cd8 c1bd bfd8 9bbd 8ebe 1080 a1e1 1e3e
00000030: 448c 9bbd 3950 a6bd e1b8 093e f55e fb3d
00000040: be49 283b a086 bfbd 9f17 35be 54a8 983d
00000050: 98aa 0d3c e4f4 263e 3c15 e63d 95af 023d
00000060: 6750 053e 2c1e 7a3b 4bd6 213d 78f4 aabd
00000070: 3e02 af3d 5a91 41be 64c9 53be 4942 87be
00000080: ae43 c63d de58 103e aab4 13bf 8232 253b
00000090: 48e1 0bbd e20e 58be 4560 b33d dfc9 943d
000000a0: 25ce a0bd 868c aa3c a607 8cbd 8199 96bd
000000b0: 15eb 3bbe 98c3 2ab9 7f3c 3d3e a82f 6fbe
000000c0: d412 fb3d 4637 fcbd 4c0b 82be 2921 8cbe
000000d0: ea34 2d3e b001 37ba 102d da3e 792e 1ebc
000000e0: bef1 aabe 643c 283e b6f3 90be 0f60 a83d
000000f0: 2ef8 433e 8459 013d b4e4 0dbe 158f 9fbe
00000100: ad9b a3bc b34c 2a3e 428c 21be d879 d93d
00000110: 597c 303e e25c 94bd a6f5 c43c 0405 623e
00000120: f53e abbc 2038 07bd 4f59 333d aa61 0ebe
00000130: dad7 afbe 544e 1cbe 1794 91bd 8adb c83e
00000140: 0ca5 5bbd 204a 87bd 0195 243c c602 fcbd
00000150: 5a5e 54bd 09be 843d b058 5a3d e7ba 553d
00000160: 2f37 7c3e 504d b03d ecd0 11be ded7 e43d
00000170: e798 c43c 0927 5dbe b53a 3ebd fdb8 9dbb
00000180: 7640 cebd 1023 c93c 2972 c5bd f29b 9a3d
00000190: a50c 0c3e 44f7 4b3e 4c39 e33c 65ca 8ebe
000001a0: 7c38 563e 8b33 123d c8de 88be 5824 773b
000001b0: 589e 263e eb52 20be a31a 7dbd 5c90 8a33
000001c0: 0dc7 fc3d 32fc a5be 6d7d f5be fc67 a7bd
000001d0: bfd3 ac3e 868b 2a3e 056f a73d ec1b 2f3e
000001e0: ff6b 76bc 3257 1a3e 4419 30bd ddce 57bd
000001f0: 7df3 0dbe ab61 41be 905e dbbd 4179 e8be
00000200: 6f84 b53d 0f29 ad3d d467 913e 6f07 82be
00000210: 3225 b6be bf9f d1bd d8ba 2fbd a4dc 113e
00000220: 3822 d1bd c748 82bd 42dd 4ebe 36a3 24bd
00000230: 275c 20be 86b6 e73d 07c0 89bd 6eee 113e
00000240: 1e53 3c3e 2aa7 9b3d 625a dd3b a828 b03d
00000250: 126b d0bd 36e5 bcbd 574d 65be 2146 d9bd
00000260: 70a9 9f3d 7cf3 473d 2b8c 9b3e 75f2 5f3d
00000270: 50df 313e f978 19be 0a61 8bbd a82b 9abd
00000280: a64d 88be 7a34 963d 6b7d 1f3e 21c4 81bc
00000290: 9512 5f3d aa92 83bd ea95 f03d 0de5 50be
000002a0: cecd 0dbe 81a1 2ebe bd62 81be 06dd 57bd
000002b0: bff2 0c3d a1ed a7bc 74b2 223d 0b14 093e
000002c0: 2703 72be d4d7 d63d a9e3 563e 4920 3b3d
000002d0: 9a0d fcbd 910f adbd c159 3abd e8ff 07be
000002e0: 2f4d 763e f2a3 17be 778f a23e bf13 083e
000002f0: 3935 20be f6c2 0a3e f724 033e 11e7 94bd
00000300: 4820 403d c3ce ebbd 6b6e 3bbc 0a79 a4be
00000310: 60e2 983e ad7d 29be 94b3 543c beab 73bd
00000320: 2f26 063c d529 dcbe 6786 243d dce2 a2bd
00000330: b0f3 3e3e a1b5 583c 3744 393d c418 f53c
00000340: 3b0d 25be 4bd4 2a3c f049 0580 8ab9 6a3d
00000350: 8eff f93b db68 a1bd 4684 703e 6517 2f3d
00000360: 4adc a83d 0f1d 063e 33fa 213d 24cc dbbd
00000370: 3d5a a23d 3e73 903d 0823 f6bd 6b65 dbbd
00000380: 411c 32be c16a 8fbd ef3a e23c 498f c3bb
00000390: 9f6d f2bc a562 423c 2717 303e 2295 0d3e
000003a0: 298d dfbd 75e0 533d 15a7 0fbe 2a4d 1abd
000003b0: d6f6 ef3d 0377 d8bd baae c6bd 41f5 01bd
000003c0: 9992 543d 006a b23a c774 e4bd 788a 08be
000003d0: f4ff 1f3a 1b91 b937 ea7e 053d 835a 6ebd
000003e0: 5bda 843e dee3 b23d f6e4 453d 9ac9 1dbe
000003f0: 10c0 db3d f66c 5e3d 4b20 f63d c995 65be
-0.10747841 0.111451685 -0.15795454 0.09915693 -0.04854679 -0.39064524 -0.0363174 0.0006842236
-0.09465131 -0.076097004 -1.537726e-39 0.15515758 -0.07595113 -0.0812077 0.13449432 0.12273971
0.002567872 -0.093518496 -0.17684792 0.07453981 0.00864663 0.16304356 0.11234519 0.03190573
0.13018952 0.0038164956 0.039511006 -0.0834741 0.085453495 -0.18903103 -0.20682293 -0.2641776
0.096808776 0.140964 -0.57697546 0.0025207107 -0.03415039 -0.21099427 0.08758596 0.07265066
-0.07851819 0.02081896 -0.06837396 -0.07353497 -0.18351395 -0.00016285328 0.18480109 -0.23358023
0.122594506 -0.1231523 -0.25399244 -0.2736905 0.16914716 -0.00069811475 0.42612505 -0.009654635
-0.3338756 0.16429287 -0.28310937 0.08221447 0.19137642 0.03157951 -0.13856775 -0.3116385
-0.019971693 0.16630821 -0.1577616 0.10618943 0.17234935 -0.072442785 0.024042916 0.22072226
-0.020904044 -0.03301251 0.043786343 -0.13904443 -0.3434437 -0.15264255 -0.07108324 0.39229995
-0.053624198 -0.06605935 0.010045291 -0.123052165 -0.051847793 0.06481559 0.053307235 0.052180197
0.24630426 0.08608496 -0.14239854 0.11173986 0.02399869 -0.21596922 -0.046442706 -0.004813312
-0.10070889 0.024552852 -0.09640915 0.075492755 0.13676699 0.19918543 0.027737282 -0.2788879
0.20919985 0.035693686 -0.2673247 0.0037710872 0.16271341 -0.1565663 -0.06179298 6.4523846e-08
0.123426534 -0.32418972 -0.47947255 -0.0817413 0.337553 0.16654786 0.08175472 0.17100495
-0.015040397 0.15072325 -0.042992845 -0.052687515 -0.13862415 -0.18884914 -0.10711396 -0.4540501
0.0886315 0.08455097 0.28399527 -0.25396296 -0.35575253 -0.10235547 -0.042902797 0.14244324
-0.10211605 -0.063615374 -0.2020159 -0.040194713 -0.15660153 0.113141105 -0.067260794 0.1425111
0.18391082 0.076002434 0.0067551592 0.086015046 -0.10176672 -0.09223406 -0.22392784 -0.10609079
0.077959895 0.04881619 0.30380377 0.054674584 0.17370343 -0.14987554 -0.06805618 -0.07527858
-0.2662174 0.07334228 0.15575187 -0.015840592 0.05446108 -0.06424458 0.11747344 -0.20399876
-0.1384804 -0.17053796 -0.25270644 -0.05270102 0.03441119 -0.020499052 0.039720967 0.13386552
-0.23634015 0.10490385 0.20985283 0.045685086 -0.12307282 -0.08450235 -0.045495752 -0.13281214
0.2405288 -0.14808634 0.3175008 0.13288783 -0.15645303 0.13550934 0.1280707 -0.07270635
0.046905786 -0.11514046 -0.0114399 -0.32123595 0.2986021 -0.16551848 0.012982268 -0.059489958
0.008187815 -0.43000665 0.04016724 -0.07953426 0.18647647 0.013226897 0.04523107 0.029919036
-0.16118328 0.010426591 -4.85701e-40 0.05730585 0.0076293414 -0.07881328 0.23487958 0.04274692
0.08245142 0.13097022 0.03954525 -0.10732296 0.07927368 0.07053231 -0.120184004 -0.10712703
-0.1739359 -0.070027836 0.027615992 -0.0059680087 -0.029593287 0.011864339 0.17196332 0.13826421
-0.10915596 0.05172773 -0.1402858 -0.037671246 0.11717002 -0.10569575 -0.09701295 -0.031728033
0.05189762 0.0013611913 -0.11155086 -0.13334072 0.00061035086 2.2121289e-05 0.032591738 -0.058191787
0.25947842 0.087348685 0.048314057 -0.15408936 0.107299924 0.054303132 0.12017878 -0.2242042

decoder.2.bias f4 [227]
00000000: 2627 95be 600f 233e e457 2f3e e6e0 8c3e
00000010: 2fbe 95be 2f47 b63e 7bb5 90be 0621 99bd
00000020: ca0e 2ebe f789 96bd edf9 2abd e6d1 d63d
00000030: 0e20 503d bf79 01be dde1 1e3e b557 dcbd
00000040: e69b 8b3e 5b23 a4be 4624 58bc 9db5 2cbe
00000050: ba4a 4ebe f9c0 febd 4da8 073d 74c0 2e3a
00000060: 985d 86be d20f 06be b4ab 1ebd c8a0 b9be
00000070: 5951 6a3d 57d3 ccbe 58a8 dc3d 13f9 923c
00000080: 6a48 0f3e ea5a 3a3e 5ffd 5f3e eaaa 7abe
00000090: 891d 843e 33b0 5f3e de0d 26bd e809 873d
000000a0: b4e2 06be d4f8 dfbc 5e2a 5c3e 058b 7cbe
000000b0: 2b1a 0f3e 715e b8be f533 eb3d e1a0 893e
000000c0: f89b 2a3e 01d8 14be af11 2dbe ce7c 263e
000000d0: 18dc cbbe e896 913e 8c0f e0bd 19c8 483e
000000e0: c0ab 9bbe e6e0 4bbc 7b2e a83e 3692 6a3d
000000f0: ba4b 803e 3343 c2bd 49ee 22be 7218 273e
00000100: d770 123e e0ca 6c3d b470 22bd b41a 23be
00000110: 5ec1 443d 3b17 75bc 8b22 3cbe 9eca 6c3e
00000120: afde 9dbe b7ee 51bd 3b15 69be dfc7 11be
00000130: a92d 3c3e e46f da3d 89fb 313e d972 6fbe
00000140: 5ce3 183e cd6b 3c3e eb5c 653e 15b3 56bd
00000150: e794 cf3d 069f 21be cd14 67be 2fa0 25be
00000160: 3f3a 6e3e f1fa 243e 75c0 733e 713e 633e
00000170: 6854 6fbe dc5c 4c3e 0baf 003e 8638 a83e
00000180: e5d0 90be 34a5 003e 13bf 613d 23da 403d
00000190: bb21 903e 502e a8bd 14ff b93d 35ab 05be
000001a0: 0581 f33d 6956 cbbd 6635 9ebe 860d 7d3c
000001b0: 1934 213e 6c88 003e b2f9 153e 010d ae3d
000001c0: bba5 053e fec8 5abd f747 1d3e a20c 1f3e
000001d0: e4d9 a03d 44e4 b3bd d1d9 ff3d fdf8 89bc
000001e0: c4b8 b4bd 84b1 77be 4018 97be 0d97 c5be
000001f0: 105d 4e3e c2b4 1c3e 1469 5abd d0d5 a33e
00000200: a0fb b1bc c969 013e b6a8 dbbd 14c7 a73e
00000210: 38f5 83be 14aa 25be 5a33 dfbd b77d 223e
00000220: 1bc3 bfbc 969f 08bd caf2 70be 09ec 743e
00000230: 94f3 1bbe 81ee 1cbe a092 a9bd 3bc1 96be
00000240: 3eb1 353e 40c1 103e 8dcf 623e 9193 953d
00000250: d2da 8bbe 1507 3b3e 80c6 213e e93a aebe
00000260: 5ea7 143d 7f73 8abe 5d4d 6c3d b05f 1f3e
00000270: b6e8 46be 79d8 ed3d 3da3 b43b 72c3 733e
00000280: 2692 8c3e e116 c73d ca68 02be b900 893e
00000290: 85c0 423e e961 b8bb 2a58 28be f32e 593e
000002a0: 61d9 053e 5e21 55be 89a0 a1bd 2b5d 293e
000002b0: d66e 6c3e 0b7c 4b3e 9e0f a1be 1f66 bf3e
000002c0: d8c6 803d 98e8 983e 4471 a13e 615a 0bbd
000002d0: 952f 313e 333a 1bbe 5160 b3be d405 9abe
000002e0: c4b1 0fbc 51df e7bd 0b38 91bd 3bc0 7bbe
000002f0: 6770 98bd 17fb 053e 5fa4 6d3d 7fe2 2e3e
00000300: d826 76bc 1f1f a43e 69dd 953d ba9a e33d
00000310: 863f efbd 520a 11be 4be0 d1be 73c5 05be
00000320: 694b b8be f4d2 053e ccda 4c3e 8eed 3c3e
00000330: 11e2 613e 1d3d 1cbe e2f1 4f3d 6ffc d93d
00000340: d6f1 443d 0afb 83bd c4f1 d83d 1083 6cbd
00000350: de09 01bd 4378 35be e9ae b63e 2070 053d
00000360: f042 33be dfe2 003c fff9 a0be 40a9 61bd
00000370: 3f17 4f3b 9cca 2e3e 72b8 3bbb c281 623d
00000380: aaa7 7f3e 03a5 583e 0956 c83c
-0.2913143 0.15923834 0.17123371 0.27515334 -0.2924666 0.35601184 -0.2826346 -0.07477002
-0.16997829 -0.073505335 -0.041742254 0.10489254 0.05081182 -0.12644099 0.15515848 -0.10758916
0.2726738 -0.32058224 -0.013192242 -0.16866155 -0.20145693 -0.1243915 0.03311949 0.0006666251
-0.2624328 -0.13091972 -0.038737968 -0.3625548 0.057206485 -0.4000499 0.107742965 0.017941033
0.13992468 0.18198743 0.21873997 -0.24479261 0.25803784 0.21844558 -0.04054057 0.06593686
-0.13172418 -0.02734033 0.21500537 -0.24662407 0.13974826 -0.36009553 0.114845194 0.26880553
0.1666106 -0.14535524 -0.16901277 0.16258547 -0.39816356 0.28435445 -0.10940465 0.19607581
-0.30404472 -0.012443757 0.32847962 0.057268344 0.25057775 -0.094854735 -0.15911211 0.16317919
0.14300857 0.057810664 -0.039658263 -0.15928155 0.04803597 -0.014959152 -0.18372552 0.23124167
-0.30833957 -0.051253047 -0.22762005 -0.14236401 0.18376793 0.10665873 0.1738111 -0.23383655
0.1493048 0.18400498 0.22398727 -0.05241688 0.10135823 -0.15783319 -0.22566529 -0.16174386
0.23264407 0.16111352 0.23803885 0.22191788 -0.23372042 0.19957298 0.12566774 0.32855624
-0.28284374 0.1256302 0.055113863 0.04708303 0.28150734 -0.082119584 0.090818554 -0.13053592
0.11889843 -0.09928591 -0.30900115 0.015445119 0.1574253 0.12552041 0.14646032 0.08498574
0.13051502 -0.053414337 0.15359484 0.15532163 0.07854059 -0.087837726 0.12492717 -0.01684236
-0.08824304 -0.2418881 -0.2951069 -0.38591805 0.20152688 0.15303329 -0.053322867 0.31999063
-0.02172643 0.1263801 -0.107255384 0.32769072 -0.25773025 -0.16178161 -0.108984664 0.15868269
-0.023408463 -0.033355318 -0.23530117 0.23918165 -0.15229636 -0.15325357 -0.082799196 -0.29444298
0.17743394 0.14136219 0.22149487 0.07303537 -0.27315384 0.1826442 0.15798378 -0.3402932
0.036292426 -0.27041242 0.057690967 0.15563846 -0.1942471 0.116135545 0.0055126236 0.23805025
0.27455252 0.09721161 -0.12735286 0.26758364 0.19018753 -0.005626906 -0.16439882 0.21209316
0.13071205 -0.2081351 -0.07891948 0.16539447 0.23089156 0.19871537 -0.31457227 0.373826
0.062879264 0.29864955 0.31531727 -0.03402174 0.17303307 -0.1515892 -0.3503442 -0.30082572
-0.00877041 -0.11321891 -0.070907675 -0.24585049 -0.07443314 0.13084064 0.058018085 0.17078589
-0.0150239095 0.32054994 0.07317621 0.11113496 -0.11682038 -0.14164093 -0.40991434 -0.13063602
-0.35995033 0.13068753 0.2000534 0.18449995 0.22058894 -0.15257688 0.050767787 0.10643851
0.048082195 -0.06444366 0.10592988 -0.05774218 -0.03150355 -0.17721657 0.3568032 0.032577634
-0.17506003 0.00786659 -0.31440732 -0.05509305 0.003159955 0.17069477 -0.0028643874 0.055299528
0.24966303 0.21156697 0.024455087
