algorithms/SemiAutoEncoder/SemiAutoEncoderResults/Semi_AutoEncoder_300-100-50_all_IO_noleave_N_ratio_5.pt (torch_old, 830598 bytes, 12 tensors)

encoder.0.weight f4 [300, 226]
000000 59 b4 81 be 65 9f 7c 3c 23 92 dc bc 29 17 07 3e
       -0.25332907 0.015418862 -0.026925152 0.13192429
000010 71 f0 c7 bc 1a b4 b5 bd 96 6c d3 3c a0 25 40 be
       -0.024406644 -0.08872242 0.025808614 -0.18764353
000020 c9 1f aa 3d c2 9c 02 3e 73 46 37 3e ed 74 90 bd
       0.08306844 0.12755111 0.17897968 -0.07053552
000030 0b 53 35 bd 3b 74 b0 3c 9d 9e 5c 3d b9 4d 95 3d
       -0.04426865 0.021539798 0.053862203 0.07290215
000040 4d 73 c4 3d 97 ef 2d 3d 0f 4e e3 3d f5 82 fb bd
       0.095923044 0.04246482 0.11098873 -0.122808374
000050 5c 5a 20 be 71 e4 a6 3b e7 c2 65 bd 6f 3b 06 00
       -0.1565947 0.0050931503 -0.056094076 5.72334e-40
000060 6e 96 40 bd 00 e0 16 3e af dd dc bc e0 6c 42 3e
       -0.04701846 0.14733887 -0.026961176 0.18986845
000070 bf 4e cc 3d c3 42 ca 3d d6 7f 1e ba 99 f4 75 bd
       0.09975957 0.09876015 -0.0006046271 -0.06004772
000080 48 71 d3 3c 1f d1 d1 3d 71 51 42 be 8d 54 d7 3d
       0.025810853 0.10244965 -0.1897638 0.10514174
000090 37 89 da 3c 75 a1 9a bc a5 9e 20 bd af 51 c3 3d
       0.026676757 -0.018875817 -0.039213795 0.09537064
0000a0 58 75 6d bd 0c df 50 3d 88 16 3b bd e0 ee a3 ba
       -0.057973236 0.050993964 -0.045675784 -0.0012507103
0000b0 a8 94 53 bd bb 52 92 3d 52 30 a8 3c 8e 58 09 3d
       -0.05165544 0.07144686 0.020530853 0.033531718
0000c0 1a 8b 6a 3d 15 01 08 bd ed 30 b1 3c a8 8d 43 3d
       0.057261564 -0.033204157 0.021629775 0.047742516
0000d0 b2 d1 f9 bc 64 2a 81 be 35 2b ac 3c 7a d4 68 3d
       -0.030495498 -0.25227654 0.021016696 0.05684326
0000e0 b2 d2 71 3e 85 5c 40 3d 66 47 ce 3d 71 5f 77 3d
       0.2361553 0.046963234 0.10072212 0.060393754
0000f0 ba 5d 9c 3d c4 a0 6d bd 14 9c 9b bc 01 a3 27 bd
       0.076350644 -0.058014646 -0.018995322 -0.040926937
000100 e9 b5 f8 3c d0 99 21 3d 33 1a 3c be fd 77 87 3d
       0.030360179 0.039453328 -0.18369369 0.06614683
000110 95 72 6f 3c 6d f7 ae bd 42 a6 39 bd 82 a5 23 3d
       0.014614721 -0.085432865 -0.04532457 0.039952762
000120 41 5a f0 bd b7 3a b0 3d 5d 3f 4a 3e 67 cd 87 bd
       -0.117359646 0.08604949 0.19750734 -0.06630974
000130 0f c5 10 bc 3e a4 df 3c 1e b4 fa 3c cf 90 d5 3b
       -0.008836045 0.027299996 0.030603465 0.0065175067
000140 ed 76 07 3e 9b e8 dd 3d 33 30 9c 3d 85 99 c2 3d
       0.1322896 0.108353816 0.07626381 0.09501938
000150 98 34 80 3d 70 d2 19 3b a7 14 b4 3c be c7 59 3d
       0.062600315 0.0023471378 0.021982504 0.053169005
000160 67 11 19 be bb 6f a7 3d 75 a9 5f 3d 06 28 d7 bc
       -0.14948045 0.08175608 0.054604966 -0.026264202
000170 9b 3b 1f be 52 48 1f 3e b6 6b f9 3b 12 02 65 ba
       -0.15550081 0.15554932 0.007611717 -0.0008735965
000180 a8 10 3c 3e a7 f6 75 3d 06 b5 b0 bd d1 21 f1 3c
       0.18365729 0.06004968 -0.086282775 0.02943507
000190 c4 5f 19 3d ef c0 28 bd 39 51 82 bc 8b 2a 0b be
       0.037444845 -0.04119962 -0.01590787 -0.13590448
0001a0 5c 1c 2a 3e 5b 5a 72 3e d1 82 4f bd 02 d6 0f 00
       0.1661238 0.2366728 -0.050661866 1.454304e-39
0001b0 13 43 bb bb f1 ef d6 3d d1 da e0 3d 0f 25 d1 3d
       -0.005714783 0.10494984 0.10979236 0.102121465
0001c0 3e bf ce 3d 21 5c 98 3e 60 64 4d 3d 10 6f 04 bc
       0.1009507 0.2975779 0.050144553 -0.00808312
0001d0 6f 6f 1a bd 0f c3 98 3d 03 8c ce 3d 08 c6 23 bc
       -0.037703928 0.074590795 0.10085299 -0.009995945
0001e0 58 31 73 3e 4d f2 e2 3c 15 da 37 be e6 38 12 be
       0.23749292 0.027703429 -0.17954285 -0.14279518
0001f0 ee 46 22 bd a8 6c 84 3c 3c 7b 70 3c e1 67 a3 3d
       -0.039618425 0.016165093 0.014677819 0.07978798
000200 79 3f a3 bc 4c 9f 62 bc 22 a6 a7 3c 07 4d 87 3d
       -0.019927727 -0.013831925 0.02046496 0.06606489
000210 72 ff 54 3e 49 96 45 3e fa 0d 14 3d 75 e6 0f 3e
       0.2080057 0.1929561 0.03614614 0.14052756
000220 5f 82 0c 00 66 7e fd 3d 9a 5d ed bd 1c 1a fb 3d
       1.148794e-39 0.12377624 -0.11590119 0.12260839
000230 5f b9 f3 bd 17 62 d1 bd 38 db 52 bc 8c d2 98 3c
       -0.11900591 -0.10223787 -0.012869649 0.018655084
000240 d6 0e 82 3c ca af 8a 3c 39 4e 93 bd 63 95 4f 3e
       0.015876215 0.016929526 -0.07192654 0.2027183
000250 30 7d 79 bd 85 29 4f 3d 7c f0 d1 bb bb 0c 84 bd
       -0.060910404 0.050576705 -0.006406842 -0.06447741
000260 21 eb cd 3d 6d a8 10 3e 91 83 29 bd 7b 19 08 3d
       0.10054613 0.1412675 -0.041385237 0.033227425
000270 18 36 5a bf 18 eb b1 3d 92 79 e8 3d 2b 3d 3a bd
       -0.8523879 0.08687419 0.11351313 -0.04546849
000280 5e 65 9f bd aa d0 93 bd b5 29 5c 3d 11 cf 9b 3d
       -0.07783006 -0.07217534 0.053750712 0.07607854
000290 32 23 31 3c 38 91 ac 3d eb 24 78 3e c7 8a f5 3c
       0.010811614 0.08426136 0.24232833 0.0299734
0002a0 e2 b5 b8 3c a3 ac 4b be 7f 97 65 bc 37 56 af bb
       0.022547666 -0.19890074 -0.01401317 -0.005350854
0002b0 fd fe 2e 3e 72 22 43 3d b6 0e a8 3d e5 ea 50 3d
       0.17089458 0.04764027 0.08205931 0.051005263
0002c0 d2 41 86 3d 33 c5 cb bc 7c 8b bc bc 0c 3f 79 3e
       0.06555523 -0.024874305 -0.02301573 0.24340457
0002d0 50 e2 75 3c bb e7 f8 bc c3 e9 13 3e bc 08 da 3d
       0.01500757 -0.030383935 0.14444642 0.10646197
0002e0 26 91 58 3d 12 8e 1a 3e c5 59 9b bc 24 fd 1d be
       0.0528728 0.15093258 -0.018963704 -0.15428597
0002f0 0a 2c 04 3e 81 7b ef 3d ac ce 5c 3d e8 c4 98 3d
       0.12907425 0.116934784 0.053908035 0.07459432
000300 15 c9 49 3c 64 46 9c bd 90 3c 16 3e 08 b2 6a 3d
       0.012316008 -0.076306134 0.1467154 0.05729869
000310 a8 54 75 bd 37 24 39 3d d0 be 3f 3d 1c b4 b2 3c
       -0.059895188 0.045200553 0.046812832 0.021814398
000320 18 1d 0b be f5 2f f9 bd 55 14 40 3d d0 45 90 b8
       -0.13585317 -0.1216735 0.04689439 -6.879459e-05
000330 3f 74 e9 bc 6d d3 47 3e 11 f3 04 be b4 9c 25 3e
       -0.028497813 0.19514246 -0.12983347 0.16173059
000340 9c ab f7 bd 86 1b 07 bd 22 46 08 3d ab 00 70 3d
       -0.12093279 -0.032985233 0.03327001 0.058594387
000350 ae 0e d9 3d c5 94 33 bc 0f 22 ce 3d 71 b3 91 bc
       0.10598503 -0.010960762 0.1006509 -0.01778576
000360 bc e9 4b 3e ce a5 3c 3d 00 8e 77 be e7 80 31 3d
       0.19913381 0.04605656 -0.24175262 0.04333582
000370 a6 68 0e 80 2f f6 f2 bd ec 2f 73 b9 e3 84 e0 bc
       -1.323238e-39 -0.11863362 -0.00023192138 -0.027407115
000380 67 48 e0 3c 81 56 49 3d 1e fb 4a 3d 3c 30 39 3e
       0.027378274 0.049154762 0.04955589 0.18084806
000390 0d 54 4f 3e 59 09 b4 bd d8 b5 fc 3d 1b d4 a6 3d
       0.20246907 -0.087908454 0.123393714 0.08145925
0003a0 6f 7c 1e 3e 4e 20 5a bd 88 77 07 3e bb e0 23 3d
       0.15477155 -0.053253464 0.13229191 0.04000924
0003b0 dd 93 03 bd f7 89 45 3e 5d 5d 60 bc 2d 4f 20 be
       -0.032123435 0.1929091 -0.013694135 -0.15655203
0003c0 1d 8e 1e 3d 39 89 37 bd df 5d 0b 3e 6f 9d 06 3d
       0.03870975 -0.0448086 0.13610028 0.032864984
0003d0 96 f1 1f bc 96 09 3c 3d 4c f7 78 3c 2d da ac 3e
       -0.009762188 0.04590758 0.015195679 0.33760205
0003e0 c3 89 97 3e 2f 16 0c 80 d3 1d b3 3d 0a 7b ff 3c
       0.2959729 -1.109984e-39 0.08745923 0.0311866
0003f0 4d bb 81 3d e9 6c ca 3d 6f 01 fb 3d 45 a0 88 3c
       0.06334553 0.09884054 0.12256133 0.016677985

encoder.0.bias f4 [300]
000000 ec e2 06 3e 2f e8 88 3e 7f be cd 3b b3 b1 2a be
       0.13172501 0.26739642 0.0062788124 -0.1666935
000010 ca 40 82 bc 67 06 83 bc aa d5 b1 3d 5f c2 fb bd
       -0.015900034 -0.015994264 0.08683331 -0.12292933
000020 76 39 7a be eb 67 36 be 70 37 ab bd 62 da b0 3c
       -0.24435982 -0.17813079 -0.08360183 0.021588508
000030 f6 55 50 3d 6c 58 30 bc 53 5f 72 3d cc 28 b5 be
       0.05086323 -0.010763269 0.05917294 -0.35382688
000040 75 3e 6b 3e 73 0a 0f be f7 0e 8e 3d 38 e3 9e bd
       0.22973044 -0.1396883 0.06936448 -0.07758182
000050 71 55 c0 bd 3c c1 d1 ba c0 04 68 3e 81 cc 53 be
       -0.09391297 -0.0016003023 0.22658062 -0.20683481
000060 7e 9d a9 bc ab 63 94 be 2a d5 47 bd 44 44 58 be
       -0.020704981 -0.2898229 -0.048787273 -0.21119791
000070 e6 6e 06 3e 93 d5 a7 3d 09 ae 64 3e e7 e1 cd bd
       0.13128242 0.08195033 0.22332014 -0.10052853
000080 58 de 49 3e cc ac a6 3d 15 cf 7c 3d 18 91 0f 3e
       0.19713724 0.08138427 0.061720926 0.14020193
000090 df 1b 9d 3d 74 32 0a 3d cf 51 3a 3e ed ea 8c 3d
       0.076713316 0.033739522 0.1819527 0.06880746
0000a0 bf 25 19 3d 53 39 09 bd 20 4b 17 bd 32 d7 79 3d
       0.037389513 -0.033501934 -0.03693688 0.060996242
0000b0 ab e2 8a bd 80 1f 13 3d 42 ea ef bd 72 1c 6e 3c
       -0.06781515 0.035918713 -0.11714603 0.014533149
0000c0 b1 d2 05 be 78 42 14 3e df 58 45 bd 73 05 12 bb
       -0.13068654 0.14478481 -0.048180457 -0.002228108
0000d0 84 80 29 bd a2 2f 42 bd 43 9b 0c be 49 47 ef 3d
       -0.041382328 -0.047408707 -0.13731103 0.116835184
0000e0 d4 93 29 bd 8f 85 6a 3e 7d 61 17 3d 19 7a 86 bd
       -0.041400746 0.22902511 0.036958206 -0.06566257
0000f0 a6 da 4d 3c b0 8a 37 3c 51 78 28 bd c3 ea 3f be
       0.012564337 0.011202499 -0.041130368 -0.18741898
000100 e0 72 47 3a 17 8d a8 bd 6f 3f e9 3d a4 fc 6b 3d
       0.0007608365 -0.08230036 0.11389052 0.057613984
000110 89 23 f6 3d 2f c9 29 3c b9 01 84 bd a4 ea 26 3d
       0.120184965 0.010362907 -0.06445641 0.040751114
000120 ee e9 72 3e d0 87 55 be 43 d3 9a bd e2 9a 6b bd
       0.2372205 -0.2085259 -0.07559826 -0.057520755
000130 89 7a 3a be 6f 20 3e bc b3 41 c8 3c c2 3e 81 3d
       -0.18210806 -0.011604412 0.02444539 0.06310798
000140 a9 82 31 bd 48 78 10 be 75 9a 91 3c 1f 55 68 ba
       -0.043337498 -0.14108384 0.017773846 -0.00088627817
000150 56 4f a0 3c d9 6a 14 bc d4 de ae 3d 6f 1f e9 bd
       0.01956908 -0.009058678 0.08538595 -0.113829486
000160 c6 3f 73 3e 1d b7 0e be b2 73 e6 bd 80 bb 34 bd
       0.23754796 -0.1393704 -0.11252536 -0.044124126
000170 91 bf 31 3d 62 26 e5 bd a7 87 70 be 09 5b b2 3d
       0.043395583 -0.111889616 -0.23489247 0.0870877
000180 67 81 ca 3c eb 03 05 bd 58 61 8a 3e 8a 0c 80 be
       0.024719907 -0.03247444 0.27027392 -0.25009567
000190 45 5c 14 bd 05 2c 80 bd 46 40 92 3d 35 e9 56 bd
       -0.036220808 -0.06258396 0.071411654 -0.052468497
0001a0 3c 07 1c bd 7b a5 59 be 06 65 82 bc ad 6d d7 bd
       -0.038092837 -0.21254532 -0.015917312 -0.10518966
0001b0 a3 68 c0 3c a3 6a 49 3e 97 8b 19 bd 21 b2 ed 3d
       0.023487395 0.19669585 -0.03748664 0.11606241
0001c0 8f be 80 be 0b 5d aa 3d da e3 53 3d fc 28 09 be
       -0.25145385 0.08318528 0.051730968 -0.1339454
0001d0 19 5c 63 bd 06 d0 b7 bd 75 15 6a be 0e 64 7a 3d
       -0.055507753 -0.08975224 -0.22859748 0.061130576
0001e0 3f 59 0d be 4c 58 99 bd 6a 1f 69 3e ec ea d5 bc
       -0.13803576 -0.074875444 0.2276589 -0.026112996
0001f0 85 51 fd bd ac 5b 05 3e ed 0d 01 bc 65 a9 c1 bc
       -0.12369064 0.13023251 -0.007876855 -0.023640344
000200 3b 83 a7 3d de 38 6e 3d a9 0c f2 bd b3 39 6d 3e
       0.08179327 0.0581597 -0.11818821 0.23166542
000210 e7 df c8 3c 3e 72 0f be 16 93 3b bd 80 6c e7 3d
       0.024520827 -0.14008424 -0.04579457 0.112999916
000220 8c 30 47 3c 49 55 7e be d9 73 ca bd 52 b2 18 3d
       0.012157571 -0.24837221 -0.098853774 0.037279435
000230 64 bc bb bd 4a 54 a9 3d 57 69 6f bd cc b1 4f 3d
       -0.09166792 0.0826803 -0.05845007 0.05070667
000240 e9 2d 38 bd 3f ec 40 bd 41 61 97 3b 0e 13 a3 3b
       -0.04496566 -0.0471003 0.004619748 0.0049766367
000250 7a 96 92 3d 77 8f fa 3c fa 40 87 bd b4 a9 76 be
       0.071576074 0.030585987 -0.0660419 -0.24088174
000260 62 be 42 be be 16 c2 3c 9e e7 52 3e a4 a5 22 3d
       -0.19017938 0.023692485 0.20596167 0.03970875
000270 20 43 94 3d 1f 24 a3 3e e5 b8 71 3d 6b 11 a7 bd
       0.072393656 0.31863496 0.05901422 -0.08157619
000280 fa 96 fd bc 1f 46 e0 bd 1b 9c e0 bd c2 38 9c 3d
       -0.03095578 -0.109508745 -0.10967275 0.07628013
000290 10 0c b4 bd 5b 2e 8d bc 4d 8e 07 be 74 2a c8 bc
       -0.08791363 -0.017234018 -0.13237877 -0.024434306
0002a0 26 10 55 3c 0e 61 47 be 06 72 2f 3c d1 15 29 3d
       0.013004338 -0.19470617 0.010708338 0.04128057
0002b0 53 46 da bd 02 2f 17 3e a1 93 54 3d 57 82 a5 bd
       -0.106579445 0.14764026 0.051898602 -0.08081501
0002c0 18 cb 33 3c d9 61 29 bd 9c 83 55 3d cc 18 46 be
       0.010973714 -0.04135308 0.052127466 -0.19345397
0002d0 3b f2 20 3d 4a 9c 1e be e3 90 98 3d 62 31 0a bd
       0.03929351 -0.15489307 0.0744951 -0.0337385
0002e0 88 b7 77 bc 68 ac f1 bd 94 8c 26 be 64 67 3e 3d
       -0.015119441 -0.11800462 -0.16264564 0.04648532
0002f0 ad f5 e5 bc 00 0e be be a6 4c e4 3c ef a6 3b bd
       -0.028071249 -0.37120056 0.02786858 -0.045813497
000300 db d9 58 3d c8 7c 61 3e 40 ad 79 bd 8f bd b2 bc
       0.05294214 0.22020257 -0.06095624 -0.021818904
000310 38 f4 ad 3d 35 23 35 be 50 1c da be f2 c9 c2 be
       0.08493847 -0.17689212 -0.42599726 -0.38044697
000320 79 b2 2a be 46 bb 9a bd c8 ea 4e 3d 14 77 9c bd
       -0.16669644 -0.07555251 0.050516874 -0.076399
000330 8f cf f8 bd 83 99 37 be 43 a2 29 3e 89 a0 01 3e
       -0.12148964 -0.17929654 0.16565804 0.12658896
000340 90 29 4b 3e 0a 4e 91 be 09 44 c7 bc cd b2 c1 3d
       0.19840074 -0.28379852 -0.024324434 0.09457932
000350 9d 08 45 3c 76 55 20 be 59 d9 d7 3c 31 d4 a1 bd
       0.012025979 -0.15657601 0.026348757 -0.079018004
000360 6b 50 89 3d 1e 53 20 bd 22 0f a4 3d 0e b3 9f bd
       0.06704792 -0.039141767 0.08010699 -0.07797824
000370 12 97 73 bc 82 b7 0f 3b 2a 73 7b 3e 42 3b 7f 3e
       -0.014867561 0.0021929448 0.2455565 0.24924949
000380 a8 9d 79 3c 01 3c b8 be 7e 94 62 3e 52 1e 12 be
       0.015235342 -0.3598328 0.22126958 -0.14269379
000390 6a 06 3e be f8 10 d1 be 20 61 2d bd 43 03 8f 3d
       -0.18557134 -0.4083326 -0.042328954 0.06983044
0003a0 b9 38 9b 3d 0b b3 04 bd 74 85 3f bd 82 3a ea be
       0.07579178 -0.03239731 -0.04675813 -0.45747763
0003b0 76 95 d9 3d b8 dd 03 be 91 43 21 3e 2a c6 3e 3d
       0.106242105 -0.12877548 0.15748431 0.046575703
0003c0 90 40 67 3c 12 e4 ed bd d7 e7 c4 be 89 0b 9b 3d
       0.014114514 -0.116157666 -0.3845813 0.075705595
0003d0 d5 34 51 3e ef 29 69 bd a7 a0 f7 bc c5 85 02 3e
       0.2043031 -0.056924757 -0.030227972 0.12746342
0003e0 2f c2 96 3d bc e7 ab bd 7d dd 37 bd c4 6a be 3c
       0.07361256 -0.08393809 -0.044888962 0.02324427
0003f0 a2 07 84 bd a0 30 f3 3b 0f 47 43 3d cd 4f 9f be
       -0.06446768 0.007421568 0.04767519 -0.3111557

encoder.2.weight f4 [100, 300]
000000 59 9f 64 be 44 ad 13 3e 52 82 6c 3d 39 d2 80 3d
       -0.22326411 0.14421564 0.05774147 0.06290097
000010 21 4b 78 bd 78 ed aa bd ed f0 ca bd 14 aa 78 3d
       -0.060618524 -0.08346075 -0.09909234 0.060709074
000020 72 df 63 3c f6 42 3b 3e ef c3 d0 bd e8 02 e4 3b
       0.013908254 0.18287262 -0.10193621 0.0069583543
000030 57 b1 c9 3d ef 3f c5 bd 04 82 d6 3d 74 10 56 3d
       0.09848278 -0.09631335 0.10474017 0.052261785
000040 ed a2 2a be 8e 69 f7 3e 7e e7 a7 bd 39 4b 9f ba
       -0.16663714 0.4832272 -0.081984505 -0.0012153155
000050 fe e2 e6 3d 7c 02 19 be 83 64 b9 3d 63 10 00 3e
       0.11273764 -0.14942354 0.09052374 0.12506251
000060 9a a4 e3 bd a9 e0 ac 3d 35 4c d1 bd de 50 b0 be
       -0.1111538 0.08441288 -0.102196135 -0.34436697
000070 fe 21 ab bd 35 c4 9c bc 6d 09 43 3d a6 17 b8 bb
       -0.08356093 -0.019136528 0.04761641 -0.0056180535
000080 70 bd c3 3c 5c be 4d be 88 3c b0 3d 99 e1 80 3e
       0.023894042 -0.20092148 0.086052954 0.25172117
000090 62 f5 c1 bc b5 05 1c 3e 81 ff ac 3d 9c 0f 0f 3e
       -0.023676578 0.15236552 0.08447171 0.13970798
0000a0 fc e8 92 3d 02 e7 15 bd ac 16 5a 3d 6c 4e 1a 3e
       0.071733445 -0.03659726 0.053244278 0.15068978
0000b0 21 ad 96 3d 73 63 e1 bb e7 70 34 bd df e5 60 3d
       0.073572405 -0.0068783103 -0.044052985 0.054906722
0000c0 b5 d9 bf bd 1e 48 6b 3e 57 ee 30 be 88 07 09 be
       -0.09367696 0.2297673 -0.1727842 -0.13381779
0000d0 a9 91 bb bd 38 1a 62 3c 2c d8 dd bd 25 47 9d bd
       -0.09158642 0.013800196 -0.10832247 -0.07679585
0000e0 2d 7d 7f bd 60 5b 68 bd 8e 69 f0 bd 46 40 37 3d
       -0.062375236 -0.056727767 -0.11738883 0.04473903
0000f0 78 0a 8c bb b8 2c 86 bd 88 63 e6 bd 9e 17 1b bd
       -0.004273709 -0.06551498 -0.11249453 -0.03786432
000100 83 62 68 3d 53 b5 89 3c 89 32 f4 3d a5 fa c0 bd
       0.056734573 0.016810095 0.11923701 -0.09422807
000110 2a eb 6e 3d d6 e6 4e bd df 7f c6 bd b8 15 92 3d
       0.05832974 -0.05051311 -0.09692358 0.07133049
000120 45 56 ad 3c cf dd dc bc 74 fa 0b bc 6c c1 49 3d
       0.0211593 -0.026961235 -0.008543599 0.049256727
000130 fb 7a ac bd 92 37 f6 bb 0b 70 3b 3e 43 52 9a 3e
       -0.08421894 -0.0075139487 0.1830446 0.30140886
000140 c6 a9 86 3d 3d 20 a3 3d 3a 1a fb 3d 5e fc 86 3d
       0.065753505 0.07965133 0.12260862 0.06591104
000150 62 92 8a 3a a0 70 8b bd dc 52 24 bc 67 b7 2e 3e
       0.001057219 -0.06808591 -0.010029521 0.1706215
000160 64 04 3e 3d a6 f6 ab 3d 83 dc 83 bc ad d0 4a 3d
       0.046390906 0.08396654 -0.01609636 0.049515415
000170 93 b3 ad 3e 99 31 18 be 6b 4f 42 3b 20 c1 6f 3d
       0.33926067 -0.1486267 0.0029649388 0.058533788
000180 cf 25 6b be 49 f0 f9 3c 8c 6b e4 bd 30 42 02 be
       -0.22963642 0.030510085 -0.111533254 -0.12720561
000190 aa b5 b2 bd 33 a2 d9 3d 0e d6 fb 3b e4 ef ab 3d
       -0.08726056 0.1062664 0.0076854294 0.08395365
0001a0 f0 53 b1 bd c3 77 34 3d e1 c2 09 be 46 60 83 3e
       -0.08658588 0.044059526 -0.13453247 0.25659388
0001b0 3b ba 62 3e d0 35 a3 3d 52 54 a6 3d ca b5 b8 3d
       0.22141354 0.07969248 0.081215516 0.090190485
0001c0 0d bb b8 3d 11 a1 24 3e 5f 07 d0 bc 22 0c 8e bd
       0.09020052 0.16077067 -0.02539414 -0.06935908
0001d0 a0 b5 ee 3d 27 ff 73 3d 0b e0 b3 be d4 25 d6 bb
       0.11655736 0.059569504 -0.3513187 -0.006535271
0001e0 1c cb a6 bd ad 5d 45 be d3 e2 82 3e 3c 41 94 3e
       -0.08144209 -0.19274016 0.25563678 0.2895602
0001f0 44 8e 8c bd 2c 56 d5 bc a9 c8 29 bc 51 f5 23 3d
       -0.068630725 -0.026042067 -0.0103627825 0.040028874
000200 ad 82 4f 3c 1f a1 84 3e b3 af 01 bd 6a c3 a2 3d
       0.012665433 0.25904176 -0.0316617 0.079474285
000210 db 08 6d 3d 8b 62 e8 bd b8 b0 7b bd 17 0e 98 3e
       0.057869773 -0.113469206 -0.06144783 0.2969825
000220 1f a3 a7 bd c5 b9 20 bd 62 99 fa 3c 90 f1 0d be
       -0.0818541 -0.039239664 0.030590717 -0.1386168
000230 93 7d 31 3e 24 fe 23 3e 2c 50 0f be e1 8b 1f 3d
       0.17333059 0.16014916 -0.13995427 0.03895176
000240 58 8f 17 3e d5 a1 e7 3d 60 ba 6f 3c 60 12 04 be
       0.14800775 0.11310164 0.014631838 -0.12897635
000250 34 e1 26 be 91 06 ee 3d f9 f9 b6 bd c2 c0 a0 3d
       -0.16296846 0.11622346 -0.08934397 0.07849266
000260 4a 6d b9 3b e0 e4 8a bd bb 07 be 3b 88 08 6d 3e
       0.00565878 -0.06781936 0.0057992614 0.23147786
000270 1d 76 c1 3d dd 62 f6 3d 85 d6 a4 3d 49 a2 1e 3e
       0.094463564 0.120305754 0.08048729 0.15491594
000280 7d 0e 26 bc d6 0e 6e 3e 5c 4c f4 3d 6b ab 23 3d
       -0.01013529 0.23247847 0.11928627 0.0399584
000290 95 69 28 3c 50 f8 06 be e0 42 32 3e f0 7c 94 bd
       0.010279079 -0.13180661 0.17408323 -0.072503924
0002a0 81 59 54 3d cc c5 3b be be 6c 4e bd 2e b2 25 bc
       0.05184317 -0.18337172 -0.050396673 -0.010113282
0002b0 11 97 68 3e 32 e7 ed bd 8a f3 c3 3d 73 5e a7 bd
       0.22713877 -0.11616363 0.09567936 -0.08172312
0002c0 5a 82 fa 3d 7e bd 23 be f4 54 bd 3d 76 48 95 bc
       0.12231894 -0.15990254 0.09244719 -0.018223029
0002d0 c2 aa f2 bd 33 96 a1 be b9 a4 2a 3e 39 78 bd bd
       -0.11848976 -0.31559905 0.16664399 -0.09251446
0002e0 39 b2 bb 3d a0 0c bd 3c e1 7d ee 3b 2a 10 32 3b
       0.09164853 0.02307731 0.0072781895 0.002717028
0002f0 99 57 44 be f0 b5 b6 3e fe 40 18 3e be b6 a0 bd
       -0.19174041 0.35685682 0.14868543 -0.07847355
000300 3f ce 88 3d 6e 54 58 3d 8b 51 01 be 90 25 58 bd
       0.06679963 0.052814893 -0.12628762 -0.052770197
000310 27 dd fd bd ce 3d 58 3d ee 76 40 3d 4a a7 35 3e
       -0.12395697 0.052793317 0.04698842 0.17739597
000320 d2 ee 9b bc 4b a6 56 3c c5 ac aa bd 1d 44 f9 bc
       -0.019034777 0.013101171 -0.083337344 -0.030427987
000330 1d 92 0b 3e 6a f3 4a be ff 87 5a 3d cf a4 e7 3c
       0.13629957 -0.19819418 0.053352352 0.028276829
000340 cc 27 58 bd 43 e6 80 3e 6b 8a cd 3e ae cc c5 3e
       -0.05277233 0.25175676 0.40144667 0.3863272
000350 58 35 13 3e e1 42 91 3d b8 9b 1b 3e 14 bf b6 bd
       0.14375818 0.07092834 0.1519612 -0.08923164
000360 c1 71 d2 3d d2 2f 35 3e 02 16 77 3e fc 51 0a be
       0.10275603 0.17694023 0.24129489 -0.13507837
000370 e6 92 f4 3b db 0a e2 bd ef b3 6e be 6e 0a 94 3d
       0.0074638007 -0.11037227 -0.23310827 0.07228552
000380 63 41 00 bd ca d8 92 3e ac ae 36 3d 37 5b 43 3e
       -0.031312358 0.28681022 0.044600174 0.19077764
000390 ad 24 60 be 55 74 39 3d 18 0c 5a 3c 92 db 17 3e
       -0.2188899 0.04527696 0.013308547 0.14829853
0003a0 d6 4e a2 3c d1 c4 88 bd 31 40 e8 bd a2 fb 16 be
       0.019812983 -0.06678165 -0.113403685 -0.14744428
0003b0 bc 46 51 bd 28 2c e3 3d 59 23 f0 bc ec 21 bf bd
       -0.05109285 0.110924065 -0.02931373 -0.09332642
0003c0 ed 54 b1 3d 08 37 51 3d a8 5a 98 bd 46 b7 48 3d
       0.086587764 0.051077873 -0.07439166 0.04900291
0003d0 35 83 0d bc cf 0e 13 be 4b 0a 2b be 2b 2b d0 ba
       -0.008637239 -0.14361118 -0.16703145 -0.0015882006
0003e0 48 fb 10 3e 5a 84 36 3e 93 14 66 3b d3 50 f8 bd
       0.14158356 0.17823926 0.0035107478 -0.12124791
0003f0 b1 98 ef 3d a0 b0 58 3d 40 2d 9f bd 27 70 8a be
       0.116990454 0.052902818 -0.07772303 -0.2703869

encoder.2.bias f4 [100]
000000 08 d5 70 bc a9 0b d5 3c e4 67 8f 3d 3b 1d e1 3c
       -0.014699228 0.026006537 0.070022374 0.027479758
000010 b0 ae 94 3d 4c 14 a1 3d 7d 70 97 b1 79 1e 6b bc
       0.072598815 0.078651994 -4.407467e-09 -0.014350527
000020 dd ad 9b 3d d5 87 a9 bd 7f 3f 86 3d 9b 0d 25 bd
       0.07601521 -0.08277861 0.0655508 -0.04029618
000030 fe 96 f9 3d 95 af d0 3c 92 6e a5 3d 31 d6 e7 3d
       0.121870026 0.025474349 0.0807773 0.11320151
000040 4b 2e bb 3d f0 3c 4a 3e 8c b3 80 bd 55 e0 cb bb
       0.09139689 0.19749808 -0.06284246 -0.006221811
000050 12 6a cd bd d7 f5 c8 3d a8 a6 4b 3d 99 5b 78 bc
       -0.10029997 0.09812515 0.049719483 -0.015158557
000060 04 0f f9 3b 80 cd 17 3e bf 6f bd bc ef a6 34 bd
       0.007600667 0.14824486 -0.023124574 -0.044104513
000070 9c 44 23 be 2d 4f ad bd b5 86 a0 3d 46 28 87 bc
       -0.15944141 -0.08462367 0.07838193 -0.016498696
000080 1e 95 81 3d 82 f6 b5 3d 71 22 f1 bd 22 59 c4 bd
       0.0632727 0.08884908 -0.11774147 -0.09587313
000090 c4 11 b7 3d 6f 13 86 bd b3 cf 4a bd 77 17 dd bc
       0.089389354 -0.065466754 -0.049514484 -0.026988728
0000a0 8d e8 1d 3d 06 91 27 3d 1f c7 72 bd 97 63 78 bd
       0.038551856 0.04090979 -0.059271928 -0.06064185
0000b0 94 4c de bc d9 33 b1 bd f1 84 8f 3d e3 ca e9 3c
       -0.027136125 -0.08652467 0.070077784 0.028539127
0000c0 b1 3a cc bd b8 56 90 9e d5 e1 2f bd e6 b5 83 3d
       -0.09972132 -1.5282459e-20 -0.04293998 0.06431179
0000d0 1d a3 e5 3b 1b 2b cf 3c d8 74 49 bc 71 98 2c 3e
       0.00700797 0.025289109 -0.012295924 0.16855027
0000e0 64 d6 91 3d 8c ea 63 b4 ed c2 8d 9b a2 3a bb bb
       0.0712097 -2.122635e-07 -2.345246e-22 -0.0057137767
0000f0 ca 47 1c 3e 8c 3f 3e bc 12 05 22 bd 37 4f 05 3e
       0.1526176 -0.01161183 -0.039555617 0.130185
000100 d3 d8 e0 8d 81 0f d7 3c 37 0a 3a 3d ca aa dd 3c
       -1.3857264e-30 0.02625251 0.045419898 0.027058978
000110 0e 3a d2 bc c6 b8 19 a1 b3 9a a0 3c bc 4f 9b 3d
       -0.025662448 -5.208296e-19 0.019605016 0.075835675
000120 a9 a4 84 3d 04 3c 80 ba 6d 57 75 3d 6d 7b 0a 3e
       0.06476719 -0.0009783511 0.05989783 0.13523646
000130 12 ae 09 bd 95 9d 1d 3d 9a 0e 3d b8 5c da dd b7
       -0.033613272 0.03848036 -4.507471e-05 -2.6446934e-05
000140 3e 04 a1 bd 29 f2 11 3e 21 8f 52 bd a4 3b 23 bd
       -0.07862137 0.14252533 -0.05140603 -0.0398518
000150 6c 32 29 3d 82 54 1e 3d 9c fd 8f 3c a4 cc 25 bd
       0.04130785 0.03865481 0.017576985 -0.040478364
000160 b2 f1 07 3d 92 d2 29 bd a3 a9 1d 3d 7d 02 45 3d
       0.033189483 -0.04146058 0.038491856 0.048098076
000170 4b 74 a5 bd c8 48 01 3b 30 06 0e 3d bc c1 9e bc
       -0.08078822 0.001972722 0.03467387 -0.01937949
000180 08 39 34 bd b0 15 c4 bd 44 f3 24 3b 66 f6 66 97
       -0.0439997 -0.09574449 0.0025169412 -7.4628007e-25

encoder.4.weight f4 [50, 100]
000000 ca 30 4e be 41 5d 99 be e7 36 ab bd c0 15 bf 3d
       -0.20135799 -0.2995396 -0.08360081 0.0933032
000010 d4 86 b2 3d 9e 26 e5 bd 27 4b 50 a8 2c 7b 9b 3e
       0.08717123 -0.11189006 -1.15626155e-14 0.3036741
000020 39 c1 3e 3e b8 c6 73 3e c8 d1 33 be 12 52 65 be
       0.18628396 0.23806274 -0.17560494 -0.22394589
000030 53 43 59 bd ba 97 3a be 9b b5 52 3e 49 bb d2 bc
       -0.05304272 -0.18221942 0.2057709 -0.02572407
000040 d9 24 6a 3e 14 74 2e 3c bf 1f cf 3d ce 31 a0 bd
       0.22865619 0.010647792 0.10113477 -0.078219995
000050 2d ce aa 3d 74 fe 6b 3e ab a9 8c bb 2b 42 9e be
       0.08340106 0.23046285 -0.004292687 -0.30909857
000060 30 57 a4 3d c3 8b b3 be 06 12 b1 be 7e 2c d0 3e
       0.08024442 -0.35067567 -0.34584063 0.40658945
000070 a6 ac 02 3f 11 f9 c9 bc 0a db 86 be e9 c3 e7 3e
       0.5104469 -0.024654897 -0.2633899 0.45266655
000080 ac 8d ce bd fa 16 cf 3e a6 3a f4 3d 05 49 bd 3e
       -0.100856155 0.40447217 0.11925249 0.36969772
000090 bf 83 f4 be eb 4d d1 3d 8a f2 90 bd e3 02 82 bd
       -0.47756764 0.1021994 -0.07077511 -0.06348207
0000a0 57 fc 8d be 64 c6 56 3e 40 d8 16 be 2f 26 ce bd
       -0.27731583 0.20974118 -0.1473093 -0.10065877
0000b0 3f 60 1b 3e 0c 1a 61 3e 18 95 93 3d d7 4d 0a 3d
       0.15173434 0.21982592 0.07206172 0.03376564
0000c0 8c a7 7f 3e 3c 72 c7 a8 fb 7f d8 3e f0 3b 73 3e
       0.24966258 -2.214298e-14 0.4228514 0.23753333
0000d0 5d d1 34 3d 75 0e f4 3c 1a b9 6d 3e 61 ca 28 3e
       0.044144977 0.02979205 0.23215142 0.16483451
0000e0 65 eb ca be 32 76 98 37 12 cb 03 00 95 dc 94 3e
       -0.39632717 1.8174851e-05 3.48354e-40 0.2907454
0000f0 e1 d3 0a be 7e 3e 9b be 24 fb ab 3e 72 ea 96 3c
       -0.13557388 -0.30321115 0.33590043 0.01842234
000100 20 f7 83 a9 03 c7 a7 3c 53 0d 40 3e 5d 0e 24 be
       -5.860438e-14 0.020480638 0.18755083 -0.16021104
000110 a2 4f ef 3b 95 09 0e 88 8c 6d d7 be 04 88 86 3d
       0.007303194 -4.2742834e-34 -0.42075765 0.06568912
000120 25 94 8e 3e 19 f3 4d 3e 49 47 e2 3c b6 7b 56 be
       0.278474 0.20112266 0.027621882 -0.2094563
000130 53 3b 84 be 6a 05 0d bf 1f b8 69 35 68 e9 ab ad
       -0.2582651 -0.55086386 8.7067195e-07 -1.9544102e-11
000140 12 aa 83 3e 6a 1c 16 be d2 95 d7 3e dc bc be bb
       0.2571569 -0.14659277 0.4210649 -0.0058208536
000150 25 44 ba be 7b 72 8e bd c8 96 19 3e fd 60 d9 bd
       -0.36380115 -0.06955429 0.14998925 -0.10614202
000160 19 7b 47 3e dd 31 2a 3e be 5a 2e be 18 a5 9b be
       0.19480552 0.16620584 -0.17026803 -0.30399394
000170 67 59 34 bd 28 28 a9 bc c0 f4 63 bc 98 5e 7c 3e
       -0.044030573 -0.02064903 -0.013913333 0.2464546
000180 ec 12 94 3e 64 35 f7 3e 0b 31 59 be 71 e8 e9 27
       0.28920686 0.4828292 -0.21210115 6.4922505e-15
000190 c9 06 a7 be a0 8e 09 3e b3 0e a4 be 6e 44 01 bd
       -0.32622364 0.13433313 -0.32042465 -0.0315594
0001a0 d0 09 7d bd c9 6a a5 bd 4b bd 37 30 11 50 a0 3c
       -0.061776936 -0.08077008 6.6844014e-10 0.019569429
0001b0 9f 9f 74 3e 6d 17 e7 3d 13 ec 42 be 0a 41 d5 3d
       0.23889016 0.11283765 -0.19035368 0.10412796
0001c0 c8 22 12 be 12 7a 6d 3e 5f 35 3e 3d fe 00 d8 3c
       -0.1427108 0.23191097 0.046437617 0.02636766
0001d0 ae e7 84 3e 65 ac 11 3e 17 10 23 bd 5f 24 62 3b
       0.25958008 0.1422592 -0.039810266 0.0034506542
0001e0 ad 12 97 bd 91 a3 1a be 6f 2a 73 be 67 80 9f bd
       -0.07376609 -0.15101458 -0.23746656 -0.07788163
0001f0 48 13 3f 3e b0 36 d4 3d a7 b4 68 3e 1c 74 d9 bd
       0.18659699 0.10361993 0.22725163 -0.10617849
000200 0a 89 32 be 14 44 21 be 28 42 2d 3e 68 7a ac bd
       -0.17435089 -0.15748626 0.16919768 -0.08421785
000210 66 33 8e 3e 64 0b 84 3e 93 f0 0c 3e 24 b6 a3 3d
       0.2777359 0.2578994 0.13763647 0.07993725
000220 d7 fa 3a 3d c2 e8 45 be d1 7e 0f 3d c9 f2 96 3e
       0.045649376 -0.19327071 0.03503305 0.29482105
000230 a0 1d b8 3e 94 11 25 bb 83 25 ff 3d 99 37 b1 be
       0.35960102 -0.002518748 0.12458327 -0.3461273
000240 e7 d4 d8 bd ed 2b 59 be c6 cb eb 3c 30 78 40 be
       -0.10587483 -0.21208163 0.02878369 -0.18795848
000250 2b d2 c5 3c d3 a4 67 33 6c fb 8b bc 3c e7 8f be
       0.024148067 5.3933785e-08 -0.01708766 -0.28106105
000260 5f fa 7f be 3b c0 46 bd c1 7b a5 3d 54 a2 c9 be
       -0.24997853 -0.04852317 0.08080245 -0.3938166
000270 12 4c 36 3e ac 64 e1 33 48 8e 80 26 4c ce ed bd
       0.17802456 1.0495691e-07 8.92035e-16 -0.11611614
000280 d4 89 a1 bd 26 fd 4f 3c 32 0b 8e bd 21 72 62 3d
       -0.07887617 0.012694633 -0.06935729 0.055284623
000290 de 63 07 00 b1 a0 73 bd 53 ef ab bd e7 39 8c 3d
       6.78674e-40 -0.05947942 -0.08395257 0.068469815
0002a0 e7 1d 34 bc a9 3f 06 00 29 2b 49 3d ad 22 7b be
       -0.010993457 5.7385e-40 0.049113426 -0.24524947
0002b0 94 28 49 be 7f 11 f5 bc c7 ea f7 3c ab 06 5d 3d
       -0.19644386 -0.02991557 0.030263318 0.053961437
0002c0 d0 0e a4 be 71 23 78 bd 0d 10 58 37 ed 12 a9 37
       -0.3204255 -0.060580675 1.287834e-05 2.0155183e-05
0002d0 89 e1 26 be 87 7c fb 3c 74 81 04 be 35 bf fa bc
       -0.16296972 0.030699028 -0.12940007 -0.030608753
0002e0 0f 23 6d 3d 00 89 96 be 92 eb 87 3e 5d 72 c4 3c
       0.057894763 -0.29401398 0.26546913 0.023980314
0002f0 bd 67 c7 bd d7 24 05 bd db 46 a4 be 92 3f 83 3e
       -0.097365834 -0.032505836 -0.32085308 0.25634438
000300 38 2b c2 bd 93 32 38 3e c8 6b dd bc 50 ae dc bc
       -0.094808996 0.17988043 -0.027028933 -0.026938587
000310 9b 14 84 3e 79 7d 9e bd 4b 6a a6 bd ef ba fd a9
       0.2579697 -0.07738776 -0.081257425 -1.1267885e-13
000320 31 50 34 be 99 43 5c 3e de dd 2f bd 24 13 81 3d
       -0.17608716 0.21510161 -0.0429362 0.06302479
000330 c4 7c 73 be 53 87 1e bd 3a 85 4f ba 9b ca 6d 3e
       -0.23778063 -0.038703274 -0.00079162756 0.23221819
000340 a0 2c b4 bd 4d 36 89 3c 77 43 ab 3d be fa 2e be
       -0.08797574 0.016749525 0.08362477 -0.17087838
000350 88 03 03 be 49 4e ba bd ba 55 b0 be 47 cc 54 be
       -0.12794316 -0.09096963 -0.34440404 -0.2078105
000360 de 0a 04 be 33 43 95 bd 80 7a b6 3d db db 84 3e
       -0.1289477 -0.07288208 0.08910084 0.25948986
000370 8d d3 22 bd 62 5b 68 3e 9b 81 b9 3c 96 30 2d 3e
       -0.03975253 0.2269111 0.022644809 0.16913065
000380 e5 5b 15 be 44 45 cf bd 1a fa fc bd c2 6f fd be
       -0.14585836 -0.10120633 -0.123523906 -0.49499327
000390 c7 32 b1 bd ca f1 22 be 33 f0 af bd c4 ca 51 3d
       -0.08652263 -0.15912548 -0.08590736 0.051218763
0003a0 b9 37 6f be 44 57 19 be 74 d4 ae be b8 c4 93 3d
       -0.233611 -0.14974695 -0.34146464 0.072152555
0003b0 33 6d 3e bd 51 9b cd 3c 75 a8 82 bd a9 f5 45 3e
       -0.04649086 0.025098475 -0.06379787 0.19331993
0003c0 61 c1 f6 3d 40 03 d1 bd 9f b4 0f 3e a4 b4 2f 3e
       0.12048603 -0.10205698 0.14033745 0.17158753
0003d0 91 d5 8b 3d 32 47 72 be a4 d1 8b 3d b4 3f 2f be
       0.06827844 -0.23659971 0.06827095 -0.17114145
0003e0 a8 74 34 be a2 a4 93 34 6a 3e ac bd 54 fe b1 3d
       -0.17622626 2.750067e-07 -0.08410342 0.08691087
0003f0 2d d4 03 be 94 b3 70 bd bd 60 51 be d2 fc 67 3e
       -0.12873907 -0.05876501 -0.20447059 0.22655037

encoder.4.bias f4 [50]
000000 6f 67 35 be cb e9 8a bd 86 29 b7 38 32 de ab bd
       -0.17715238 -0.06782874 8.733854e-05 -0.0839199
000010 ce 27 ad bd f3 5b 23 3e 60 21 10 3b 67 5b 21 3d
       -0.08454858 0.15953045 0.002199255 0.03939381
000020 ac 5d 52 3d ff a6 fe bd f7 45 ca 3b b6 f6 c4 3b
       0.051358864 -0.12434196 0.0061728912 0.0060108555
000030 ed 88 95 bd a9 c6 77 3d 1b 82 49 3c d4 bd be 3c
       -0.07301507 0.06049219 0.012299086 0.023283876
000040 3e d5 ad 3d 75 18 c1 bd 95 82 b1 bc dd 91 e6 3d
       0.08487938 -0.09428493 -0.021668712 0.1125829
000050 6a 7a ce bd 1b 7f 17 3e 27 21 23 be 9c 0e 8f 3e
       -0.100819424 0.1479458 -0.15930615 0.27940834
000060 6f 95 91 be 35 65 1b 3d 47 0a 0e bd ca ad c5 bd
       -0.2843432 0.037938315 -0.03467777 -0.09652288
000070 ac 6b 87 bd bb 7a 64 bd fd d8 ae bd 2e f0 08 3e
       -0.06612334 -0.055781107 -0.08537481 0.13372871
000080 78 22 bc bd a1 e5 93 3d b4 a8 91 bd 10 29 06 3d
       -0.09186262 0.072215326 -0.07112256 0.032754004
000090 d1 a7 76 3c 83 42 30 bd 18 51 b0 bd d8 e7 bc 3d
       0.015054659 -0.04303218 -0.086092174 0.09223908
0000a0 91 4f 01 3e bf 19 52 3e 26 ce 19 be 82 cb 9c bd
       0.12628008 0.20517634 -0.15020046 -0.076560035
0000b0 a9 c9 55 3e b6 bb 0d 3e ba 67 05 3e 26 13 85 bd
       0.20877708 0.13841137 0.1302785 -0.06497793
0000c0 c7 a0 f8 3d 65 4a 29 3d
       0.12140041 0.041330714

decoder.0.weight f4 [100, 50]
000000 97 0a 2e 3e 2a 99 0f be a9 1b 1b 3f 3a e3 1d bd
       0.16996227 -0.14023271 0.6058908 -0.03854678
000010 ee 93 cc be 6e 90 6d bd 9c a0 a9 bd a0 d3 ef bd
       -0.3995661 -0.057999067 -0.08282587 -0.11710286
000020 bb 89 c1 bc c9 26 b6 3b 7a 79 65 be e1 6e 20 3d
       -0.023625245 0.005558823 -0.22409621 0.039168242
000030 80 4e 04 bf ff b9 6c be ee b0 3e be d0 b1 b4 bd
       -0.5168228 -0.23117827 -0.18622181 -0.088229775
000040 e0 25 a7 3e 3f bf 87 3e bb cb 4e 3d 86 34 c4 be
       0.32646084 0.26513097 0.05048726 -0.38321322
000050 b0 21 b9 3b 55 79 a9 3e 9b a6 0b be 90 18 c4 bd
       0.005649768 0.33100381 -0.13637774 -0.095749974
000060 39 cc ac 3e d9 5a 95 3e 38 4d e4 3d 06 5e 91 3e
       0.3374956 0.29170874 0.11147541 0.28392047
000070 b3 72 71 be 41 b7 66 3e 9d ae 2d be 65 b2 11 bd
       -0.2357891 0.22530843 -0.16961141 -0.03557052
000080 f5 2d 02 be 43 6c 76 bd 85 41 d7 be 74 a6 d3 bc
       -0.12712844 -0.06016184 -0.42042175 -0.025836207
000090 9c 64 5d bd f7 bf ce 3e c4 39 ce 3e 29 61 6f 3e
       -0.054051027 0.40380833 0.40278447 0.23376907
0000a0 3a dd 35 be fe 22 40 be 50 07 bc 3e 62 33 db be
       -0.17760172 -0.18763348 0.3672433 -0.4281264
0000b0 62 7c 0e be 8c 1f b3 3c 7c db 53 be 2e 77 6a 3e
       -0.13914636 0.021865629 -0.20689195 0.22897026
0000c0 84 15 9b 3d 9b 47 04 be ce d6 0b 3d ec 65 c2 be
       0.07572463 -0.1291794 0.0341404 -0.37968385
0000d0 a3 b5 33 3f 00 ba 9e 3e 59 11 dd 3c 19 28 44 3e
       0.7019903 0.31001282 0.026985811 0.19155921
0000e0 16 23 aa be b1 a0 25 be 75 28 9e bd 7d e2 ae 3e
       -0.33229893 -0.1617458 -0.0772256 0.34157172
0000f0 c0 ac 90 bd d1 87 e8 bd 77 4f bf 3e 21 bd 9b 3e
       -0.070641994 -0.1135403 0.37365314 0.3041773
000100 13 a5 0b bf 56 0b f4 bc c0 b9 b5 bc da 08 25 bf
       -0.5454876 -0.029790562 -0.022183299 -0.6446663
000110 26 f2 2c 3e 22 72 03 3e 30 3e 6b be d2 65 27 bf
       0.16889247 0.12836507 -0.22972941 -0.6538974
000120 fe a9 e7 bd 16 50 24 3e 49 97 b4 3e 31 30 5f bd
       -0.1131172 0.16046175 0.3527167 -0.05448932
000130 3d eb 1e bd 98 d6 7c 3e 13 5e 83 3d d9 19 38 be
       -0.03879856 0.24691236 0.064144276 -0.1797861
000140 ad 1d 79 3c 00 0a f2 3d d6 35 f1 3d b6 c3 f8 3d
       0.015204829 0.118183136 0.117778465 0.12146704
000150 f2 d5 58 be 77 d3 26 bc 1f da 8c be cf de 13 3e
       -0.21175364 -0.010182253 -0.27510163 0.14440463
000160 4b d2 fa bd 3e c7 18 be 0a ed 16 be 69 11 32 be
       -0.122471415 -0.14919755 -0.1473886 -0.17389454
000170 27 ec 03 3c bb 16 a0 bd 84 c0 3b be 67 0a 25 3e
       0.008051909 -0.078168355 -0.18335158 0.1611725
000180 98 dc af be a4 c0 91 be 8d 5a f3 bd 45 9e 61 be
       -0.34347987 -0.28467286 -0.118825056 -0.22033031
000190 46 60 02 be 7d 57 a7 bd 02 e5 f8 bc 9d 43 2a be
       -0.12732038 -0.08170984 -0.030382637 -0.16627355
0001a0 95 2e 60 be bf 24 61 bd 40 7e d0 bd bd fe 31 bd
       -0.2189277 -0.054966684 -0.1018033 -0.043455828
0001b0 e6 eb 4c be ef 44 74 3a 89 69 07 be 8f b7 d9 3d
       -0.20011863 0.0009318133 -0.13223852 0.10630714
0001c0 21 ff 84 3c c4 c6 c7 3e b9 cf 9a 3c bd 9e 25 3b
       0.016234936 0.39018834 0.018897878 0.0025271617
0001d0 43 67 14 3f 91 db 5d 3e 60 61 17 be 23 f0 33 be
       0.57970065 0.21665789 -0.1478324 -0.17572074
0001e0 12 75 76 3e b9 44 b9 be f2 5e e4 3e b8 3b a7 be
       0.24068096 -0.36185244 0.44603688 -0.3266275
0001f0 b6 e2 70 3e 40 2c 0f bd 62 c4 d0 bb d3 c2 11 3e
       0.23523983 -0.03495431 -0.006371067 0.14234476
000200 79 80 20 be 9f 39 81 3e dc 85 c3 3d a2 f7 02 be
       -0.15674008 0.25239274 0.09547016 -0.12789777
000210 3e a2 c7 be 84 0b 26 3e 10 75 06 3e f9 fa 16 bd
       -0.38990968 0.1621533 0.13130593 -0.03686044
000220 05 08 1c be ee bf 62 3d 10 c2 c7 be 19 ce 70 3d
       -0.15237434 0.05535882 -0.39015245 0.0587903
000230 fb 2b 64 be 91 9c ce bc 83 43 60 be c2 70 6f be
       -0.22282402 -0.025221141 -0.21900754 -0.23382857
000240 d0 aa 74 be 32 8f 75 3d 2d bf b5 3e 4f d6 17 3e
       -0.23893285 0.059951015 0.35497418 0.14827846
000250 5b 8a 18 bd dc 74 9f 3d 8f b8 d1 bd 67 74 be bc
       -0.03724132 0.07785961 -0.1024028 -0.023248864
000260 71 59 35 3e 2d 9b ca bd 7b 59 ae be 70 41 60 3e
       0.177099 -0.09892879 -0.34052643 0.21899962
000270 2a 67 eb be 82 97 23 be 8d e4 ff bc 76 12 c6 bd
       -0.45977145 -0.15975764 -0.031236911 -0.0967149
000280 8e 57 25 be 18 cb a5 3d 25 2c 49 3e b5 2e b4 3e
       -0.1614668 0.08095378 0.19645746 0.35191885
000290 68 c3 f7 bd d5 b6 26 3d 05 dd 50 bd 3a 44 91 be
       -0.12097818 0.040701706 -0.05099203 -0.28372365
0002a0 98 1d 2e bd c3 f9 7a 3e d4 7b fe be e0 c3 0d bd
       -0.04250869 0.24509339 -0.49703848 -0.03461063
0002b0 45 e0 76 3d e2 e2 b9 be b4 90 45 3e 29 c7 25 be
       0.060272474 -0.3630591 0.19293481 -0.16189255
0002c0 fb 7a cb 3e 3a 3c 79 3d fd 24 49 be ce 81 a4 3e
       0.39742264 0.060848452 -0.19643016 0.32130283
0002d0 8a 1f ed bd 71 d9 77 be b4 85 e9 bc d4 a1 0d 3e
       -0.11578281 -0.24204041 -0.028506137 0.13831264
0002e0 fd 39 6d 3c 03 45 e0 3d 6a 69 87 be eb 68 21 3e
       0.0144791575 0.10950663 -0.26447612 0.1576268
0002f0 a9 ce 86 bc 4b ab 6d be 00 1e b3 3c dc 06 47 be
       -0.016455965 -0.23209874 0.021864891 -0.1943621
000300 d2 59 c5 be 8c 30 59 be e9 d2 b7 3d 0a 3a e3 bc
       -0.3854509 -0.21209925 0.08975775 -0.027737636
000310 3e b2 69 3c 82 61 17 be 5c ff c0 3e e8 0b 84 3e
       0.014263688 -0.1478329 0.37694824 0.25790334
000320 ee 69 b0 be 68 87 c4 be 6c 4b 83 bd 6e e1 32 bd
       -0.34455818 -0.38384557 -0.0641087 -0.043672018
000330 53 ea f4 3d 67 bd e3 3d a8 19 b1 bc 82 aa 27 be
       0.11958756 0.1112011 -0.02161868 -0.16373637
000340 5a 9a bc bd fd 16 6a 3e 9c 9f 49 be 8b 72 e3 3c
       -0.09209128 0.22860332 -0.19689792 0.02776458
000350 4e 65 c1 3e 59 30 81 3e df b8 28 bd f4 8f 83 3e
       0.37772602 0.252322 -0.04119193 0.25695765
000360 36 85 4d 3d f8 b2 7a 3c eb 6e 23 be 59 2a 43 3e
       0.050175868 0.015301459 -0.1596028 0.19059123
000370 14 23 51 bd 1c 7e 8d be 4e 33 cb be 99 33 6d be
       -0.051058844 -0.27635276 -0.3968758 -0.23164214
000380 34 a5 36 be 89 a1 63 be 3c c9 bd 3d 08 f0 45 3c
       -0.17836457 -0.2222959 0.09266898 0.012081154
000390 66 96 5a be 55 00 21 3e e2 50 cd 3e 89 41 b2 bd
       -0.21346435 0.15722783 0.4010077 -0.08703906
0003a0 1a 7f 3e bb 44 22 81 3e 06 8b 0d be 45 c9 b2 bd
       -0.0029067458 0.25221455 -0.13822564 -0.08729795
0003b0 66 8b 16 3e 61 b6 43 3e a3 d8 06 3f ff 7c da bb
       0.14701614 0.19112541 0.5267431 -0.0066677327
0003c0 1d 9a 1f be e3 46 35 3e d5 82 02 bf 3e a9 59 3c
       -0.15586133 0.17702822 -0.50980884 0.013284979
0003d0 89 c1 2d be 72 1b a9 3d 9c 5c 7d 3e 96 0b 10 3f
       -0.16968359 0.08257188 0.24742359 0.5626768
0003e0 e6 2e b8 be 9c ae 83 3e 2e 24 02 bf 74 ee 71 3f
       -0.3597328 0.25719154 -0.50836456 0.94504476
0003f0 9d 9c 98 3f 9a af a3 3e ae 51 46 be 04 30 ac be
       1.1922795 0.3196991 -0.19367096 -0.33630383

decoder.0.bias f4 [100]
000000 46 26 a7 be ac 39 b0 bd f0 f8 1b be da f6 54 3e
       -0.32646388 -0.0860475 -0.15231681 0.20797291
000010 a9 ba 1a be 47 eb 39 3e d0 2c 00 3e 25 ac 2e 3e
       -0.15110268 0.18156157 0.12517095 0.17057855
000020 ec ac fb 3e 2e 9a aa 3e 1b 5d 5b 3e 3b 0c 0e bd
       0.49155366 0.33320755 0.21422236 -0.034679633
000030 35 a3 09 be d0 bc 6a bc 12 26 00 90 38 96 9d be
       -0.13441165 -0.014327243 -2.5272877e-29 -0.3077867
000040 38 dd 14 bf 74 c1 47 8d 67 74 9f bd 8a 86 c7 be
       -0.58150053 -6.155447e-31 -0.07785874 -0.38969833
000050 78 2c 71 3c da f2 4c 3d cf 06 59 3e ab bd 1e 3f
       0.014720075 0.05003629 0.21194004 0.6200816
000060 16 be b1 bd ff e6 80 3e f9 92 8a be 2b a3 5c 3e
       -0.08678834 0.25176236 -0.27065256 0.21546619
000070 ec e2 98 be 2f 2a 50 bf 35 6a 13 bf f8 0a 92 be
       -0.29860628 -0.8131437 -0.57583934 -0.28523993
000080 c0 40 0a b9 58 d8 2e 3c 3f 24 10 be 23 1f 11 bd
       -0.00013184827 0.010671698 -0.14076327 -0.035430085
000090 7b bc c0 3c cd ba 00 00 1b 12 8c bd 74 ce 03 00
       0.023527374 6.7011e-41 -0.06839391 3.49568e-40
0000a0 84 d4 cf 3e a4 1e f3 3e eb 28 2a 3e 07 13 dd 3e
       0.40591824 0.47484314 0.16617171 0.4317858
0000b0 48 73 96 3c 69 90 f3 3e d3 51 45 3e 8c 60 a9 3e
       0.018365517 0.47571114 0.19269495 0.33081472
0000c0 13 06 3b be 75 22 e2 3c 2a 2e 56 3e a1 04 05 3e
       -0.18264036 0.027604321 0.20916048 0.12990047
0000d0 f4 6b 1b be 32 20 d9 3c b2 96 41 3d b1 99 83 3e
       -0.151779 0.02650461 0.047262855 0.25703195
0000e0 5f c4 bc be d6 2c f1 3d 63 2f e2 3e 48 cd ce 3e
       -0.3686857 0.1177613 0.44176778 0.40390992
0000f0 48 53 91 be f7 dc 5d 3e cf 6e 03 bf c1 77 28 3e
       -0.2838385 0.21666323 -0.51340955 0.16451932
000100 56 0c b1 3e 42 a3 ee 3e c9 63 ae 39 78 d8 d9 be
       0.34579724 0.4660893 0.00033262212 -0.42547965
000110 9b f0 f9 3e 0f ea 8b 3c 6b 72 8a be 86 6e f7 3c
       0.4881638 0.017079381 -0.2704042 0.030204069
000120 f8 db 21 bf d6 87 03 3e 46 a1 01 3f 24 36 b5 3e
       -0.6322627 0.12844786 0.5063671 0.3539287
000130 67 7c 6e 3e cb 91 12 be 8b 29 57 3e d6 c1 6a be
       0.23289643 -0.14313428 0.21011941 -0.22925505
000140 48 d4 81 bd f4 af 9b 3e 30 1e 57 be 53 fa 98 be
       -0.063393176 0.3040768 -0.2100761 -0.29878482
000150 f6 15 90 3e 27 04 04 3d 76 85 19 3f 49 70 d0 bd
       0.28141755 0.032230522 0.5996927 -0.10177667
000160 07 bd 6d 3e 43 bb 8c 3e ea 71 1b 3c 10 97 0e 3f
       0.2321664 0.2748662 0.009487608 0.55699253
000170 36 44 8f 3e ef e4 e8 3d 81 bf 35 be c4 1c 91 3e
       0.27981728 0.113717906 -0.17748834 0.2834226
000180 47 9d ad be d1 59 87 3d d6 29 ce be fa fb 0d bf
       -0.33909056 0.06608928 -0.40266293 -0.5546261

decoder.2.weight f4 [300, 100]
000000 39 80 e4 3d 5f b7 44 bc cb 9f 8e bd 72 47 79 bc
       0.11157269 -0.01200661 -0.06964072 -0.015214788
000010 83 06 66 be 95 70 72 3d 3e a9 69 bd 50 c3 90 be
       -0.22463422 0.059189398 -0.057046168 -0.28274012
000020 d4 61 0d be 1c 5a b9 3d 38 24 4d be 7e c5 02 3e
       -0.1380685 0.0905039 -0.20033348 0.1277065
000030 08 09 1f 3d a3 1f 9b 3c 25 d6 0c 0f 14 8c 2e 3e
       0.038826972 0.018935984 6.943776e-30 0.17045623
000040 16 34 b4 3d 49 a9 b8 17 1d a1 38 bd 48 3a 8c 3d
       0.08798997 1.1933455e-24 -0.045075525 0.06847054
000050 6d fe 0f be b3 bf ce 3d 5c 43 bb 3b 3e 5c 27 3d
       -0.140619 0.100951575 0.005714817 0.040859453
000060 6a 11 8c 3d 69 11 70 be 35 0b c1 3d d3 16 5c bd
       0.06839259 -0.23444141 0.09425966 -0.053732704
000070 d9 bf c9 3c bd df 34 3e 96 26 0e 3d 29 99 79 bd
       0.024627613 0.17663474 0.034704767 -0.06093708
000080 58 a8 42 23 a3 1a 0a 3d e7 cc 04 3e 0b a7 c7 3d
       1.0552409e-17 0.03371681 0.12968789 0.09748658
000090 76 c0 51 3d f3 d9 3a 92 25 21 a2 bc 81 11 01 80
       0.051208936 -5.8959895e-28 -0.019791195 -9.8115e-41
0000a0 6e 51 cd bd 67 83 75 3d 0d f8 ac bd 72 df fe bb
       -0.10025297 0.05993977 -0.084457494 -0.0077781016
0000b0 0b 77 02 3e 81 41 cb bd e2 bb e0 3c d8 02 6c bd
       0.12740724 -0.09924603 0.02743334 -0.0576199
0000c0 a6 55 a0 3d e3 e4 d8 3d fb 16 eb 3d 59 85 f2 bc
       0.07828836 0.10590532 0.114789926 -0.0296046
0000d0 41 3b 9e bc 9a 81 24 3c 93 25 16 3d 3a ec dc 3d
       -0.019315364 0.010040665 0.036656927 0.10787244
0000e0 8d d1 74 3e fb df 96 3d 57 0c d6 bd ff fe 00 be
       0.23908062 0.0736694 -0.104515724 -0.12597273
0000f0 57 7b 36 3d 5e f6 1b bd cc 21 a6 bd 7b ae 3a 3b
       0.04455122 -0.03807675 -0.08111915 0.0028485346
000100 53 44 f1 3d 85 de cc bd 51 47 1c be cc c9 6f 3d
       0.1178061 -0.1000338 -0.1526158 0.058542058
000110 1c 95 9d bd b7 1d 0e 3e 9e e1 ac 3c f3 3b 33 3d
       -0.07694456 0.13878523 0.021103676 0.043758344
000120 00 68 1a 3e e0 f9 0a bd 73 ff 75 bd e9 a9 52 bc
       0.15078735 -0.033929706 -0.06005807 -0.012857893
000130 1f 57 f6 bd 7e bd 9f 3d 57 b4 1a 3e d1 15 32 bd
       -0.12028336 0.07799815 0.15107857 -0.043477837
000140 5a 16 d5 bd aa e6 8b 3d 67 86 cd bd 23 69 f5 3d
       -0.10404654 0.06831105 -0.10035401 0.11982944
000150 7a e9 02 3e c6 32 f0 3b 71 24 45 bd b9 1b 00 be
       0.12784377 0.0073302714 -0.048130456 -0.12510575
000160 b3 b4 1f 3e c9 14 ce 3c 0c 98 c5 bd 26 36 c8 bd
       0.15596275 0.025156396 -0.09648141 -0.09775953
000170 09 10 74 bc 39 83 3a 3d b2 c4 a2 3d 33 b1 b5 3c
       -0.014896401 0.0455353 0.07947673 0.022179222
000180 23 a6 a5 bd 0c 59 22 3e 21 ef 0c 3e 77 c3 07 bd
       -0.08088329 0.15854281 0.13763095 -0.033145394
000190 f7 0d cf bc 27 23 42 3e 0d 5c 47 bd a3 aa 60 3c
       -0.025275214 0.18958722 -0.04867177 0.013712558
0001a0 95 8a 96 bd 44 0c b1 bb e9 63 e3 bd 60 d0 27 be
       -0.07350651 -0.0054030735 -0.11103041 -0.16388083
0001b0 09 36 85 bd 0c 4b 16 be 8c 01 95 3d 99 8b 46 3d
       -0.06504447 -0.14677066 0.07275686 0.048472974
0001c0 a0 d3 34 3e 84 f6 66 bd a7 b0 1a 0e ab 45 0e 3e
       0.17658854 -0.05638744 1.906702e-30 0.13893764
0001d0 e8 ba 88 3d ec fc 08 00 07 75 9a bd 7e e9 5b 3d
       0.066762745 8.25415e-40 -0.075418524 0.053689472
0001e0 43 86 1f be cb 77 27 bd 7c 5d f9 3c aa 81 e4 3c
       -0.1557856 -0.040885728 0.030440085 0.02789386
0001f0 8f 73 5d be 29 76 6f be 45 a0 69 bd ee 26 c4 3d
       -0.21626113 -0.23384918 -0.05703761 0.09577738
000200 69 cd bc 3c 58 a3 12 bd c9 e9 3d 3e 08 6a 0a 3d
       0.023047166 -0.035800308 0.18546213 0.033792526
000210 d3 b4 7d b4 cb 66 c5 3d 1e 79 f7 3c 33 93 69 3b
       -2.3628245e-07 0.09638747 0.03020912 0.0035640716
000220 0a 37 f4 3d f8 00 02 80 5f 32 92 3d 91 f2 01 80
       0.1192456 -1.84019e-40 0.07138514 -1.78852e-40
000230 e5 80 b6 3d a6 75 00 be 43 a7 83 3d ee 3c 00 be
       0.089113034 -0.1254488 0.06428387 -0.12523243
000240 67 07 a5 3d e7 64 0a 3e 2b bf 90 bd 74 13 b7 bb
       0.080580525 0.13515054 -0.070677124 -0.005587036
000250 c0 ff c0 bd 2d 59 76 3d 5c cb 1a 3d 5e 34 89 3d
       -0.094237804 0.06014364 0.037791595 0.066994414
000260 5b 4d 2d bd 5a 1a 52 be 4e da 12 3d 23 c7 a0 3b
       -0.0423101 -0.20517865 0.035852723 0.0049065514
000270 6e eb 59 bd e6 ec ba ba 5f d2 f2 3d 2e ce db 3c
       -0.05320304 -0.0014261275 0.11856531 0.026831713
000280 2f 7e 18 3c 9f 43 b9 bc d9 98 ea 3d fe 93 d2 bd
       0.009307428 -0.022615252 0.114549346 -0.102821335
000290 ab d3 26 3e 2a 84 d8 3d 5c 27 87 3c 25 78 13 bb
       0.16291682 0.10572083 0.01649826 -0.0022502032
0002a0 a1 82 cf bd 31 ac 4f bc 96 d6 51 3d 2e d4 6c 3d
       -0.10132337 -0.012675331 0.051230036 0.057819538
0002b0 d8 e2 b8 bc c2 aa b3 3d 72 e2 2d 3d f9 e5 5a 3d
       -0.022569105 0.08772804 0.042452283 0.053441975
0002c0 8c dd ea bc 70 81 5e 3c 90 a6 39 bd e9 f6 13 3e
       -0.028670095 0.013580665 -0.045324862 0.14449657
0002d0 64 b0 b9 bd b0 c9 3e bc 62 20 28 3d 6a a5 83 ba
       -0.09066847 -0.011644766 0.041046508 -0.0010043804
0002e0 f0 a0 11 bd 98 2c 41 bd 27 1a 91 bd 1b 0b 49 bc
       -0.035553873 -0.04716167 -0.07085066 -0.012270714
0002f0 cd c6 15 be 6d d0 18 3e 2a 84 bc 3c fb b2 a1 ba
       -0.14626618 0.14923258 0.02301224 -0.0012336666
000300 d8 55 3d 3d d0 83 02 bd e1 58 0d 3a 63 7c 03 3e
       0.046224445 -0.031863987 0.0005391967 0.12840419
000310 10 2e 7f 3d 93 b5 b6 3d b9 32 c2 bc 8c 3c 70 bd
       0.062299788 0.08921351 -0.023705827 -0.058651492
000320 36 e1 4f bb 17 3a 20 3e 60 89 b9 3d 91 3d a8 3d
       -0.003171993 0.1564716 0.09059405 0.08214868
000330 dd 4e b0 3d c9 af 25 3e d8 16 34 be 17 17 c8 3d
       0.08608792 0.16180338 -0.17586839 0.09770029
000340 5f 22 c1 bc 04 37 41 3e 97 1d 78 3d 8d ea 6a bd
       -0.02357596 0.18868643 0.060575094 -0.05735259
000350 ac 39 a7 3c 65 48 93 bd 69 8c 1f 11 f2 38 f0 3c
       0.020413242 -0.071915425 1.2586156e-28 0.029324029
000360 33 2a 78 be 76 9f 44 97 bf 79 dd 3a 2d c0 e3 3c
       -0.24234848 -6.3532284e-25 0.0016897245 0.027801597
000370 f4 87 30 be 3c 57 39 bd 3a 61 da 3d 69 00 df 3d
       -0.17239362 -0.04524921 0.10663076 0.1088875
000380 cd 58 8b 3d 68 73 47 bd 95 d7 8f bd 72 4e 07 3e
       0.06804047 -0.048694044 -0.07023541 0.13213518
000390 dd b6 ea bc 5a cc a9 3d c7 60 e3 3d d8 1e 9b 3d
       -0.02865165 0.0829093 0.11102443 0.07574242
0003a0 2d af c5 b0 35 5f 22 be c9 4d cc 3a 32 aa 05 3e
       -1.4383424e-09 -0.15856631 0.0015587147 0.13053206
0003b0 2b 98 9d 3b 1f b3 02 80 d4 2f b2 3c 3e 63 01 00
       0.0048093996 -2.47928e-40 0.021751322 1.27437e-40
0003c0 5a f0 2c 38 cf 76 08 be aa 0f 56 be 8c 67 bd bd
       4.123184e-05 -0.13326572 -0.20904413 -0.092482656
0003d0 8b 73 f9 bb a9 1f ac bd 86 43 13 be 7f d0 5c bd
       -0.0076126507 -0.08404476 -0.14381227 -0.053909775
0003e0 38 e7 00 3e b7 64 b4 bd 7c 63 51 3e 8a 92 7b 3c
       0.12588203 -0.08808272 0.20448107 0.015354762
0003f0 bc b1 bf 3d 9f 12 4a 3e e2 c1 61 bd 3f 0f 12 3d
       0.09360072 0.19733666 -0.05511654 0.03565907
