algorithms/SemiAutoEncoder/SemiAutoEncoderResults/Semi_AutoEncoder_200-50_all_IO_noleave_N_ratio_2.pt (torch_old, 447206 bytes, 8 tensors)

encoder.0.weight f4 [200, 226]
0	0x3d4be795	0.0497814
1	0xbd9b5a04	-0.075855285
2	0xbcf5a245	-0.029984603
3	0x3ccd89bd	0.025090093
4	0xbe438636	-0.19094166
5	0x3dbffbaf	0.09374177
6	0x3d2481d9	0.040162895
7	0xbc1e8501	-0.009675265
8	0xbe34c2df	-0.17652462
9	0x3da26b31	0.079306014
10	0x3b3b8196	0.0028611175
11	0xbe3eec12	-0.18644741
12	0x3d0d28f3	0.03446288
13	0x3e39e49a	0.18153611
14	0x3dc009a2	0.09376837
15	0xbdf72dd1	-0.12069286
16	0xbdf7ae6c	-0.12093815
17	0x3e77df89	0.24206366
18	0xbdd80418	-0.10547656
19	0x3b11df31	0.0022258277
20	0x3d550c00	0.052013397
21	0x3d8cda95	0.06877629
22	0x3df7acce	0.12093507
23	0x800a09ed	-9.21916e-40
24	0xbe263135	-0.16229708
25	0x3d772e60	0.06034696
26	0xbe418191	-0.18897082
27	0x3d7b838b	0.061404746
28	0xbb9d7685	-0.0048053884
29	0x3d2225b7	0.03958675
30	0xbd10e277	-0.035372224
31	0x3d9d8273	0.07690897
32	0xbe907bb3	-0.28219375
33	0xbe1845d7	-0.14870392
34	0x3c77f182	0.015133264
35	0x3d4298ae	0.047508888
36	0xbc9605e1	-0.01831335
37	0x3d31e47a	0.043430783
38	0x3d821c76	0.06353085
39	0x3de72107	0.11285596
40	0xbcc56dbf	-0.024100183
41	0x3db0a95a	0.08626051
42	0xbd863b84	-0.065543205
43	0x3d37fdeb	0.04491989
44	0x3ec3e3d8	0.38259768
45	0x3d9168a0	0.07100034
46	0x3e0d17a5	0.13778551
47	0xbd81914f	-0.063265435
48	0xbd31b338	-0.043383807
49	0xbcfb25fc	-0.03065776
50	0xbd1ed18a	-0.03877405
51	0x3f263d1c	0.64936996
52	0x3d59ff26	0.053221844
53	0xbd57cb5a	-0.052684166
54	0x3d40af27	0.04704204
55	0x3e265d06	0.16246423
56	0x3d3eb129	0.04655567
57	0xbe0f3957	-0.13986717
58	0x3d8a2abf	0.067464344
59	0xbe22de4f	-0.15905116
60	0x3d650001	0.055908207
61	0xbd7e34ae	-0.062061958
62	0x3e3ead83	0.18620877
63	0x3e52439a	0.205336
64	0xbe8b4826	-0.27203482
65	0x3ddb2a91	0.10701478
66	0x3d4aa308	0.049471885
67	0x3d9cc5a8	0.076548874
68	0x3c524a11	0.012835042
69	0x3dbea7ff	0.093093865
70	0x3c9db777	0.019252522
71	0xbd0cb891	-0.034355704
72	0x3e2f717b	0.17133133
73	0x3df0dcbf	0.11760854
74	0x3ddccb0d	0.10780916
75	0xbd59d244	-0.05317904
76	0xbd316668	-0.043310553
77	0xbd254372	-0.040347524
78	0x3e11dfda	0.14245549
79	0x3d74c972	0.059762426
80	0x3cc149d6	0.023594778
81	0x3dc2e74c	0.09516773
82	0x3d516c4d	0.051128674
83	0x3d7d0e05	0.06178095
84	0x3c5e9eb0	0.013587639
85	0x3cb9b8f1	0.022671195
86	0xbd4d6f4f	-0.05015498
87	0x3d75a26e	0.05996936
88	0xbb3f508d	-0.00291923
89	0xbe891b53	-0.2677866
90	0x3d41ee1c	0.04734622
91	0xbe838646	-0.2568838
92	0x3dcd19ce	0.100146875
93	0x3d6467dc	0.05576311
94	0x3c0bfa79	0.008543604
95	0x3c00075f	0.007814257
96	0x3c8b1bbf	0.016981004
97	0xbdad465d	-0.08460686
98	0x3e30b8ee	0.17258045
99	0x3d11fa72	0.035639234
100	0x3d68a6bb	0.05679963
101	0xbd6e3cc0	-0.058163404
102	0x3dc7fe6b	0.09765323
103	0x3dae016d	0.08496366
104	0x3d824bc8	0.063621104
105	0x3b4b94bf	0.0031064001
106	0xbe77c432	-0.24195936
107	0x80016ad3	-1.30157e-40
108	0x3d2b7442	0.04185892
109	0x3db91452	0.09037079
110	0x3debf18d	0.115206815
111	0x3f142300	0.57865906
112	0xbd1e43fb	-0.03863905
113	0x3dc4d0b5	0.0961012
114	0x3db4d1c4	0.08829072
115	0x3ea7c6ae	0.32768768
116	0x3e710a74	0.23539144
117	0x3c23cc6b	0.0099974675
118	0xbc6fd291	-0.014637605
119	0x3cec659c	0.028857045
120	0x3dfa0810	0.12208569
121	0x3d57aff0	0.05265802
122	0x3e303f45	0.17211635
123	0x3e54aa1e	0.2076802
124	0x3d628357	0.055301037
125	0x3ebfecf4	0.37485468
126	0xbe0492c0	-0.12946606
127	0x3d944dca	0.072413996
128	0x3cc4a0a2	0.024002377
129	0xbdaf556d	-0.085612155
130	0xbdad0738	-0.084486425
131	0x3dd4c582	0.10389234
132	0xbe18871d	-0.14895292
133	0x3ba9ff0a	0.0051878737
134	0xbd179d55	-0.037015278
135	0xbdcd5e81	-0.10027791
136	0x8007dd5f	-7.22261e-40
137	0x3e5c657c	0.21523088
138	0xbe2d8006	-0.16943368
139	0x3e21bd44	0.15794855
140	0xbd93c50c	-0.07215318
141	0xbd1c28b9	-0.038124774
142	0x3cf06898	0.02934675
143	0x3dcfcf11	0.10146917
144	0x3d1f4001	0.0388794
145	0x3ebd44b6	0.36966485
146	0x3daa6abb	0.083211385
147	0xbb461407	-0.003022434
148	0x3c7c9903	0.01541734
149	0x3dadf2c2	0.08493568
150	0x3cefc828	0.029270247
151	0xbc5862a8	-0.013207115
152	0x3b1ea77d	0.0024208718
153	0x3dba4b96	0.09096448
154	0xbd25eef4	-0.040511087
155	0xbd27d594	-0.04097517
156	0x3d73342e	0.059375934
157	0x3e985efd	0.2975997
158	0x3d8cf696	0.0688297
159	0xbe10beff	-0.14135359
160	0x3d63bcba	0.055599906
161	0xbd1b2fc9	-0.03788737
162	0xbc8dbe49	-0.01730265
163	0x3e06484a	0.13113514
164	0x3e7cca9c	0.24686664
165	0x3c4089db	0.011751617
166	0x3caac206	0.02084447
167	0x3c3cd0cc	0.01152439
168	0x3dbef0dd	0.09323285
169	0x3c741122	0.014896663
170	0xbe8d510c	-0.27600896
171	0x3d880c8b	0.066430174
172	0x3d822878	0.06355375
173	0xbc814945	-0.015782008
174	0x3ce06ca3	0.027395552
175	0xbdb4fc03	-0.0883713
176	0x3d9a47fe	0.07533263
177	0xbc3173b9	-0.010830813
178	0x3e8fba24	0.28071702
179	0xbcc92362	-0.024553005
180	0x3dc1c431	0.09461249
181	0xbe118d47	-0.1421405
182	0x3d3b3741	0.04570699
183	0xbc6e291b	-0.0145361675
184	0x3d63788f	0.055534896
185	0xbd0c532b	-0.034259003
186	0xbce75cba	-0.028242458
187	0xba82cf37	-0.0009979968
188	0x3d9abe11	0.075557835
189	0x3d8803d2	0.06641354
190	0xbde5d188	-0.112216055
191	0xbd9cdf38	-0.07659763
192	0x3b995b9e	0.004680111
193	0xbd4e96b9	-0.05043671
194	0xbdee5b3b	-0.116384946
195	0x3d819827	0.06327849
196	0x3cabb130	0.020958513
197	0xbc214066	-0.009842014
198	0x3ca73738	0.020412073
199	0xbd17d909	-0.037072215
200	0xbd20e530	-0.03928107
201	0xbcd4d473	-0.02598021
202	0xbc9f2ad3	-0.0194296
203	0xbda08e46	-0.078396365
204	0x3d4ae635	0.04953595
205	0xbd38a953	-0.045083355
206	0xbc8562da	-0.016282488
207	0x3e09e044	0.13464457
208	0x3d4b7906	0.049675964
209	0x3d5a678f	0.053321417
210	0xbd8ee891	-0.06977952
211	0xbcf35e23	-0.029707974
212	0xbde109af	-0.10988175
213	0xbdf8e177	-0.12152379
214	0x3dedf552	0.11619057
215	0x3da081f5	0.07837287
216	0xbc10f050	-0.008846357
217	0x3cc415d8	0.023936197
218	0x3d9c4fd8	0.076324165
219	0xbcd44689	-0.02591254
220	0x80094f34	-8.54932e-40
221	0xbcb65d7e	-0.022261377
222	0xbced71c9	-0.028984921
223	0xbd97b818	-0.0740816
224	0xbbd1c762	-0.006401942
225	0xbdc01808	-0.093795836
226	0x3db5747c	0.08860108
227	0x3e157f59	0.1459936
228	0x3e050ca0	0.12993097
229	0x3d5e8d02	0.054333694
230	0xbc2631a7	-0.010143674
231	0x3e250f27	0.16119061
232	0x3daca607	0.08430105
233	0x3da46038	0.08026165
234	0x3c2f705d	0.010707942
235	0x3d86540e	0.06559001
236	0x3d162717	0.036658373
237	0xbd4965e2	-0.04916943
238	0x381039e6	3.4386198e-05
239	0x3c999d6c	0.018751822
240	0xbe565e34	-0.20934373
241	0xbced55c6	-0.028971564
242	0x3ab4da6e	0.0013798007
243	0x3d02f313	0.031970095
244	0xbb7f5966	-0.0038963198
245	0x3d817dd5	0.06322829
246	0x3d9ee454	0.07758394
247	0x3d132b15	0.035929758
248	0xbc9b3b1d	-0.018949086
249	0x000af2fc	1.005521e-39
250	0xbe5f1c81	-0.21788217
251	0x3e05cb76	0.13065895
252	0xbd49b851	-0.049248043
253	0x3caab606	0.020838749
254	0xbbf5bf7f	-0.0074996348
255	0x3dd76bdf	0.10518622

encoder.0.bias f4 [200]
0	0x3f093935	0.53602916
1	0x3e649c0c	0.22325152
2	0x3f2f1261	0.6838742
3	0x3f03951f	0.51399416
4	0x3e0ad8f7	0.13559328
5	0xbe195b04	-0.14976126
6	0x3f111cce	0.5668458
7	0xbc59126d	-0.013249022
8	0x3e393088	0.1808492
9	0x3e40de18	0.18834722
10	0x3e79e78d	0.24404736
11	0x3ef8b536	0.48575753
12	0x3eee9d69	0.4660447
13	0x3f182ea0	0.59446144
14	0x3e2c4b1e	0.1682553
15	0x3e3f9e51	0.18712737
16	0x3e029da0	0.12755442
17	0x3f23a0aa	0.6391703
18	0x3e941c0c	0.28927648
19	0x3de864b9	0.11347336
20	0x3f173828	0.5907006
21	0x3e276a86	0.16349229
22	0x3f07b9ce	0.5301789
23	0x3e5d84e4	0.21632725
24	0x3f17cd40	0.5929756
25	0x3e9ec23a	0.31007558
26	0x3e1a1fdf	0.1505122
27	0x3f0e2664	0.5552733
28	0x3ec15a48	0.37764192
29	0x3ea131b3	0.3148323
30	0x3e3a9e94	0.18224555
31	0x3e50d87e	0.20395085
32	0x3f070fdb	0.5275857
33	0x3f08c6a2	0.5342809
34	0x3e9c2d6e	0.3050341
35	0x3f191d2b	0.5981013
36	0x3e4732f2	0.19453028
37	0x3d402602	0.046911247
38	0x3e4f14e4	0.20222813
39	0x3e368c63	0.17826991
40	0x3d460bd7	0.048351135
41	0x3e423a41	0.18967535
42	0x3e848417	0.25882027
43	0x3f21f159	0.6325889
44	0x3e7d18f5	0.24716552
45	0x3f2cbf7e	0.67479694
46	0x3e0610e8	0.13092387
47	0x3e52cf0a	0.20586792
48	0x3f1c60ee	0.610854
49	0x3e01270e	0.12612554
50	0x3e307063	0.17230372
51	0x3de780e6	0.11303882
52	0x3e4c2033	0.19934158
53	0x3f17255b	0.59041375
54	0x3e743c83	0.23851208
55	0x3e2c862a	0.16848055
56	0x3eacae21	0.337266
57	0x3e17522a	0.14777437
58	0x3f209d45	0.62739974
59	0x3e9b4298	0.30324244
60	0x3e2da910	0.16959023
61	0x3e3ec8fa	0.18631354
62	0x3e6b7037	0.22992025
63	0x3e65551d	0.2239575
64	0x3dfdd7d4	0.123946816
65	0x3e37a458	0.17933786
66	0x3e54b1f4	0.20771009
67	0x3e52946e	0.20564434
68	0x3ce477a7	0.027889086
69	0x3f1bf57a	0.6092144
70	0x3dcb944a	0.09940393
71	0xbd750cd8	-0.059826702
72	0x3f1b5a39	0.60684544
73	0x3e2f0a8f	0.17093872
74	0x3ebd3bb6	0.36959618
75	0x3ee3770f	0.44426772
76	0x3e4d43cc	0.20045394
77	0x3e7102ca	0.2353622
78	0x3f16f56b	0.5896823
79	0x3e257d7a	0.16161147
80	0x3e88c55f	0.26713082
81	0x3e3164fe	0.17323682
82	0xbdc8b4f2	-0.098001376
83	0x3d245911	0.040124003
84	0x3eb62915	0.35578218
85	0x3e40cb9a	0.18827668
86	0x3f18fc3c	0.5975988
87	0x3eed1b45	0.46309868
88	0x3e1d5492	0.15364292
89	0x3ef50f84	0.478634
90	0xbdfa438d	-0.122199155
91	0x3f1bceed	0.6086262
92	0x3ea70058	0.3261745
93	0x3f0d03bd	0.5508383
94	0x3f139acb	0.5765807
95	0x3efa2d82	0.48862845
96	0x3e4c4456	0.19947943
97	0x3f0fb982	0.5614244
98	0x3f0fd338	0.5618167
99	0x3e233f9e	0.15942237
100	0x3e216937	0.15762793
101	0x3f06c10a	0.52638304
102	0xbd9222dd	-0.07135556
103	0x3e69c04d	0.22827263
104	0x3f184388	0.59478045
105	0x3ef441d4	0.47706473
106	0x3eb502e7	0.35353777
107	0x3f280405	0.65631133
108	0x3e631ca5	0.22178896
109	0x3ef6b870	0.4818759
110	0x3f18cca2	0.59687245
111	0x3e0a518b	0.13507669
112	0x3ed1b2e3	0.40956792
113	0x3df963cb	0.12177237
114	0x3e100dfe	0.14067838
115	0xbba92650	-0.005162038
116	0x3cc86041	0.02445996
117	0x3e2b72a9	0.16742958
118	0x3eaa8023	0.33300886
119	0x3e7cb483	0.24678235
120	0x3f046a1f	0.5172443
121	0x3cb6d8d2	0.022320185
122	0x3f327ca8	0.6972146
123	0xbdf4fabe	-0.11961888
124	0x3d3eb819	0.046562288
125	0x3e8217fe	0.2540893
126	0x3e59dcae	0.21275589
127	0x3ea40a03	0.32038888
128	0x3e318d1a	0.17338982
129	0x3e376e04	0.17913061
130	0xbd6e348d	-0.058155585
131	0x3e5d547b	0.21614258
132	0xbc32227d	-0.01087248
133	0x3e2f45ea	0.17116514
134	0x3de87b9f	0.11351704
135	0x3e262dab	0.16228358
136	0x3f0bbc7d	0.54584485
137	0x3d4f73ef	0.050647672
138	0x3ca83717	0.020534081
139	0x3f115090	0.56763554
140	0x3f059df7	0.5219416
141	0x3f05f485	0.5232623
142	0x3e70eeff	0.2352867
143	0x3e36d24c	0.1785366
144	0x3e6b6711	0.22988535
145	0x3e008b47	0.1255313
146	0x3ee55ddf	0.4479818
147	0x3e89624d	0.2683281
148	0x3e6c5304	0.23078543
149	0x3dc0fb73	0.0942296
150	0x3f09a768	0.53771067
151	0x3e62d126	0.22150096
152	0x3ebf53c5	0.373686
153	0x3f27d820	0.65564156
154	0x3e4a8cc3	0.19780259
155	0x3e8039eb	0.25044188
156	0x3e778bf6	0.24174485
157	0x3def22b7	0.11676543
158	0x3e3e55bd	0.18587394
159	0x3f0ff113	0.56227225
160	0x3d860a7e	0.0654497
161	0xbd12c044	-0.03582789
162	0x3ea8a19b	0.32935795
163	0x3e60af1f	0.21941803
164	0x3f1b24fd	0.60603315
165	0x3ef623fa	0.48074323
166	0x3e325886	0.17416582
167	0x3e422e61	0.18963005
168	0x3eff854f	0.49906394
169	0x3f0b30d4	0.5437138
170	0x3e2cccdf	0.16875027
171	0x3eae6b4a	0.3406623
172	0x3e0db05a	0.13836804
173	0x3d62b27b	0.055345993
174	0x3e5f79e9	0.21823849
175	0x3e4c3f5b	0.19946043
176	0x3f260edf	0.6486644
177	0xbd99cc7d	-0.07509706
178	0x3e9957d2	0.29949814
179	0x3e320b98	0.17387235
180	0x3ed8fef6	0.4238202
181	0x3e1cfa2a	0.15329805
182	0x3e3ad54b	0.18245427
183	0x3e2ba4ef	0.16762136
184	0x3f196e0a	0.5993353
185	0xbd6132e2	-0.054980166
186	0x3e6646a0	0.22487879
187	0x3f1f4f4d	0.6223038
188	0x3eadcc03	0.3394471
189	0x3c381609	0.011235722
190	0x3e1150d3	0.14190988
191	0x3f10885c	0.5645807
192	0x3e3ac921	0.18240787
193	0x3f09cc34	0.53827214
194	0x3e633e64	0.22191769
195	0x3daeddae	0.08538376
196	0x38c6c37f	9.47779e-05
197	0x3d6007bf	0.054694887
198	0x3e3506dc	0.17678398
199	0x3e0cfb79	0.13767804

encoder.2.weight f4 [50, 200]
0	0x3dc0fe05	0.094234504
1	0x3ec8e600	0.39237976
2	0xbe9e0b37	-0.3086793
3	0xbe29e777	-0.16592203
4	0xbdc8220d	-0.0977212
5	0xbc984f02	-0.018592361
6	0x3e5f562a	0.21810213
7	0xbed8ad98	-0.42319942
8	0x3dcbc0b5	0.09948865
9	0xbcbde6c5	-0.023181329
10	0x3f00e575	0.50350124
11	0xbe1645e0	-0.14675093
12	0x3f103b46	0.56340444
13	0xbe7b9f70	-0.2457254
14	0xbe43f239	-0.1913537
15	0x3ecb045c	0.39651763
16	0xbe09696e	-0.13419124
17	0xbe16346a	-0.14668432
18	0xbf33e20d	-0.702668
19	0xbdf79166	-0.120882794
20	0xbd25b0b3	-0.040451717
21	0x3dc7a2cb	0.09747847
22	0x3f2698d6	0.6507696
23	0x3f305117	0.68873733
24	0xbec2367e	-0.379322
25	0xbe4f65fd	-0.20253749
26	0xbe4b344d	-0.1984417
27	0x3e5d36a1	0.2160287
28	0x3f80df6c	1.0068183
29	0xbe13f452	-0.1444867
30	0x3da8ff13	0.082517765
31	0x3ede69bb	0.4344004
32	0x3f04feee	0.5195149
33	0x3e3e2f20	0.18572664
34	0x3d88b2ac	0.06674704
35	0xbdb3db50	-0.08782065
36	0x3e6b0754	0.22952014
37	0xbdbe61ec	-0.09296021
38	0xbb5f2e2a	-0.0034054616
39	0xbe1d9498	-0.15388715
40	0xbcb91108	-0.022591129
41	0x3dbb98e5	0.09160022
42	0xbf2a1bdb	-0.66448754
43	0xbf0a5690	-0.54038334
44	0xbeab7f47	-0.33495542
45	0xbcece935	-0.028919796
46	0x3e8e166e	0.27751487
47	0xbe1d116c	-0.15338677
48	0x3ed341df	0.41261193
49	0x3e944658	0.28959918
50	0xbdba6a2a	-0.091022804
51	0x3e031471	0.12800767
52	0xbec088c1	-0.37604335
53	0xbe4186c1	-0.18899061
54	0xbe850201	-0.2597809
55	0xbd371cc5	-0.04470517
56	0xbf48a058	-0.78369665
57	0x3dd64433	0.10462227
58	0xbd28b58e	-0.04118877
59	0x3f0face8	0.5612321
60	0x3ea39321	0.31948188
61	0xbe987233	-0.29774627
62	0xbe43bde7	-0.19115411
63	0xbe64ca47	-0.22342788
64	0xbdd938a3	-0.10606506
65	0x3e0b78c7	0.13620292
66	0x3e156390	0.14588761
67	0x3d60b126	0.054856442
68	0x3e4a7a5d	0.1977324
69	0x3eefcdaa	0.46836597
70	0x3eb913a8	0.3614781
71	0x3c110357	0.008850894
72	0x3e8edc21	0.2790232
73	0x3d133923	0.03594316
74	0xbf0dbefd	-0.5536955
75	0xbea4b485	-0.32168975
76	0x3d9f30a4	0.07772949
77	0xbd10074e	-0.035163216
78	0x3d10f40a	0.035388984
79	0xbe87f137	-0.2655122
80	0xbeb5752d	-0.3544096
81	0x3dc2cbf0	0.09511554
82	0xbc2c3e1b	-0.010512854
83	0x3edd95a5	0.43278232
84	0x3efebe09	0.4975436
85	0x3da1ca39	0.07899899
86	0xbe3bfa92	-0.18357304
87	0xbe7774c6	-0.2416564
88	0xbdcc60bc	-0.09979388
89	0x3f09bc88	0.538033
90	0x3c98249c	0.018572144
91	0xbd146073	-0.036224794
92	0xbe4b70f1	-0.19867302
93	0xbe81258e	-0.25223964
94	0xbf2a75f0	-0.6658621
95	0x3e8f40b8	0.27979064
96	0xbe8c8127	-0.27442285
97	0x3e385123	0.17999701
98	0xbe2927a2	-0.16519025
99	0xbdc8a82d	-0.09797702
100	0x3dd7a637	0.1052975
101	0x3cd2a470	0.025713176
102	0x3be0a54b	0.006855642
103	0xbf0628ff	-0.52406305
104	0xbdfe383b	-0.12413069
105	0xbeb3ac96	-0.3509261
106	0xbeda611d	-0.42652217
107	0x3f33b176	0.7019266
108	0xbab342dc	-0.0013676542
109	0xbec33bcf	-0.38131568
110	0x3e5cb613	0.21553831
111	0xbe5157d7	-0.20443664
112	0x3e894c6a	0.26816112
113	0xbea12762	-0.3147536
114	0xbd4deb16	-0.050273024
115	0x3b8f3faf	0.0043716053
116	0xbb6abc6f	-0.0035817882
117	0xbe9f01ea	-0.31056148
118	0x3ba11969	0.004916359
119	0x3de32f51	0.11093009
120	0x3db58207	0.088626914
121	0x3f094447	0.5361981
122	0x3ea53d57	0.3227336
123	0x3cdb54ed	0.026773894
124	0xbf495a63	-0.78653544
125	0x3e31a5cf	0.17348407
126	0x3e23b3d0	0.15986562
127	0xbe8ef416	-0.27920598
128	0x3d64ddb7	0.055875506
129	0x3e3c6875	0.18399222
130	0x3ea24122	0.31690317
131	0x3e2dcc1d	0.16972394
132	0x3b96c750	0.0046013966
133	0x3f330d24	0.69941926
134	0x3dc68372	0.0969304
135	0xbe223a08	-0.1584245
136	0x3e45a0a7	0.19299565
137	0xbf5a1b96	-0.8519834
138	0xbe86bd66	-0.26316375
139	0xbe921d6d	-0.28538075
140	0xbe1e9c3e	-0.15489289
141	0xbebca9df	-0.3684835
142	0xbd8f15bf	-0.069865696
143	0x3d53db79	0.051722977
144	0xbe97c54d	-0.29642716
145	0x3e31ddc2	0.1736975
146	0x3ed5978c	0.41717184
147	0xbedb0bea	-0.42782527
148	0x3eb8e07b	0.36108765
149	0x3d96b14a	0.07358034
150	0x3bc4252b	0.005985876
151	0xbe52682a	-0.20547548
152	0xbf81edb8	-1.0150671
153	0xbea4c409	-0.32180813
154	0x3e707730	0.23482966
155	0x3e27305e	0.16327044
156	0xbd70cc6d	-0.058788706
157	0x3d310aa2	0.04322303
158	0x3c70d726	0.014699733
159	0x3edfbd45	0.4369909
160	0xbe3ec4a7	-0.18629704
161	0x3c8e8709	0.017398374
162	0x3f65786a	0.8963686
163	0x3e512c52	0.20427063
164	0xbe53cbaa	-0.2068316
165	0xbefb8ce0	-0.49130917
166	0xbe11ae67	-0.14226685
167	0x3dc58578	0.09644598
168	0xbf738188	-0.95119524
169	0xbe17f42e	-0.14839241
170	0xbe8cdf8b	-0.275143
171	0x3e82df52	0.25561005
172	0xbdd5cb4e	-0.10439168
173	0xbedbefe0	-0.42956448
174	0x3de15567	0.11002617
175	0x3e3ea089	0.18615927
176	0x3f02892c	0.5099056
177	0x3d09b273	0.033617448
178	0x3e8ba972	0.27277714
179	0x3e97a9d3	0.29621753
180	0x3d99cd38	0.075098455
181	0x3ddf25fc	0.10895917
182	0x3ee650f4	0.44983637
183	0x3d78f526	0.060780667
184	0xbeb86fe3	-0.36022863
185	0xbc72e9d9	-0.014826261
186	0x3d547d54	0.051877335
187	0x3d265b0a	0.040614165
188	0x3f0dde6b	0.5541751
189	0xbe839b91	-0.25704625
190	0xbd61fce0	-0.0551728
191	0x3e288400	0.16456604
192	0xbe2545bf	-0.16139887
193	0x3d0688f4	0.032845452
194	0x3e047075	0.12933524
195	0x3cd8917a	0.026436556
196	0xbd10a525	-0.035313744
197	0xbc5befb0	-0.013423845
198	0x3db207e4	0.08692911
199	0xbed49a32	-0.41523892
200	0xbe6c2b72	-0.23063448
201	0x3c3b265f	0.011422723
202	0xbd986244	-0.07440618
203	0x3e410b1b	0.18851893
204	0x3d984209	0.0743447
205	0xbd0cbb1f	-0.03435814
206	0xbeac2c11	-0.3362737
207	0xbe0afa90	-0.13572145
208	0x3e46c5ae	0.19411346
209	0xbea11a78	-0.31465507
210	0x3e921067	0.2852814
211	0xbdd89fe5	-0.105773725
212	0xbf154107	-0.5830235
213	0x3dc66200	0.09686661
214	0xbde475d5	-0.11155287
215	0xbe2139a4	-0.15744644
216	0xbd3a04d9	-0.04541478
217	0x3ecfc6d0	0.4058137
218	0xbf454fca	-0.77074873
219	0x3d8dc274	0.069218546
220	0x3e20f84f	0.15719722
221	0x3e4cf690	0.20015931
222	0x3ec72604	0.3889619
223	0x3e79cd46	0.24394712
224	0x3de56070	0.112000346
225	0xbf73ff7c	-0.95311713
226	0x3d4d0433	0.050052833
227	0xbd4c94b4	-0.0499465
228	0xbcde276d	-0.027118409
229	0x3e8657bc	0.2623881
230	0xbe86654f	-0.26249167
231	0x3e8f78ee	0.2802195
232	0xbec66d3e	-0.3875522
233	0x3e31dcf4	0.17369443
234	0xbb2b07ec	-0.002609725
235	0xbe3b4a62	-0.18290094
236	0x3c302e0b	0.010753165
237	0x3ebb40ae	0.36572784
238	0xbdec11d2	-0.115268365
239	0xbdb26836	-0.08711283
240	0x3ee096b8	0.4386499
241	0xbe988eab	-0.29796347
242	0xbd16583f	-0.03670525
243	0x3ccef9f7	0.025265677
244	0x3d13d8aa	0.0360953
245	0x3ea6cfc1	0.3258038
246	0xbe8842c3	-0.26613435
247	0xbe921905	-0.28534713
248	0xbe3d60b8	-0.18493927
249	0x3d564baf	0.05231827
250	0xbe1ee3dd	-0.1551661
251	0x3ea7a4fa	0.32743055
252	0x3d089bee	0.03335183
253	0xbe4b5ae8	-0.19858897
254	0x3e525924	0.20541817
255	0x3e8b28dc	0.2717961

encoder.2.bias f4 [50]
0	0x3cc72d3e	0.024313565
1	0x3c168467	0.009186841
2	0x3c2fbd47	0.01072628
3	0x3c77e71b	0.015130783
4	0x3cb597aa	0.022167046
5	0xbcfae355	-0.030625978
6	0x3b828798	0.003983449
7	0xbbefa41b	-0.007313264
8	0x3d01a6ca	0.031653203
9	0x3bb3c9b4	0.0054866914
10	0x3bd75ca7	0.0065723243
11	0xbc3f95e1	-0.011693449
12	0x3c882092	0.016617093
13	0xbcb682be	-0.02227914
14	0x3c912aa4	0.017720528
15	0xba0a026d	-0.00052646437
16	0xbc06b778	-0.008222453
17	0xbd249f4a	-0.040190972
18	0xbc414d43	-0.011798206
19	0xbc7514cb	-0.014958571
20	0x3c016052	0.0078965
21	0x3ac69710	0.0015151221
22	0x3b15736a	0.0022804388
23	0x3ab5d31b	0.0013872118
24	0xbcc96052	-0.024582062
25	0xbd048aa6	-0.032358788
26	0x3c4e259f	0.012582212
27	0x3d3311da	0.043718196
28	0x3d379d0f	0.044827517
29	0x3c14d7f6	0.009084692
30	0x3d20c551	0.039250676
31	0xbd6b5d7e	-0.057462208
32	0xbd079826	-0.033104084
33	0x3b59baa4	0.0033222819
34	0x3be59abe	0.007006972
35	0x3ca98f88	0.020698324
36	0xbd8d6875	-0.06904689
37	0x3b87b499	0.004141402
38	0xbbf397ab	-0.0074338517
39	0xbb92602f	-0.0044670324
40	0xbd454060	-0.048157096
41	0x3d2821a0	0.041047692
42	0x3d070890	0.03296715
43	0xbc8aa603	-0.016924864
44	0x3d4d962b	0.05019204
45	0x3d270a73	0.04078145
46	0x3d4da2ca	0.050204076
47	0x3be63de7	0.0070264223
48	0x3cbe2cf3	0.023214793
49	0xbcf4bffb	-0.0298767

decoder.0.weight f4 [200, 50]
0	0x3eaab2b5	0.33339468
1	0x3dd9375b	0.10606261
2	0x3d4cd4a2	0.05000747
3	0xbe08433f	-0.13306902
4	0xbf6e784a	-0.93152297
5	0xbc54a2e7	-0.012978292
6	0x3eae6798	0.3406341
7	0xbf150a52	-0.5821887
8	0xbe23b863	-0.15988307
9	0xbd98ab95	-0.07454602
10	0x3e307a40	0.17234135
11	0x3d82b7e9	0.06382734
12	0xbe733826	-0.23751888
13	0x3f14e372	0.58159554
14	0xbe9e6d0d	-0.30942574
15	0x3e0a6278	0.13514125
16	0x3d980475	0.07422725
17	0xbeb2c016	-0.34912175
18	0x3f7ddc19	0.9916397
19	0xbec29be5	-0.38009563
20	0x3e5a2020	0.21301317
21	0x3f421317	0.7581038
22	0xbd5c9577	-0.05385348
23	0x3eb51a1d	0.35371485
24	0x3e7043a8	0.23463309
25	0xbee6fe07	-0.45115682
26	0xbed3ee76	-0.4139287
27	0xbe80b198	-0.25135493
28	0xbeba5705	-0.36394516
29	0x3e98ad16	0.29819554
30	0x3f08ce9e	0.5344027
31	0xbcfea60e	-0.03108504
32	0x3e85d470	0.2613864
33	0x3e4b59cb	0.19858472
34	0xbf1954ee	-0.5989522
35	0x3e2a69fa	0.1664199
36	0xbf39c0a8	-0.72559595
37	0xbe8b235f	-0.27175424
38	0x3ea4bd97	0.32175896
39	0xbe3c8401	-0.1840973
40	0xbe10d52f	-0.14143823
41	0x3e28500e	0.16436788
42	0x3de63788	0.112410605
43	0xbf07672c	-0.528918
44	0x3c403882	0.0117322225
45	0x3f610aa2	0.8790685
46	0x3ea28ee9	0.31749657
47	0xbc75be57	-0.014998994
48	0xbe0ddc3d	-0.13853545
49	0xbf1391fa	-0.5764462
50	0x3d403211	0.046922747
51	0xbd66e12b	-0.05636708
52	0x3dbbb855	0.09166018
53	0x3dfbd449	0.122963496
54	0x3c96eb8c	0.018422864
55	0xbdc23803	-0.0948334
56	0x3d98e1d9	0.07464952
57	0xbd9ad949	-0.07560975
58	0x3df58500	0.11988258
59	0x3d80fd00	0.06298256
60	0xbda9ca14	-0.082904965
61	0xbdce12a7	-0.100621514
62	0x3d8f4919	0.06996364
63	0x3caf0ef0	0.021369427
64	0x3dc1cad5	0.09462515
65	0x3c1f300e	0.009716047
66	0xbe12f6fe	-0.14352033
67	0x3cccfaab	0.025021872
68	0xbc77dcd8	-0.015128337
69	0xbc810861	-0.015751066
70	0xbd1cbb6c	-0.038264677
71	0x3def2ca4	0.116784364
72	0x3d740c83	0.059582245
73	0x3d924d00	0.07143593
74	0x3cb635e2	0.02224249
75	0xbd469941	-0.048485998
76	0x3dfefbfd	0.12450407
77	0xbd0efbaa	-0.034907974
78	0x3eb1d660	0.34733868
79	0x3abefabe	0.0014570577
80	0xbd9446b9	-0.07240052
81	0xbdb1bd15	-0.08678643
82	0xbcb6c12a	-0.022308905
83	0x3d413eec	0.047179148
84	0x3db95563	0.09049489
85	0x3e0bf2d6	0.13666853
86	0xbe01fef1	-0.12694909
87	0x3ac6b177	0.001515909
88	0x3ded46d6	0.115857765
89	0x3d9c75e1	0.07639671
90	0xbc3387a3	-0.010957631
91	0xbc716f28	-0.014735974
92	0xbd882145	-0.06646971
93	0xba9424b5	-0.0011302443
94	0xbd7e363c	-0.06206344
95	0x3d75798b	0.059930366
96	0xbe09684b	-0.13418691
97	0xbd7838ff	-0.06060123
98	0xbc9739ef	-0.018460242
99	0xbd865313	-0.06558814
100	0x3df35458	0.11881322
101	0xbe0ce2f8	-0.13758457
102	0xbd424346	-0.04742744
103	0x3d10bdd4	0.035337284
104	0x3da536a7	0.08067065
105	0x3c40aa34	0.01175933
106	0x3bc2318d	0.005926317
107	0xbe1c3a3d	-0.15256591
108	0x3d6fed34	0.058575824
109	0x3e008ced	0.12553759
110	0x3e0685f5	0.13137038
111	0xbcbf57f8	-0.023357376
112	0xbe9fc1d8	-0.3120258
113	0x3d90e6e0	0.07075286
114	0x3e10230f	0.14075874
115	0x3e1f688a	0.15567222
116	0xbb40ad99	-0.0029400347
117	0x3dc5e386	0.09662537
118	0xbd811d13	-0.063043736
119	0x3c942c6f	0.018087594
120	0x3d813085	0.063080825
121	0xbe86b3e4	-0.2630912
122	0xbddcb568	-0.10776788
123	0xbda6dc5a	-0.081474975
124	0xbdbd2065	-0.092346944
125	0xbe91daac	-0.28487146
126	0x3e05ab2a	0.13053575
127	0x3d826a66	0.0636795
128	0xbdb9bba4	-0.09068993
129	0x3e265579	0.16243543
130	0x3e787261	0.24262382
131	0xbd60e892	-0.054909296
132	0x3d59594e	0.053063683
133	0xbb5423f0	-0.0032370053
134	0xbe8c6450	-0.27420282
135	0xbd99f0fe	-0.07516669
136	0x3e6e3d57	0.23265587
137	0xbe84052a	-0.2578519
138	0x3e02bee3	0.1276813
139	0xbdb50c4e	-0.088402376
140	0xbc13d524	-0.009022985
141	0xbdd8adc5	-0.10580019
142	0xbe5dfc4d	-0.21678276
143	0xbe16b9b1	-0.14719273
144	0xbe43a0b4	-0.19104272
145	0xbe0114ae	-0.12605545
146	0xbe70f632	-0.23531416
147	0xbd8b4bf2	-0.06801595
148	0x3d0c4faa	0.03425566
149	0xbc86093c	-0.016361825
150	0x3ee9787b	0.45599732
151	0x3f491972	0.7855445
152	0x3ef36492	0.47537667
153	0x3f1954a8	0.598948
154	0x3e9ecf18	0.31017375
155	0x3ca0cf87	0.019630207
156	0x3d81d129	0.06338722
157	0x3f1c6af8	0.6110072
158	0xbe9ecfbf	-0.31017873
159	0x3e7ea6ab	0.24868266
160	0xbc2e0d86	-0.010623341
161	0xbf0cc718	-0.5499129
162	0x3dc5c182	0.09656049
163	0x3dfe1ae6	0.12407474
164	0x3e72c3e8	0.23707545
165	0x3f00bf4d	0.502919
166	0x3efa4e18	0.48887706
167	0x3e7f5ccd	0.24937744
168	0xbe292f17	-0.1652187
169	0x3f6135cb	0.87972707
170	0xbf51251f	-0.8169727
171	0xbeebbbef	-0.4604182
172	0xbf4a99f4	-0.79141164
173	0x3f41face	0.7577332
174	0xbeec5f8b	-0.46166644
175	0xbf42b688	-0.7605977
176	0x3e478c26	0.19487056
177	0xbe9012b7	-0.28139278
178	0x3f012ec7	0.50462
179	0x3def7b3b	0.11693426
180	0xbf204f89	-0.6262136
181	0x3f0fc278	0.5615611
182	0xbf23fc10	-0.6405649
183	0x3eeadb32	0.45870358
184	0x3e07a2a5	0.13245638
185	0xbf5d8005	-0.8652347
186	0xbf14f4a4	-0.5818579
187	0xbf131748	-0.574574
188	0x3eb5baa0	0.35493946
189	0xbe1d7a71	-0.15378739
190	0xbe19f8cd	-0.15036316
191	0xbd82fa90	-0.06395447
192	0x3f342587	0.7036976
193	0xbf751b09	-0.9574438
194	0x3e2c985a	0.16854993
195	0x3f6a741e	0.9158343
196	0x3f570779	0.8399578
197	0x3e71fcbc	0.23631567
198	0x3f6f2cbb	0.9342763
199	0x3e966f5b	0.29381832
200	0xbc4efbba	-0.0126332585
201	0xbd9854de	-0.07438062
202	0x3e622692	0.22085026
203	0xbd9e815c	-0.07739517
204	0xbdc671da	-0.09689684
205	0xbce5d7a6	-0.02805693
206	0xbde28646	-0.11060767
207	0x3e16a7de	0.14712474
208	0xbe8e5cc5	-0.27805153
209	0x3e5f3b11	0.21799876
210	0x3e047e3d	0.12938781
211	0xbd0b807e	-0.034058087
212	0x3d89ab68	0.06722146
213	0x3e89c33f	0.26906773
214	0xbec4c736	-0.38433236
215	0xbd918605	-0.0710564
216	0xbdb2039b	-0.08692094
217	0xbc62a732	-0.013833808
218	0xbda48db9	-0.08034844
219	0x3e7a6175	0.2445124
220	0x3e2ffb46	0.17185697
221	0xbd478eb6	-0.048720084
222	0xbd92a9f6	-0.07161324
223	0xbd0bf474	-0.034168676
224	0x3cadb86f	0.021206109
225	0x3e9d06fb	0.30669388
226	0x3e951d7f	0.29124066
227	0x3df169b8	0.117877424
228	0x3e4d0cf5	0.20024474
229	0x3de216b3	0.11039486
230	0x3ebd972c	0.37029397
231	0x3d0cf957	0.034417477
232	0x3d98de7b	0.0746431
233	0x3d889541	0.06669093
234	0x3dd24898	0.102677524
235	0xbe6b7e16	-0.22997317
236	0xbc9c5592	-0.019083772
237	0xbdc13d17	-0.0943548
238	0x3da385a3	0.079844736
239	0x3d33bd09	0.04388145
240	0xbf08d12c	-0.5344417
241	0xbe49a08a	-0.19690147
242	0x3e2b2760	0.16714239
243	0x3dda47f9	0.10658259
244	0xbc42aec1	-0.011882485
245	0x3df9f22a	0.12204392
246	0x3ea9b897	0.33148643
247	0xbde1fed4	-0.11034933
248	0xbe1c4696	-0.15261301
249	0xbc9458ad	-0.01810869
250	0xbdfb568c	-0.12272367
251	0xbb611290	-0.003434334
252	0xbeff14d1	-0.4982057
253	0xbe2e3778	-0.17013347
254	0xbe84705e	-0.2586698
255	0xbfa01c71	-1.250868

decoder.0.bias f4 [200]
0	0xbdd94aac	-0.10609946
1	0x3d46c7d8	0.04853043
2	0x3ede0aa0	0.4336748
3	0xbde97c26	-0.114006326
4	0x3fb19d9d	1.3876225
5	0xbd62eaef	-0.05539983
6	0xbdb77c83	-0.089592956
7	0x3f2c2e65	0.6725829
8	0xbd139e38	-0.03603956
9	0x3f7c20e5	0.98487693
10	0xbe0f303a	-0.1398324
11	0xbe057bc2	-0.13035491
12	0x3cb09b82	0.021558527
13	0x3e58c2f7	0.21168123
14	0x3f32f4a6	0.69904554
15	0xbe82bb1a	-0.25533372
16	0xbe2b710d	-0.16742344
17	0xbf6b18d1	-0.9183474
18	0x3e9680ca	0.29395133
19	0xbed0b61e	-0.40763944
20	0xbe10c37a	-0.14137068
21	0xbe349b96	-0.17637476
22	0xbe608d65	-0.21928938
23	0xbd8039b4	-0.06261006
24	0xbf55b8c1	-0.8348504
25	0xbd2add73	-0.041715097
26	0x3ddd768e	0.10813628
27	0x3e3d437c	0.18482774
28	0x3e57f9ee	0.21091434
29	0xbabc8bc1	-0.0014384912
30	0x3ed87025	0.4227306
31	0x3cc37d3b	0.023863425
32	0xbf39f3a7	-0.7263741
33	0x3c243391	0.01002206
34	0x3e80acef	0.25131938
35	0x3ea71423	0.3263255
36	0xbde160b8	-0.11004776
37	0x3e911488	0.28335977
38	0xbfdaefa4	-1.7104383
39	0x3e96587c	0.29364383
40	0x3dacd166	0.08438377
41	0x3e18b78e	0.1491377
42	0xbd0eb1a0	-0.034837365
43	0xbe085376	-0.13313088
44	0x3f4fd2cd	0.8118103
45	0x3e39e1f0	0.18152595
46	0x3e674dc3	0.22588257
47	0xbd1c9689	-0.0382295
48	0xbf6a1634	-0.9144013
49	0x3db57787	0.08860689
50	0x3e0c2301	0.13685228
51	0xbdd7fb23	-0.105459474
52	0x402071fa	2.5069566
53	0x3cc97a4f	0.024594454
54	0x3ee88ca0	0.45419788
55	0xbde370f9	-0.11105532
56	0xbdc8e174	-0.09808627
57	0x3f195be1	0.5990582
58	0x403af55d	2.9212258
59	0xbd264762	-0.04059542
60	0xbe09d4a0	-0.13460016
61	0x3f08ae1c	0.5339067
62	0xbd64afe1	-0.055831794
63	0x3fb59adb	1.4187883
64	0xbe1cb105	-0.15301903
65	0x3edb51a0	0.42835712
66	0xbb82ff19	-0.003997695
67	0x3f0fd235	0.56180125
68	0xbe8f2225	-0.27955738
69	0xbc4f8689	-0.012666353
70	0x3d54158e	0.05177837
71	0x3f08aa8c	0.53385234
72	0x3db69d07	0.08916669
73	0x3f02a2c4	0.5102961
74	0xbdef231d	-0.11676619
75	0xbe90a1b2	-0.28248364
76	0x3e1b79b3	0.15183143
77	0x3db650bc	0.089021176
78	0x3f277091	0.6540614
79	0xbe9d5b21	-0.30733588
80	0xbdccbcba	-0.09996934
81	0x3f00d6b3	0.50327605
82	0x3eafb789	0.34319714
83	0x329307c3	1.7116582e-08
84	0x3f43a6cd	0.7642639
85	0x3d1f564c	0.03890066
86	0xbd8eeffa	-0.06979366
87	0x3ebbb645	0.36662498
88	0x3eb9f1b1	0.36317208
89	0x3fffc4f6	1.9981983
90	0x3e833cef	0.25632426
91	0x3baafdc5	0.00521824
92	0xbf27e311	-0.6558085
93	0x3f17d553	0.5930988
94	0xbf072a6f	-0.52799124
95	0xbd145a83	-0.03621913
96	0x3e15c088	0.14624226
97	0x3e5bbe0b	0.21459214
98	0x3d818fcc	0.06326255
99	0xbe374136	-0.1789597
100	0xbe93a48a	-0.2883647
101	0xbd75d5a4	-0.060018197
102	0x3ed500e7	0.4160225
103	0x3eeaa93d	0.45832244
104	0x3eab3a17	0.33442757
105	0x3f8a5ae6	1.080899
106	0xbaa59925	-0.0012634142
107	0x3ed7f661	0.4218016
108	0x3ef0760d	0.46965066
109	0x3bc42f49	0.005987082
110	0xbea7751a	-0.3270653
111	0x3f440045	0.7656291
112	0x3e1eccdc	0.15507835
113	0x3e33ae67	0.17546998
114	0xbfbd143d	-1.4771801
115	0x3d8b7b95	0.06810681
116	0x3d2bd008	0.04194644
117	0xbe03bd29	-0.12865128
118	0x3faa9a5b	1.3328356
119	0x3f4b522a	0.7942225
120	0xbf08773f	-0.53306955
121	0x3ecd64f4	0.40116084
122	0x3e047c50	0.12938046
123	0xbd64c042	-0.055847414
124	0x403fdfb8	2.9980297
125	0xbd153b8d	-0.036433745
126	0x3eb14c7f	0.34628674
127	0xbcdcbbd6	-0.026945036
128	0x3e800c38	0.25009322
129	0xbdde1c4d	-0.10845242
130	0x3eaa1f8c	0.33227193
131	0x3f53e064	0.8276427
132	0x3ea0b1c5	0.31385627
133	0xbefe8de7	-0.49717638
134	0x3d8b2dfc	0.0679588
135	0xbfb5ee66	-1.4213378
136	0xbd5df581	-0.05418921
137	0xb8ada081	-8.279179e-05
138	0x3d681a12	0.056665488
139	0xbe03d00c	-0.12872332
140	0xbe40776a	-0.18795553
141	0xbde593e3	-0.11209848
142	0xbf8db0b7	-1.1069554
143	0x3e9fcdba	0.31211644
144	0xbf24e4de	-0.64411724
145	0xbf0d3c34	-0.5516999
146	0x3d2b6ffb	0.04185484
147	0x3eeb948d	0.46011773
148	0x3d3d8ff8	0.046279877
149	0xbd1b2309	-0.03787521
150	0xbc03273b	-0.008004959
151	0x3e4ef4ac	0.20210522
152	0xbe2bc093	-0.1677268
153	0x3f095fb2	0.53661644
154	0x402ecf3f	2.7313993
155	0x3ea5ddbc	0.32395732
156	0x3e228ab3	0.15873222
157	0xbde54700	-0.11195183
158	0x3f714d68	0.9425874
159	0xbddf084e	-0.10890256
160	0x3e715924	0.2356916
161	0xbd91f7e6	-0.07127361
162	0xbf1df9dc	-0.6170938
163	0xbecc7353	-0.39931735
164	0x3eba7841	0.3641987
165	0x3d7fdae5	0.062464613
166	0xbf82ffab	-1.0234274
167	0x3ea5db8e	0.3239407
168	0x3ec5ab8d	0.38607445
169	0xbdb8dfdd	-0.090270735
170	0x3d989e28	0.07452041
171	0x3e26de9b	0.16295855
172	0x3e9e963f	0.30974004
173	0x3ec4e952	0.3845926
174	0x3e80a11e	0.25122923
175	0xbe80dfaf	-0.25170657
176	0x3ea39a49	0.31953648
177	0xbf12d754	-0.57359815
178	0xbf7b91dc	-0.9826944
179	0xbf72a548	-0.9478345
180	0x3b59f54f	0.0033257788
181	0x402c4b5c	2.6920996
182	0x3d38061c	0.0449277
183	0x3e09782b	0.13424747
184	0xbe66da94	-0.22544318
185	0xbe3708ce	-0.17874452
186	0x3cbc3754	0.022975601
187	0x3f155090	0.58326054
188	0x3e4efb06	0.20212945
189	0xbf9c7247	-1.2222375
190	0xbe47e68c	-0.1952154
191	0x3e0ad0f2	0.13556269
192	0xbdc0c3a7	-0.09412318
193	0x3da9ff19	0.08300609
194	0x3e483cf5	0.19554503
195	0x3e1c5904	0.15268332
196	0xbd8db608	-0.06919485
197	0xbd179aad	-0.037012745
198	0xbec9b24e	-0.39393848
199	0x3e6e8cb2	0.23295859

decoder.2.weight f4 [227, 200]
0	0xbd2e4593	-0.04254682
1	0xbd08e1a2	-0.033418305
2	0xbd9b8b51	-0.07594932
3	0xbe339406	-0.17536935
4	0xbe1c4275	-0.15259726
5	0x3df1f91c	0.11815092
6	0xbdf93e78	-0.12170118
7	0x3d883277	0.066502504
8	0xbdcdb261	-0.10043789
9	0x3de83537	0.11338275
10	0xbe7732dd	-0.24140497
11	0x39a4c2c2	0.00031425623
12	0xbc7351cb	-0.014851044
13	0x3d87a5d1	0.06623424
14	0x3c59d7bf	0.013296067
15	0x3d44f76e	0.04808753
16	0xbe796800	-0.24356079
17	0x3e9934e7	0.29923174
18	0x3cedd84c	0.029033802
19	0xbc8da807	-0.017292036
20	0xbd3d3516	-0.046193205
21	0x3e9e9d68	0.30979466
22	0xbe2a1b8e	-0.16612074
23	0xbdf651c3	-0.120273136
24	0xbe3a12b4	-0.18171197
25	0xbdcd1c83	-0.10015204
26	0x3e0276d0	0.12740636
27	0x3cfea796	0.03108577
28	0xbdbf8ecb	-0.093534075
29	0xbd53df0d	-0.05172639
30	0x3c815e51	0.015792044
31	0xbdd18fdf	-0.10232519
32	0x3dbec52b	0.093149506
33	0x3d7d3fa1	0.06182826
34	0x3d8d105b	0.06887885
35	0xbe060c36	-0.13090596
36	0xbe40c9f3	-0.18827038
37	0xbd49c6ed	-0.049261976
38	0xbe238e80	-0.15972328
39	0x3d29bffe	0.041442864
40	0xbd9089e4	-0.070575505
41	0xbda2db33	-0.07951965
42	0x3cdf3ff5	0.027252177
43	0xbcc62085	-0.024185428
44	0xbd819d2f	-0.063288085
45	0xbd820f97	-0.0635063
46	0xbdd4bcfb	-0.10387608
47	0xbdd6090d	-0.10450945
48	0xbec2b5ea	-0.38029414
49	0x3da23656	0.0792052
50	0x3d18b3d8	0.037280887
51	0xbda7d335	-0.081945814
52	0x3cb10d7d	0.021612877
53	0xbe392b38	-0.18082893
54	0xbdc09c36	-0.09404795
55	0xbdd0a797	-0.10188215
56	0x3c24685b	0.010034646
57	0x3e04078f	0.12893508
58	0xbe6f655c	-0.2337851
59	0x3c313a7b	0.0108171655
60	0xbe02507a	-0.12726012
61	0xbeb0f4ee	-0.34561867
62	0xbdfdde98	-0.12395972
63	0xbd3d3801	-0.046195988
64	0xbd517725	-0.051139016
65	0xbe035b37	-0.12827764
66	0xbc15fb93	-0.009154218
67	0xbd3d622b	-0.0462362
68	0xbccf025a	-0.025269676
69	0xbcaf724d	-0.021416808
70	0xbbbc99f3	-0.005755657
71	0xbda1f259	-0.07907552
72	0x3cd38304	0.025819309
73	0x3d9570c7	0.07296901
74	0x3cf45cd1	0.029829415
75	0xbe378654	-0.17922336
76	0xbdbbbf95	-0.09167401
77	0xbd99cf14	-0.075102
78	0xbc107fa6	-0.008819496
79	0xbdad838c	-0.08472356
80	0xbe08648f	-0.1331961
81	0x3c8c049e	0.017092045
82	0xbe592cb2	-0.21208456
83	0xad6cf8a5	-1.3470257e-11
84	0xbc6a6e85	-0.0143085765
85	0xbd2bd14d	-0.04194765
86	0x3d61e3ec	0.055149004
87	0x3db27c82	0.08715154
88	0xbd53bbdf	-0.05169284
89	0x3cdc73ac	0.026910625
90	0x3e11e797	0.14248501
91	0xbcb74232	-0.022370432
92	0x3cfcbd33	0.030851936
93	0xbd3cefa1	-0.046126965
94	0x3d005d97	0.031339254
95	0xbd21731b	-0.039416414
96	0x3d92eab5	0.07173673
97	0xbdfb064b	-0.1225706
98	0x3e4f630f	0.20252632
99	0xbd286502	-0.041111954
100	0xb6a9d4a9	-5.0613494e-06
101	0x3dbc2a79	0.091877885
102	0x3cd51b4b	0.02601399
103	0x3db9a98c	0.090655416
104	0xbe33f9dd	-0.17575784
105	0x3ddbb2ad	0.10727439
106	0xbe0249d1	-0.12723471
107	0xbd19a75c	-0.037513122
108	0x3e0adb3a	0.13560191
109	0x4000edf9	2.0145247
110	0x3e24c6db	0.16091482
111	0xbd986f31	-0.07443083
112	0xbe8f3082	-0.27966696
113	0x3d8ad00f	0.06777965
114	0x3dcc3021	0.09970117
115	0xbd80d859	-0.06291265
116	0xbd91c3ba	-0.0711741
117	0xbe5bfefe	-0.2148399
118	0xbdf10387	-0.11768251
119	0xbe1689e8	-0.14701045
120	0x3e47076b	0.19436423
121	0xbd83a78f	-0.06428444
122	0xbd9d2d2b	-0.07674631
123	0xbcdca85b	-0.026935747
124	0xbe8afb22	-0.27144724
125	0xbdf633f8	-0.12021631
126	0xbd6383f5	-0.055545766
127	0xbc7dbd4f	-0.015487029
128	0x3cb6356c	0.02224227
129	0x3d745427	0.059650566
130	0x3c7db80d	0.015485776
131	0x3d6b6a14	0.05747421
132	0xbd7550fc	-0.059891686
133	0x3b6708ce	0.003525305
134	0xbe84a6cf	-0.25908515
135	0xbdaae6e7	-0.083448224
136	0x3b8d34a1	0.0043092524
137	0x9eb84146	-1.9508754e-20
138	0xbdba8d4a	-0.0910898
139	0x3e646e01	0.22307588
140	0x3b26edb6	0.0025471277
141	0xbdd16c18	-0.10225695
142	0x3da09eeb	0.07842811
143	0xbc8957ca	-0.016765494
144	0x3c7c7f38	0.015411191
145	0x3ca490e0	0.020088613
146	0xbe015a72	-0.12632158
147	0xbd3c6b5e	-0.04600083
148	0xbcb35f38	-0.02189599
149	0xbbf30a1a	-0.0074169757
150	0xbc937a15	-0.01800255
151	0xbe2b96be	-0.16756722
152	0xbc8de3d0	-0.017320544
153	0x3d5f21f4	0.05447574
154	0xbde6e67e	-0.11274432
155	0xbc8b4a08	-0.017003074
156	0xbd901b48	-0.070364535
157	0xbc123dfe	-0.008925913
158	0xbcd16be1	-0.025564136
159	0x3e0e1889	0.13876547
160	0xbc975bcb	-0.018476387
161	0xbe8dffdf	-0.27734277
162	0xbe004715	-0.12527116
163	0x3daf9f7e	0.085753426
164	0xbe26ec90	-0.16301179
165	0x3cb76513	0.022387063
166	0xbe4b445b	-0.19850294
167	0xbd452fcc	-0.048141286
168	0xbdae29fb	-0.08504101
169	0xbdcf0665	-0.101086415
170	0xbe183a56	-0.14866003
171	0xbb55c926	-0.0032621115
172	0xbe8021af	-0.250257
173	0x3d5155fd	0.051107395
174	0xbced119e	-0.028939065
175	0x3ceee6aa	0.029162724
176	0xbd2686b1	-0.040655795
177	0xbe2a8d93	-0.16655569
178	0xbd953bba	-0.072867826
179	0x3dc6099c	0.096698016
180	0xbdf38832	-0.118912116
181	0xbdee90b7	-0.11648696
182	0x3cccba15	0.024991075
183	0x3e4e758d	0.2016203
184	0x3d015c63	0.031582247
185	0xbdef120a	-0.116733626
186	0x3dba9d03	0.09111979
187	0xbecb2722	-0.39678293
188	0xbd9604db	-0.07325145
189	0x3e299b05	0.16563042
190	0x3d8a9307	0.067663245
191	0x3e91afe1	0.28454497
192	0xbb2446ca	-0.0025066608
193	0x3c01f672	0.007932292
194	0xbe1f1649	-0.15535845
195	0x3d112ecb	0.035445016
196	0xbdb2100f	-0.08694469
197	0x3dd3bbe5	0.103385724
198	0x3d6907be	0.05689215
199	0x3d265ce2	0.040615924
200	0xbcb97a07	-0.022641195
201	0x3bd4fa45	0.006499561
202	0xbd23e650	-0.040014565
203	0xbb90c5d4	-0.004418114
204	0xbe840aee	-0.2578959
205	0x3ea889ea	0.3291772
206	0xbd2cf83f	-0.042228933
207	0xbd2b74f9	-0.0418596
208	0xbe083703	-0.13302235
209	0xbe63f82a	-0.22262636
210	0xbc9d2164	-0.019180961
211	0x3ea2b577	0.31779072
212	0xbdc15bd9	-0.09441347
213	0x3e7ba1ad	0.24573393
214	0xbe0914a1	-0.13386776
215	0x3dbdb1c1	0.092624195
216	0xbe8ecadb	-0.2788914
217	0xbd90b0c3	-0.070649646
218	0x3c13ef81	0.00902927
219	0x3d9f03c1	0.07764388
220	0x3e142591	0.14467455
221	0x3ce8f6b9	0.028437959
222	0x3e39d546	0.18147764
223	0x3eac085f	0.33600137
224	0xbda95d0d	-0.08269701
225	0x3e4b6dfb	0.19866173
226	0x3d9c21ae	0.076236114
227	0xbd8a1c9e	-0.067437395
228	0xbe0e6696	-0.13906321
229	0x3e07d8c0	0.13266277
230	0xbd6e7922	-0.05822099
231	0x3cac91b6	0.021065574
232	0x3e617a71	0.22019364
233	0xbe15f803	-0.1464539
234	0x3cf0239e	0.029313859
235	0x3ca0922f	0.019600956
236	0xbd2aebba	-0.041728713
237	0xbd8e93f4	-0.069618136
238	0x3dbd8981	0.092547424
239	0x3d713da9	0.058896694
240	0xbce120fa	-0.027481545
241	0xbda0942e	-0.07840763
242	0x3eac3613	0.33635005
243	0x3d5d16c2	0.05397678
244	0xbd33a327	-0.043856766
245	0xbd3d6a98	-0.046244234
246	0x3c1a0988	0.0094016865
247	0xbe6625d5	-0.2247537
248	0x3dbf1b16	0.09331338
249	0xbd9e64e8	-0.0773409
250	0xbdd81053	-0.105499886
251	0xbd71d479	-0.05904052
252	0xbea43971	-0.32075074
253	0x3e3f999d	0.18710943
254	0xbd0c481d	-0.03424846
255	0xbcb9803e	-0.022644158

decoder.2.bias f4 [227]
0	0xbd0f5b0f	-0.03499895
1	0xbd989516	-0.07450311
2	0x3c148775	0.009065499
3	0xbcbab746	-0.02279247
4	0xbc6beb4d	-0.014399362
5	0xbd27e0cc	-0.040985867
6	0xbcccbefc	-0.024993412
7	0xbd20c0bf	-0.039246317
8	0xbc94d918	-0.018169925
9	0x3b9db5d5	0.004812936
10	0xbcdaff19	-0.026732968
11	0xbc5fdd97	-0.013663671
12	0xbcb34e6e	-0.021887984
13	0xbc883e2f	-0.016631214
14	0xbd801ea3	-0.062558435
15	0xbc3f772d	-0.011686129
16	0xbd5d90ae	-0.054093055
17	0xbda317bb	-0.079635106
18	0xbd1478be	-0.03624796
19	0xbd44ff74	-0.04809518
20	0xbd62c836	-0.055366717
21	0xbd325388	-0.043536693
22	0xbc3d8d1c	-0.011569288
23	0xbac4b2a8	-0.0015006857
24	0x3f162973	0.58656996
25	0xbd82d92c	-0.063890785
26	0xbc3c0eb1	-0.011478112
27	0xbd4d7dc1	-0.050168756
28	0xbce47e54	-0.02789227
29	0xbd90539f	-0.070471995
30	0xbd0d9c30	-0.03457278
31	0xbcc9bdfb	-0.024626723
32	0x38fa8966	0.000119465214
33	0xbc539806	-0.012914663
34	0xbd90aad5	-0.070638336
35	0xbcb9d966	-0.022686671
36	0xbd5d32d4	-0.05400355
37	0x3c8184ec	0.015810452
38	0xbd77dd20	-0.060513616
39	0xbd331892	-0.043724604
40	0xbd106bd7	-0.035259094
41	0xbca67451	-0.020319136
42	0xbc37d345	-0.011219804
43	0xbd69a48e	-0.057041697
44	0xbcaa8f22	-0.020820204
45	0xbd92ffdd	-0.07177708
46	0xbd312dac	-0.043256447
47	0xbd149ae7	-0.03628054
48	0xbc76bc31	-0.015059517
49	0xbd6d2d9d	-0.05790483
50	0xbd46de56	-0.04855188
51	0xbcc2457d	-0.023714775
52	0xbd5f2f48	-0.05448845
53	0xbcc06362	-0.02348489
54	0x3be2842a	0.006912728
55	0xbc76c992	-0.015062707
56	0xbd5d9156	-0.05409368
57	0x3cb1ff8b	0.021728298
58	0xbc44f9c4	-0.012022439
59	0xbd0535e9	-0.032522116
60	0xbc679e43	-0.014136854
61	0xbd28b4e0	-0.04118812
62	0xbd5aef32	-0.05345077
63	0xbcd68c10	-0.026189834
64	0xbc80c295	-0.015717784
65	0xbc7ea31c	-0.015541818
66	0xbd165217	-0.03669938
67	0xbd63554c	-0.055501267
68	0xbd82ca1a	-0.06386204
69	0xbce2da9e	-0.027692135
70	0xbd9bcb92	-0.07607187
71	0xbd698b77	-0.05701777
72	0xbc38135f	-0.011235087
73	0xbd8be5f2	-0.06830968
74	0xbd693f81	-0.056945328
75	0xbd6bc510	-0.05756098
76	0xba1f3acc	-0.000607413
77	0x3aa1d0dc	0.001234557
78	0x3b45901d	0.0030145713
79	0x3c29156d	0.01032005
80	0xbd73eab9	-0.05955002
81	0xbcb2760a	-0.021784801
82	0xbcac9de0	-0.021071374
83	0xbcf54770	-0.02994129
84	0xbca41afa	-0.020032395
85	0xbd8aa2cd	-0.06769333
86	0xbcd330a0	-0.025780022
87	0xbd52c613	-0.05145843
88	0xbb363cbe	-0.0027807201
89	0xbc879418	-0.016550109
90	0xbd081889	-0.033226524
91	0xbbe9fd9a	-0.0071408274
92	0xbd87efcb	-0.06637534
93	0xbd4254bc	-0.04744409
94	0xbd0eedec	-0.03489487
95	0x3c006fa2	0.007839115
96	0xbd193d78	-0.037412137
97	0xbc9652b2	-0.01834998
98	0xbc3ff6a2	-0.011716517
99	0xbc4c0950	-0.012453392
100	0xbcb658f3	-0.022259211
101	0xbc199de0	-0.009376019
102	0x3cbf411d	0.023346478
103	0xbda82810	-0.08210766
104	0xbc4efa96	-0.0126329865
105	0xbd289ff5	-0.041168172
106	0xbc297330	-0.010342404
107	0xbac4b2a9	-0.0015006858
108	0x3c9b7fa1	0.018981757
109	0xbc8cb3f0	-0.017175645
110	0x3d47d5fa	0.04878805
111	0xbcd53f44	-0.026031144
112	0x3e168abb	0.14701359
113	0xbc7fd6bd	-0.015615162
114	0xbcbb69a9	-0.022877531
115	0xbc8c37a0	-0.017116368
116	0xbd80d0a3	-0.06289794
117	0xbc6698c1	-0.014074505
118	0xbcf2ca24	-0.029637404
119	0xbd418ade	-0.047251575
120	0xbd168a24	-0.036752835
121	0xbd5b0552	-0.05347187
122	0xbd4e3dfb	-0.050352078
123	0xbd666bc6	-0.056255125
124	0xbc8f8e9f	-0.017524062
125	0xbc0f97f8	-0.0087642595
126	0xbd6d9338	-0.058001727
127	0x3cb99b87	0.022657169
128	0xbc259553	-0.010106402
129	0xbc912826	-0.01771934
130	0x3af50f85	0.0018696642
131	0xbd72ef10	-0.05931002
132	0xbc5b0076	-0.013366809
133	0xbc7cb50f	-0.015424027
134	0xbd35968d	-0.04433303
135	0xbcad50cf	-0.021156697
136	0xbac4b2a8	-0.0015006857
137	0xbf232f37	-0.6374392
138	0xbc080b99	-0.008303546
139	0xbc85d520	-0.016336977
140	0xbd285ae4	-0.041102305
141	0xbd3db228	-0.04631248
142	0xbc275a03	-0.010214332
143	0xbd096fcf	-0.033553895
144	0xbc253b38	-0.01008492
145	0xbd8c393e	-0.068468556
146	0xb966b7ab	-0.00022002931
147	0xbc6fefae	-0.014644546
148	0xbd495cf5	-0.049160916
149	0xbc741456	-0.014897427
150	0xbb800b86	-0.0039076237
151	0xbc88c061	-0.016693296
152	0xbc155d49	-0.009116479
153	0xbd22eeba	-0.03977845
154	0xbd62b685	-0.055349845
155	0xbc39bb42	-0.01133615
156	0xbc9fdc88	-0.019514337
157	0xbcadadce	-0.02120104
158	0xbb645181	-0.003483862
159	0xbd1adb17	-0.037806597
160	0xbcb750ff	-0.02237749
161	0xbbeab383	-0.0071625127
162	0xbc393f8c	-0.011306655
163	0xbcf7c9d7	-0.030247612
164	0x3cec3191	0.028832229
165	0xbc95eb60	-0.018300712
166	0xbc2a44a0	-0.010392338
167	0xba02f308	-0.0004995321
168	0xbbb81592	-0.0056178058
169	0xbced5ec3	-0.02897585
170	0xbbea693f	-0.0071536596
171	0xbcd971ed	-0.026543582
172	0xbb8bb756	-0.0042637987
173	0x3bcd0f60	0.0062579364
174	0xbd187d6a	-0.03722898
175	0xbcb3d17b	-0.021950474
176	0xbd08ede2	-0.033429988
177	0x3d19c2be	0.037539236
178	0x3b41c9cf	0.002956975
179	0xbd395c24	-0.045253888
180	0xbcd7c44c	-0.026338719
181	0x3cf92cd7	0.03041689
182	0xbd5edd36	-0.054410182
183	0xbc11e7cd	-0.008905363
184	0xbca2dde4	-0.019881196
185	0xbcf1cea5	-0.029517481
186	0xbc4df981	-0.012571693
187	0xbcd50115	-0.026001493
188	0xbcd96086	-0.026535284
189	0x3d1a6107	0.03769019
190	0x3b8926f5	0.0041855522
191	0x3c30f6cb	0.0108010275
192	0xbceecfbc	-0.02915179
193	0xbcdd91eb	-0.027047118
194	0x3d5483ab	0.05188338
195	0x3d19042a	0.037357487
196	0xbccb329f	-0.024804411
197	0xbd5a8b3e	-0.053355448
198	0xbc70a03f	-0.014686643
199	0xbd1a52d1	-0.037676636
200	0xbcaa80b3	-0.020813322
201	0xbc17c4e2	-0.009263249
202	0xbbd02f42	-0.00635329
203	0x3d2c943f	0.042133566
204	0xbbc0b6b0	-0.005881153
205	0xbc2a59a2	-0.010397347
206	0xbcb0f23f	-0.021599887
207	0xbc8cb6e7	-0.017177058
208	0xbd10644b	-0.035251897
209	0xbc1bba9c	-0.00950494
210	0x3cb93770	0.022609442
211	0xbca3a685	-0.019976864
212	0xbc3a6134	-0.011375714
213	0xbc1844c3	-0.009293738
214	0xbccaf4eb	-0.02477499
215	0x3c9a60e2	0.018845025
216	0x3bed989b	0.007250858
217	0xbc6dcf3d	-0.0145147415
218	0xbd11d5b0	-0.03560418
219	0xbc184fce	-0.009296371
220	0xbac4b2a8	-0.0015006857
221	0xbc46f033	-0.012142229
222	0xbd546108	-0.05185035
223	0xbbe489e6	-0.0069744466
224	0x3bdbba92	0.0067055905
225	0x3d6e92df	0.058245536
226	0xbe6e9fdd	-0.2330317
