Algorithms/shawn/exp2/fc_5.batch.pth (torch_old, 252211 bytes, 8 tensors)

fc.0.weight f4 [160, 226]
0	0x3d428b2a	0.047496
1	0xbd0b11e7	-0.03395262
2	0xbc48a3b6	-0.012246063
3	0xbcd66ebf	-0.026175855
4	0xbc38bac4	-0.011274997
5	0xbda42ff2	-0.08016957
6	0xbd39dbc4	-0.0453756
7	0x3d24ade3	0.040204894
8	0xbc9ba22e	-0.018998232
9	0x3d1d7cca	0.038449086
10	0xbd99e40f	-0.07514202
11	0xbd07fad3	-0.03319819
12	0x3cbaeabb	0.022817006
13	0x3dadb6dd	0.08482144
14	0xbd4f111e	-0.050553434
15	0xbd20b693	-0.039236616
16	0x3d98cbb9	0.07460732
17	0xbd402d92	-0.04691846
18	0x3ae7fad5	0.0017698655
19	0x3c0b67f0	0.008508667
20	0x3cc96e34	0.024588682
21	0xbc9f0d81	-0.019415619
22	0x3d1314f3	0.03590865
23	0xbd1774dc	-0.03697668
24	0x3d65bf79	0.056090806
25	0x3c8a922e	0.016915407
26	0xbd8f5f11	-0.07000554
27	0xbdc5b331	-0.09653319
28	0xbce59617	-0.02802567
29	0xbbecdf81	-0.007228792
30	0x3c5247b3	0.012834477
31	0x3d6d5c28	0.057949215
32	0xbca7a2a4	-0.020463295
33	0xbb69fb01	-0.0035702589
34	0xbc04d8cf	-0.008108332
35	0x3ce3374d	0.02773633
36	0x3d47702c	0.04869096
37	0xbcf85f71	-0.030318948
38	0xbcab058b	-0.020876667
39	0xbc5a8443	-0.013337198
40	0x3d2f6e93	0.04283006
41	0x3d4a0e47	0.049330022
42	0x3dc51e8f	0.09624969
43	0xbd39b914	-0.04534252
44	0x3d496236	0.049165927
45	0xbd7b2c55	-0.061321575
46	0x3d7bc57f	0.061467644
47	0xbcd57415	-0.026056329
48	0xbcfc05b0	-0.03076443
49	0xbb8b37e2	-0.004248605
50	0xbcf0d262	-0.029397193
51	0x3d97dbf4	0.074149996
52	0x3d6f339c	0.058398828
53	0xbd31a853	-0.043373417
54	0x3d7d44f8	0.06183335
55	0xbc32bd96	-0.010909459
56	0xbd4d9021	-0.05018628
57	0xbd22d6ed	-0.03975575
58	0xbd95fe66	-0.07323913
59	0x3b333d6f	0.002734985
60	0x3cd047ab	0.025424799
61	0xbc890680	-0.016726732
62	0x3c820956	0.015873592
63	0x3d87179a	0.065962985
64	0x3d36f36b	0.044665735
65	0xbd75f7f9	-0.06005094
66	0x3c9011da	0.017586637
67	0x3c330383	0.01092613
68	0x3dcb31b5	0.0992159
69	0x3db145ad	0.08655868
70	0x3b90b117	0.004415642
71	0xbdaa3295	-0.08310429
72	0x3da3e640	0.08002901
73	0xbcae0de7	-0.021246864
74	0x3cd64731	0.026156994
75	0x3bda4021	0.006660477
76	0xbd048505	-0.03235342
77	0x3d80fed4	0.062986046
78	0xbbc9ac10	-0.0061545447
79	0x3c8e5a21	0.017376961
80	0x3d4ae037	0.049530234
81	0xbd72f122	-0.059311993
82	0x3ce0b2b6	0.027428966
83	0xbd4d9c58	-0.05019793
84	0xbd5b428d	-0.053530265
85	0xbcee81b9	-0.029114591
86	0x3ccf0962	0.025273029
87	0x3d03c6d4	0.03217204
88	0x3d0dd862	0.034630187
89	0xbcb9605b	-0.022628954
90	0xbd6688d4	-0.056282833
91	0x3b917338	0.004438784
92	0xbcf3c0c2	-0.029755
93	0xbad8753d	-0.0016514432
94	0xbd2b8b9f	-0.0418812
95	0xbd28a769	-0.04117528
96	0xbcdeba8c	-0.027188562
97	0x3d0c674c	0.0342782
98	0xbba4b842	-0.005026848
99	0x3d496000	0.04916382
100	0x3c835f46	0.01603664
101	0x3c5a50e1	0.013324947
102	0x3cda462e	0.026644792
103	0x3d7a770c	0.06114869
104	0xbc6de286	-0.014519339
105	0xbda3b9a1	-0.0799439
106	0x3ca95fed	0.020675624
107	0xbd5414bb	-0.051777583
108	0xbd61b78e	-0.055106692
109	0xbc7fd333	-0.015614319
110	0xbd9066fd	-0.070508935
111	0x3d45b422	0.04826749
112	0x3c44e173	0.012016642
113	0xbdfc831f	-0.12329697
114	0x3d1a73e9	0.037708197
115	0xbcc62dc9	-0.024191754
116	0xbbf78026	-0.0075531183
117	0x3cb7bf49	0.022430079
118	0xbce1f33f	-0.02758181
119	0xbcad8399	-0.021180915
120	0xbd0cba10	-0.03435713
121	0x3d6e33a8	0.058154732
122	0x3bceb2c1	0.00630793
123	0xbd121d6d	-0.035672594
124	0xbda28fd7	-0.079375915
125	0x3c852c5c	0.016256504
126	0x3da88d13	0.08230033
127	0x3c36c364	0.011154983
128	0x3d4e13e5	0.05031194
129	0x3c063d38	0.008193307
130	0x3d0dcd9e	0.03461992
131	0x3d586303	0.0528288
132	0xbd1b7cea	-0.037960924
133	0xbd09f8d8	-0.03368458
134	0x3bc3bd81	0.0059735184
135	0x39c49519	0.0003749512
136	0x3bc93680	0.00614053
137	0xbc871747	-0.016490592
138	0xbc8c76ee	-0.017146554
139	0x3c58e509	0.0132382
140	0x3cca460c	0.024691604
141	0x3d1cf9f5	0.038324315
142	0x3d92b3f7	0.07163232
143	0x3ccdc3ab	0.025117716
144	0xbd22f74b	-0.03978662
145	0x3d0dbb2b	0.034602325
146	0xbbdfb847	-0.0068273875
147	0xbd1dd86e	-0.03853648
148	0x3c31062e	0.010804696
149	0x3d00be02	0.031431206
150	0xbce747ca	-0.028232474
151	0x3d4d5fd4	0.050140217
152	0x3dd3e832	0.10347022
153	0x3d59da35	0.053186614
154	0x3d17dd4b	0.037076276
155	0xbcaecbe1	-0.021337451
156	0xbc9df6f4	-0.019282795
157	0xbd99a736	-0.07502596
158	0xbcbc02a7	-0.022950483
159	0x3d0ff7dd	0.03514849
160	0x3d101374	0.035174802
161	0xbd3abf39	-0.04559252
162	0xbd371dd1	-0.04470617
163	0xbd08b9ad	-0.0333802
164	0x3d279770	0.040915906
165	0xbd692022	-0.05691541
166	0xbd804916	-0.0626394
167	0x3c18d4c8	0.009328075
168	0xba24a8f2	-0.00062812783
169	0x3d6c26fe	0.057654373
170	0xbae32822	-0.0017330686
171	0xbcf8b1d5	-0.030358234
172	0xbd767d2e	-0.060177974
173	0xbc371228	-0.011173762
174	0xbcaed200	-0.02134037
175	0xbd2e533d	-0.04255985
176	0x3c8c98f3	0.017162776
177	0xbc959398	-0.018258855
178	0x3cf03509	0.029322164
179	0xbd9c64c6	-0.076364085
180	0xbba9508c	-0.0051670726
181	0x3d5ba2d7	0.053622093
182	0xbd540d0a	-0.051770248
183	0xbbf783fc	-0.0075535756
184	0xbc842768	-0.016132072
185	0xbdfc86e7	-0.12330418
186	0xbaf9e14e	-0.0019064338
187	0xbc9553f8	-0.018228516
188	0xbd5f4b98	-0.05451545
189	0x3c529323	0.012852463
190	0x3c01efe9	0.007930734
191	0xbc0f5fd9	-0.008750879
192	0xbc8ec395	-0.017427245
193	0xbd1cb513	-0.038258623
194	0xbd1bc03e	-0.038025133
195	0x3c1f6ec6	0.009731
196	0x3be24b5f	0.0069059576
197	0xbdda32cf	-0.10654222
198	0x3b60a221	0.0034276324
199	0xbd34dfa5	-0.044158597
200	0xbd0b1a54	-0.033960655
201	0xbd709e50	-0.05874473
202	0xbce8f0ba	-0.0284351
203	0xbc4d0102	-0.012512447
204	0x3cce3208	0.025170341
205	0x3d5d86f6	0.054083787
206	0x3d02e597	0.031957235
207	0xbcc1c283	-0.02365232
208	0x3ca6eb4c	0.02037587
209	0xbb0520f1	-0.0020313824
210	0xbb72effd	-0.0037069314
211	0x3dccb69b	0.09995767
212	0x3d72d047	0.05928066
213	0x3d500e57	0.050794926
214	0x3c8ac1b6	0.016938072
215	0xbc061628	-0.008183993
216	0xbd3d4a79	-0.0462136
217	0xbd1854b0	-0.03719014
218	0x3da0948f	0.07840835
219	0xbcfc72d0	-0.030816466
220	0xbca6f3ec	-0.020379983
221	0xbdb5258f	-0.08845054
222	0x3dac75ba	0.08420892
223	0xbc9a9f74	-0.018874861
224	0x3d7645c7	0.06012514
225	0x3ce52ecd	0.027976418
226	0xbd86bc53	-0.06578889
227	0xbd74738b	-0.059680503
228	0xbd9013e7	-0.07035046
229	0xbc9ca981	-0.019123795
230	0xbc394ab4	-0.0113093145
231	0x3d8a0473	0.0673913
232	0x3b0faee1	0.0021924304
233	0xbbc970aa	-0.006147464
234	0x3d6bc567	0.057561304
235	0x3cd0abc8	0.025472537
236	0xbcabb080	-0.020958185
237	0xbc905839	-0.017620193
238	0x3d4b6711	0.04965884
239	0xbc24da80	-0.01006186
240	0xbd767aba	-0.060175635
241	0xbd316962	-0.04331339
242	0xbccb49b0	-0.02481541
243	0x3cb60067	0.022216989
244	0xbd05bd1b	-0.03265105
245	0x3b872165	0.004123854
246	0x3b595340	0.0033161193
247	0x3dd202ef	0.10254466
248	0xbc74ad98	-0.014933966
249	0x3d5a70c8	0.053330213
250	0xbccfc125	-0.025360653
251	0x3d0dc920	0.034615636
252	0xbd230c75	-0.0398068
253	0x3b01be5f	0.0019797308
254	0x3cae9d80	0.021315336
255	0x3d0f7b65	0.035029788

fc.0.bias f4 [160]
0	0x3cc14235	0.02359114
1	0x3c3b84da	0.0114452485
2	0x3d486425	0.04892363
3	0x3c6af49f	0.014340549
4	0x3db93b5c	0.09044525
5	0x3d16d0a7	0.03682008
6	0xbb61d07a	-0.0034456537
7	0xbd812be2	-0.06307198
8	0x3ab1ffa3	0.0013580214
9	0x3d6623fd	0.056186665
10	0x3d7e12e0	0.06202972
11	0xbd2477fc	-0.04015349
12	0xbd0c8a73	-0.034311723
13	0x3d878943	0.066179775
14	0x3d2d3f9f	0.042297002
15	0x3de8d278	0.11368269
16	0xbce6191a	-0.028088141
17	0xbce57ed2	-0.028014574
18	0x3d3d9bbd	0.0462911
19	0xbd17bf65	-0.037047762
20	0xbafd04bd	-0.001930378
21	0x3cd20cf3	0.02564094
22	0x3e0a8146	0.13525876
23	0xbc98b173	-0.018639302
24	0x3d595e73	0.05306859
25	0xbd3d1f09	-0.046172176
26	0x3cb8ddac	0.022566639
27	0xbcb1033a	-0.021607984
28	0x3d54c924	0.051949635
29	0x3c403d14	0.011733312
30	0x3d3102bc	0.0432155
31	0xbd2fad9d	-0.04289018
32	0x3ce3fa6f	0.027829377
33	0xbcee66bc	-0.029101722
34	0x3d4714d3	0.048603844
35	0x3c28a72b	0.010293762
36	0x3d60781a	0.054802038
37	0xbc9e7617	-0.019343419
38	0x3d7a7383	0.061145317
39	0x3d30cc77	0.043163743
40	0xbbb78926	-0.005601066
41	0xbca71690	-0.0203965
42	0x3d106ce7	0.035260107
43	0x3bdc0d95	0.0067154863
44	0x3cc8b299	0.024499224
45	0x3ca9489b	0.020664504
46	0x3ce5f501	0.028070929
47	0xbce27971	-0.027645798
48	0x3c76af00	0.015056372
49	0x3d27a0ae	0.04092472
50	0x3e160659	0.14650859
51	0xbd2b4160	-0.041810393
52	0x3d78f77e	0.060782902
53	0x3d8a2e42	0.06747104
54	0x3cc4ec6c	0.024038516
55	0xbd7d1e92	-0.061796732
56	0x3c8921c4	0.016739734
57	0x3c1b5449	0.009480544
58	0x3bb04c8d	0.0053802193
59	0xbc9a5007	-0.018836988
60	0x3c1508ec	0.009096365
61	0xbd248b22	-0.04017175
62	0xbcd6af9c	-0.026206784
63	0x3dab8806	0.08375554
64	0xbc23528f	-0.009968414
65	0xbcff13b8	-0.031137332
66	0xbd045956	-0.03231176
67	0xbc57de56	-0.013175568
68	0xbd038eea	-0.032118715
69	0xbd31f834	-0.043449596
70	0xbc8db4a0	-0.017298043
71	0xbd6d2b5b	-0.057902675
72	0x3ca67112	0.020317588
73	0x3a5dcd71	0.0008461094
74	0xbd519786	-0.051169895
75	0xbc9fab76	-0.019490939
76	0xbbeb1187	-0.0071737203
77	0x3b70312e	0.0036650407
78	0x3d41a645	0.047277708
79	0x3d26456d	0.040593553
80	0x3d3668c1	0.044533495
81	0xbd56ed50	-0.052472413
82	0xbd39151f	-0.04518616
83	0x3c395a5d	0.011313048
84	0x3cebf88c	0.02880504
85	0x3d152e7a	0.036421277
86	0x3c954a56	0.018223923
87	0xbd860a9e	-0.06544994
88	0x3cc86be9	0.024465518
89	0xbd4773fb	-0.048694592
90	0xbbe770cc	-0.007063007
91	0xbbe23491	-0.006903239
92	0x3cba22de	0.022721704
93	0xbc93e5ac	-0.018053852
94	0x3dd3aa3e	0.103352055
95	0xbdad0ce5	-0.08449725
96	0xbd0c03fd	-0.03418349
97	0x3cfd3376	0.030908328
98	0xbd5b23f4	-0.053501084
99	0x3d8ae9b0	0.067828536
100	0xbd4a4f50	-0.049392045
101	0xbd9ba3cc	-0.07599601
102	0xbca74afb	-0.020421496
103	0xbd5180a4	-0.051148072
104	0xbc62c33b	-0.013840492
105	0x3c84c9f1	0.016209574
106	0xbd843763	-0.06455877
107	0xbd05c807	-0.032661464
108	0x3b43968e	0.0029844376
109	0x3c64edf0	0.013972744
110	0xbbb55f5f	-0.0055350508
111	0xbd91bf74	-0.07116595
112	0xbce9eff6	-0.028556805
113	0x3cac49a2	0.021031205
114	0xbd9e24bc	-0.0772185
115	0x3d0f6896	0.03501185
116	0xbd2a506a	-0.041580595
117	0x3da21a71	0.079151995
118	0x3d0a6de8	0.03379622
119	0x3ccd823e	0.025086518
120	0xbc8edc72	-0.0174391
121	0x3d989c16	0.07451646
122	0x3d30cbd8	0.04316315
123	0x3df38649	0.11890847
124	0x3c7c5f8f	0.015403642
125	0xbcef658d	-0.029223228
126	0xbd2dff49	-0.042479787
127	0x3d6a6f4f	0.05723506
128	0x3d5b6356	0.05356153
129	0x3b432fdf	0.0029783172
130	0x3d253c68	0.04034081
131	0x3d8466ab	0.06464895
132	0x3ce4cc42	0.027929429
133	0x3c60707f	0.013698696
134	0x3d5a1c60	0.053249717
135	0x3cd73e1b	0.026274731
136	0x3d314f53	0.04328854
137	0xba47f268	-0.0007627369
138	0x3c6245a3	0.013810548
139	0x3d315a98	0.043299288
140	0xbc3af25e	-0.011410324
141	0x3c0dbd42	0.00865108
142	0x3d8c7909	0.06859023
143	0xbb50e5b9	-0.0031875207
144	0xbd500dbe	-0.050794356
145	0x3dada0ec	0.08477959
146	0xbd6f762e	-0.058462314
147	0x3c8820c6	0.01661719
148	0xbc9ae0a3	-0.018905943
149	0x3cb49ef9	0.02204846
150	0xbd836362	-0.0641544
151	0xbd528327	-0.051394608
152	0x3d4f760f	0.0506497
153	0xbb3d1113	-0.0028849288
154	0xbd3c4cd7	-0.045971718
155	0x3d2abb5f	0.041682597
156	0xbcdfee32	-0.02733526
157	0x3c9f7fa7	0.019470049
158	0x3b501db5	0.0031755988
159	0x3cf8e188	0.03038098

fc.2.weight f4 [100, 160]
0	0xbd6449cf	-0.05573445
1	0x3d60f123	0.054917466
2	0xbd57936d	-0.05263083
3	0x3d847dcc	0.06469306
4	0xbd168642	-0.036749132
5	0xbc86189d	-0.016369158
6	0x3c6f6e6c	0.014613729
7	0xbc95b7a3	-0.018276041
8	0xbcdf530d	-0.027261281
9	0xbd9c5739	-0.07633824
10	0xbcd93d14	-0.026518382
11	0xbc82a0de	-0.015945848
12	0x3d2cca61	0.04218519
13	0xbd515568	-0.05110684
14	0x3c1ca7d9	0.009561502
15	0x3c9b3783	0.018947368
16	0xbcb63114	-0.0222402
17	0x3d670522	0.05640138
18	0x3d4fa3de	0.050693385
19	0x3c416536	0.011803916
20	0xbd2878b9	-0.041130755
21	0xbd7e59b2	-0.06209726
22	0x3d8e4dd5	0.06948439
23	0xbb81aac5	-0.003957125
24	0x3d025608	0.031820327
25	0xbd48496a	-0.048898138
26	0xbd45b6c2	-0.048269995
27	0xbb447d0c	-0.002998176
28	0xbc28870e	-0.010286106
29	0x3c87d66b	0.016581735
30	0x3c83074e	0.015994694
31	0xbd787657	-0.060659733
32	0xb9625154	-0.00021583337
33	0x3d62d79f	0.055381414
34	0xbc9e351c	-0.019312434
35	0x3d4ff3f6	0.05076977
36	0xbcdce68f	-0.026965408
37	0x3b99f9a3	0.0046989485
38	0xbcbaab07	-0.02278663
39	0x3cae4eb8	0.02127777
40	0xbbb6a134	-0.005573416
41	0x3d9ed4cc	0.077554315
42	0xbc96f020	-0.018425047
43	0xbcd4eed6	-0.025992792
44	0xbcea29a2	-0.028584305
45	0xbd091206	-0.033464454
46	0xbd32d21b	-0.043657403
47	0xbd2c2daa	-0.042035736
48	0xbd2d41d2	-0.0422991
49	0xbd93fdc5	-0.07226137
50	0x3d1be6da	0.038061954
51	0x3d838fc5	0.06423906
52	0x3c1287e5	0.008943533
53	0xbd7339f6	-0.059381448
54	0xbd37fd4d	-0.0449193
55	0xbd5cdbe7	-0.053920653
56	0xbd30c375	-0.043155152
57	0x3d88b6b1	0.066754706
58	0xbd161e92	-0.036650248
59	0xbd8ea044	-0.06964162
60	0x3d78f77e	0.060782902
61	0x3d7205dc	0.05908762
62	0xbcd9ef9c	-0.026603512
63	0x3d76ec23	0.06028379
64	0xbd9bdfe3	-0.076110624
65	0xbc19a0b8	-0.009376697
66	0x3d71b274	0.059008077
67	0x3ab1bde3	0.0013560619
68	0x3d554490	0.05206734
69	0x3d16936c	0.036761686
70	0xbce6faa5	-0.028195689
71	0x3bf91cb8	0.0076023005
72	0x3d649ae0	0.055811763
73	0x3acd9506	0.0015684671
74	0x3d2d657d	0.042333115
75	0xbbce31b7	-0.0062925476
76	0xbd63d017	-0.05561837
77	0xbd70514f	-0.058671292
78	0xbd371a2a	-0.044702686
79	0x3cb93a16	0.022610705
80	0x3d8ae7a2	0.06782462
81	0x3d8715ed	0.06595979
82	0xbab7f59a	-0.0014034987
83	0xbcb56367	-0.022142125
84	0xbd2940f5	-0.041321713
85	0x3d7d3598	0.06181869
86	0x3c8812f4	0.0166106
87	0x3c89cd4e	0.01682153
88	0xbd5f58b2	-0.054527946
89	0xbda1bbe9	-0.07897169
90	0x3d91cb1d	0.07118819
91	0x3d1df490	0.03856331
92	0xbd5ff360	-0.05467546
93	0xbd154534	-0.03644295
94	0x3ccdbf0b	0.02511551
95	0xbd661b3e	-0.056178324
96	0xbd9e6ea9	-0.077359505
97	0x3d024293	0.03180177
98	0x3d14ede2	0.036359675
99	0x3be88e8b	0.0070970706
100	0x3d10d199	0.035356138
101	0x3d12f984	0.035882488
102	0xbd1f0dcd	-0.03883152
103	0xba96f253	-0.001151631
104	0xbcb01ecb	-0.021499058
105	0xbd087596	-0.033315264
106	0xbcd528e2	-0.026020471
107	0x3b9e8c96	0.0048385365
108	0x3d8e8ccf	0.06960451
109	0x3c97dfbe	0.018539306
110	0x3d9351f6	0.07193367
111	0xbd1dbe1e	-0.038511388
112	0xbd321dcd	-0.04348545
113	0x3d1cde24	0.038297787
114	0x3d6a3697	0.057180967
115	0xbd87b019	-0.06625385
116	0x3bf7b13d	0.0075589702
117	0xbd56474b	-0.052314084
118	0xbbbd38ce	-0.005774594
119	0xbcee7eaf	-0.029113142
120	0xbd981da9	-0.07427532
121	0x3d920af0	0.071309924
122	0xbd6dcf2f	-0.058058914
123	0x3d12b10a	0.03581337
124	0xbd911b4e	-0.07085286
125	0xbd993603	-0.07481005
126	0xbcdc143e	-0.026865121
127	0xbd3e0b0a	-0.046397246
128	0x3d830800	0.0639801
129	0x3d8d3df5	0.06896583
130	0xbd2ac53d	-0.041692007
131	0xbcfe86e9	-0.03107019
132	0xbc5dc737	-0.013536266
133	0x3d19156f	0.037373956
134	0x3c940ef7	0.018073542
135	0xbd8fe21d	-0.070255496
136	0x3d596abd	0.05308031
137	0x3cbe25f7	0.023211462
138	0xbd5484f7	-0.051884618
139	0x3d3d997e	0.04628896
140	0xbc4a1df5	-0.012336244
141	0x3d864736	0.06556551
142	0xbc3f4ea3	-0.011676463
143	0xbcb8ebb8	-0.022573337
144	0x3d8e4193	0.06946101
145	0xbd0c77bc	-0.034293875
146	0xbd4aba53	-0.0494941
147	0xbd09764b	-0.03356008
148	0xbd4a3e74	-0.049375966
149	0x3d3e9693	0.046530318
150	0xbab3ab50	-0.0013707671
151	0x3d6e6a8c	0.05820708
152	0xbd143062	-0.036178954
153	0xbcf8374e	-0.030299809
154	0xbd80dd46	-0.062922046
155	0xbd4dfcdb	-0.05028997
156	0xbc93f393	-0.018060481
157	0xbd2a1e46	-0.041532777
158	0xbbe1b853	-0.0068884282
159	0xbd92850c	-0.07154283
160	0x3d9be780	0.076125145
161	0x3d925231	0.07144583
162	0xbc2fa857	-0.010721288
163	0xbd40d02b	-0.047073524
164	0x3c5b4c6c	0.01338492
165	0x3be810e0	0.00708209
166	0xbddc875d	-0.10768006
167	0x3c341c07	0.01099301
168	0xbc95897d	-0.018254036
169	0xbd350a78	-0.044199437
170	0x3cbfbe6b	0.023406228
171	0x3dcbd133	0.09952011
172	0xbdbbddbe	-0.09173153
173	0xbdeafd29	-0.11474068
174	0x3d000556	0.03125509
175	0x3d3bb5ba	0.045827605
176	0x3d83eea2	0.06442
177	0x3d1395ad	0.036031414
178	0xbbb3ae90	-0.005483456
179	0xbdd14310	-0.10217869
180	0xbca2b8c1	-0.019863488
181	0x3dc654ef	0.096841685
182	0x3da9c250	0.08289015
183	0x3dd8fa20	0.105945826
184	0xbd8c2e8c	-0.068448156
185	0x3cbdb6d7	0.023158474
186	0x3ceb5e81	0.028731586
187	0xbdd6796a	-0.10472377
188	0xbd1027a6	-0.03519406
189	0xbd33f2eb	-0.043932837
190	0xbc4bdf4e	-0.012443377
191	0xbc9fbb79	-0.019498574
192	0x3d3185f5	0.043340642
193	0x3d40da26	0.047083043
194	0xbda116e7	-0.078656964
195	0x3d5dc067	0.054138567
196	0xbc517181	-0.012783409
197	0x3c8bc08b	0.017059585
198	0x3bcfd68c	0.0063427147
199	0x3dc24efc	0.09487721
200	0x3d1f28c9	0.038857255
201	0x3db07a4e	0.08617078
202	0x3ba973f8	0.0051712953
203	0x3b8cebb2	0.004300558
204	0x3d32c784	0.043647304
205	0xbda9fabf	-0.08299779
206	0xbce4044f	-0.027834086
207	0xbd3fd2e2	-0.046831973
208	0xbcb1d68a	-0.021708746
209	0x3cc21de2	0.02369589
210	0xbc047d53	-0.00808652
211	0xbd4e79ec	-0.050409243
212	0x3c347de0	0.011016339
213	0xbd279294	-0.040911272
214	0x3cc4a7a1	0.024005713
215	0x39b7c057	0.00035047784
216	0x3dafe96a	0.08589442
217	0xbd9abbd4	-0.075553566
218	0x3d284ce6	0.04108896
219	0xbd84ccbd	-0.06484363
220	0x3ce9231b	0.028459122
221	0xbc2bf149	-0.010494539
222	0xbda628dc	-0.08113262
223	0x3d26d61d	0.040731538
224	0xbdc7fa02	-0.09764482
225	0x3d06dfe2	0.032928355
226	0xbb32d1df	-0.0027285737
227	0x3d37471a	0.044745542
228	0xbda750a3	-0.08169677
229	0xbb71b785	-0.0036883068
230	0xbc1a42f1	-0.009415374
231	0xbc96a1fb	-0.018387785
232	0xbce38746	-0.027774464
233	0x3c44ca1d	0.012011078
234	0xbd5f62cb	-0.054537576
235	0x3dc155ff	0.094402306
236	0xbc8980e7	-0.016785098
237	0x3ce89117	0.028389497
238	0x3d8ee1f1	0.06976689
239	0xbc9fb16f	-0.019493787
240	0x3d489802	0.04897309
241	0x3db47180	0.08810711
242	0x3c2e8701	0.010652305
243	0xbda5fecf	-0.081052415
244	0xbc023201	-0.007946492
245	0xbd1fad44	-0.0389836
246	0xbd3b1494	-0.04567392
247	0x3d80eba0	0.06294942
248	0x3d54731e	0.051867597
249	0x3b0e05a2	0.0021670838
250	0x3da05872	0.078293696
251	0xbcdf33bc	-0.027246349
252	0x3de18807	0.11012273
253	0xbdbf984b	-0.093552195
254	0x3d25db25	0.040492196
255	0xbdbdce2a	-0.09267838

fc.2.bias f4 [100]
0	0xbd6833fb	-0.056690197
1	0x3bf3458c	0.007424062
2	0xbd5be1a5	-0.05368199
3	0xbd8a5d5d	-0.06756089
4	0xbabd50a6	-0.0014443591
5	0x3d505315	0.050860483
6	0x3b1baeed	0.0023755387
7	0x3cf247df	0.029575286
8	0x3acb79b1	0.0015523938
9	0x3d518d5a	0.051160194
10	0xbd063c66	-0.032772444
11	0x3d122498	0.03567943
12	0xbd435761	-0.047690753
13	0xbd6b7aad	-0.05749004
14	0xbd58fa40	-0.052973032
15	0x3e548a28	0.20755827
16	0x3e468a57	0.1938871
17	0x3c861431	0.01636705
18	0xbb9c0f7c	-0.004762588
19	0xbcdf2f96	-0.02724437
20	0xbd37431a	-0.044741727
21	0x3c6a3f2f	0.014297291
22	0x3dcb0126	0.099123284
23	0x3d2579a2	0.0403992
24	0x3d7f5ec9	0.062346254
25	0x3d4f3124	0.050583974
26	0x3d32839e	0.04358255
27	0xbd78ab78	-0.0607104
28	0x3c3e9aaa	0.0116335545
29	0x3d152c5a	0.03641925
30	0xbd1a5b67	-0.037684824
31	0xbce21ef7	-0.027602656
32	0x3ca1cadb	0.01975005
33	0x3d2086ce	0.03919106
34	0x3ce4e8e1	0.027943077
35	0x3badfc41	0.005309612
36	0xbd89163a	-0.066936925
37	0x3d460cdf	0.04835212
38	0xbd680deb	-0.0566539
39	0x3dc81b8e	0.09770881
40	0xbd8b7042	-0.06808521
41	0xbd824c08	-0.06362158
42	0x3d4362ca	0.047701634
43	0x3cc7e4b8	0.024401054
44	0xbd802b05	-0.06258205
45	0xbc4d2e63	-0.0125232665
46	0xbc0f8be7	-0.008761383
47	0xbc1f89b9	-0.0097374255
48	0xbdb217db	-0.08695956
49	0x3d35ef1a	0.04441748
50	0xbdb9af88	-0.09066683
51	0xbcb13891	-0.021633418
52	0x3cc40045	0.02392591
53	0x3d910eeb	0.070829235
54	0x3a944f91	0.0011315217
55	0xbd3d1760	-0.04616487
56	0xbd4b4256	-0.04962381
57	0xbd7e9265	-0.06215133
58	0x3d4f53dc	0.050617084
59	0xbd9e6a4f	-0.077351205
60	0xbcef9355	-0.029245058
61	0xbd082ced	-0.03324597
62	0x3cf8527c	0.03031277
63	0x3d9ae449	0.07563073
64	0x3d944327	0.07239371
65	0xbd6ce0b2	-0.057831474
66	0xbca32834	-0.019916631
67	0xbd14d0ea	-0.03633205
68	0x3a63c621	0.00086888863
69	0xbc0c8230	-0.008575961
70	0x3c069ecd	0.008216572
71	0xbd24d7af	-0.040244754
72	0xbd59cca4	-0.053173676
73	0xbca3cb09	-0.019994276
74	0x3d8293e3	0.063758634
75	0xbc80c596	-0.015719216
76	0x3d4ecf38	0.050490588
77	0xbd45eb54	-0.04832013
78	0xbc16b78d	-0.009199035
79	0x3cf0a6de	0.029376443
80	0xbd9cce74	-0.07656565
81	0xbbcf542b	-0.0063271723
82	0xbd0f505c	-0.034988746
83	0xbbc3f38d	-0.0059799612
84	0xbd31a419	-0.043369386
85	0xbc56dce5	-0.013114189
86	0x3ada2877	0.001664414
87	0xbb58965a	-0.00330486
88	0x3d947cd0	0.072503686
89	0x3c9d6cf8	0.019217
90	0x3dbbc1fd	0.0916786
91	0xbd62d006	-0.055374168
92	0xbc3ee22c	-0.011650603
93	0xbc981d5e	-0.01856869
94	0xbca7046b	-0.020387849
95	0x3d6c8900	0.05774784
96	0x3d08075d	0.033210147
97	0x3db6d2c7	0.08926921
98	0x3dc1c663	0.094616674
99	0x3b701d90	0.0036638714

fc.4.weight f4 [100, 100]
0	0xbdb1b0f3	-0.086763285
1	0x3db6e5ff	0.08930587
2	0x3d90590f	0.070482366
3	0x3ca63e60	0.020293415
4	0x3cc95ab1	0.024579378
5	0x3dbb9523	0.09159305
6	0xbc516d7a	-0.012782449
7	0xbd9aa1b6	-0.07550375
8	0x3bbd22a3	0.0057719513
9	0xbd382ea6	-0.044966362
10	0x3d78659e	0.060643785
11	0x3a3e4240	0.0007257797
12	0x3d8562ff	0.06513023
13	0x3d8a07e9	0.0673979
14	0xbdb0b087	-0.0862742
15	0xbbc35431	-0.005960964
16	0xbd20414a	-0.039124765
17	0x3d86af61	0.065764196
18	0xbd7bf733	-0.061515044
19	0xbc7bb4ec	-0.015362959
20	0xbc8d23cc	-0.017228983
21	0xbd8f1468	-0.06986314
22	0xbccaaec6	-0.024741542
23	0x3da83d17	0.08214777
24	0x3d7a678d	0.06113391
25	0x3ccfafae	0.025352325
26	0x3d665658	0.056234688
27	0xbc9ba0f4	-0.018997647
28	0x3d989905	0.07451061
29	0x3d6bf84c	0.05760984
30	0xbdb3b09f	-0.08773922
31	0xbc8f212c	-0.017471872
32	0xbd342c21	-0.043987397
33	0xbd5a16f8	-0.05324456
34	0x3d61a706	0.055090927
35	0x3a87ada2	0.0010351429
36	0x3b83ebc3	0.0040259077
37	0x3cbebe48	0.023284093
38	0x3c726dbc	0.0147966705
39	0xbd623d20	-0.055234075
40	0x3d1b29f2	0.0378818
41	0xbd6ded4a	-0.058087625
42	0x3d9d56e5	0.076825894
43	0x3d5be860	0.053688407
44	0x3c8f8bb7	0.017522676
45	0x3cb382ea	0.02191301
46	0xbd37673a	-0.04477618
47	0xbcba710c	-0.022758983
48	0xbd9e9765	-0.0774372
49	0xbd8aeab6	-0.06783049
50	0xbc94c740	-0.018161416
51	0x3bbd72e2	0.0057815174
52	0xbd9ce1c8	-0.07660252
53	0x3d5f809a	0.054566003
54	0x3b588000	0.0033035278
55	0x3c8e31b0	0.017357677
56	0xbd64bb9a	-0.055842973
57	0x3d8435d1	0.06455577
58	0xbd432eb8	-0.047651976
59	0x3d75252b	0.0598499
60	0x3d4471b2	0.04795999
61	0xbd49cd03	-0.04926778
62	0x3a4dd2cc	0.00078515406
63	0xbd104aee	-0.03522771
64	0xbc786f7f	-0.0151633015
65	0xbdbc34aa	-0.091897324
66	0x3c1f908e	0.009739054
67	0x3d832ad9	0.06404657
68	0xbcd8c3b5	-0.026460508
69	0x3d400c9a	0.046887018
70	0x3dbf7dc1	0.093501575
71	0xbc149bc5	-0.0090703415
72	0x3c85b44f	0.01632133
73	0xbd951daa	-0.072810486
74	0xbd9e90bb	-0.07742449
75	0x3c7080d8	0.014679156
76	0xbd9ea8e8	-0.0774706
77	0xbbc62e50	-0.0060480013
78	0x3db384d9	0.08765573
79	0xbdc47be3	-0.09593942
80	0xbd8b1b78	-0.067923486
81	0x3c44a418	0.012002014
82	0xbd7b74b3	-0.06139059
83	0x3d906d51	0.070521004
84	0xbd53f5c7	-0.051748063
85	0xbd937bbd	-0.072013356
86	0x3dc1dcdd	0.094659545
87	0x3c8f4028	0.017486647
88	0xbacbbe43	-0.0015544373
89	0x3d9855bb	0.07438227
90	0xbd99ccec	-0.07509789
91	0x3d0656aa	0.032797493
92	0x3d44768c	0.047964618
93	0x3d04d604	0.032430664
94	0x3db8a4c5	0.09015802
95	0xbda48941	-0.080339916
96	0xbce2596c	-0.02763053
97	0x3d743acf	0.059626397
98	0xbdc6b387	-0.09702211
99	0xbd10a89c	-0.03531705
100	0x3d96a1d1	0.07355083
101	0x3da0d217	0.078525715
102	0x3cd456fc	0.025920384
103	0x3c477d68	0.012175895
104	0x3ccd5af5	0.025067786
105	0x3d8d2d19	0.06893367
106	0x3c9d7dee	0.019225087
107	0xbc357af6	-0.011076679
108	0x3da78e59	0.081814475
109	0xbdc9e280	-0.098576546
110	0x3d3f7756	0.046744667
111	0xbc2088a7	-0.009798205
112	0x3d285df6	0.041105233
113	0x3d3031e6	0.043016337
114	0x3d52a646	0.051428102
115	0xbcb13a12	-0.021634135
116	0x3d859a05	0.065235175
117	0xbcccf3bb	-0.025018563
118	0x3b046ede	0.0020207684
119	0xbd7ac458	-0.061222404
120	0x3d119dc0	0.035550833
121	0x3cf91cf4	0.030409314
122	0x3dc8a51b	0.09797116
123	0xbb5453be	-0.0032398547
124	0x3c174207	0.009232051
125	0xbdb73d38	-0.089472234
126	0x3d097c44	0.033565775
127	0x3ba739f6	0.005103345
128	0xbab28e8d	-0.0013622806
129	0xbd92c600	-0.07166672
130	0xbd934e20	-0.071926355
131	0x3cbd2707	0.023089899
132	0x3d46b102	0.04850865
133	0x3d25ea86	0.040506862
134	0xbdb7830d	-0.08960543
135	0x3beb9bc4	0.0071901996
136	0xbd8af7e5	-0.067855634
137	0x3d8eee36	0.06979029
138	0x3db9cd9b	0.09072419
139	0x3daba22a	0.0838054
140	0x3d156946	0.03647735
141	0x3d9f99c9	0.07793004
142	0xbd93f00d	-0.072235204
143	0x3dca8774	0.09889117
144	0x3d6191ce	0.05507069
145	0x3d6826d3	0.05667765
146	0xbd4604d4	-0.04834445
147	0xbdb568d8	-0.08857888
148	0x3d50ecca	0.05100707
149	0xbc137f06	-0.009002453
150	0x3d2f7cdd	0.04284369
151	0xbbd556e4	-0.0065106023
152	0xbda1e98a	-0.07905872
153	0xbd8fc462	-0.07019879
154	0xbc8809d3	-0.016606247
155	0xbd39200e	-0.045196585
156	0x3d44c60a	0.048040427
157	0xbcc8e1d4	-0.024521746
158	0x3da62ee3	0.08114412
159	0xbcb410b0	-0.021980613
160	0xbd9b3621	-0.07578684
161	0xbbe86bba	-0.00709292
162	0x3db43594	0.08799282
163	0x3cd5c074	0.026092745
164	0x3d863e60	0.06554866
165	0x3d40acef	0.047039922
166	0x3c01affc	0.007915493
167	0xbbe29460	-0.0069146603
168	0x3be1b72d	0.0068882913
169	0x3d94ca14	0.07265106
170	0x3d8234f6	0.06357758
171	0xbc86410d	-0.01638844
172	0x3d6794c6	0.056538366
173	0xbd2561a7	-0.04037633
174	0xbdc2eab9	-0.09517426
175	0xbd0c92fa	-0.034319855
176	0x3d869912	0.065721646
177	0xbd06970c	-0.032858893
178	0xbcf8485c	-0.030307941
179	0x3daaab4e	0.08333455
180	0xbd79e047	-0.061004903
181	0x3cd5464f	0.026034502
182	0xbdb83902	-0.089952484
183	0xbd6d5d40	-0.05795026
184	0x3d937fb3	0.07202091
185	0xbd170ef6	-0.036879502
186	0xbd62556f	-0.055257257
187	0x3dc5d834	0.09660378
188	0xbd6418a1	-0.05568755
189	0xbd838dd0	-0.06423533
190	0xbd59374b	-0.053031247
191	0x3d6ffc5c	0.058590278
192	0x3cfbb35e	0.030725177
193	0xbcf7198e	-0.030163553
194	0x3c8047f2	0.015659306
195	0x3c2e1806	0.010625845
196	0xbd154142	-0.036439188
197	0x3d6b7678	0.057486027
198	0x3d3aed60	0.045636535
199	0x3d5c72e6	0.053820513
200	0xbda1ea16	-0.079059765
201	0xbd6e3030	-0.058151424
202	0xbca636c8	-0.020289794
203	0xbd6f643d	-0.058445204
204	0x3dbc538b	0.09195622
205	0x3d8defcd	0.06930504
206	0xbc16a260	-0.009193987
207	0x3b8c253a	0.0042768987
208	0x3c7a4d44	0.015277211
209	0xbdc3dc1d	-0.09563468
210	0x3c8877a0	0.016658604
211	0x3d534923	0.05158342
212	0x3c340a00	0.010988712
213	0x3ad5389a	0.0016267479
214	0x3db263b7	0.08710425
215	0x3da0a660	0.078442335
216	0x3ce2991a	0.027660895
217	0xbd911353	-0.07083764
218	0x3db18633	0.086681746
219	0xbd3b93aa	-0.04579512
220	0x3d2e8462	0.04260672
221	0xbc9496fb	-0.0181384
222	0xbcfbe83a	-0.030750383
223	0x3db6b842	0.08921863
224	0xbda5e090	-0.080994725
225	0xbda98a56	-0.082783386
226	0x3d56de12	0.052457877
227	0xbdbd7500	-0.092508316
228	0xbcdfd334	-0.02732239
229	0xbda10a4b	-0.07863291
230	0xb987dc81	-0.00025913495
231	0xbd240a47	-0.040048864
232	0xbb5bc8e5	-0.003353649
233	0xbd9158a0	-0.07096982
234	0xbcbc24f4	-0.02296684
235	0xbd11c63c	-0.03558944
236	0x3dc1030f	0.094244115
237	0x3da861d0	0.08221781
238	0xbd99c0c3	-0.075074695
239	0x3d63741c	0.055530652
240	0x3d8fd851	0.07023681
241	0x3d921311	0.07132543
242	0x3db0ec01	0.08638764
243	0x3bc10422	0.0058903852
244	0x3cf765fe	0.0302
245	0xbdcc32fa	-0.099706605
246	0x3b6e7260	0.003638409
247	0x3d334162	0.043763526
248	0xbd556bed	-0.05210488
249	0x3db65a6a	0.08903964
250	0x3ca59d4c	0.020216607
251	0xbc17563c	-0.0092368685
252	0xbcc19e84	-0.023635156
253	0x3dc1e071	0.09466637
254	0x3b888d5e	0.004167243
255	0xbd8f4e0e	-0.069973096

fc.4.bias f4 [100]
0	0xbd6c3c67	-0.05767479
1	0xbdbe80de	-0.09301923
2	0xbdaf5cd6	-0.08562629
3	0x3db2320b	0.08700951
4	0x3dc9d4f7	0.09855073
5	0x3ddccab5	0.10780851
6	0xbd569b8f	-0.052394446
7	0x3e0afec0	0.13573742
8	0xbd699fea	-0.05703727
9	0x3d42914f	0.04750186
10	0x3da00d3f	0.078150265
11	0x3d7205fe	0.059087746
12	0xbd76af85	-0.060225982
13	0x3ca8aeff	0.020591257
14	0x3d8f15f3	0.06986608
15	0x3d8bae7b	0.06820389
16	0x3d794071	0.06085247
17	0x3e1c9f3e	0.15295121
18	0x3da41e66	0.080136105
19	0xbdb5de91	-0.08880342
20	0xbd7a08b6	-0.061043464
21	0xbcca7e47	-0.024718417
22	0x3d64cedd	0.055861343
23	0x3dfe7fb1	0.12426699
24	0xbda907a5	-0.08253411
25	0x3d2d48b5	0.042305667
26	0xbd70eb9d	-0.05881845
27	0x3d1c9c68	0.038235098
28	0x3debc286	0.11511712
29	0x3dfd652e	0.12372814
30	0x3b828b04	0.003983857
31	0xbc76b865	-0.0150586115
32	0xbb0a698b	-0.0021120037
33	0xbd726d3d	-0.05918621
34	0x3dd9c78c	0.10633764
35	0xbd397dc2	-0.045285948
36	0xbda9487e	-0.0826578
37	0xbd93acf8	-0.072107255
38	0x3d1bdb87	0.038051154
39	0x3da30af1	0.07961071
40	0x3e6fd252	0.23420075
41	0xbd512b4d	-0.051066685
42	0x3d3aedf2	0.04563708
43	0x3c989333	0.018624878
44	0xbd98fdc3	-0.07470276
45	0xbd1a0d95	-0.03761061
46	0xbd3c847d	-0.04602479
47	0x3d1f854c	0.03894548
48	0xbd6652fd	-0.056231488
49	0xbd128115	-0.035767633
50	0x3dcad9e6	0.09904842
51	0x3de6b806	0.112655684
52	0x3ce18b36	0.027532201
53	0x3d01a275	0.03164907
54	0x3d84aa58	0.06477803
55	0x3cf36705	0.02971221
56	0xbd64c7e0	-0.05585468
57	0xbdccb3cf	-0.09995233
58	0x3d21e85f	0.039528247
59	0x3c1b250b	0.009469281
60	0x3e0faa93	0.14029913
61	0xbcd1f78f	-0.02563074
62	0xbcb1847a	-0.021669615
63	0xbc776acc	-0.015101146
64	0xbbcd9cb9	-0.0062747863
65	0xbda4bdae	-0.08043991
66	0x3d831a76	0.064015314
67	0x3e389711	0.18026377
68	0xbdc904f0	-0.09815395
69	0xbd660a4f	-0.056162175
70	0x3dc2bbec	0.095084995
71	0x3d5e4c4b	0.054271977
72	0x3dd68ff9	0.10476679
73	0xbd85b23e	-0.065281376
74	0xbd779687	-0.06044629
75	0x3d20dfd9	0.039275978
76	0xbdb2631d	-0.087103106
77	0x3d7ccaef	0.06171697
78	0x3d26c099	0.04071102
79	0xbd795aa5	-0.06087746
80	0x3d9a5dd8	0.075374305
81	0xbd8b1d6e	-0.06792723
82	0x3dea9d08	0.114557326
83	0x3d000522	0.031254895
84	0x3c776376	0.015099397
85	0x3e2f07bc	0.17092794
86	0x3d9d69c2	0.07686187
87	0x3dbafe42	0.09130527
88	0xbdc67035	-0.096893705
89	0x3de0b682	0.109723106
90	0x3cc12e83	0.023581749
91	0x3e021076	0.12701592
92	0xbd8956c0	-0.067059994
93	0xbae5c592	-0.0017530194
94	0x3d5d7dc7	0.05407503
95	0xba0badd1	-0.000532833
96	0x3d0ef9fb	0.03490637
97	0x3d5da8aa	0.05411593
98	0x3e705d9d	0.2347321
99	0xbc39ce37	-0.011340669

fc.6.weight f4 [2, 100]
0	0x3c4a246a	0.012337783
1	0x3c7d7268	0.015469171
2	0x3d5f8024	0.054565564
3	0x3d484536	0.04889413
4	0x3e9ba59a	0.3039978
5	0xbe92dfed	-0.28686467
6	0xbd00ae2c	-0.031416103
7	0x3ef5dcc5	0.48019996
8	0xbdb71be2	-0.08940865
9	0xbd52859a	-0.051396944
10	0x3e195214	0.14972717
11	0xbd6633af	-0.056201633
12	0xbcf69ce0	-0.0301041
13	0xbda60e68	-0.081082165
14	0x3da1a681	0.07893086
15	0xbd8a73ff	-0.06760406
16	0xbece7afb	-0.40328202
17	0x3e9793de	0.29605
18	0x3eae729c	0.34071815
19	0xbda3bb5e	-0.07994722
20	0xbdf2b2d7	-0.11850517
21	0xbcc81810	-0.024425536
22	0x3da7ba27	0.081898026
23	0x3e5b0fcc	0.21392745
24	0xbd3793ce	-0.044818692
25	0x3e81cfdf	0.25353906
26	0xbb5beec0	-0.0033559054
27	0xbe512666	-0.20424804
28	0x3e93e274	0.28883708
29	0xbed7ca16	-0.42146367
30	0xbe0d2220	-0.13782549
31	0x3d36d6a3	0.044638287
32	0xbc3e8c9b	-0.011630203
33	0xbd2bec6b	-0.041973513
34	0xbb2b8e94	-0.0026177512
35	0xbdd72de9	-0.105068035
36	0x3c0fabab	0.008768956
37	0xbce81428	-0.028329924
38	0xbedacc5b	-0.42734036
39	0x3d2d64a2	0.0423323
40	0x3f1c81b3	0.61135405
41	0xbd02578a	-0.031821765
42	0xbe83807c	-0.25683963
43	0xbd12e43f	-0.035862204
44	0xbd85f918	-0.065416515
45	0xbdf9abf5	-0.12191001
46	0xbc4b7f29	-0.012420454
47	0xbf0f6077	-0.5600657
48	0xbd9e94ed	-0.07743249
49	0xbb903ce5	-0.0044017904
50	0xbf01c814	-0.5069592
51	0xbed683d6	-0.41897458
52	0xbe8ecdb0	-0.27891302
53	0x3c55f322	0.013058456
54	0xbec4c662	-0.38432604
55	0x3e1a5462	0.15071252
56	0x3d087743	0.03331686
57	0x3cd07b8c	0.025449537
58	0xbeacf480	-0.3378029
59	0xbb24a776	-0.0025124229
60	0x3e6c48c2	0.2307463
61	0x3ce5524c	0.027993344
62	0xbd8d2c47	-0.06893211
63	0x3dafb276	0.085789606
64	0xbc76ac7e	-0.015055774
65	0x3c909f52	0.017654095
66	0xbe99b2f2	-0.30019337
67	0x3edf85ae	0.43656677
68	0xbc02a128	-0.007972993
69	0xbc15e1ff	-0.00914812
70	0x3e3bbfa1	0.1833482
71	0xbefea68c	-0.4973644
72	0x3e910d48	0.28330445
73	0xbdbf8eb3	-0.093533896
74	0xbc3b5e28	-0.011436023
75	0xbdb36814	-0.08760086
76	0xbd3a25ad	-0.045446087
77	0xbe0fc2dc	-0.14039177
78	0xbed19a23	-0.4093791
79	0x3d5251fa	0.05134771
80	0x3e5d679d	0.21621557
81	0x3c6b09d6	0.014345607
82	0x3e25494b	0.1614124
83	0xbcdb0267	-0.026734544
84	0xbd14d61c	-0.036337003
85	0x3e5b2cc7	0.214038
86	0xbd08fa94	-0.033442095
87	0xbd6e4cad	-0.058178592
88	0x3c19caaf	0.009386702
89	0xbe15e576	-0.14638314
90	0xbdbd6aaf	-0.09248864
91	0x3e66ca09	0.22538008
92	0xbd364009	-0.044494662
93	0x3d2a30f0	0.041550577
94	0x3cf04392	0.029329095
95	0xbdc5a2d3	-0.09650197
96	0xbe55c611	-0.20876338
97	0xbe604947	-0.21902953
98	0x3f1d9979	0.61562306
99	0xbe565d1e	-0.20933959
100	0xbd7be83b	-0.06150077
101	0x3d80251e	0.062570795
102	0x3c8ea73d	0.01741373
103	0xbe1b133d	-0.15144058
104	0xbe879ba8	-0.26485944
105	0x3ec4a7d4	0.38409293
106	0xbd12aa94	-0.035807207
107	0xbee33313	-0.44374904
108	0xbd448f83	-0.047988426
109	0x3d44ebdb	0.04807649
110	0xbe430343	-0.19044213
111	0xbd90e3aa	-0.070746735
112	0xbc768bdf	-0.015047996
113	0xbd3ed1b8	-0.046586722
114	0x3d74bfce	0.05975323
115	0x3b3972a5	0.0028297093
116	0x3ef7286b	0.48273024
117	0xbeaabce6	-0.33347243
118	0xbe9a6a16	-0.30159062
119	0xbcacc701	-0.021090986
120	0x3dcc1311	0.09964574
121	0x3e001307	0.12507258
122	0x3de1c43c	0.11023757
123	0xbe0749dc	-0.13211769
124	0xbd0da96b	-0.034585398
125	0xbe5993be	-0.21247765
126	0x3ca31728	0.019908503
127	0x3e9f9900	0.31171417
128	0xbe803a92	-0.25044686
129	0x3ed5ac84	0.4173318
130	0x3d99b4e7	0.075052075
131	0xbd0b4575	-0.034001786
132	0x3b8443f7	0.0040364224
133	0xbd11b9cb	-0.035577577
134	0xbe2f0c02	-0.17094424
135	0x3d0a6751	0.033789936
136	0xbe0997e0	-0.13436842
137	0xbd4117be	-0.047141783
138	0x3f039b48	0.51408815
139	0xbe282a97	-0.16422497
140	0xbf172c36	-0.59051836
141	0xbda97acd	-0.082753755
142	0x3e9964b2	0.29959637
143	0xbd37de7c	-0.044889912
144	0xbd95c145	-0.07312254
145	0x3e28971d	0.16463895
146	0xbd8effaf	-0.069823615
147	0x3f0c9cfe	0.5492705
148	0x3c42869c	0.011872914
149	0xbd1ebb76	-0.038752995
150	0x3eefbfe7	0.46826097
151	0x3ec57179	0.38563135
152	0x3e68ba7c	0.22727388
153	0xbb4e8f58	-0.0031518545
154	0x3eb470c4	0.35242283
155	0xbd7974ce	-0.06090241
156	0x3cbc11bb	0.022957673
157	0x3a7c6f00	0.00096295774
158	0x3eb7b0c9	0.35877064
159	0xbddd2270	-0.10797584
160	0xbe7ebe8e	-0.24877378
161	0x3d564615	0.05231293
162	0x3cc5187b	0.024059525
163	0x3d66ba64	0.0563301
164	0x3d874f7b	0.066069566
165	0x3db3bcf5	0.08776275
166	0x3e70850a	0.2348825
167	0xbee02a35	-0.437822
168	0x3d5ae44e	0.053440385
169	0xbd5137e1	-0.05107868
170	0xbdb9e7a8	-0.09077388
171	0x3efedc71	0.49777558
172	0xbe8c15ed	-0.27360478
173	0x3db553bd	0.088538624
174	0xbd472d10	-0.04862696
175	0xbd5e5149	-0.05427674
176	0xbdad82d3	-0.08472218
177	0x3dc0d004	0.09414676
178	0x3e964c0a	0.29354888
179	0x3dd615a0	0.104533434
180	0xbe37409f	-0.17895745
181	0x3db93716	0.0904371
182	0xbe6d5a9a	-0.23179093
183	0xbc1a6c01	-0.009425164
184	0x3e0ecf2a	0.13946214
185	0xbe84c95b	-0.25934872
186	0xbd28e475	-0.0412335
187	0xbc6c4077	-0.0144196665
188	0x3cb0832c	0.021546923
189	0x3d8d0630	0.06885946
190	0x3cdcb9c7	0.026944054
191	0xbe706471	-0.23475815
192	0xbc8391f9	-0.016060816
193	0x3d4875c8	0.04894045
194	0xbc3373d8	-0.010952912
195	0x3d1c80d9	0.038208816
196	0x3d8d0845	0.06886343
197	0x3df35add	0.11882565
198	0xbf1ada34	-0.604892
199	0x3e6b2045	0.22961529

fc.6.bias f4 [2]
0	0x3e2716f9	0.16317357
1	0xbdc62be5	-0.09676341
