Algorithms/shawn/exp2/fc_6.batch.pth (torch_old, 252272 bytes, 8 tensors)

fc.0.weight f4 [160, 226]
0	0xbc9637c6	-0.018337142
1	0xbc96838a	-0.01837327
2	0x3b6538ef	0.0034976562
3	0xbd8b1718	-0.06791514
4	0x3d3e2eed	0.04643147
5	0x3d3b938c	0.04579501
6	0x3cff66bf	0.031176923
7	0x3c609573	0.0137075065
8	0xbc014168	-0.007889129
9	0xbd329ad9	-0.043604705
10	0xbd2b1846	-0.041771196
11	0xbd3dfbe6	-0.046382807
12	0xbc99f83f	-0.01879513
13	0xbcc725a9	-0.02430995
14	0xbce0056f	-0.027346341
15	0x3d500438	0.050785273
16	0x3d11f7ae	0.035636596
17	0x3c201288	0.009770043
18	0x3d014bac	0.031566307
19	0x3c68a698	0.014199875
20	0xbc997268	-0.018731311
21	0xbd8ad032	-0.06777991
22	0xbd366ef6	-0.044539414
23	0x3bb58640	0.0055396855
24	0xbd10a31a	-0.035311796
25	0x3d42fb1f	0.04760277
26	0xbc7db535	-0.015485098
27	0x3d00713f	0.031358
28	0x3d4a01ae	0.049318008
29	0x3d3a1684	0.04543163
30	0xbc1145ab	-0.008866708
31	0x3d4173d8	0.047229618
32	0x3d03bf61	0.032164935
33	0xbd8d1de2	-0.06890465
34	0x3c09c81b	0.008409525
35	0xbc395877	-0.011312596
36	0xbd0b243b	-0.0339701
37	0x3d3710c6	0.04469373
38	0x3d1e41a7	0.03863683
39	0xbd322b11	-0.043498103
40	0xbd0f205c	-0.03494297
41	0x3be2d3d5	0.006922225
42	0x3ca23592	0.019800935
43	0x3cd11b6f	0.025525777
44	0x3ca18190	0.0197151
45	0xbcbbe9fb	-0.022938719
46	0xbc94ea9f	-0.018178282
47	0xbd4e6966	-0.050393485
48	0x3d0ca282	0.034334667
49	0xbbccdf98	-0.0062522404
50	0xba84adef	-0.0010122637
51	0x3ad84bdf	0.0016502104
52	0x3c336a99	0.010950708
53	0x3d4748bf	0.04865336
54	0xbb2cd384	-0.002637119
55	0x3b85570c	0.0040692147
56	0xbb8ab468	-0.004232932
57	0xbc2ff685	-0.010739927
58	0xbccaf4d9	-0.024774956
59	0xbc26feaf	-0.010192557
60	0xbd3bdaea	-0.04586307
61	0x3c254c2b	0.010088961
62	0x396ce0ae	0.00022590414
63	0x3c1501b2	0.0090946425
64	0xbd0b32f7	-0.03398415
65	0xbd482bcf	-0.048869904
66	0x3c499522	0.012303622
67	0xbba547bf	-0.005043953
68	0x3be15071	0.0068760444
69	0xbcfe8d40	-0.031073213
70	0x3cb51e66	0.022109222
71	0xbbfa00ae	-0.0076294756
72	0xbd126a2e	-0.035745792
73	0xbd910f9e	-0.07083057
74	0x3d492a8c	0.04911284
75	0x3ca9e520	0.020739138
76	0x3cd27729	0.025691586
77	0xbd879ee1	-0.066221006
78	0x3d886fd0	0.066619515
79	0x3d0ff937	0.03514978
80	0x3d237d8e	0.03991466
81	0xbd3a6a13	-0.045511317
82	0xbd398b83	-0.045299064
83	0x3c69b170	0.014263496
84	0x3c916736	0.01774941
85	0x3d8823c3	0.06647446
86	0x3d4d8f0f	0.05018526
87	0xbd77c2d4	-0.060488537
88	0xbd114a30	-0.03547114
89	0x3d1101b0	0.035402
90	0xbc4dacf4	-0.012553442
91	0x3d4ea4f0	0.050450265
92	0xbc5cf776	-0.013486734
93	0xbcec73b4	-0.028863765
94	0xbd00a6a2	-0.031408913
95	0xbd81c1d7	-0.063358
96	0x3d3621b1	0.044465724
97	0xbd3c9a3f	-0.046045538
98	0x3d0d7323	0.03453363
99	0x3cb9de15	0.022688905
100	0xbd43587d	-0.04769181
101	0xbd109d33	-0.035306167
102	0xbcdfc2fc	-0.027314655
103	0xbcf16101	-0.0294652
104	0x3cfff269	0.03124352
105	0xbcc0811e	-0.023499068
106	0xbcf1bf72	-0.029510234
107	0x3cacdbbc	0.021100871
108	0x3c90ef42	0.017692212
109	0xbd862935	-0.06550828
110	0xbd31556b	-0.04329435
111	0x3cc70b9b	0.024297526
112	0xbcd673e5	-0.02617831
113	0xbd650f68	-0.055922896
114	0x3bb7d780	0.0056104064
115	0xbb97a8e7	-0.004628289
116	0xbd62863b	-0.055303793
117	0x3c16c29f	0.009201675
118	0x3c09febd	0.008422551
119	0xbd7ccbc7	-0.061717775
120	0xbc03254a	-0.008004496
121	0x3cf4f0be	0.029899951
122	0x3c6700a3	0.014099273
123	0x3c17b38b	0.009259115
124	0x3d031178	0.03199908
125	0xba47b84f	-0.00076187117
126	0xbd1b5f1d	-0.037932504
127	0xbc340800	-0.0109882355
128	0x3d7aac78	0.061199635
129	0x3c067f2f	0.008209034
130	0xbcff06e6	-0.03113122
131	0xbd6644d7	-0.056217995
132	0xbd14774d	-0.036246587
133	0xbd2dcad1	-0.04242975
134	0xbd364568	-0.044499785
135	0x3d20de7f	0.03927469
136	0x3cf9b69c	0.030482583
137	0x3a4bc18f	0.0007772678
138	0xbd8421e0	-0.06451774
139	0x3d4ef0f1	0.05052275
140	0x3c09ff61	0.0084227035
141	0xbc7d3c4d	-0.015456271
142	0x3cfe2536	0.031023603
143	0xbac95406	-0.0015360124
144	0xb9824d89	-0.000248533
145	0x3d3482f8	0.044070214
146	0xbca40235	-0.020020584
147	0x3d081dfc	0.03323172
148	0xbd31cffc	-0.04341124
149	0x3caf68d7	0.021412296
150	0xbc904383	-0.017610317
151	0xbd3c116d	-0.045915056
152	0xbd5db1a4	-0.05412449
153	0x3d02a510	0.031895697
154	0x3d60f55f	0.054921504
155	0x3c73314b	0.014843295
156	0x3b3a2b22	0.0028407057
157	0x3d20b8b1	0.039238635
158	0xbd644c05	-0.05573656
159	0x3d21dbf7	0.039516415
160	0xbd5ed75d	-0.054404605
161	0xbd4ae293	-0.049532484
162	0x3cdab4e3	0.026697582
163	0x3a360301	0.00069431966
164	0x3c82d588	0.01597096
165	0xbc668be3	-0.0140714375
166	0xbd14ce51	-0.03632957
167	0x3ce79714	0.028270282
168	0xbac6b94a	-0.0015161422
169	0x3c1f2a75	0.009714712
170	0x3d8f69fe	0.07002638
171	0xbce075b9	-0.027399885
172	0x3d472a50	0.048624337
173	0x3c56d196	0.013111493
174	0xbc8186b3	-0.0158113
175	0xbd5c9d3a	-0.05386088
176	0xbaf4b412	-0.0018669388
177	0xbc0c3f46	-0.008560007
178	0xbd62103d	-0.055191267
179	0xbd2562d3	-0.04037745
180	0x3d53c4b8	0.051701277
181	0xbd00ee69	-0.031477366
182	0x3d17f47b	0.03709839
183	0x3d1844ed	0.037175108
184	0x3cab0553	0.020876562
185	0xbacd87c8	-0.0015680725
186	0x3c81adef	0.015830008
187	0x3d9c2556	0.07624309
188	0x3cc86930	0.02446422
189	0x3d136cf3	0.035992574
190	0xbd6c7a3b	-0.057733756
191	0xbc5113f0	-0.012761101
192	0x3ccab07f	0.024742363
193	0xbd5f9359	-0.05458388
194	0xbd1e7ac5	-0.0386913
195	0xbd50f648	-0.051016122
196	0xbd3f9129	-0.046769295
197	0x3b180620	0.002319701
198	0x3d348d5d	0.044080127
199	0xbc2540f7	-0.01008629
200	0xbd3ef904	-0.0466242
201	0xbd8763ad	-0.066108085
202	0x3d624481	0.05524111
203	0x3cd9417b	0.026520481
204	0xbd715740	-0.0589211
205	0xbd6acb63	-0.05732287
206	0xbd60b6d3	-0.054861855
207	0xbd4eb8f8	-0.05046937
208	0x3d6fcddb	0.05854593
209	0xbbcc5b6c	-0.0062364843
210	0xbcef9341	-0.02924502
211	0xbc2228d6	-0.009897431
212	0x3d367fed	0.044555593
213	0x3cd42ae5	0.02589936
214	0xbd29c08c	-0.041443393
215	0xbd7360dc	-0.059418544
216	0xbd74d88e	-0.059776835
217	0xbcd40744	-0.02588237
218	0xbd219431	-0.039447967
219	0xbbf32546	-0.007420215
220	0x3d000094	0.03125055
221	0x3d8c7c83	0.06859686
222	0xbd07deb2	-0.033171363
223	0xbd04a624	-0.032385007
224	0xbd848374	-0.06470385
225	0xbd42bd7f	-0.047544
226	0x3b114e90	0.002217207
227	0x3ce57f66	0.02801485
228	0xbc2f6aed	-0.010706645
229	0x3ca6315e	0.020287212
230	0x3bd94f38	0.006631758
231	0xbda3dd6f	-0.080012195
232	0x3cfb132e	0.030648794
233	0xbcfdbaf6	-0.030972939
234	0xb99033cf	-0.0002750442
235	0xbc93ba86	-0.018033277
236	0xbc588cfe	-0.013217209
237	0x3c6ea71c	0.014566209
238	0xbd65f4b2	-0.056141563
239	0x3d1408de	0.03614127
240	0xbc8ec2e9	-0.017426925
241	0x3b088636	0.002083195
242	0xbd2be150	-0.04196292
243	0x3c7a0b0d	0.015261424
244	0x3b40b239	0.0029403104
245	0xbd711d76	-0.058865987
246	0xbcc70af0	-0.024297208
247	0x3da0f1ba	0.07858606
248	0xbbc12c89	-0.0058952016
249	0xbca6e0f8	-0.020370945
250	0xbcb5f6d4	-0.022212423
251	0xbb48bde4	-0.0030630762
252	0x3b5ddb1e	0.0033852528
253	0x3ce98fea	0.028511006
254	0x3d19d0c3	0.037552606
255	0xbc94b8b8	-0.018154487

fc.0.bias f4 [160]
0	0xbe00d3ea	-0.12580839
1	0xbdc92bbb	-0.09822794
2	0xbe150f7e	-0.14556691
3	0xbddf4488	-0.10901743
4	0xbde91eb1	-0.11382807
5	0xbdc351e2	-0.09537102
6	0xbdf96831	-0.12178076
7	0xbdb550fc	-0.08853337
8	0xbde18844	-0.11012319
9	0xbe1fc866	-0.1560379
10	0xbdc4137f	-0.09574031
11	0xbe01e168	-0.12683642
12	0xbde34e5c	-0.1109893
13	0xbd548387	-0.051883247
14	0xbdacb5d1	-0.08433116
15	0xbde9d73a	-0.11418004
16	0xbd693dcb	-0.056943696
17	0xbdb71b5f	-0.089407675
18	0xbd6aae1a	-0.057294942
19	0xbe08091c	-0.13284725
20	0xbde8d0f8	-0.113679826
21	0xbd877734	-0.06614533
22	0xbdced75f	-0.100996725
23	0xbd4df986	-0.050286792
24	0xbe1349e6	-0.14383659
25	0xbdf14e0f	-0.117824666
26	0xbda6a4aa	-0.08136876
27	0xbe0da56f	-0.13832639
28	0xbdaa206e	-0.08306967
29	0xbe60d601	-0.21956636
30	0xbe25298b	-0.16129129
31	0xbda86255	-0.0822188
32	0xbe0c11e2	-0.13678697
33	0xbde76b1a	-0.11299725
34	0xbdc016b4	-0.0937933
35	0xbdd4907e	-0.10379122
36	0xbdd24563	-0.10267141
37	0xbd98e2f0	-0.0746516
38	0xbddd77eb	-0.10813888
39	0xbddfcf67	-0.10928231
40	0xbdc25f9f	-0.094908945
41	0xbdd388f0	-0.10328853
42	0xbdb63e72	-0.08898629
43	0xbdee6940	-0.116411686
44	0xbdf09ad1	-0.11748279
45	0xbdcabf8b	-0.09899815
46	0xbe023d02	-0.12718585
47	0xbd75d000	-0.060012817
48	0xbdc7393b	-0.09727713
49	0xbdb7c732	-0.0897354
50	0xbde32d23	-0.110925935
51	0xbdb6bb49	-0.089224406
52	0xbe1016e8	-0.14071238
53	0xbdab7350	-0.083716035
54	0xbd9e8713	-0.07740607
55	0xbd86da2e	-0.06584583
56	0xbd14bad5	-0.03631099
57	0xbd25fa52	-0.040521927
58	0xbddbb7b6	-0.107283995
59	0xbd91c945	-0.07118467
60	0xbd3f9cf2	-0.046780534
61	0xbbb890a3	-0.0056324764
62	0xbd8a4ba1	-0.06752706
63	0xbd881d2d	-0.0664619
64	0xbdf4f6cb	-0.119611345
65	0xbe1a7143	-0.15082268
66	0xbdbb033d	-0.09131477
67	0xbdcd728a	-0.10031612
68	0xbe182155	-0.14856465
69	0xbd7b0ce5	-0.061291594
70	0xbd500e6e	-0.05079501
71	0xbe002335	-0.1251343
72	0xbd1fd229	-0.039018784
73	0xbdbab49c	-0.0911648
74	0xbdd41cae	-0.10357033
75	0xbdcda5f6	-0.1004142
76	0xbde37660	-0.111065626
77	0xbdb58c7f	-0.08864688
78	0xbd7fcbd0	-0.06245023
79	0xbe253ea7	-0.16137181
80	0xbde6f232	-0.11276664
81	0xbdb16470	-0.08661735
82	0xbe047eeb	-0.1293904
83	0xbdb7af84	-0.08969024
84	0xbdcd4c35	-0.10024301
85	0xbdcdb6ab	-0.10044607
86	0xbdba02fa	-0.09082599
87	0xbdc59d9e	-0.09649204
88	0xbde02d89	-0.10946185
89	0xbdbb78f0	-0.09153926
90	0xbd552415	-0.052036364
91	0xbdaa7915	-0.08323876
92	0xbdbb27df	-0.09138464
93	0xbdc26fdb	-0.09493991
94	0xbdd6c1fd	-0.10486219
95	0xbe0b09c6	-0.13577947
96	0xbd9bbb10	-0.07604039
97	0xbdc275cb	-0.094951235
98	0xbe2a224c	-0.16614646
99	0xbde3a8a9	-0.11116154
100	0xbd939c81	-0.07207585
101	0xbdb4f10e	-0.0883504
102	0xbda18c50	-0.078880906
103	0xbdc59e68	-0.09649354
104	0xbd8a490f	-0.06752216
105	0xbdb03a16	-0.08604829
106	0xbde42dab	-0.11141523
107	0xbd64f7fc	-0.05590056
108	0xbda4715c	-0.08029434
109	0xbda46151	-0.08026374
110	0xbdbcac40	-0.092125416
111	0xbdce53a6	-0.100745484
112	0xbd9aa7d7	-0.07551544
113	0xbdbc5c07	-0.0919724
114	0xbdcda987	-0.100421004
115	0xbdc0a38d	-0.09406195
116	0xbe0b5e95	-0.13610299
117	0xbd9ec591	-0.077525266
118	0xbdecfa89	-0.11571223
119	0xbe17dd0f	-0.14830421
120	0xbde79146	-0.113070056
121	0xbd98727d	-0.07443712
122	0xbd7cd5ce	-0.061727338
123	0xbdd9ce0e	-0.10635005
124	0xbe0536b3	-0.13009147
125	0xbd5e8b00	-0.05433178
126	0xbd98c83c	-0.07460067
127	0xbdc36ae5	-0.09541873
128	0xbdb8f0e1	-0.09030319
129	0xbdf6d538	-0.12052387
130	0xbcc59187	-0.024117244
131	0xbdd1837d	-0.102301575
132	0xbd6b86f8	-0.057501763
133	0xbd78b5fa	-0.06072042
134	0xbd5bfb80	-0.053706646
135	0xbe098a32	-0.13431624
136	0xbda67ddb	-0.08129474
137	0xbdd02a1c	-0.10164282
138	0xbd8421fe	-0.06451796
139	0xbd9359c8	-0.07194859
140	0xbde76aab	-0.11299642
141	0xbe066191	-0.13123156
142	0xbdd9d757	-0.10636776
143	0xbd9b92f9	-0.07596392
144	0xbe02b7af	-0.12765382
145	0xbdacbbde	-0.0843427
146	0xbdb22552	-0.086985245
147	0xbdb3bea1	-0.08776594
148	0xbd595e24	-0.053068295
149	0xbdccdd11	-0.100031026
150	0xbdd5063c	-0.1040158
151	0xbe28740b	-0.16450517
152	0xbdce3499	-0.10068626
153	0xbdd511c3	-0.104037784
154	0xbd6d9e81	-0.05801249
155	0xbddb2fa6	-0.107024476
156	0xbd083244	-0.033251062
157	0xbd61fa6f	-0.055170473
158	0xbdb53964	-0.08848837
159	0xbd1dc9ef	-0.038522657

fc.3.weight f4 [100, 160]
0	0xbd355c7f	-0.044277664
1	0x3d6a5d3f	0.057217833
2	0x3cddac47	0.027059687
3	0xbd8edd14	-0.06975761
4	0xbceb4f43	-0.028724318
5	0xbd83cc7c	-0.06435487
6	0xbb8c92ce	-0.0042899614
7	0x3ca863e6	0.020555448
8	0xbc3b7c2b	-0.011443178
9	0x3d71ab46	0.05900123
10	0xbc72dd7e	-0.014823316
11	0xbd7e1297	-0.062029447
12	0xbdb217ab	-0.086959206
13	0xbdaaeffe	-0.08346556
14	0x3d95b047	0.07309013
15	0x3c87ca99	0.016576098
16	0xbcbf17da	-0.023326803
17	0xbc832796	-0.016010087
18	0xbd8dc51e	-0.06922363
19	0x3c69e80f	0.0142765185
20	0x3d666c2f	0.056255516
21	0xbde5723d	-0.1120343
22	0x3ca9a119	0.0207067
23	0xbda89e98	-0.08233374
24	0xbd8cd3ec	-0.068763584
25	0xbdbf4525	-0.0933936
26	0xbdb842ab	-0.08997091
27	0xbe04e265	-0.12976988
28	0x3c838799	0.016055869
29	0x3ce625bc	0.028094165
30	0xbddcb3bf	-0.10776471
31	0x3d87e400	0.066352844
32	0x3cda8987	0.026676906
33	0x3d910efb	0.070829354
34	0xbd800d9b	-0.06252595
35	0x3c7bcf8e	0.015369309
36	0xbc63c7cd	-0.013902617
37	0x3ccb9d51	0.024855288
38	0xbdf912dd	-0.12161801
39	0xbd3d9dcb	-0.04629306
40	0x3ce1fc98	0.027586266
41	0x3d81e636	0.063427374
42	0xbd909eef	-0.07061564
43	0xbd770623	-0.060308587
44	0x3d25939b	0.04042397
45	0x3d3d12de	0.04616057
46	0xbbfda786	-0.0077409176
47	0xbba39ef3	-0.0049933135
48	0xbd9b4fb4	-0.075835615
49	0x3c12ffa2	0.00897208
50	0x3cd2fa16	0.025754016
51	0xbda6a998	-0.08137816
52	0xbc992275	-0.018693188
53	0xbd4f741d	-0.050647844
54	0xbceb89c2	-0.028752211
55	0x3d321327	0.043475296
56	0x3cc61b77	0.024183018
57	0x3ba139d0	0.004920222
58	0xbd03cdd5	-0.03217872
59	0x3b907de3	0.004409538
60	0xbca57349	-0.020196574
61	0x3d1ad28d	0.037798453
62	0xba0d70ef	-0.00053955516
63	0xbce40b04	-0.027837284
64	0xbc0f4524	-0.008744512
65	0x3d118a25	0.035532136
66	0x3c447d24	0.0119927265
67	0xbcddc320	-0.027070582
68	0x3d8f94a1	0.070107706
69	0x3d3f471b	0.04669867
70	0x3bd00aa8	0.0063489266
71	0x3d89fdf1	0.067378886
72	0xbd408462	-0.04700125
73	0xbd9983a6	-0.07495813
74	0xbd0fae96	-0.035078607
75	0x3d3d11d8	0.046159595
76	0xbc9f7943	-0.019467002
77	0xbd653bf5	-0.055965383
78	0xbdc0017d	-0.09375284
79	0xbd790c5f	-0.060802814
80	0x3b76e43c	0.003767266
81	0xbd82c36b	-0.06384929
82	0xbc7e083b	-0.015504892
83	0xbd45ead5	-0.048319656
84	0xbddfcb78	-0.109274805
85	0x3ccfd22d	0.025368774
86	0xbdada436	-0.084785864
87	0x3d3b13c4	0.045673147
88	0xbd2e1cce	-0.04250794
89	0x3c9192c8	0.017770186
90	0x3cf9b62b	0.030482372
91	0xb95fef76	-0.00021356143
92	0x3d796477	0.060886826
93	0xbd41975d	-0.047263492
94	0x3bc7159a	0.006075573
95	0x3d173c3a	0.03692267
96	0xbc909d6a	-0.017653186
97	0xbc5059d2	-0.012716727
98	0x3d989d5b	0.07451888
99	0xbddaac90	-0.10677445
100	0x3d120cbd	0.03565668
101	0x3d1f2ac9	0.038859162
102	0x3d20312b	0.03910939
103	0xbc0c9079	-0.008579367
104	0x392dcf34	0.00016575755
105	0x3d6b3b14	0.05742939
106	0x3c1fb134	0.009746838
107	0xbcda7c1e	-0.026670512
108	0x3b1890e9	0.0023279733
109	0x3c083354	0.008313019
110	0x3cc031fc	0.023461334
111	0xbb93819b	-0.004501534
112	0xbde8496a	-0.113421276
113	0x3b6733e8	0.0035278741
114	0x3ba472a8	0.005018551
115	0xbb4df2c3	-0.0031425215
116	0xbd6d1231	-0.057878677
117	0xbc068087	-0.008209354
118	0xbc94bb9c	-0.018155865
119	0xbd90c102	-0.07068063
120	0x3d3107a8	0.043220192
121	0xbddbb858	-0.1072852
122	0xbd5d410a	-0.054017104
123	0x3d2a3245	0.041551847
124	0x3d656ffc	0.056015
125	0xbd93ff2f	-0.07226407
126	0xbcbf40ef	-0.023346392
127	0x3c0fe3f3	0.008782375
128	0xba7ab7b0	-0.0009564115
129	0xbcaf6015	-0.02140812
130	0xbdc46530	-0.095896125
131	0xbab66585	-0.0013915753
132	0x3d4d880c	0.050178573
133	0x3bde5111	0.006784566
134	0x3cc8325a	0.024438072
135	0xbd08f1ee	-0.033433847
136	0x3d914c76	0.07094662
137	0xbd552d58	-0.052045196
138	0x3bc3916f	0.005968265
139	0xbcf92b35	-0.03041611
140	0xbcc39d2e	-0.02387866
141	0xbbc3e1a8	-0.005977828
142	0x3ca08930	0.019596666
143	0x3c37dde3	0.0112223355
144	0xbbf92e67	-0.0076044085
145	0xbc261d57	-0.010138831
146	0xbc404f49	-0.011737653
147	0xbcfd6685	-0.030932674
148	0x3d3e8076	0.04650923
149	0xbc896aab	-0.016774496
150	0xbd83a83d	-0.06428573
151	0xbdb3a98c	-0.08772573
152	0xbde0d15e	-0.109774336
153	0xbd49b782	-0.049247272
154	0xbdd0596f	-0.10173308
155	0xbd1de5fe	-0.038549416
156	0x3c47db83	0.012198332
157	0x3d18a925	0.037270684
158	0x3c9ba0cb	0.01899757
159	0x3ca2486b	0.019809922
160	0xbd421b60	-0.047389388
161	0xbc8cd8ff	-0.017193316
162	0x3cb4214a	0.02198853
163	0x3d0de378	0.03464076
164	0x3c0777a8	0.008268274
165	0xbd62dcd0	-0.055386364
166	0xbc02f8fa	-0.007993931
167	0x3cfd2ef2	0.030906174
168	0xbce73dbe	-0.028227683
169	0xbcef8e7f	-0.029242752
170	0xbc85a649	-0.016314643
171	0x3d525f7c	0.051360592
172	0xbd405ec0	-0.04696536
173	0x3d1ff958	0.039056152
174	0xbc8ad142	-0.016945485
175	0xbd26defd	-0.040740002
176	0x3d3a8525	0.045537133
177	0xbcca851a	-0.02472167
178	0xbd7f11e3	-0.062272917
179	0xbd88d57f	-0.06681346
180	0xbc994df0	-0.018713921
181	0x3bbd32e5	0.0057738894
182	0x3d6520a8	0.055939347
183	0x3d823b03	0.06358912
184	0x3d7de617	0.06198701
185	0x3c9b6b01	0.018971922
186	0x3d0f01f0	0.034913957
187	0xbd9272ec	-0.07150826
188	0x3cd41f8e	0.025893953
189	0xbd89ee2d	-0.067348816
190	0x3da561fb	0.08075329
191	0x3c849ef8	0.016189083
192	0xbcb41dc6	-0.021986853
193	0xbd892419	-0.06696338
194	0xbd18c747	-0.03729942
195	0xbcc5320b	-0.024071714
196	0xbd830de4	-0.06399134
197	0x39bcfa77	0.00036044765
198	0xbd9ed137	-0.07754748
199	0x3d6ff8fd	0.058587063
200	0xbbd4c092	-0.0064926827
201	0xbb7f89e0	-0.0038992092
202	0x3ca3b0ec	0.019981824
203	0xbc84ee07	-0.016226782
204	0xbda16b00	-0.07881737
205	0x3d71edaf	0.059064563
206	0x3cf071e0	0.029351175
207	0xbcb3e4b8	-0.021959648
208	0x3c8cb4d2	0.017176066
209	0xbcbe1953	-0.023205435
210	0xbcf985c7	-0.030459298
211	0x3d2b5a06	0.0418339
212	0x3d919f18	0.07110423
213	0xbcba8888	-0.022770181
214	0x3c3716af	0.011174842
215	0xbd7a7723	-0.061148774
216	0xbd16225f	-0.036653873
217	0x3cb9799f	0.022641001
218	0xbc97bb6f	-0.018521992
219	0xbd08c85c	-0.033394203
220	0x3d233cc7	0.039852884
221	0x3b7d716f	0.0038672348
222	0xbcbc8c66	-0.023016166
223	0xbd259b5e	-0.040431373
224	0x3c891e73	0.016738152
225	0xbc32821f	-0.010895281
226	0x3d815c4c	0.06316432
227	0x3dad05d3	0.084483765
228	0x3d10267d	0.035192955
229	0x3ba0419d	0.004890634
230	0x3d2d714b	0.042344373
231	0x3c4880ba	0.012237722
232	0x3cdca813	0.026935613
233	0xbabaf03f	-0.0014262273
234	0x3d8ce885	0.06880287
235	0xbd8114bd	-0.06302784
236	0xbd35f2b7	-0.044420924
237	0xbd246e5b	-0.040144306
238	0x3bfaefb5	0.00765797
239	0xbd3fa2eb	-0.04678623
240	0xbcd274ec	-0.025690518
241	0x3ce7b6bf	0.028285382
242	0x3da9b8b3	0.08287182
243	0xbd803eaf	-0.06261956
244	0x3d1be69f	0.038061734
245	0xbc9675bc	-0.018366687
246	0xbd201a2f	-0.03908747
247	0xbd2751e3	-0.040849578
248	0xbbbdb8b2	-0.0057898397
249	0xbc9de80f	-0.019275693
250	0x3d3d3856	0.046196304
251	0xbd0f9501	-0.03505421
252	0xbd4bb2b1	-0.04973096
253	0xbd1a138d	-0.0376163
254	0xbd5fe0e3	-0.054657828
255	0xbce14960	-0.027500808

fc.3.bias f4 [100]
0	0x3bfc9448	0.007708106
1	0xbb00a174	-0.0019627484
2	0x3b994657	0.0046775746
3	0x3c0f53e8	0.008748032
4	0x3b95961f	0.004565015
5	0x3b88a624	0.004170196
6	0xba6d5eb9	-0.00090549473
7	0x3bce48c7	0.006295297
8	0xbbd7c56c	-0.006584814
9	0xbcd86768	-0.026416495
10	0x3baf9c34	0.005359197
11	0x3b834be0	0.0040068477
12	0x3b8133c4	0.0039429385
13	0x3b93f283	0.0045149936
14	0x3c3a37e6	0.011365866
15	0x3bb71a38	0.0055878423
16	0x3ba0cde7	0.004907358
17	0xb99cbaca	-0.00029893807
18	0x3c2a7d42	0.01040584
19	0x3bff0e6d	0.007783702
20	0xbbb1fb54	-0.005431572
21	0x3bfad312	0.007654556
22	0x3c2e3a7a	0.010634059
23	0x3c0161de	0.0078968685
24	0x3b2a1a56	0.002595564
25	0x3c143649	0.009046146
26	0x3b4317f1	0.002976891
27	0xbd85cb46	-0.06532912
28	0x3b12292e	0.0022302377
29	0x3c07a671	0.008279429
30	0x3c0622b2	0.008186983
31	0x3a54ca33	0.0008117288
32	0x3bc10380	0.00589031
33	0x3b76d846	0.003766553
34	0x3b938822	0.0045023123
35	0x3b2703d4	0.002548446
36	0x3bb6a942	0.0055743763
37	0x3a59f23c	0.0008313989
38	0x3b8b5e83	0.00425321
39	0xbd6fa8a3	-0.058510434
40	0xbda1bb03	-0.07896998
41	0x3bdd7ac2	0.0067590186
42	0x3bda3e22	0.006660239
43	0x3bcf100a	0.0063190507
44	0x3b4809a0	0.0030523315
45	0x3aa4253f	0.0012523307
46	0x3bbf89ff	0.005845308
47	0xbd591c16	-0.0530053
48	0x3c00d5dd	0.007863489
49	0x3be67d48	0.0070339777
50	0x3bbd9355	0.0057853856
51	0xbb01b404	-0.0019791136
52	0x3be1afe2	0.006887422
53	0x3c14e0c7	0.009086794
54	0x3bf6bb42	0.007529647
55	0xbd9b95e1	-0.075969465
56	0x3c390479	0.01129257
57	0x3be479ec	0.006972542
58	0x3b40df69	0.0029430038
59	0x3c06c52f	0.008225723
60	0xbc69f9eb	-0.0142807765
61	0xbae3de9e	-0.0017385071
62	0xbdc68cbe	-0.09694813
63	0x3bd1567f	0.006388485
64	0x3bcbe567	0.0062224152
65	0x3b6f83ac	0.0036546988
66	0xbcd7ada1	-0.02632791
67	0xbce55a22	-0.02799708
68	0xbcfc2a20	-0.030781806
69	0x3b56a551	0.0032752345
70	0x3bae2c29	0.005315323
71	0x3c08b358	0.00834354
72	0x3be26f27	0.006910223
73	0xb881b8f9	-6.185653e-05
74	0xbdcb7b33	-0.09935608
75	0x3b93e15e	0.00451295
76	0x3be8bf4d	0.007102883
77	0x3c404095	0.011734148
78	0xbbb757dd	-0.005595191
79	0xbd8df737	-0.06931918
80	0x38d270ee	0.00010034615
81	0x3bdbc8b7	0.0067072767
82	0x3bbb0d39	0.0057083634
83	0xbd8f7f91	-0.07006753
84	0x3be6c4ef	0.0070425193
85	0xbd7ba668	-0.061437994
86	0xbc4c8431	-0.012482689
87	0x3c1cb7e1	0.0095653245
88	0xbb8061dd	-0.003917916
89	0xbddf15af	-0.10892808
90	0x3b8bc06d	0.0042648823
91	0xbb3bfbd6	-0.0028684041
92	0xbd729bfc	-0.05923079
93	0x3b8996a7	0.0041988674
94	0xbd1cd4b1	-0.038288776
95	0x3b9fb604	0.004873993
96	0x3bcfc648	0.0063407756
97	0x3b615231	0.0034381265
98	0x3b8b2201	0.004245997
99	0x3b7eceed	0.0038880662

fc.6.weight f4 [100, 100]
0	0xbd19dc10	-0.037563384
1	0x3d468732	0.048468776
2	0x3dee1d1d	0.11626647
3	0x3b9c7690	0.004774876
4	0x3d378a07	0.044809368
5	0xbdf23a41	-0.11827517
6	0x3cc28c55	0.023748556
7	0xbde34be0	-0.110984564
8	0xbc3fd9d6	-0.011709651
9	0x3d57c45c	0.052677497
10	0xbd4ad880	-0.049522877
11	0xbda05b6c	-0.07829937
12	0x3db242c9	0.087041445
13	0x3d428a5c	0.04749523
14	0xbd9c866a	-0.07642825
15	0x3cc951f4	0.024575211
16	0x3db0bffb	0.08630367
17	0x3c869720	0.016429484
18	0xbdc50493	-0.09620013
19	0x3c28fc0f	0.010314002
20	0x3d6d14e3	0.057881247
21	0x3d3dcfbb	0.046340685
22	0xbd9c9eb6	-0.07647459
23	0x3c71fc9f	0.014769702
24	0x3da08261	0.07837368
25	0xbb337db9	-0.002738817
26	0xbbc1456f	-0.0058981697
27	0x3d76d74e	0.060263924
28	0x3cabe72d	0.020984257
29	0xbcf5af16	-0.029990714
30	0xbdaf9d3f	-0.08574914
31	0x3d20e1f6	0.039277993
32	0xbd665024	-0.05622877
33	0xbd91793c	-0.07103202
34	0xbd9be489	-0.07611949
35	0x3d8dfa97	0.06932562
36	0x3da9628d	0.0827075
37	0x3d260924	0.04053606
38	0xbce6b716	-0.028163474
39	0xbcb6a08c	-0.022293352
40	0xbd7bcf45	-0.061476965
41	0xbda49640	-0.080364704
42	0xbd55ee17	-0.052229013
43	0x3ccd6e11	0.025076898
44	0xbdb8ee86	-0.0902987
45	0x3d049fd1	0.032378975
46	0x3d7c323e	0.061571352
47	0xbd29c9cd	-0.041452218
48	0x3c954061	0.018219175
49	0xbca276be	-0.019832011
50	0xbb0a71cd	-0.002112496
51	0x3a19febb	0.00058744446
52	0xbd8dc6db	-0.06922694
53	0xbcba7a38	-0.022763357
54	0xbdac771b	-0.08421155
55	0x3da20724	0.07911518
56	0xbd6dfb80	-0.058101177
57	0xbdfddfc0	-0.123961926
58	0x3db5949e	0.08866237
59	0xbd20f012	-0.03929145
60	0x3dc2f33a	0.09519048
61	0x3d17a776	0.037024938
62	0xbd313f76	-0.04327341
63	0xbdb8e5bf	-0.090281956
64	0x3be03ed3	0.0068434267
65	0xbd48bc2c	-0.04900758
66	0x3cfdb863	0.030971712
67	0x3d7e884f	0.062141713
68	0xbdcb1414	-0.09915939
69	0x3c89698e	0.016773965
70	0x3d458727	0.048224594
71	0xbba06531	-0.0048948755
72	0xbdd5d5d6	-0.104411766
73	0x3d1b3b31	0.037898246
74	0xbc8b9d49	-0.017042773
75	0xbd353b15	-0.0442458
76	0x3d1d5d52	0.038419075
77	0x3d11039f	0.035403844
78	0x3d280325	0.041018624
79	0xbd46c7b6	-0.048530303
80	0x3dba48c7	0.090959124
81	0x3d444ea4	0.04792656
82	0x3d70de19	0.05880556
83	0x3d393f0d	0.045226146
84	0xbd6a495b	-0.057198863
85	0xbd8dd097	-0.06924551
86	0xbd6cd8a8	-0.057823807
87	0x3d8faa45	0.07014898
88	0x3d96ddce	0.07366525
89	0x3d21a1e7	0.039461043
90	0x3cd50240	0.02600205
91	0x3da843d7	0.082160644
92	0xbd507773	-0.050895166
93	0x3d1df649	0.038564954
94	0x3d4d50f6	0.05012604
95	0x3cdc4bdd	0.026891643
96	0xbd5a2c59	-0.05326495
97	0xbc2756ce	-0.010213567
98	0xbc9e0dd1	-0.019293698
99	0xbc239b45	-0.00998575
100	0x3cd76451	0.026292952
101	0x3d511844	0.051048532
102	0xbd780e1b	-0.060560327
103	0x3c99676b	0.018726071
104	0x3d167d71	0.036740724
105	0x3d27841d	0.040897477
106	0x3c895300	0.01676321
107	0x3d704d7e	0.058667652
108	0x3c7d9e71	0.01547967
109	0x3c679c78	0.014136426
110	0xbd122764	-0.035682097
111	0xbd156748	-0.03647545
112	0xbd6ee6f3	-0.05832572
113	0xbc70dff4	-0.014701832
114	0x3d3cbe01	0.04607964
115	0x3cf759fa	0.030194271
116	0xbd7671da	-0.06016717
117	0x3ce86af3	0.02837131
118	0x3dd93a2d	0.10606799
119	0x3dd58c86	0.10427193
120	0xbde168eb	-0.1100634
121	0xbbe4a898	-0.0069781058
122	0x3d2560db	0.04037557
123	0xbd23ea08	-0.04001811
124	0xbd6535ce	-0.055959515
125	0x3b9dccc3	0.0048156693
126	0x3dc872a4	0.09787491
127	0xbd313ba4	-0.04326977
128	0xbd9dd543	-0.07706692
129	0x3daa5d2b	0.08318552
130	0x3cb5c517	0.022188706
131	0x3c62bc02	0.01383877
132	0x3dd505d2	0.10401501
133	0xbc8d4bfc	-0.017248146
134	0x3d74c526	0.059758328
135	0xbdd79edc	-0.10528347
136	0xbe0a3621	-0.13497211
137	0xbdbd2fe6	-0.092376515
138	0xbcc5a093	-0.02412442
139	0xbdb2911c	-0.08719084
140	0x3cd78102	0.026306633
141	0x3d91f022	0.0712588
142	0xbd968c8d	-0.07351027
143	0xbdfdc75f	-0.12391543
144	0x3ccc62af	0.0249494
145	0xbd36853f	-0.044560667
146	0xbd8817e5	-0.066451825
147	0x3d4c4e73	0.049879503
148	0xbddf5f18	-0.109068096
149	0xbc371f97	-0.011176965
150	0x3d16c324	0.036807194
151	0xbd69f1a5	-0.057115216
152	0x3d82811c	0.06372282
153	0xbd81c40a	-0.063362196
154	0x3ca81f0e	0.02052262
155	0x3d4834b5	0.04887839
156	0xbcba2786	-0.022723924
157	0x3d440e1f	0.04786503
158	0xbd951597	-0.072795086
159	0x3d94db9f	0.07268452
160	0x3c2ee2f9	0.010674232
161	0x3ccb3b4d	0.02480855
162	0x3da3ddee	0.08001314
163	0x3d19f2a5	0.03758492
164	0x3cf7b721	0.03023869
165	0xbcf36942	-0.029713277
166	0xbbd20896	-0.006409715
167	0x3cd9834f	0.02655187
168	0x3c94019b	0.018067172
169	0x3d7ef879	0.06224868
170	0xbdcb08a5	-0.09913758
171	0x3dd6950e	0.10477649
172	0x3d547144	0.05186583
173	0x3c96e3ab	0.018419107
174	0x3db45c93	0.0880672
175	0xbd82dae6	-0.06389408
176	0xbde203d0	-0.110358834
177	0x3ddc0eba	0.10744996
178	0xbb1413c1	-0.0022594782
179	0x3d5c65b9	0.053807948
180	0xbda1e357	-0.0790469
181	0x3c676552	0.014123278
182	0xbda87935	-0.082262434
183	0xbdc174ff	-0.09446143
184	0x3bdba1a5	0.006702619
185	0x3d0fc345	0.035098333
186	0xbcae38d9	-0.021267341
187	0x3cc48aaa	0.023991901
188	0xbc7b801f	-0.015350371
189	0x3d8f9456	0.07010715
190	0x3d1b7351	0.03795177
191	0xbda1d687	-0.07902246
192	0xbd081e12	-0.033231802
193	0xbdaa35b9	-0.08311028
194	0x3dbb5484	0.091469795
195	0xbd262c64	-0.040569678
196	0x3da14b8f	0.0787574
197	0xbd5db9a8	-0.054132134
198	0xbd764577	-0.06012484
199	0x3cae5a33	0.021283245
200	0x3daa41e7	0.08313351
201	0xbd856943	-0.06514218
202	0xbc91067f	-0.017703293
203	0xbda6b337	-0.08139651
204	0xbd69c2e6	-0.057070635
205	0xbdaf25ce	-0.085521325
206	0x3df2b571	0.118510135
207	0xbddb8da7	-0.107203774
208	0x3cba8dc4	0.022772677
209	0x3cab2ed3	0.020896351
210	0x3d43286c	0.04764597
211	0x3d3e7755	0.046500523
212	0x3d80bb57	0.06285732
213	0x3db4e7c7	0.088332705
214	0x3d543ae6	0.051813982
215	0x3d7c31dc	0.061570987
216	0xbd2a970f	-0.041647967
217	0x3d83ce16	0.06435792
218	0xbbed7f70	-0.0072478577
219	0xbd9d75e9	-0.07688505
220	0xbd1d4619	-0.03839693
221	0x3d261e1f	0.04055607
222	0x3c131275	0.0089765685
223	0xbe090c80	-0.13383675
224	0x3dac8aba	0.084248975
225	0xbe112352	-0.1417363
226	0xbd5f8436	-0.054569446
227	0xbd1a3702	-0.037650116
228	0x3c76c1df	0.015060871
229	0xbd825985	-0.06364731
230	0x3c860d49	0.016363757
231	0xbdcc4865	-0.09974746
232	0xbdb45ff0	-0.08807361
233	0xbe003107	-0.12518702
234	0xbcb9f594	-0.022700109
235	0x3da38930	0.07985151
236	0x3cea78e4	0.028622098
237	0xbd39cff0	-0.04536432
238	0x3ccd17ad	0.025035704
239	0xbd72ad4a	-0.059247293
240	0xbc98f845	-0.018673072
241	0x3ba37294	0.004988024
242	0x3dd543b3	0.10413303
243	0x3c1e951a	0.009679103
244	0xbd18b935	-0.037286002
245	0x3ccec7de	0.025241788
246	0x3a08a8c3	0.0005213136
247	0x3db494d5	0.0881745
248	0x3da8d3f6	0.08243553
249	0x3b6aad4e	0.0035808864
250	0xbd400473	-0.046879243
251	0xbca928be	-0.02064931
252	0xbdcddabb	-0.10051485
253	0x3de527df	0.111892454
254	0xbddcddde	-0.10784505
255	0x3b0abb58	0.0021168794

fc.6.bias f4 [100]
0	0x3cb8fc6a	0.022581298
1	0x3ce10ad8	0.027470991
2	0x3cdbaa6f	0.026814668
3	0x3cb89a5e	0.022534546
4	0x3caca170	0.021073073
5	0x3cb3dcad	0.021955812
6	0x3ccb433a	0.02481233
7	0x3c9287f4	0.017887093
8	0x3c8edd18	0.01743941
9	0x3cc192bd	0.02362954
10	0x3cbd76ae	0.02312788
11	0x3ce5aff4	0.028038003
12	0x3c9ccd9c	0.019141011
13	0x3cd2eaa0	0.025746644
14	0x3c8c2bf5	0.017110804
15	0x3cc063f2	0.023485158
16	0x3ccf1ca2	0.025282208
17	0xbdc54e7b	-0.096341096
18	0x3ce2e5db	0.027697494
19	0x3ca3dcfd	0.020002836
20	0x3cd674f4	0.026178814
21	0xbd1a992b	-0.03774373
22	0xbd7d1b66	-0.061793707
23	0xbd99a669	-0.07502443
24	0x3cf94d7c	0.030432455
25	0x3cd3c96d	0.025852883
26	0x3ca0a9b1	0.019612165
27	0x3c7ddb68	0.015494205
28	0x3cb43819	0.021999406
29	0x3cc6ae89	0.024253147
30	0x3cc49f00	0.024001598
31	0x3d10397f	0.035211083
32	0x3cbf23c1	0.023332478
33	0x3cd744e9	0.026277976
34	0x3ccaeb74	0.024770476
35	0x3cfb3914	0.030666865
36	0x3cb8375c	0.022487335
37	0xbdb49fac	-0.088195175
38	0x3cab6427	0.02092178
39	0xbdb37b9f	-0.08763813
40	0x3cab9477	0.020944817
41	0x3cc6464b	0.02420344
42	0xbd9de56b	-0.07709774
43	0x3cc35d1d	0.02384811
44	0x3cc8d954	0.024517693
45	0x3cb05eb3	0.021529531
46	0x3cc0278c	0.023456357
47	0x3cc63f95	0.02420024
48	0x3c786757	0.015161357
49	0x3ca62b9a	0.020284463
50	0x3cc0b918	0.02352576
51	0x3cd5ea1a	0.026112605
52	0x3cdccb24	0.026952334
53	0xbd9a49ce	-0.075336084
54	0x3cb65520	0.022257388
55	0xbda49799	-0.080367275
56	0xbdc1fba7	-0.09471827
57	0xbddb2809	-0.107009955
58	0x3ce245ff	0.027621267
59	0x3cef59fa	0.029217709
60	0x3cca23fa	0.024675358
61	0x3cbe9331	0.023263546
62	0x3cc434c7	0.023950947
63	0x3cc6232f	0.024186699
64	0x3cb824ba	0.02247845
65	0x3cd2430c	0.025666736
66	0xbd51189b	-0.051048856
67	0x3cac4170	0.021027297
68	0xbdb5f2e0	-0.08884215
69	0x3c9beea4	0.019034691
70	0x3cb51413	0.022104299
71	0x3cf76478	0.030199274
72	0x3cca370c	0.024684452
73	0x3ceb0c22	0.028692309
74	0xbce58388	-0.02801682
75	0x3cbdef49	0.02318539
76	0x3cc915f3	0.024546599
77	0x3cc13ded	0.023589099
78	0x3cc6a158	0.024246857
79	0x3ca39f0d	0.019973302
80	0x3ca54565	0.020174691
81	0xbdac3c2e	-0.08409916
82	0x3cc1badb	0.02364867
83	0x3cbbae1b	0.022910168
84	0x3c940d27	0.018072678
85	0x3c99456f	0.018709866
86	0x3ccfc300	0.025361538
87	0x3cbec007	0.023284925
88	0xbd681bb3	-0.05666704
89	0x3cafdbf6	0.02146719
90	0x3cc20f58	0.023688957
91	0xbd445c4e	-0.04793959
92	0x3cba3472	0.022730086
93	0x3cbeaa76	0.023274641
94	0x3c9d8a7e	0.019231077
95	0x3cbb1149	0.02283539
96	0x3c8d7e5c	0.017272167
97	0x3cb7f393	0.022455012
98	0x3ca4b99d	0.020108039
99	0xbd7237d5	-0.059135277

fc.9.weight f4 [2, 100]
0	0xbe286679	-0.1644534
1	0x3e2be7ae	0.16787598
2	0xbe4c03fa	-0.19923392
3	0x3e65a774	0.2242716
4	0x3e3fe6cb	0.18740384
5	0xbe544d0d	-0.20732518
6	0xbe37dd69	-0.17955555
7	0xbe2a3ba3	-0.16624312
8	0xbe1ea2cd	-0.15491791
9	0x3de6515e	0.11245988
10	0xbdf904b6	-0.12159102
11	0x3e10ffe8	0.1416012
12	0xbdffc349	-0.124884196
13	0xbdf2e90b	-0.11860856
14	0xbe112ce5	-0.14177282
15	0x3e49a5fa	0.19692221
16	0xbe4fd9a4	-0.20297867
17	0xbdbd606f	-0.09246909
18	0x3e41b698	0.1891731
19	0x3d7c0d11	0.0615359
20	0x3e2a3d6e	0.16624996
21	0xbdbe3835	-0.092880644
22	0x3da282d9	0.079351135
23	0x3d9955ab	0.07487043
24	0xbe022201	-0.12708284
25	0x3e32e33d	0.17469497
26	0xbe26ac11	-0.16276576
27	0xbd85310a	-0.06503494
28	0x3e1ff211	0.15619685
29	0xbe2cc532	-0.16872099
30	0x3e69c27e	0.22828099
31	0x3db0155e	0.085978255
32	0xbe6deeab	-0.23235576
33	0x3e002927	0.12515698
34	0x3dfe7cda	0.12426157
35	0x3debba69	0.11510164
36	0x3e2c01bb	0.16797535
37	0xbcd0a230	-0.025467962
38	0xbe25e425	-0.16200311
39	0xbcb0d836	-0.021587472
40	0xbe505f39	-0.20348825
41	0xbe2784da	-0.16359273
42	0xbbf67bc6	-0.007522079
43	0x3e10d6fd	0.14144512
44	0x3e73f1f4	0.23822767
45	0xbe345af4	-0.17612821
46	0xbe124263	-0.14283137
47	0xbe126382	-0.14295772
48	0xbdb7bc9b	-0.089715205
49	0xbdf90cb5	-0.12160627
50	0x3e8e8bc2	0.27841002
51	0xbe611199	-0.21979369
52	0x3e841c34	0.25802767
53	0x3da210fd	0.079133965
54	0xbe1cf625	-0.15328272
55	0xbc6844ae	-0.014176531
56	0xbd87a124	-0.06622532
57	0x3b4bbc09	0.003108742
58	0x3e107514	0.14107162
59	0x3e02bd77	0.12767588
60	0x3e286924	0.16446358
61	0x3e4435d0	0.19161153
62	0x3e4ce2e3	0.20008425
63	0x3e3937e9	0.18087734
64	0xbe270501	-0.16310503
65	0x3e27e1a9	0.16394676
66	0xbcbd9eba	-0.023146976
67	0xbdde4ac6	-0.10854106
68	0x3c8d388a	0.017238874
69	0xbe434e11	-0.19072749
70	0xbdc3b4ef	-0.09555995
71	0x3e269587	0.16267978
72	0xbe227634	-0.15865403
73	0x3e20e0a8	0.157107
74	0xbda214a0	-0.0791409
75	0xbe0f98e3	-0.14023165
76	0x3e251550	0.16121411
77	0xbe38e611	-0.18056513
78	0x3e392ec9	0.18084253
79	0xbe5050c6	-0.20343313
80	0xbe43a962	-0.19107583
81	0xbda21cb0	-0.07915628
82	0xbe45b15e	-0.19305941
83	0x3e68b822	0.22726491
84	0xbd9783d4	-0.07398191
85	0x3e547bea	0.20750394
86	0x3c1f406f	0.009719952
87	0x3e3ac585	0.1823941
88	0x3c0930f8	0.0083734915
89	0xbe2f8b5b	-0.17143004
90	0x3e4daeed	0.2008626
91	0x3db26d0f	0.087122075
92	0xbe2a2bc9	-0.16618265
93	0xbe3f2241	-0.1866541
94	0xbe1b31f4	-0.15155774
95	0x3df512f8	0.119665086
96	0xbe21899b	-0.15775149
97	0x3e491052	0.19635132
98	0xbd9ec96d	-0.07753263
99	0xbca37654	-0.019953884
100	0x3e17b539	0.14815225
101	0xbe495bfc	-0.19663996
102	0x3df261fc	0.11835095
103	0xbe0137c1	-0.12618925
104	0xbe975753	-0.2955881
105	0x3da4cfba	0.08047433
106	0x3e0fe857	0.14053474
107	0x3e0f288f	0.13980316
108	0x3e063001	0.1310425
109	0xbe82ec2c	-0.2557081
110	0x3e30cb95	0.1726516
111	0xbe51f36c	-0.20503014
112	0x3e150225	0.145516
113	0x3e54bf9e	0.20776221
114	0x3df8af01	0.12142754
115	0xbe414bb9	-0.18876542
116	0x3dc84581	0.09778882
117	0xbdbf38a8	-0.09336978
118	0xbe3b438c	-0.18287486
119	0xbe2b1212	-0.16706112
120	0xbe5a929d	-0.21344991
121	0x3c38d723	0.011281761
122	0xbc54d28c	-0.012989651
123	0x3d57e561	0.052708987
124	0x3e37a783	0.17934994
125	0xbe4c8f4c	-0.19976538
126	0x3df8308b	0.12118634
127	0x3e5fd6ad	0.21859236
128	0xbe61724c	-0.22016257
129	0x3e1a5fee	0.15075657
130	0xbdf0e982	-0.11763288
131	0xbd86c063	-0.065796636
132	0x3dbc2763	0.091872
133	0xbe7b6c86	-0.24553117
134	0xbe399a23	-0.18125205
135	0xbe7f77b8	-0.24948013
136	0xbe556403	-0.20838933
137	0xbcd7a14f	-0.026322035
138	0x3e2f06e1	0.17092468
139	0xbade92ba	-0.0016980984
140	0x3e12ed2c	0.14348286
141	0x3e07ccc6	0.13261709
142	0xbcb02e92	-0.021506581
143	0xbe6c2174	-0.23059636
144	0xbe230c85	-0.15922745
145	0x3e1113f5	0.14167769
146	0x3e481d68	0.19542468
147	0x3e5050a8	0.20343268
148	0x3e4eebb1	0.20207097
149	0x3e44b125	0.192082
150	0xbe014ce6	-0.1262699
151	0x3dbb5666	0.091473386
152	0xbdcbbc99	-0.099480815
153	0x3cd741b8	0.026276454
154	0x3e1f7cbc	0.15574926
155	0xbcb984bb	-0.022646299
156	0x39a489d3	0.00031383205
157	0xbdafe8cf	-0.085893266
158	0xbe5a7bc7	-0.2133628
159	0xbe5e5e34	-0.21715623
160	0xbe3693bd	-0.17829795
161	0xbe239af4	-0.15977079
162	0xbe3b20cc	-0.1827423
163	0xbe405831	-0.18783642
164	0x3e168af4	0.14701444
165	0xbe2b244b	-0.16713063
166	0xbbd8d869	-0.006617595
167	0x3e3b8ec4	0.1831618
168	0xbd1a89ba	-0.037729003
169	0x3de2947e	0.11063479
170	0x3e4b8c83	0.1987782
171	0xbe5720be	-0.21008584
172	0x3e0e2f11	0.13885142
173	0xbe465a0e	-0.1937029
174	0xbda006ef	-0.078138225
175	0x3e15dc00	0.14634705
176	0xbe5787c9	-0.21047892
177	0x3e003403	0.12519841
178	0xbe6cd5bc	-0.23128408
179	0x3dc14446	0.0943685
180	0x3da3d6ee	0.07999979
181	0x3da4b6fc	0.08042714
182	0x3e04f497	0.12983929
183	0xbe021f8a	-0.12707344
184	0x3bec2058	0.007206004
185	0xbdeea8e6	-0.116533086
186	0xbdd175fa	-0.1022758
187	0xbe35a79b	-0.17739718
188	0xbd91c1d8	-0.07117051
189	0x3dda2e99	0.10653419
190	0xbe8b8e83	-0.27257165
191	0xbd49bf65	-0.049254794
192	0x3e09be07	0.13451396
193	0x3e3854b9	0.18001069
194	0x3e20fa20	0.15720415
195	0xbe6b1c87	-0.22960101
196	0x3e0a383d	0.13498016
197	0xbdfc89f9	-0.12331004
198	0x3e57c16e	0.21069881
199	0x3d29ae20	0.041425824

fc.9.bias f4 [2]
0	0x3c9581d9	0.018250393
1	0x3e145bac	0.14488095
