algorithms/saved_models/AutoEncoder_100_50_10_50epoch.pt (torch_old, 145567 bytes, 12 tensors)

weight f4 [100, 113]
0.47105375 -0.13535352 0.041620668 0.18559183 0.03112741 0.02847691 0.16762511 -0.24996778
0.014592731 0.0056592235 -0.010957473 -0.14745528 0.13210046 0.052355263 0.07554684 -0.1130902
0.06233461 -0.42073953 0.09318445 0.13531308 0.07223031 0.03131484 0.03345036 -5.0644025e-38
0.097518094 0.06277735 0.040293124 -0.04458934 0.032463137 0.029179348 0.02490639 -0.47900724
-0.034841258 0.1355144 -0.009289914 0.041658007 0.074969836 0.10356089 0.040961325 0.04214113
0.14012387 0.17065695 -0.05303805 0.037979186 -0.14265826 -0.022379147 -0.06344398 0.16220993
-0.14740187 0.009474831 0.060525514 0.0959874 0.045873247 0.07449047 -0.046279788 0.07320144
0.07276396 0.06672822 -0.048369262 -0.039749447 -0.08899562 0.050583307 -0.037681412 0.034066107
0.04412186 -0.16978343 -0.47132304 0.055895608 0.040426325 0.060321394 0.14079535 0.0022488576
-0.18845262 0.06275142 0.059283916 0.05947367 -0.22480911 0.075456016 0.15369739 0.16605422
0.047310647 0.03591631 -0.028150072 0.1174681 0.09276433 0.10844679 0.024091356 -0.09893428
0.15575026 0.03602901 0.0691849 -0.10130398 0.15305015 -0.18998352 -0.107998826 0.10550491
-0.07118159 0.049329367 -0.12483824 0.11138425 -0.11895192 0.18152387 0.08200186 0.0468537
-0.09475814 -0.48566124 0.16669011 -2.7881512e-38 -0.06611791 -0.08473832 -0.007002345 0.103681974
0.013683942 0.052629888 0.040550523 0.06551715 0.07948039 0.049305305 0.05906846 0.32363287
0.06521077 0.07108129 0.064339764 -0.73415303 0.056188352 0.10753825 0.0694722 0.049985826
0.06025577 0.13796785 0.07752399 0.05161675 0.056260828 0.05521199 0.06585566 0.06352335
-9.33897e-39 0.047209777 0.08351689 0.05949816 0.06835079 0.08873687 0.067853466 0.012999219
0.069082186 0.031218288 0.10077509 0.36801362 0.06734446 0.0782907 0.019719893 0.05651023
0.06532321 0.07355238 0.060864463 0.022397872 -1.359893 0.057528 -0.013644242 0.031225748
0.07171367 0.071527 0.065622166 0.06114759 0.052024383 0.06371166 0.07399964 0.03933515
0.06563446 -0.008747098 0.06742925 0.054714784 0.03791745 0.058594402 0.067885645 0.05594854
0.046638347 0.07105956 0.017973064 0.056931075 0.077339396 0.06297858 0.06721859 0.064965375
0.06802935 0.0513526 -1.3353863 0.043910448 0.057248592 0.046416182 0.06029065 0.06908361
0.07021727 0.040109005 0.048493188 0.07057765 0.053710837 0.051066108 0.054171767 0.04907854
0.06783605 0.06411276 0.050536856 0.019192964 0.082808964 0.060949434 0.05369525 0.069364026
0.07900896 0.13969915 0.0634902 0.048095644 0.032735165 0.051419925 0.015890734 0.05660875
0.0472472 0.07429134 0.04944365 0.053365663 3.662365e-38 0.05093626 0.068937935 0.0485517
0.052592624 0.08772627 0.11831112 0.12379513 -0.36248806 0.09072626 0.12437362 -0.14731412
0.19266781 0.13698356 0.16005546 0.15403044 0.14029151 -0.04417733 0.18173535 0.12862489
-0.34153646 0.17258522 0.16575928 0.16460069 0.10609811 -0.38232785 0.17081332 0.15677865
0.11652047 4.073846e-39 -0.35144815 -0.36702216 0.12224933 0.18109305 0.13421597 0.17140678
00000000: f52d f13e 1d9a 0abe 6f7a 2a3d c90b 3e3e
00000010: e9fe fe3c 6948 e93c eba5 2b3e 8ef7 7fbe
00000020: 5a16 6f3c 0271 b93b f986 33bc 84fe 16be
00000030: 5845 073e 7972 563d 4db8 9a3d d69b e7bd
00000040: 9352 7f3d 2c6b d7be 7dd7 be3d 838f 0a3e
00000050: 7ced 933d fd43 003d 3f03 093d bcdd 8981
00000060: 91b7 c73d 6991 803d 670a 253d 50a3 36bd
00000070: 11f8 043d 8709 ef3c 7c08 cc3c 7040 f5be
00000080: b5b5 0ebd 49c4 0a3e b934 18bc 96a1 2a3d
00000090: c989 993d bb17 d43d 10c7 273d 2d9c 2c3d
000000a0: a27c 0f3e b2c0 2e3e 6d3e 59bd 1090 1b3d
000000b0: 0215 12be 7954 b7bc ebee 81bd 5c1a 263e
000000c0: 84f0 16be 523c 1b3c 9ae9 773d 0b95 c43d
000000d0: 96e5 3b3d 768e 983d e08f 3dbd a3ea 953d
000000e0: 4505 953d cea8 883d d91e 46bd 51d0 22bd
000000f0: 5643 b6bd 7130 4f3d d357 1abd e788 0b3d
00000100: 20b9 343d b5db 2dbe 4151 f1be cbf2 643d
00000110: 1396 253d 9113 773d a82c 103e 9261 133b
00000120: b9f9 40be d183 803d b1d3 723d aa9a 733d
00000130: 5c34 66be af88 9a3d d962 1d3e 1e0a 2a3e
00000140: cfc8 413d fb1c 133d fb9a e6bc 1d93 f03d
00000150: 3afb bd3d 5a19 de3d 3c5b c53c 0e9e cabd
00000160: ff7c 1f3e 2893 133d d0b0 8d3d 7678 cfbd
00000170: 2eb9 1c3e 0a8b 42be 7d2e ddbd f512 d83d
00000180: a7c7 91bd 970d 4a3d 31ab ffbd 6d1d e43d
00000190: 109d f3bd 65e1 393e 97f0 a73d aae9 3f3d
000001a0: 8e10 c2bd 97a8 f8be d0b0 2a3e 28cd 1781
000001b0: d468 87bd 498b adbd ed73 e5bb 3757 d43d
000001c0: 9d32 603c 7092 573d 4e18 263d db2d 863d
000001d0: 9dc6 a23d 5cf4 493d c5f1 713d 35b3 a53e
000001e0: 398d 853d 1193 913d 91c4 833d 74f1 3bbf
000001f0: c225 663d 043d dc3d 7147 8e3d f0bd 4c3d
00000200: c1ce 763d 7247 0d3e e6c4 9e3d 166c 533d
00000210: c171 663d f825 623d 55df 863d 8818 823d
00000220: 40b1 6580 0a5f 413d e70a ab3d 58b4 733d
00000230: 80fb 8b3d adbb b53d c2f6 8a3d adfa 543c
00000240: f67a 8d3d 7fbd ff3c 2c63 ce3d 486c bc3e
00000250: e4eb 893d e056 a03d 9d8b a13c 4577 673d
00000260: 2dc8 853d a1a2 963d 044d 793d be7b b73c
00000270: f910 aebf 7ba2 6b3d 198c 5fbc 24cd ff3c
00000280: 9ede 923d bf7c 923d ea64 863d e575 7a3d
00000290: 8517 553d 427b 823d 208d 973d e51d 213d
000002a0: 5c6b 863d fd4f 0fbc 5918 8a3d 9c1c 603d
000002b0: 544f 1b3d af00 703d a107 8b3d 4c2a 653d
000002c0: da07 3f3d ad87 913d 3f3c 933c 8f30 693d
000002d0: 1e64 9e3d eafa 803d e6a9 893d 910c 853d
000002e0: f952 8b3d 1b57 523d f0ed aabf 71db 333d
000002f0: 807d 6a3d e51e 3e3d 54f3 763d b57b 8d3d
00000300: 12ce 8f3d 5749 243d cba0 463d 048b 903d
00000310: e5ff 5b3d b22a 513d 37e3 5d3d 9406 493d
00000320: a1ed 8a3d 8d4d 833d bcff 4e3d 903a 9d3c
00000330: bf97 a93d 1da6 793d 8def 5b3d ba0e 8e3d
00000340: 73cf a13d 4b0d 0f3e 2607 823d f0ff 443d
00000350: 4f15 063d b39d 523d 492d 823c 94de 673d
00000360: 4886 413d 0f26 983d 6d85 4a3d f495 5a3d
00000370: eb65 4701 8aa2 503d 552f 8d3d 26de 463d
00000380: 5d6b 573d d5a9 b33d 1a4d f23d 4d88 fd3d
00000390: 0998 b9be b0ce b93d 99b7 fe3d 83d9 16be
000003a0: b64a 453e 6b45 0c3e 94e5 233e 28ba 1d3e
000003b0: 94a8 0f3e 4af3 34bd d518 3a3e 3eb6 033e
000003c0: dedd aebe 2eba 303e cdbc 293e 158d 283e
000003d0: f749 d93d 7ac0 c3be b0e9 2e3e 958a 203e
000003e0: 49a2 ee3d 3a5c 2c00 03f1 b3be 54ea bbbe
000003f0: db5d fa3d 7570 393e e96f 093e 4285 2f3e

bias f4 [100]
0.20188925 0.65279967 -0.38267696 0.584949 -0.07359828 -0.3003465 -0.078402005 -0.6591394
0.39512634 -0.18982677 -0.4001203 1.7839338 0.29589647 0.30491647 0.06558632 0.35038668
0.3271233 -0.048613347 -0.27846876 -0.34636506 0.40995967 -0.31018683 0.2571208 0.8396197
0.6631684 -0.1369952 -0.20029029 -0.34573224 -0.1692076 -0.49843824 0.13470821 -0.4157164
-0.11575735 0.3350689 -0.16585952 -0.3732162 -0.39098173 -0.57753193 0.17968269 -0.02104049
0.1861157 -0.19621265 0.0054664975 -0.105633765 0.5147997 0.655875 -0.08365346 -0.01931898
-0.104876466 -0.07877352 0.28695092 -0.30672055 -0.22081931 0.08884466 -0.24236591 -0.024773879
-0.010043386 0.76481456 -0.009467426 -0.30488393 -0.18755741 -0.21053648 -0.23061968 0.07984783
-0.28488794 -0.36366335 -0.0945509 -0.11909805 -0.34670284 0.15494446 -0.15657413 0.07058932
-0.20730999 -0.16695952 -0.38472968 0.10621477 -0.30070385 -0.15688899 -0.02576521 -0.55506897
-0.15600055 -0.075718775 -0.08176767 0.31705803 -0.08391073 0.27330902 0.062109515 0.0085519785
-0.12264219 -0.076932795 -0.120312944 -0.45538226 0.12237695 -0.49702737 -0.12910649 -0.08534182
-0.5206549 -0.06498793 0.16174385 0.007517614
00000000: 0ebc 4e3e e11d 273f 3cee c3be 38bf 153f
00000010: b2ba 96bd 04c7 99be 3b91 a0bd 5cbd 28bf
00000020: 004e ca3e f361 42be 91dc ccbe f157 e43f
00000030: be7f 973e 031e 9c3e 1f52 863d e265 b33e
00000040: b57c a73e ca1e 47bd 7593 8ebe c356 b1be
00000050: 3ce6 d13e cfd0 9ebe 56a5 833e 51f1 563f
00000060: 67c5 293f 7848 0cbe e618 4dbe d103 b1be
00000070: c244 2dbe 4c33 ffbe f3f0 093e c8d8 d4be
00000080: 3112 edbd 278e ab3e 14d7 29be 3216 bfbe
00000090: c22e c8be 22d9 13bf bdfe 373e 1b5d acbc
000000a0: 1d95 3e3e f8eb 48be 4e20 b33b 8456 d8bd
000000b0: eac9 033f 6de7 273f 8152 abbd d642 9ebc
000000c0: 79c9 d6bd 0354 a1bd 3beb 923e 7a0a 9dbe
000000d0: 751e 62be 30f4 b53d c52e 78be 97f2 cabc
000000e0: 048d 24bc e3ca 433f 431d 1bbc bf19 9cbe
000000f0: 0d0f 40be e096 57be 9127 6cbe 4287 a33d
00000100: d5dc 91be 1532 babe e7a3 c1bd aee9 f3bd
00000110: 0983 b1be c3a9 1e3e f854 20be 2291 903d
00000120: 1249 54be 70f7 2abe 4afb c4be 2187 d93d
00000130: dbf5 99be 82a7 20be 9011 d3bc 0019 0ebf
00000140: 9cbe 1fbe 7212 9bbd cf75 a7bd 6e55 a23e
00000150: 64d9 abbd 29ef 8b3e 8c66 7e3d 991d 0c3c
00000160: d42b fbbd f18e 9dbd a266 f6bd dd27 e9be
00000170: c4a0 fa3d 5f7a febe 7e34 04be b1c7 aebd
00000180: a449 05bf 6418 85bd 2ea0 253e 5156 f63b

weight f4 [50, 100]
-0.0392 -0.0062529095 -0.08079703 -0.0025794571 -0.014070188 0.06974834 0.23749328 -0.07691912
0.0010081994 -0.028833648 -0.18112807 0.1656898 0.03097657 0.35459048 0.08581267 0.06067292
0.13359763 0.15837759 -0.10839515 0.5367862 0.08573428 -0.009609179 -0.047187362 -0.04359193
0.025159307 -0.08442372 -0.079889625 0.1911109 0.080909304 -0.1520034 0.010479413 -0.0030028734
-0.056144405 -0.077674754 -0.05628422 -0.08691818 -0.07694789 -0.116597325 0.04863882 0.0050331703
0.030519538 -0.424772 -0.13618186 0.027845126 -0.057800334 -0.100039855 0.010175044 0.014268715
-0.17619053 0.3043046 -0.10116976 -0.0048512816 -0.08496231 0.028676542 0.083059706 -0.04750448
-0.055360857 0.06908873 -0.009941374 -0.13085918 0.20697503 -0.03007788 0.017529925 0.20187458
0.04508124 -0.09026768 -0.027507016 0.03347592 0.3481717 0.06320672 0.09474546 -0.023220882
-0.014841184 0.026963478 0.06741593 -0.04737533 0.09674726 0.09727495 -0.2584002 -0.07563127
-0.13155895 -0.12774253 0.028593939 -0.018218094 -0.026663458 -0.22212595 -0.00019215501 0.15658927
-0.027054725 -0.17287207 0.057748675 -0.05261344 0.35377917 0.3864218 0.0007331455 0.044439808
-0.05028036 -0.06361979 -0.051657774 -0.25579906 -2.487975e-39 -1.5879835e-18 -1.320372e-38 -4.795036e-21
6.915928e-38 -5.610808e-38 -1.5068981e-38 5.986902e-38 -1.4656503e-34 4.6815442e-38 -1.6405744e-38 -1.294446e-06
-2.9785294e-38 -3.4239e-24 5.75367e-38 -7.897132e-35 4.9483986e-32 -1.0180244e-38 -1.8878966e-38 -3.9674644e-38
2.4891909e-31 -3.7429001e-38 1.201969e-37 -9.395868e-15 -5.4871853e-19 1.5440169e-38 1.8524464e-38 -2.7977215e-38
-6.7798514e-38 -2.5162562e-38 2.4529494e-38 3.162904e-39 4.7197627e-38 -2.799198e-38 2.7692085e-38 2.3448547e-38
-1.688427e-38 3.60322e-39 1.4182623e-38 -3.6426877e-38 1.7080791e-38 -3.729e-42 1.011441e-38 4.382128e-38
-1.6615459e-20 -3.3831864e-16 -1.0296077e-38 -2.3063147e-38 2.1999647e-38 -1.7970839e-38 -7.339553e-39 3.5429912e-38
-7.850867e-39 -6.4509094e-38 -6.38352e-38 -1.4892316e-38 -1.793276e-38 -3.0168315e-15 1.71686e-40 1.8275544e-38
-4.6351814e-38 5.2892593e-38 3.146197e-38 6.58958e-38 2.737412e-38 4.793932e-38 5.540892e-38 2.9291034e-38
-5.970583e-38 -2.6299864e-38 -4.972572e-39 -6.69758e-38 -3.6017597e-38 -6.31014e-38 2.4417458e-38 1.661339e-38
1.3406966e-38 -2.5522168e-38 -5.2972535e-38 2.1950467e-38 5.8644234e-38 -1.9621281e-38 6.320254e-39 -2.486327e-39
5.790846e-38 7.0956315e-37 -2.0707007e-38 1.6245609e-38 -1.5888254e-38 1.8111488e-38 6.254869e-38 2.6606796e-38
-6.558552e-38 5.055673e-39 1.5644882e-38 -5.061351e-38 -5.7409875e-38 -3.1098983e-38 -1.6329096e-38 3.4568352e-38
-0.009122849 0.042875826 -0.021935819 0.12937783 0.16932686 -0.053750347 0.002258667 -0.089389026
0.07618026 0.0010766145 0.11010227 0.0909526 0.045928463 0.013009947 0.25440812 0.019125342
0.70849836 0.096102 -0.027870407 0.037093446 0.07018835 0.05277104 -0.07082882 0.13340536
0.10258882 -0.02919135 0.055973835 0.3094675 0.06469385 -0.25801694 0.09107898 0.18597597
-0.20732027 -0.003338607 -0.039284524 -0.3354221 -0.09421049 -0.09668811 0.04533343 0.041026514
0.08823756 -0.6655948 -0.027076658 0.15456453 -0.0011265392 0.08640058 0.02168607 -0.0320687
0.12852451 0.09375428 -0.04710697 -0.14297959 -0.03859485 0.024650017 -0.022341264 -0.11066635
00000000: 2e90 20bd 35e5 ccbb ea78 a5bd 1c0c 29bb
00000010: a586 66bc 38d8 8e3d 7031 733e c687 9dbd
00000020: 8f25 843a 8b34 ecbc a379 39be 96aa 293e
00000030: 93c2 fd3c e28c b53e 8ebe af3d 2b84 783d
00000040: d1cd 083e bc2d 223e 47fe ddbd d26a 093f
00000050: 7495 af3d d16f 1dbc 8947 41bd 748d 32bd
00000060: e41a ce3c 58e6 acbd 2c9d a3bd 93b2 433e
00000070: c7b3 a53d c7a6 1bbe d8b1 2b3c dbcb 44bb
00000080: adf7 65bd f113 9fbd 488a 66bd 2902 b2bd
00000090: db96 9dbd 94ca eebd 8039 473d 4bed a43b
000000a0: 1c04 fa3c b77b d9be 4273 0bbe 761b e43c
000000b0: 0bc0 6cbd b2e1 ccbd 3ab5 263c 54c7 693c
000000c0: 4a6b 34be d0cd 9b3e 1732 cfbd 80f7 9ebb
000000d0: b800 aebd 11eb ea3c 351b aa3d 0f94 42bd
000000e0: 11c2 62bd 647e 8d3d 25e1 22bc f3ff 05be
000000f0: 43f1 533e e365 f6bc eb9a 8f3c 36b8 4e3e
00000100: 1ba7 383d 43de b8bd 6556 e1bc 0c1e 093d
00000110: 9043 b23e 8672 813d e809 c23d b839 bebc
00000120: 7028 73bc 83e2 dc3c 5d11 8a3d a20c 42bd
00000130: 6d23 c63d 1738 c73d 084d 84be 91e4 9abd
00000140: 64b7 06be f0ce 02be d63d ea3c 1d3e 95bc
00000150: 536d dabc fc74 63be 387d 49b9 f058 203e
00000160: dfa1 ddbc 6005 31be e089 6c3d 3181 57bd
00000170: 8b22 b53e 14d9 c53e 9030 403a 8406 363d
00000180: c7f2 4dbd 184b 82bd 1a97 53bd 18f8 82be
00000190: 7617 1b80 5258 eaa1 99c6 8f80 be26 b59d
000001a0: fc44 bc01 a0bd 9881 3016 a480 9efa a201
000001b0: 7fd1 4287 34e3 7e01 8aa4 b280 d3bc adb5
000001c0: a42a 2281 aa74 8498 3aa1 9c01 18f1 d186
000001d0: c077 800b 61da 6e80 e092 cd80 6202 5881
000001e0: c78e a10c 6ac8 4b81 829a 2302 cb42 29a8
000001f0: 00f4 21a1 e920 a800 abb6 c900 8c52 1881
00000200: ab90 b881 7eff 0881 208d 0501 e470 2200
00000210: f27b 8001 2067 1881 22c5 1601 0255 ff00
00000220: 7ada b780 503c 2700 626f 9a00 a853 4681
00000230: 4cfe b900 650a 0080 dc22 6e00 f395 6e01
00000240: b7ed 9c9e 0507 c3a5 461d 7080 ac22 fb80
00000250: 118e ef00 63af c380 b0eb 4f80 17e6 4001
00000260: 067d 5580 479c af81 a4c6 ad81 b829 a280
00000270: 3d45 c380 b862 59a7 97de 0100 c800 c700
00000280: 005d 7c81 c2fc 8f01 964b 2b01 ac62 b301
00000290: f409 1501 d480 8201 62d6 9601 be79 1f01
000002a0: e488 a281 a930 0f81 8225 3680 5253 b681
000002b0: 3419 4481 42c7 ab81 f8f0 0401 5fe7 b400
000002c0: 2bfd 9100 b6f4 0a81 7834 9081 f904 ef00
000002d0: 11a5 9f01 26a8 d580 4cd2 4400 de12 1b80
000002e0: 4ea4 9d01 ab73 7103 b67a e180 26e6 b000
000002f0: fd01 ad80 7637 c500 1346 aa01 76dc 1001
00000300: 708a b281 290d 3700 915b aa00 78c8 8981
00000310: d848 9c81 a851 2981 e0ce b180 4035 3c01
00000320: 0178 15bc 909e 2f3d bfb2 b3bc 9f7b 043e
00000330: 0564 2d3e 5329 5cbd 2506 143b 9811 b7bd
00000340: 6504 9c3d 301d 8d3a 4d7d e13d 5b45 ba3d
00000350: 7c1f 3c3d ac27 553c c841 823e c0ac 9c3c
00000360: 2660 353f 20d1 c43d 7b50 e4bc 4cef 173d
00000370: e9be 8f3d 7226 583d b30e 91bd 6a9b 083e
00000380: 161a d23d b322 efbc d244 653d 8672 9e3e
00000390: 367e 843d cc1a 84be 9e87 ba3d 7c70 3e3e
000003a0: c44b 54be 88cc 5abb cfe8 20bd 72bc abbe
000003b0: 6ef1 c0bd 6a04 c6bd 8caf 393d 6b0b 283d
000003c0: e5b5 b43d 6c64 2abf decf ddbc 2a46 1e3e
000003d0: 62a8 93ba caf2 b03d fca6 b13c 785a 03bd
000003e0: ee9b 033e 3e02 c03d 3df3 40bd 3e69 12be
000003f0: a215 1ebd d5ee c93c 0705 b7bc 0aa5 e2bd

bias f4 [50]
0.2969905 -6.318757e-14 0.0815858 0.6807302 -0.12580967 -6.366573e-38 0.4697609 -0.13681294
-2.7461622e-38 6.16e-42 -0.015465867 -0.1644779 0.28090984 0.10977991 0.18154818 0.2691273
0.49635905 0.74387646 -0.026936091 0.36994758 0.9460138 0.28577474 0.06422705 -0.01592684
-5.628539e-38 -1.9176205e-38 0.16006343 0.29221195 0.3499664 0.15020546 -2.4829832e-38 -0.033901867
0.05834693 -0.00556357 0.10841778 0.0024878324 -2.0417133e-11 -0.18509904 -7.026407e-13 0.42957664
-1.1754555e-38 -0.047860347 0.84473515 -0.26505885 0.6563784 -0.056273635 2.6922373e-33 -6.572684e-05
0.14160113 0.2762218
00000000: 240f 983e 2749 8ea9 7516 a73d 5644 2e3f
00000010: 40d4 00be 8a50 ad81 8084 f03e b118 0cbe
00000020: ea83 1581 2c11 0000 8c64 7dbc e56c 28be
00000030: 6ad3 8f3e 4ad4 e03d c4e7 393e 0ecb 893e
00000040: c622 fe3e b06e 3e3f 14a9 dcbc c569 bd3e
00000050: f62d 723f 1151 923e 7989 833d 0179 82bc
00000060: 3139 9981 75cf d080 abe7 233e ce9c 953e
00000070: cc2e b33e 76cf 193e bc2f 0781 afdc 0abd
00000080: 31fd 6e3d 9c4e b6bb 240a de3d e70a 233b
00000090: 4c97 b3ad 9a8a 3dbe 99c6 45ab 78f1 db3e
000000a0: ebfe 7f80 3609 44bd 9040 583f cbb5 87be
000000b0: 6a08 283f 2f7f 66bd 8ea9 5f09 d4d6 89b8
000000c0: e3ff 103e f26c 8d3e

weight f4 [10, 50]
-0.20373532 -3.2970809e-06 -0.118263446 0.89824283 0.94827825 3.4323295e-18 0.9973858 -0.97335947
1.136955e-19 -1.7774288e-16 0.05202147 -0.6266413 -0.8918332 -0.93836206 0.27238828 0.3327648
-1.2726707 1.1891087 -0.016866311 0.83050025 -1.0200685 0.43339652 0.8851697 0.01714187
-2.146709e-16 -2.2566766e-15 0.62617195 2.1913283 0.39284948 0.35796887 3.1776011e-15 0.1883024
0.046348687 0.7759703 0.021386309 -1.0353104 1.523067e-09 0.02396548 4.8242036e-06 -0.57192826
2.3114572e-38 0.23068923 -0.06127166 0.13060217 -0.9643825 0.7730003 3.8023515e-10 0.002319914
-0.29772973 0.5718058 0.23325849 2.99469e-10 0.091761105 0.28510472 -0.31686682 -2.5831846e-24
0.59888625 -0.7150606 1.3670409e-15 -7.285396e-39 -0.18156523 -0.0065728296 0.18114771 -0.5743883
0.7901128 0.75699514 0.18044193 -0.85902154 0.01662108 -0.32479164 -1.2856939 -0.31516925
0.0013308604 0.010753866 -6.570779e-35 3.1762682e-20 0.5764757 -0.361608 0.16891406 0.47185695
-8.4666136e-20 0.15807295 0.33279437 1.0953658 0.4880455 1.3276933 -3.3390934e-05 -0.113977835
-6.679781e-06 0.12641576 -6.324898e-38 0.1754049 -1.3160695 0.6445014 1.8484808 0.511481
-2.3574677e-07 -0.006615896 0.2155051 1.2921106 0.3022381 -3.0889604e-09 0.009569543 0.30435726
0.29192647 -1.3354084e-08 -0.3042229 0.7000581 -4.6953907e-13 -2.5037612e-17 0.225487 -0.72240734
-1.1648266 -0.6337058 -0.31596407 0.79635596 -1.6176522 0.9395269 0.034907427 0.5944329
2.3301876 0.7010666 -0.67721623 0.013992225 -8.2809e-13 1.0477089e-08 -0.46897835 -0.8683623
0.52025235 -0.29887623 -5.116986e-31 0.26752332 0.15813287 0.1660439 0.30940622 -0.59416425
2.3154156e-05 -0.28606457 -8.404068e-07 0.6389749 8.184034e-39 0.23430501 -0.71872234 0.37647107
1.4460535 -0.40382624 8.3936317e-14 0.00018795622 -0.032103814 -0.8700684 0.1320447 2.7026337e-05
0.13590738 0.5763992 0.5290116 -2.2202318e-20 0.38128364 -0.34123525 -2.991707e-21 7.257894e-26
-0.10632602 -0.07797356 -0.17762676 1.9241388 0.452728 -0.55825645 -0.2421216 -0.54549736
-0.039413564 -0.16230215 1.3322786 1.1182159 0.106679775 -0.021278055 1.5936307e-36 -1.7129312e-11
0.047279958 0.26902133 0.52697736 -0.08786861 -2.227062e-11 0.13228393 0.52785474 0.8120898
-0.15774913 1.0216402 0.0001528737 -0.07084175 -8.8807195e-07 0.8784463 2.6293398e-38 0.269035
-0.9607173 0.5501835 -1.0800679 0.238956 7.8035525e-09 0.00025148326 0.23288745 -0.17594409
0.018455725 -6.9090795e-08 0.6866234 0.0031826883 0.5016179 -1.14738774e-10 -1.7987387 1.7537826
-1.6755896e-36 -1.1016394e-12 0.1026898 -0.095388256 -0.076074824 -0.33039206 -0.71617794 -1.3075032
-0.10784569 0.008915206 0.002772814 -0.09657137 -0.80167043 0.2587773 0.2886385 0.012159856
-8.8646524e-17 -1.4897679e-16 0.2124422 0.90323675 0.047289204 -0.53038085 -2.702833e-15 -1.026696
-0.21101773 1.0590575 0.08061336 -0.18730052 8.99833e-06 -0.042376623 0.00010345621 1.0775604
2.617223e-39 -0.35385022 -1.6525409 0.7007245 0.17310977 -1.2123263 -2.8346487e-09 -0.0048574125
1.2734574 1.1881661 0.7539608 6.8305985e-06 1.2679285 0.37543318 0.18012437 -4.835727e-09
00000000: fe9f 50be 6b43 5db6 1b34 f2bd 3ef3 653f
00000010: 5dc2 723f df42 7d22 ad54 7f3f 162e 79bf
00000020: 5b3a 0620 70ec 4ca5 7714 553d 906b 20bf
00000030: 2e4f 64bf 7f38 70bf 7a76 8b3e 2660 aa3e
00000040: e0e6 a2bf b734 983f 382b 8abc aa9b 543f
00000050: 9b91 82bf 26e6 dd3e 7b9a 623f 1b6d 8c3c
00000060: ab7f 77a5 569c 22a7 ce4c 203f b93e 0c40
00000070: 9123 c93e b247 b73e 65f8 6427 58d2 403e
00000080: 1fd8 3d3d fda5 463f 5732 af3c 0d85 84bf
00000090: 2854 d130 4153 c43c 98df a136 e469 12bf
000000a0: 06b2 fb00 cc39 6c3e fef7 7abd 93bc 053e
000000b0: c6e1 76bf 59e3 453f 5709 d12f b309 183b
000000c0: 0870 98be dd61 123f 50db 6e3e 84a2 a42f
000000d0: 3fed bb3d 3ff9 913e 5e3c a2be 3edd 4798
000000e0: 9c50 193f 360e 37bf e802 c526 b854 4f80
000000f0: 3cec 39be e460 d7bb c97e 393e 1d0b 13bf
00000100: d544 4a3f 6fca 413f c5c5 383e d6e8 5bbf
00000110: ee28 883c 174b a6be 9e91 a4bf dd5d a1be
00000120: 4470 ae3a fc30 303c 68ae ae86 bafe 151f
00000130: e993 133f af24 b9be cff7 2c3e 3c97 f13e
00000140: 8ae9 c79f e0dd 213e 0664 aa3e f234 8c3f
00000150: 1ae1 f93e dbf1 a93f 3e0d 0cb8 366d e9bd
00000160: e222 e0b6 2273 013e 1b2e ac81 589d 333e
00000170: f774 a8bf 0bfe 243f 059b ec3f 6bf0 023f
00000180: 9421 7db4 28ca d8bb 5ead 5c3e e163 a53f
00000190: f4be 9a3e 9145 54b1 93c9 1c3c b7d4 9b3e
000001a0: 6377 953e e26b 65b2 1bc3 9bbe 0237 333f
000001b0: db29 04ab 64ee e6a3 10e6 663e b0ef 38bf
000001c0: 0a19 95bf 8b3a 22bf 0bc6 a1be fcdd 4b3f
000001d0: 3a0f cfbf d684 703f 17fb 0e3d c12c 183f
000001e0: cb21 1540 1a79 333f 0b5e 2dbf a53f 653c
000001f0: 2c16 69ab bafe 3332 ee1d f0be fe4c 5ebf
00000200: 422f 053f 4e06 99be 420e 268d d1f8 883e
00000210: 95ed 213e 6a07 2a3e 7e6a 9e3e 261b 18bf
00000220: 2c3b c237 0e77 92be 5198 61b5 dc93 233f
00000230: c21d 5900 a7ed 6f3e 30fe 37bf d1c0 c03e
00000240: 4818 b93f 50c2 cebe fe01 bd29 1d16 4539
00000250: 4a7f 03bd cdbc 5ebf ba36 073e 9eb6 e237
00000260: 4e2b 0b3e e68e 133f 4e6d 073f e9b1 d19e
00000270: 9c37 c33e 63b6 aebe 080c 629d 5eb2 b315
00000280: 75c1 d9bd 9ab0 9fbd cae3 35be 2e4a f63f
00000290: f7cb e73e e5e9 0ebf baee 77be b7a5 0bbf
000002a0: 1e70 21bd 8932 26be 1b88 aa3f b321 8f3f
000002b0: ed7a da3d 514f aebc 3492 0704 c8ab 96ad
000002c0: a1a8 413d 2abd 893e fde7 063f 75f4 b3bd
000002d0: fae4 c3ad 7075 073e 7d21 073f 1ee5 4f3f
000002e0: fd88 21be 1bc5 823f b94c 2039 7b15 91bd
000002f0: d763 6eb5 dbe1 603f a627 0f01 f5be 893e
00000300: 92f1 75bf d3d8 0c3f aa3f 8abf e2b0 743e
00000310: 6310 0632 83d9 8339 0c7a 6e3e b02a 34be
00000320: 7630 973c 115f 94b3 8dc6 2f3f a694 503b
00000330: 086a 003f 3050 fcae 123d e6bf f37b e03f
00000340: 1c8b 0e84 be0a 9bab 084f d23d eb5a c3bd
00000350: 1ecd 9bbd 2629 a9be 7057 37bf 445c a7bf
00000360: 33de dcbd 1611 123c 19b8 353b 36c7 c5bd
00000370: 463a 4dbf 757e 843e 6dc8 933e 223a 473c
00000380: ac67 cca4 30c2 2ba5 738a 593e 863a 673f
00000390: 53b2 413d 0ac7 07bf 78c2 42a7 c66a 83bf
000003a0: 0815 58be 328f 873f 9e18 a53d b5cb 3fbe
000003b0: 88f7 1637 1c93 2dbd a1f6 d838 80ed 893f
000003c0: c17f 1c00 db2b b5be 7686 d3bf ae62 333f
000003d0: b043 313e 822d 9bbf abcb 42b1 ee2a 9fbb
000003e0: a700 a33f d415 983f 9303 413f 6532 e536
000003f0: 7b4b a23f c738 c03e 8672 383e 8127 a6b1

bias f4 [10]
0.07671683 0.18785039 0.19744726 0.18078071 -0.14237908 0.24653757 -0.24130927 0.016719649
-0.1706571 -0.083854504
00000000: b71d 9d3d da5b 403e 9d2f 4a3e 941e 393e
00000010: d2cb 11be 5874 7c3e c719 77be a5f7 883c
00000020: bcc0 2ebe e9bb abbd

weight f4 [50, 10]
0.35758823 0.08438381 0.5604465 1.2083129 0.020618591 0.19621238 -1.6919936 -0.5158908
0.93729836 1.2645724 -0.52428865 0.8007463 -0.29977998 1.1108557 -0.1924541 0.755919
0.6279398 0.03704706 0.34131867 -0.24045917 0.5827603 -0.2130553 0.059349284 -0.13404492
-1.8979638 1.0210166 1.4284445 -0.21367522 -0.07488738 1.9630668 0.00035385654 -0.026064062
-0.0192116 -0.0369977 0.0012776733 -0.037214708 0.003509752 -0.0027917034 0.018751534 0.006711972
-1.198407 0.28400788 -1.3834392 0.013737111 -0.19677581 0.66804427 -1.2058059 0.836071
-1.3211375 0.9103838 -7.683199e-10 -3.1879006e-09 -4.1694794e-12 -1.1392188e-07 8.397426e-09 -7.764496e-08
3.7219267e-13 3.3384997e-13 1.6413053e-09 2.1409454e-11 0.7259547 0.8263112 -1.2995065 -0.7208763
0.58788896 0.14629732 0.07975246 -1.3744252 0.34510455 0.15384358 -2.5747388e-10 -1.6927954e-05
-6.8395454e-09 -3.6690242e-05 6.8364816e-09 -0.00010904742 2.3118113e-10 3.8173655e-09 5.42921e-09 1.28752795e-08
-9.052826e-13 -1.9161375e-06 -7.042141e-08 -2.7034119e-05 9.4835716e-11 -1.33953035e-05 7.658323e-14 1.1133369e-11
-1.0414265e-07 6.6768795e-09 1.2509139 0.15959479 1.6661927 0.59432757 -0.06447005 0.062326297
0.86429065 -0.6448936 1.027822 -1.0891868 -1.7889619 0.4303815 0.7851573 -0.027480576
-0.85089684 -0.33384538 -0.12649916 -1.8446325 -0.4012771 -0.21074696 -0.3615452 0.014368662
0.082457304 0.5512928 0.37293798 1.1120332 0.29782534 -0.21455675 -0.201659 -0.054315563
0.16864577 0.06341841 -0.18884648 -0.068824686 0.12564644 -0.100239664 -0.20044833 -0.30533296
0.2309701 0.23415217 -0.010743973 -0.031353783 -0.007864677 -0.037254702 0.002390768 -0.032560214
0.0049812477 0.0023435897 0.023427553 0.0016426789 0.08080291 -0.71316 -0.6889519 1.4652036
-0.019279236 0.301637 0.19958597 -0.56687576 -0.34362388 -0.34031838 0.86945206 1.2517172
-1.2823975 -0.39500773 0.53241026 0.6279866 -0.018949667 -1.5444344 0.22339189 -0.030821722
0.14856485 0.63715714 0.44038776 0.37896132 1.4482088 -1.7765617 1.1160016 0.08542234
-1.164758 1.3601624 -0.27654353 -1.2580262 -0.646423 -1.2012999 -0.5943893 0.035664964
-0.34107673 -0.035640527 1.1471965 -0.62940466 -0.018364104 0.0060475017 -0.08248646 -0.077895105
0.030191382 -0.028436542 0.15780295 -0.24347703 0.05080169 0.09941591 0.029509027 -0.2468329
-0.33159962 0.98742205 -0.10209665 0.38500318 0.09473267 -0.34226683 -0.25663388 -0.25772023
0.594779 0.08470138 1.166566 0.5881589 -0.17561527 0.18469894 0.4431668 -0.1756303
0.47339123 -0.6511357 1.3228734 -1.1731555 0.85368615 -0.8368274 0.12538177 0.33038133
-0.9686791 -0.8260062 -1.8735689 -0.114970066 -0.25113556 -0.15477331 -0.113344714 -0.22322784
0.77600366 -0.675187 -0.40069622 0.08333752 0.13666493 -0.59364194 -0.2366026 0.06725444
-0.047047663 0.017370632 0.14985175 0.017566672 0.1772174 0.12388175 0.346815 0.12989348
-0.16229904 0.5451206 -0.21963389 -0.266808 -0.2705302 0.69409645 1.0603468 0.38575554
-1.0095847 -1.2211566 1.849221e-21 -4.4868107e-19 -1.0534623e-20 -4.18218e-18 -1.2733809e-20 -8.746508e-18
00000000: ce15 b73e 6bd1 ac3d 6c79 0f3f ffa9 9a3f
00000010: 52e8 a83c e6eb 483e 3f93 d8bf 6b11 04bf
00000020: c9f2 6f3f 82dd a13f c837 06bf b6fd 4c3f
00000030: c37c 99be 8530 8e3f b012 45be e883 413f
00000040: aac0 203f a8be 173d 52c1 ae3e ee3a 76be
00000050: c72f 153f 2b2b 5abe 3c18 733d 1243 09be
00000060: 7af0 f2bf acb0 823f 45d7 b63f adcd 5abe
00000070: 8e5e 99bd c645 fb3f d285 b939 4d84 d5bc
00000080: a561 9dbc e68a 17bd 9a77 a73a 736e 18bd
00000090: de03 663b 03f5 36bb d19c 993c 1af0 db3b
000000a0: 6765 99bf 7b69 913e 8914 b1bf 9f11 613c
000000b0: 997f 49be f304 2b3f d957 9abf c008 563f
000000c0: 091b a9bf ea0e 693f b531 53b0 2412 5bb1
000000d0: 55b3 92ac 37a5 f4b3 4544 1032 c5bd a6b3
000000e0: 9e86 d12a daf0 bb2a 4c94 e130 ce51 bc2d
000000f0: 2bd8 393f 2189 533f 3b56 a6bf 598b 38bf
00000100: e47f 163f f7ce 153e 4255 a33d 2aed afbf
00000110: 8bb1 b03e 2c89 1d3e 3a8c 8daf 8100 8eb7
00000120: 4701 ebb1 d9e3 19b8 54e6 ea31 63b0 e4b8
00000130: b42f 7e2f e729 8331 d68b ba31 1432 5d32
00000140: 7cd0 7eab fe96 00b6 943a 97b3 54c7 e2b7
00000150: c38b d02e 64bc 60b7 3a73 ac29 3ddc 432d
00000160: 07a5 dfb3 746a e531 f21d a03f d16c 233e
00000170: cd45 d53f da25 183f e008 84bd dc49 7f3d
00000180: 2742 5d3f bf17 25bf ac8f 833f 796a 8bbf
00000190: b4fc e4bf f75a dc3e 1200 493f f21e e1bc
000001a0: 60d4 59bf c8ed aabe ff88 01be eb1c ecbf
000001b0: 3174 cdbe 0dce 57be 741c b9be 896a 6b3c
000001c0: 60df a83d 8621 0d3f baf1 be3e 1b57 8e3f
000001d0: 907c 983e c4b4 5bbe b27f 4ebe ff79 5ebd
000001e0: 7ab1 2c3e 83e1 813d f960 41be f5f3 8cbd
000001f0: 76a9 003e 744a cdbd 5442 4dbe 9a54 9cbe
00000200: 6d83 6c3e 96c5 6f3e 7d07 30bc d36c 00bd
00000210: d9da 00bc 6398 18bd 6eae 1c3b dc5d 05bd
00000220: bc39 a33b e996 193b 24eb bf3c 284f d73a
00000230: ff7b a53d a791 36bf 275f 30bf cb8b bb3f
00000240: 7def 9dbc 2a70 9a3e 4460 4c3e c51e 11bf
00000250: 78ef afbe 363e aebe 6994 5e3f 4538 a03f
00000260: 9a25 a4bf 743e cabe 0a4c 083f bbc3 203f
00000270: 553c 9bbc 07b0 c5bf d8c0 643e d67d fcbc
00000280: 6221 183e bb1c 233f 817a e13e 3807 c23e
00000290: e85e b93f 6066 e3bf 24d9 8e3f e8f1 ae3d
000002a0: ca16 95bf cd19 ae3f 1d97 8dbe 0107 a1bf
000002b0: fa7b 25bf 32c4 99bf e629 18bf 6d15 123d
000002c0: 9ca1 aebe cdfb 11bd 56d7 923f aa20 21bf
000002d0: 5170 96bc 1f2a c63b a9ee a8bd 7887 9fbd
000002e0: eb53 f73c c0f3 e8bc 1997 213e 0b52 79be
000002f0: 6f15 503d 929a cb3d eabc f13c c4c1 7cbe
00000300: 6dc7 a9be b1c7 7c3f 0c18 d1bd 231f c53e
00000310: 3403 c23d 993d afbe 8465 83be e8f3 83be
00000320: 7043 183f eb77 ad3d 0952 953f 9591 163f
00000330: 7dd4 33be b821 3d3e c2e6 e23e 6ed8 33be
00000340: 5660 f23e d4b0 26bf ea53 a93f f629 96bf
00000350: 2d8b 5a3f 523a 56bf 1464 003e be27 a93e
00000360: 5afb 77bf 2475 53bf 1bd1 efbf 6d75 ebbd
00000370: d794 80be e57c 1ebe 4621 e8bd d795 64be
00000380: 2da8 463f 0ed9 2cbf 0e28 cdbe ddac aa3d
00000390: e4f1 0b3e ebf8 17bf f447 72be b2bc 893d
000003a0: 0db5 40bd db4c 8e3c bd72 193e fbe7 8f3c
000003b0: 7a78 353e b7b5 fd3d bc91 b13e cc02 053e
000003c0: b831 26be 068d 0b3f b5e7 60be 0f9b 88be
000003d0: ef82 8abe 4eb0 313f 72b9 873f c081 c53e
000003e0: 123a 81bf dc4e 9cbf 23b9 0b1d 626d 04a1
000003f0: 50fe 469e 934b 9aa2 ec88 709e 3758 21a3

bias f4 [50]
0.37293437 1.1338329 -0.06932221 -9.2282986e-05 0.19452623 1.0940544e-19 -0.10055412 -1.0503718e-09
-8.479599e-39 0.15749864 0.06907521 0.23747559 -0.05075151 -0.0001514391 0.18842435 0.07662392
-0.24263234 -0.12792331 0.007004597 -1.4887784 0.12436946 -0.055844136 -0.14309129 -0.027026854
0.25115806 5.2512265e-21 -0.085213766 5.282366e-10 -2.4477584 0.14216784 -0.13673694 1.1340429
0.8160154 -1.6244504e-20 0.23187646 4.8581796e-38 -1.3611424 -9.9618775e-23 -0.1119529 -0.12264356
0.07753034 -3.9536693 -0.075358845 0.07586031 -1.2214425e-06 -1.3307389e-08 -0.076267414 5.812061
0.09876928 0.0689261
00000000: 41f1 be3e 7021 913f cef8 8dbd 0d88 c1b8
00000010: e231 473e c429 0120 52ef cdbd ac5c 90b0
00000020: ac55 5c80 5347 213e 4e77 8d3d cd2c 733e
00000030: d1e0 4fbd a0cb 1eb9 50f2 403e 00ed 9c3d
00000040: 9d74 78be 54fe 02be d286 e53b 4a90 bebf
00000050: 6ab5 fe3d d2bc 64bd 8686 12be 6c67 ddbc
00000060: ca97 803e bf62 c61d 8e84 aebd 5933 1130
00000070: 13a8 1cc0 7294 113e c504 0cbe 5128 913f
00000080: 63e6 503f cd6c 999e 0671 6d3e 9240 8401
00000090: ea39 aebf 09dd f09a 9047 e5bd 8c2c fbbd
000000a0: 3ac8 9e3d eb08 7dc0 bd55 9abd a65c 9b3d
000000b0: 72f0 a3b5 849e 64b2 1732 9cbd 67fc b940
000000c0: 8c47 ca3d 2129 8d3d

weight f4 [100, 50]
-0.012062049 -0.14518026 0.016397912 -0.00024705738 -0.034397274 6.4393465e-38 0.04761599 8.264863e-30
6.858297e-39 0.03666725 0.012595409 -0.07326945 -0.022043344 4.5288893e-05 0.017044239 0.00873779
-6.9867794e-38 -0.37858042 0.030583434 -0.105928004 -0.033462677 -0.0023035721 -0.07231662 0.06805699
0.0033477955 4.425816e-39 0.06473444 1.2973655e-09 -0.11237518 -5.001844e-39 0.061839715 -0.19352283
-0.122970924 -1.7910172e-38 0.5077921 -1.498169e-38 -0.05922525 -6.651115e-08 0.7254046 -0.7193953
-0.019644892 -0.07862774 -0.20682913 -0.015067874 -3.450953e-07 -3.6456878e-09 0.05773765 0.047702838
-0.0044787154 0.05275855 -0.02801533 -0.034673277 -0.028249504 3.227085e-38 -0.032022923 5.246103e-39
-0.013406202 2.7864383e-38 -3.787166e-38 -0.02820232 -0.022456925 -0.03200484 -3.8439008e-13 2.0370261e-38
-0.030507214 -0.03049132 -0.034680277 -0.0061622304 -5.151791e-33 -0.029809996 -0.02771504 -0.040242355
-2.1582688e-13 -5.7928666e-09 -0.03632271 -4.280384e-38 -0.024488976 6.407463e-38 -0.03342191 -0.03525726
-1.5101166e-06 -0.03904236 -0.04326793 7.155389e-39 -0.03962116 -3.887287e-38 -0.024829146 3.233659e-39
-0.020793155 -0.0012337448 -0.034990408 -0.0036420352 -0.0010268409 -0.026444783 -3.675393e-38 4.166751e-38
-0.03329506 -0.023340562 -0.02252707 -0.023245132 -0.06744384 -0.14710264 0.05673827 6.6832516e-05
-0.035484742 -2.840228e-20 0.048221204 1.6803057e-08 6.9959164e-38 -0.020736055 1.5856811 -0.057075992
0.030388411 2.6361688e-05 -0.098365925 -0.0025553107 0.042273596 0.008339547 0.014510465 0.021933444
0.025581619 -0.031278178 -0.35844958 -0.013765072 -0.031555742 5.7177446e-21 0.011748328 -1.041914e-09
-0.0035374844 -0.0073662964 -0.034118045 -0.13364375 -0.07171063 1.3522499e-32 0.0019847152 2.9080424e-38
-0.027932214 7.5853353e-31 -0.039935313 0.06571914 -0.95636535 0.07450753 -0.0010328363 0.034698673
2.803271e-06 -1.3722413e-08 0.04050922 -0.2024103 -0.019642077 0.055369575 0.15045953 0.3092102
-0.0074176877 -0.0026100776 -0.010499905 -1.8593233e-21 -0.078693524 -2.310839e-32 4.1567546e-38 0.041003853
-0.005073656 0.19692953 0.005165907 -0.0002156995 0.026382914 0.019577062 0.30030292 3.6772922e-38
0.04827767 0.11197747 -0.043832604 0.0027251837 -0.025043365 0.023346988 0.1144314 1.32293015e-23
-0.049771294 -2.3658363e-38 0.11856617 -1.1122309 -0.02212252 0.24926381 0.22844668 5.880412e-25
-1.5787631 1.652198e-26 0.061027687 -8.6877185e-13 -2.372516e-38 4.696338e-38 0.026857315 -0.044687375
0.16408966 0.042985205 -8.57054e-12 -2.512677e-39 -0.025585594 0.1821037 0.042734873 0.058318853
2.0072582 -0.6224426 0.023837639 -0.0062929783 -0.0010394962 -2.4112776e-38 0.08893761 7.423913e-38
6.4059966e-13 0.014623077 0.0114514865 -0.50302726 0.24698523 0.00034969475 -0.08875913 -0.06284562
0.031288296 0.026026698 0.059423678 -0.2077526 -0.062385242 -0.0011394703 -0.05651691 -0.0024317715
0.59927887 3.4359458e-23 6.60821e-39 -2.4219059e-08 -0.21905099 -0.004225865 0.08616858 -0.30350915
-0.42296326 8.8981385e-11 -0.05315489 5.91812e-17 -0.11843787 -2.83186e-16 -0.020404052 -0.01972234
-0.04118518 0.05514655 0.1033079 -0.04412702 4.296668e-06 -2.168726e-07 -0.040121987 -0.2813571
-0.04101832 -0.108975284 -0.005759886 -0.009615107 -0.0012958724 3.858992e-38 -0.0012754084 5.184401e-39
00000000: e69f 45bc 22aa 14be ea54 863c 7b87 81b9
00000010: 28e4 0cbd b24b af01 fc08 433d 9fa1 270f
00000020: 24ae 4a00 6630 163d f95c 4e3c 4b0e 96bd
00000030: 3e94 b4bc 94f4 3d38 5ca0 8b3c f328 0f3c
00000040: bf32 be81 4bd5 c1be 1c8a fa3c c8f0 d8bd
00000050: 2910 09bd 87f7 16bb bc1a 94bd 7761 8b3d
00000060: b066 5b3b 6031 3000 7d93 843d fe4e b230
00000070: f524 e6bd 1b77 3680 a44b 7d3d d92a 46be
00000080: 2ed8 fbbd 4606 c380 aafe 013f db22 a380
00000090: 2d96 72bd e4d4 8eb3 1eb4 393f 4a2a 38bf
000000a0: 53ee a0bc 9507 a1bd 04cb 53be 3fdf 76bc
000000b0: 8945 b9b4 9e87 7ab1 507e 6c3d 0d64 433d
000000c0: 30c2 92bb 5919 583d 6880 e5bc 9105 0ebd
000000d0: 816b e7bc 00b3 2f01 782a 03bd 0020 3900
000000e0: b0a5 5bbc 48b5 1701 6431 4e81 8d08 e7bc
000000f0: 96f7 b7bc 8217 03bd 7364 d8aa 00d0 dd00
00000100: 44ea f9bc efc8 f9bc e80c 0ebd 89ec c9bb
00000110: 3dff d589 1834 f4bc a70a e3bc 2bd5 24bd
00000120: ddff 72aa 980a c7b1 1fc7 14bd d80b 6981
00000130: 1b9d c8bc 806d ae01 6ae5 08bd eb69 10bd
00000140: 36af cab5 e2ea 1fbd b739 31bd 50ea 4d00
00000150: cc49 22bd e0a4 5381 7e66 cbbc 2036 2300
00000160: 6856 aabc 9bb5 a1ba 1a52 0fbd 36af 6ebb
00000170: 1097 86ba bba2 d8bc 801b 4881 08dc 6201
00000180: 6760 08bd b534 bfbc b18a b8bc 936c bebc
00000190: ff1f 8abd 13a2 16be 6366 683d 6f28 8c38
000001a0: 7358 11bd 4020 069f 9983 453d 5056 9032
000001b0: 6c72 be01 a9de a9bc 99f7 ca3f 84c8 69bd
000001c0: 1ef1 f83c 4b23 dd37 1374 c9bd 0077 27bb
000001d0: 1427 2d3d 98a2 083c 4dbd 6d3c c4ad b33c
000001e0: 8b90 d13c 8c1d 00bd b486 b7be e686 61bc
000001f0: 9840 01bd a202 d81d 0f7c 403c 1733 8fb0
00000200: 24d5 67bb f960 f1bb 5dbf 0bbd e8d9 08be
00000210: 06dd 92bd f86c 8c0a ff11 023b 3254 1e01
00000220: 19d2 e4bc 8028 760d 3693 23bd c297 863d
00000230: 5cd4 74bf 6797 983d 3c60 87ba 3220 0e3d
00000240: d41f 3c36 d0bf 6bb2 ffec 253d a544 4fbe
00000250: 6ce8 a0bc 35cb 623d 1012 1a3e cd50 9e3e
00000260: 1310 f3bb d60d 2bbb cb07 2cbc 8b7c 0c9d
00000270: 122a a1bd a3f8 ef8a b450 6201 a8f3 273d
00000280: e940 a6bb e5a7 493e c546 a93b 652d 62b9
00000290: fb20 d83c 1360 a03c 4ec1 993e f935 4801
000002a0: cebe 453d 7254 e53d d189 33bd ff98 323b
000002b0: be27 cdbc 2f42 bf3c 035b ea3d 54e4 7f19
000002c0: fcdc 4bbd f2ce 0081 d2d2 f23d 955d 8ebf
000002d0: 493a b5bc 033f 7f3e eded 693e 6cfd 3517
000002e0: e914 cabf 32a0 a314 2bf8 793d 9c89 74ab
000002f0: 0c2c 0181 66b1 7f01 df03 dc3c 1c0a 37bd
00000300: 1f07 283e 4111 303d 48c6 16ad 525c 1b80
00000310: e198 d1bc 6479 3a3e c30a 2f3d c0df 6e3d
00000320: eb76 0040 6658 1fbf 2747 c33c 5435 cebb
00000330: b43f 88ba 4e48 0381 ec24 b63d 1f19 ca01
00000340: 1250 342b a195 6f3c 049f 3b3c 65c6 00bf
00000350: b2e9 7c3e 3c57 b739 59c7 b5bd 34b5 80bd
00000360: 2828 003d f135 d53c 3e66 733d 19bd 54be
00000370: ab87 7fbd 475a 95ba 477e 67bd 5b5e 1fbb
00000380: 576a 193f f326 261a 00f5 4700 460a d0b2
00000390: e74e 60be 2079 8abb 2779 b03d 8d65 9bbe
000003a0: a48e d8be 11ac c32e f1b8 59bd 6a76 8824
000003b0: 8e8f f2bd e13e a3a5 6626 a7bc bf90 a1bc
000003c0: cbb1 28bd 59e1 613d 1893 d33d 89be 34bd
000003d0: 192c 9036 7ddd 68b4 f456 24bd 0a0e 90be
000003e0: d302 28bd 6f2e dfbd 6dbd bcbb af88 1dbc
000003f0: 43da a9ba 801a 5201 9b2b a7ba 0074 3800

bias f4 [100]
0.009263436 -5.5604047e-05 -0.026736034 0.02672844 -0.04726898 -3.9487053e-28 3.4032702e-38 2.1541954e-38
3.6791175e-38 -0.024062825 0.030042663 0.013424659 -3.4999984e-17 -4.4286474e-38 -0.0150908185 4.1891907e-38
-1.6696055e-38 -5.7876777e-38 -0.016235817 -0.012136292 0.026552545 -1.6099518e-12 0.022749128 -1.9413966e-08
3.2424096e-38 0.07106517 -0.008060518 -0.0032216168 -0.059380654 -0.0061833025 -0.015207464 0.011522746
-0.01722645 0.0041797804 -0.020696482 4.660363e-39 0.00020457321 -0.018649507 -8.6608437e-10 0.022738662
-1.7048587e-38 0.013135246 -3.9069636e-38 -0.041240364 0.07863821 -0.48849106 -0.048390247 0.018800542
-0.010169535 1.6086789e-38 0.07241002 0.069728404 -3.4934696e-38 0.060198437 0.025983214 0.008104936
-0.2824323 -0.0011683595 -0.045648515 0.010613868 -0.03525226 -1.3563725e-06 0.027407985 -0.0012271537
0.04380678 -0.024220122 0.89832395 0.046616916 0.015014151 9.488352e-39 4.107264e-38 0.04484049
0.081667654 1.2554934e-38 0.014891472 -0.07652481 -1.2211878e-38 -0.043129686 0.026312027 -1.586163e-18
-6.698106e-38 0.03209476 0.024800016 -0.040670443 1.9123887e-38 -0.013843375 -0.015863536 0.011667645
-0.015269518 0.0034217294 -0.066008136 0.019641025 0.042260513 -2.8994282e-29 3.921789e-38 0.011418422
0.042512484 -0.043175865 0.007133526 0.05154722
00000000: abc5 173c 6438 69b8 8705 dbbc 9af5 da3c
00000010: 1e9d 41bd 6847 fa91 aa4a 3901 3492 ea00
00000020: 6a4f 4801 671f c5bc 081c f63c 1af3 5b3c
00000030: b068 21a4 561e 7181 7b3f 77bc cc14 6401
00000040: cfcd b580 3a8e 9d81 fa00 85bc 4cd7 46bc
00000050: b984 d93c a094 e2ab 615c ba3c c3c3 a6b2
00000060: 9888 3001 9e8a 913d 4310 04bc c321 53bb
00000070: 2139 73bd 4d9d cabb ba28 79bc e6c9 3c3c
00000080: 7c1e 8dbc 8af6 883b ab8b a9bc 32bf 3200
00000090: b482 5639 dac6 98bc 4511 6eb0 6e46 ba3c
000000a0: 86a4 b980 3735 573c 20b7 5481 a8eb 28bd
000000b0: 120d a13d 801b fabe da34 46bd 9803 9a3c
000000c0: 1f9e 26bc 6c2b af00 b44b 943d c4cd 8e3d
000000d0: dc33 3e81 a392 763d c0da d43c 91ca 043c
000000e0: f79a 90be a423 99ba f0f9 3abd cae5 2d3c
000000f0: ac64 10bd 9b0c b6b5 b686 e03c 72d8 a0ba
00000100: bd6e 333d 4769 c6bc 8ff8 653f 61f1 3e3d
00000110: eafd 753c aa51 6700 e89e 5f01 a9aa 373d
00000120: 5f41 a73d 0cb6 8800 5cfb 733c 0ab9 9cbd
00000130: bff9 8480 c1a8 30bd 528c d73c 8b13 eaa1
00000140: fc56 b681 cc75 033d 6729 cb3c 0d96 26bd
00000150: 9e3d d000 53cf 62bc 3ff4 81bc a629 3f3c
00000160: 002d 7abc 183f 603b 462f 87bd 37e6 a03c
00000170: 5c19 2d3d bb04 1390 c385 5501 5514 3b3c
00000180: 9221 2e3d 2dd9 30bd 5ac0 e93b 2e23 533d

weight f4 [113, 100]
-0.049793467 -0.01897061 -0.03050511 0.006036976 0.08243308 -0.0021988547 1.7119394e-38 -1.554962e-39
-8.219991e-06 0.041926954 -0.14115845 0.10541936 0.0013139494 1.4096497e-06 0.037522193 -2.9314884e-38
-1.2227068e-11 -1.8481182e-11 0.14848532 -0.053910386 0.04547855 -0.0011967331 -0.30878136 0.00399175
-6.771492e-14 -0.057443444 0.055785112 -0.14281163 0.72417444 -0.019299747 0.0016623439 -0.07155922
0.028953806 -0.02417047 0.018987317 2.72621e-40 -0.16674668 -0.041002195 -0.0022651954 0.023094226
1.520583e-39 0.36311412 3.2328535e-05 0.07732773 -0.009835216 -0.03103925 -0.015634574 0.259873
-0.011769228 -1.0974356e-38 -0.085616 -0.015470421 5.107068e-06 -0.18376818 -0.05438226 0.0034803008
-0.07724426 -0.014544819 0.062071953 -0.06088693 0.037341252 -0.0008878602 -0.034865055 0.024456248
0.4520196 -0.012502634 -0.07934691 -0.08826748 -0.03193401 6.132677e-23 1.66887e-10 -0.019111427
-0.0072457097 5.4591787e-06 -0.014545379 -0.18201876 -2.706791e-38 0.030150035 -0.48989868 -1.1165307e-18
-4.080654e-33 -0.056245707 0.030401142 0.018184282 -5.999712e-38 -0.06207206 0.013866965 -0.053071357
0.08258 -0.072523355 1.1725432 0.03886147 -0.13609795 0.0002002396 2.4416616e-25 0.03533975
-0.011450606 0.02751828 -0.7036239 -0.098908946 -0.10770436 -0.009549789 -0.9555498 -0.121763736
0.029998058 0.011600184 -2.0604903e-20 1.3549995e-32 -0.0009998851 0.15456335 -0.27187738 -0.13315858
-0.004339328 -1.7428254e-06 -0.26908714 -5.6193992e-14 -9.7908305e-06 0.00014671996 -0.10842903 0.13490823
0.054124992 -0.005885092 -0.35846084 0.0014149491 -3.0213085e-10 0.20316018 0.23042706 0.15407354
0.3230746 0.1758336 0.08663837 -0.0793872 -0.24520199 -0.022807859 -0.034472756 6.419634e-26
0.08550119 -0.10836067 0.015340326 0.27490625 -7.230175e-15 -0.42036283 -0.0004146329 -0.061749578
0.1101356 0.3168098 -0.24788128 -0.31828317 0.09218405 -2.311149e-39 0.03550032 -0.4108555
-0.000706147 0.018631026 -0.09292442 -0.06328714 0.19022293 -0.002822152 0.03340258 -0.009106169
-0.009035377 -6.691353e-05 -0.029590076 0.0035587326 -0.31909904 0.37654522 1.0041668 -0.34107634
0.3865765 -4.8223177e-09 3.4625737e-05 0.16841754 -0.33653915 -0.00030527622 -0.12673575 0.09769408
3.6488482e-32 -0.2203213 0.4076751 -1.2897761e-19 -7.567064e-11 -0.0667604 -0.25149003 -0.20248684
3.511659e-11 0.108033895 -0.028300846 0.0466595 0.5228357 -0.2719221 0.09407692 0.020204611
-0.026494475 0.0017613462 1.3830837e-08 0.008901693 0.08943932 -0.19121131 0.19847386 -0.013542341
-0.054480888 0.020638542 -0.6514142 -0.087038256 0.10736618 0.0018974727 5.2997332e-24 -7.610657e-18
-2.1479354e-05 0.019757073 -0.015019238 0.24188483 -0.001942134 -8.5157575e-07 0.03525457 3.05951e-08
1.6731109e-06 9.611059e-05 -0.076002665 -0.3662189 -0.09759297 0.019603493 0.23959516 -0.0030317751
1.4656976e-08 0.036872543 -1.1232045 -0.11064858 0.18421544 0.1548076 -0.120832436 0.12258276
-0.26255235 -0.022156985 0.026358796 -4.8246295e-26 0.054575596 0.05782609 0.0087951 0.007927337
4.8199894e-23 -0.05028917 4.512792e-06 0.15779515 0.08473926 -0.023437288 -0.12932892 0.07974004
-0.12472357 -8.6159805e-31 0.13676319 -0.41907194 -0.0019244893 0.3697232 -0.03333408 -0.04564185
00000000: 3cf4 4bbd 4168 9bbc dae5 f9bc d3d1 c53b
00000010: add2 a83d a91a 10bb e869 ba00 9aee 1080
00000020: 98e8 09b7 99bb 2b3d d78b 10be 1be6 d73d
00000030: d338 ac3a 3233 bd35 dfb0 193d fc9a 1f81
00000040: d219 57ad ec8f a2ad 890c 183e 23d1 5cbd
00000050: b747 3a3d b3db 9cba 9718 9ebe 3acd 823b
00000060: fe7a 98a9 d149 6bbd ee7e 643d 363d 12be
00000070: 7f63 393f 811a 9ebc 01e3 d93a a48d 92bd
00000080: 8830 ed3c 2601 c6bc 4a8b 9b3c f5f7 0200
00000090: a4bf 2abe ebf1 27bd ac73 14bb 1a30 bd3c
000000a0: c48e 1000 18ea b93e 8098 0738 005e 9e3d
000000b0: e323 21bc 0646 febc 1414 80bc 130e 853e
000000c0: b8d3 40bc 0a80 7780 7157 afbd a677 7dbc
000000d0: 615d ab36 ba2d 3cbe efbf 5ebd c215 643b
000000e0: 3d32 9ebd 644d 6ebc 293f 7e3d 9364 79bd
000000f0: 24f3 183d 4abf 68ba a9ce 0ebd 7858 c83c
00000100: 1d6f e73e d9d7 4cbc a280 a2bd 95c5 b4bd
00000110: 3dcd 02bd 6f47 941a 847e 372f 918f 9cbc
00000120: 6b6d edbb fd2d b736 be4f 6ebc 2063 3abe
00000130: 295f 1381 35fd f63c 00d4 fabe 56c5 a4a1
00000140: f580 a989 e661 66bd d10b f93c 34f7 943c
00000150: e453 a381 463f 7ebd 4432 633c 5a61 59bd
00000160: b41f a93d 2087 94bd e515 963f 342d 1f3d
00000170: 435d 0bbe 69f7 5139 ac21 9716 6ac0 103d
00000180: 539b 3bbc 046e e13c b220 34bf c690 cabd
00000190: 1a94 dcbd b876 1cbc e99e 74bf 445f f9bd
000001a0: 7dbe f53c b30e 3e3c 999b c29e 11b6 8c0a
000001b0: 940e 83ba db45 1e3e 8333 8bbe b95a 08be
000001c0: ec30 8ebb 06eb e9b5 cac5 89be 4313 7da9
000001d0: 4c43 24b7 d7d8 1939 0a10 debd 6225 0a3e
000001e0: 2bb2 5d3d bbd7 c0bb 2e88 b7be d075 b93a
000001f0: 2319 a6af 3909 503e 12f5 6b3e 74c5 1d3e
00000200: 096a a53e b90d 343e 756f b13d c295 a2bd
00000210: 3b16 7bbe 8cd7 babc 4e33 0dbd 44f1 9e15
00000220: 3f1b af3d 33ec ddbd fe55 7b3c 83c0 8c3e
00000230: 4c3f 02a8 cc39 d7be 1663 d9b9 20ed 7cbd
00000240: c68e e13d e534 a23e 97d4 7dbe 03f6 a2be
00000250: feca bc3d 8b2a 1980 c968 113d a75b d2be
00000260: b91c 39ba 18a0 983c 294f bebd b09c 81bd
00000270: cdc9 423e dbf3 38bb 25d1 083d 0b32 15bc
00000280: 1e09 14bc ee53 8cb8 e366 f2bc a039 693b
00000290: f360 a3be 89ca c03e 8a88 803f 8fa1 aebe
000002a0: 5bed c53e 8eb1 a5b1 1a3b 1138 a675 2c3e
000002b0: dc4e acbe 7b0d a0b9 04c7 01be d513 c83d
000002c0: 8375 3d0b e89b 61be caba d03e 1745 18a0
000002d0: c966 a6ae adb9 88bd 4dc3 80be b658 4fbe
000002e0: c471 1a2e e040 dd3d 2dd7 e7bc 081e 3f3d
000002f0: 8fd8 053f 6039 8bbe 66ab c03d 2484 a53c
00000300: f10a d9bc f9dc e63a aa9c 6d32 68d8 113c
00000310: f62b b73d e6cc 43be bb3c 4b3e b2e0 5dbc
00000320: 5a27 5fbd 2912 a93c 15c3 26bf 1d41 b2bd
00000330: cde2 db3d 9eb4 f83a 0406 cd18 5064 0ca3
00000340: 902e b4b7 96d9 a13c 4013 76bc a8b0 773e
00000350: 348f feba d797 64b5 1967 103d ab67 0333
00000360: a78f e035 fb8e c938 49a7 9bbd 0b81 bbbe
00000370: d3de c7bd 8197 a03c 6f58 753e bfb0 46bb
00000380: 10ce 7b32 aa07 173d 2ac5 8fbf b99b e2bd
00000390: f9a2 3c3e e285 1e3e ff76 f7bd ac0c fb3d
000003a0: 436d 86be 9182 b5bc 67ee d73c 72e7 6e95
000003b0: a98a 5f3d 0ddb 6c3d 5319 103c a9e1 013c
000003c0: 9414 691a 04fc 4dbd 976c 9736 0d95 213e
000003d0: c78b ad3d 8eff bfbc cd6e 04be bf4e a33d
000003e0: 126f ffbd 62cd 8b8d a60b 0c3e 9990 d6be
000003f0: 253f fcba 5c4c bd3e 5189 08bd f3f2 3abd

bias f4 [113]
-0.014655687 0.022270313 0.0067148525 -0.008857099 0.016803447 -0.0019116454 -0.09164029 -0.0031383072
-0.023420094 0.0061152386 0.004626701 0.01309392 2.0951402e-05 -0.00761079 0.007396867 -0.015096691
-0.0133797815 0.004328098 0.024285154 0.000796322 -0.0019505623 -0.002125767 -0.00021918386 -0.0009954537
-0.019321684 0.008917067 0.00654122 0.0032708743 -0.00071806053 -0.013419323 0.001271503 -0.013795798
0.0049664914 -0.008500012 -0.022675192 0.007712461 -0.012221767 0.004893909 -0.003300306 0.010483691
0.00019172333 -0.010258348 0.005628831 -0.0016688204 0.0054961527 0.011825416 0.010928459 -0.011061347
0.00042586072 0.0045875236 0.009444793 0.01289449 0.017117012 -0.015007024 0.004415335 0.006003392
-0.008573038 0.0030741608 -0.008700218 0.004168837 -0.0010974299 0.0019195944 -0.013788075 0.01632105
-0.012167574 0.009625726 -0.0076829838 -0.004869615 0.004932611 0.00032085375 -0.0020276424 -0.00075984385
-0.005959332 -0.0025759381 0.036538087 0.012110187 0.011502877 0.0053100036 -0.010548764 -0.0035823388
-0.0051687006 -0.0038704677 -0.012506973 0.0048499154 0.005995888 0.010530776 -0.012876525 0.0040633753
-0.014666685 0.009087913 -0.0061833523 -0.014337405 0.0066754296 0.015222441 -0.009904862 -0.005561984
0.012100293 -0.007133438 -0.005471054 0.009395562 0.017925534 0.014431184 -0.019114744 -0.009945795
-0.009588313 -0.0020630856 0.0032252476 -0.0009954534 -0.005847219 -0.008589382 0.00925607 0.0055770194
0.0022225634
00000000: 681e 70bc 3b70 b63c 4408 dc3b 5e1d 11bc
00000010: 62a7 893c 2d90 faba e8ad bbbd 0fac 4dbb
00000020: 7fdb bfbc 5762 c83b 959b 973b e287 563c
00000030: cbc0 af37 ef63 f9bb 6b61 f23b 1d58 77bc
00000040: df36 5bbc b8d2 8d3b a9f1 c63c 44c0 503a
00000050: 03aa ffba 7450 0bbb b8d4 65b9 e279 82ba
00000060: 8248 9ebc e418 123c bb57 d63b 2a5c 563b
00000070: 3a3c 3cba b8dc 5bbc 90a8 a63a c507 62bc
00000080: f3bd a23b a243 0bbc 53c1 b9bc d0b8 fc3b
00000090: ce3d 48bc 165d a03b f249 58bb c9c3 2b3c
000000a0: 5709 4939 a112 28bc 0f72 b83b 52bc daba
000000b0: 1219 b43b 64bf 413c 480d 333c a73a 35bc
000000c0: 0f46 df39 f052 963b 55be 1a3c 6943 533c
000000d0: fa38 8c3c 05e0 75bc 84ae 903b 1ab8 c43b
000000e0: ed75 0cbc dc77 493b 5c8b 0ebc bd9a 883b
000000f0: a3d7 8fba e69a fb3a 61e7 61bc b9b3 853c
00000100: 815a 47bc 39b5 1d3c 8ac1 fbbb 4b91 9fbb
00000110: bda1 a13b 4338 a839 32e2 04bb 4230 47ba
00000120: 8046 c3bb 12d1 28bb f6a8 153d ce69 463c
00000130: 9076 3c3c 8aff ad3b b9d4 2cbc acc5 6abb
00000140: 345e a9bb aca7 7dbb 0cea 4cbc 0aec 9e3b
00000150: 2779 c43b 4789 2c3c 0ff8 52bc 1026 853b
00000160: 894c 70bc 78e5 143c b89d cabb 6fe7 6abc
00000170: 90bd da3b 8c67 793c 0148 22bc 4e41 b6bb
00000180: 4f40 463c 9dbf e9bb 8746 b3bb d8ef 193c
00000190: 92d8 923c c670 6c3c 8696 9cbc b0f3 22bc
000001a0: 4d18 1dbc d534 07bb ad5e 533b e079 82ba
000001b0: 079a bfbb 7bba 0cbc c5a6 173c 6ebf b63b
000001c0: 6da8 113b
