algorithms/SemiAutoEncoder/Semi_AutoEncoder_200-50_all_IO_noleave_VH_ratio_2.pt (torch_old, 447185 bytes, 8 tensors)

encoder.0.weight f4 [200, 226]
00000000: 004f 89bc fb6f 2c3e 2b4d 023e 404c 37be
00000010: 1e86 b7be 24a6 bfbc 3330 7c3d 5132 a13d
00000020: c1a3 c4bd e416 163e 00dc a0bd a01e 353d
00000030: 592f 4d3d 7599 4e3d c437 4c3d 3231 203e
00000040: 1a98 503e 485e e93c 485b af3d 3f2a 20be
00000050: f475 be3d 5824 6a3d 10ea 973c 19e7 0a00
00000060: 47ba 90bd 8ea9 20bd 34bf 263e a4fe 1a3e
00000070: 1bf7 7eba 8cdf 28be 69fa 1c3e 528e f13d
00000080: f1ea 203e 8b68 89be 458f a53d a0f0 8cbc
00000090: 35ea 03be 0db9 fa3c feab 15bd c15d 0bbe
000000a0: ec3a 82bb 0c62 1a3e 224e 35bd eaab 71bd
000000b0: eeda 80be 922d 023e 434a a73d acd7 e6bd
000000c0: 23fd 1abd 1b6f 233d db10 c73d 8cdd 063d
000000d0: 1f24 bdbd 7768 03be b620 c13d 44e4 2b3e
000000e0: b98d 633d 0617 d8bd d5fc cb3c 08bf 12bc
000000f0: 9305 f53d d4bd 92bd 9d18 99bc c22c 973d
00000100: 38ad 2dbd 5198 653d de48 bc3c b23e c9bd
00000110: 52e7 fb3c abde 963d 4557 a6bd 0ab4 fc3d
00000120: 7864 8a3d 788d 713d ba8b ecbd 8d29 e63c
00000130: 513c 2dbe 4266 ddbd 9fa8 06be 992f 54bd
00000140: 5325 273e 4407 e7bd d8a5 e63c 9e57 30be
00000150: fe66 0d3b 3ac8 12be 8b1a 773d b64f 1b3e
00000160: 078a 4a3d 0450 763d dd28 903d 2e0d 053e
00000170: 0278 62bc 4846 f0bd bf80 b4bd 4adc 0a3e
00000180: 9674 33bc e172 a43d d655 363e 8ef3 6f3d
00000190: 2ba5 34be 2dae 143e 3125 af3c a18a 2fbc
000001a0: 2003 b23d 1196 fc3d 514c b73d a17c 0780
000001b0: 9045 5abe 72ef 933a 4bf8 c9bd 53d6 8abc
000001c0: 94d8 043d 66db 383d 6552 71be cd8d 61be
000001d0: 0a69 2a3e 2f86 51bf 7763 b33d 789a deba
000001e0: 0794 bcbc 9864 d83d 0595 eebd 1a6d d43d
000001f0: 6d38 753b feea 543d 4b19 11bd 869a 0cbd
00000200: e078 babd 7914 62be adfe 24bd e9df 5ebe
00000210: e11a 193e 9dde 42bd 1148 bbbb d40e 853c
00000220: f27a 0380 4bfe 9f3d dce0 ed3d ee7c 0cbe
00000230: 170a 53bb 8b85 0fbe ddaf 5c3e aedb 90bd
00000240: c351 8fbc 56d2 18bd d310 26be bc97 09be
00000250: d35f 8d3d 3256 e43d ca6b c6bc 8fcc 6e3d
00000260: 9217 4d3e 9110 7e3d dd6b 18be 373b 433d
00000270: 5981 ed3d e02d 603c ed6b 10be 6c68 c23d
00000280: abb0 a03d db2e b13d fea6 df3b 7e14 8cbc
00000290: dcdd 88bd e6a0 c23d 7f42 183e 1fc7 b33c
000002a0: d2e9 55be e374 253d dd9d d83d 2e5f 983d
000002b0: cbd8 163e 6de9 073e 51cf ea3d fd45 0e3d
000002c0: e538 05be 4d0d 253d 3d5a b13d 59f3 d13b
000002d0: c238 0a3e 072c 533c 32f7 fabc c457 163e
000002e0: d5b8 d5bd 132d 56bd 9230 1ebc e465 2c3e
000002f0: bac6 e13b 7903 333e 191d 01be 0a7e 733e
00000300: 4821 af3d 7bbd 86bc 2d6b 9f3d c09a 81bd
00000310: 9f1f 283e 6a35 863d d13a 1b3e 9fcd 86bd
00000320: 2189 05be 93d5 f33d 6998 b03c d70f 43be
00000330: 4315 223c da55 3d3d f734 f13d df4e 143e
00000340: c452 71bd 6c7c 803d 052d 93bb 4c8f 35be
00000350: 9c76 673d 1ea8 623e e633 06be bb2d 223d
00000360: 52f2 093d c0c0 5e3d 6179 a8bd d48c acbc
00000370: 3aa9 0300 395c ec3c 0df5 843c eb0b 3ebc
00000380: 9dc3 1a3e 99e1 0dbd dd1f 8d3c 5e95 8a3d
00000390: 6a30 4e3e d4ee dcbe 5dfe dbbd 16f6 93bc
000003a0: 3f11 18bb 9568 c2bd b823 243d fc1d ae3d
000003b0: 680e 053d 91ae eb3d 87f5 8e3d 50fa bcbd
000003c0: 1c03 00bd bc99 e73d c42f 313e ca9a 80bd
000003d0: 8118 5d3c a672 91b9 11d0 92bd a541 6c3c
000003e0: 52b2 2ebd 9433 1000 a579 693b d6e6 e8bb
000003f0: 304b d73c 105c 4a3d eb53 b43c f5f8 ddbc
-0.016761303 0.16839592 0.1272475 -0.17900181 -0.3584451 -0.023394652 0.061569404 0.07870925
-0.09601546 0.1465717 -0.07854462 0.04421866 0.050093982 0.050439317 0.04985787 0.15643767
0.20370522 0.02848734 0.085623324 -0.15641116 0.092998415 0.057163566 0.018544227 1.001257e-39
-0.070667796 -0.0392242 0.16283876 0.151362 -0.00097261526 -0.16491526 0.15329899 0.117947236
0.15714623 -0.26837572 0.08083967 -0.017204583 -0.12882312 0.030605817 -0.036540978 -0.13609983
-0.003974309 0.15076464 -0.044263966 -0.05900184 -0.2516703 0.12712696 0.08168461 -0.11271605
-0.037839066 0.03990088 0.09720012 0.032926127 -0.09235405 -0.12832819 0.09430067 0.16786295
0.05555508 -0.10551266 0.024900833 -0.008956678 0.11963954 -0.07165113 -0.018688494 0.07381584
-0.042401522 0.056053463 0.022983965 -0.09826411 0.03074995 0.07366689 -0.08122114 0.12339027
0.06757444 0.058972806 -0.11550088 0.028095985 -0.1691754 -0.1081052 -0.13150261 -0.051803205
0.16322832 -0.11280683 0.028155252 -0.17220923 0.002157628 -0.14334193 0.060328048 0.15167126
0.04944804 0.060134903 0.07039044 0.12993309 -0.013822557 -0.11732155 -0.08813619 0.13560596
-0.010953089 0.08029724 0.17806181 0.05858188 -0.17641132 0.14519568 0.021380039 -0.010714204
0.08692002 0.123333104 0.08950103 -6.87557e-40 -0.21315598 0.001128657 -0.09861811 -0.0169479
0.032433107 0.04513111 -0.23566587 -0.22026749 0.16641632 -0.8184537 0.08759206 -0.0016983291
-0.023019804 0.10566062 -0.11649517 0.10372372 0.0037417666 0.05198192 -0.035424512 -0.034327053
-0.09105086 -0.22078122 -0.04028194 -0.21765102 0.1495166 -0.04757558 -0.005715378 0.016242422
-3.19611e-40 0.078121744 0.11615154 -0.13719532 -0.003220206 -0.14015786 0.21551462 -0.070731506
-0.017495042 -0.037309967 -0.16217355 -0.13436788 0.06903043 0.11149253 -0.02422132 0.05830055
0.20028523 0.062027518 -0.14884897 0.047663894 0.11596937 0.013682812 -0.1410367 0.09492573
0.07846197 0.08651515 0.006825327 -0.017099615 -0.06682941 0.09503345 0.14869116 0.021945534
-0.20889977 0.040394675 0.10576985 0.07440029 0.14731137 0.13272639 0.11465324 0.034734715
-0.13009985 0.040295888 0.0865979 0.006407183 0.13498214 0.012888915 -0.03063545 0.14681917
-0.104356445 -0.05228908 -0.009655135 0.16835743 0.006890145 0.17481793 -0.12608756 0.23778549
0.0855127 -0.016447773 0.07784114 -0.06328344 0.16418312 0.06553157 0.15159155 -0.06582188
-0.13040592 0.119059704 0.02155705 -0.19049011 0.0098927645 0.046224453 0.1177768 0.14483212
-0.058916822 0.062737316 -0.0044914507 -0.17730445 0.0565096 0.22134444 -0.13105735 0.039594393
0.03367836 0.05438304 -0.08226276 -0.021063246 3.36214e-40 0.028852569 0.01623013 -0.011599521
0.15113683 -0.034638975 0.017227108 0.06766771 0.20135656 -0.4315096 -0.10741875 -0.018061679
-0.002320364 -0.09492604 0.040073127 0.08501813 0.032484442 0.11507905 0.069804244 -0.09227431
-0.031252965 0.113086194 0.17303377 -0.06279524 0.013494612 -0.00027741975 -0.07168592 0.014419948
-0.04265053 1.48787e-39 0.0035625484 -0.007107596 0.02628097 0.049404204 0.022012671 -0.027096251

encoder.0.bias f4 [200]
00000000: 588b 263e 4a3a 1fbd 1009 0c3f 9239 483e
00000010: df58 6abd e0f7 9f3e b0cc 7e3e de1f 22bd
00000020: 5ef7 683e 37f1 553e dd23 e43e 4bc5 0e3f
00000030: 1320 223e eab6 fa3e 3d43 babd deff d13e
00000040: 03f9 8cbb 6703 113e 56bf 103e c115 fbbd
00000050: aef2 c9bd 50c5 413e 2b8c 9ebd 22d0 983e
00000060: 1e38 483e 257c 233f 89c6 7b3d a8cb 923d
00000070: 3c89 113f 82f1 213e 4ae1 e33e 0081 603e
00000080: 9439 a8ba dd86 2f3e c01e 103f 9ee3 e23e
00000090: 6c74 1e3f 8729 403e 64e7 ec3d ca86 3ebd
000000a0: 4428 5e3e dd7b b63d f47c 593e cbac 293e
000000b0: e07a 623e f7f3 183f 59c9 213f ebaf 1b3d
000000c0: 9fa9 463e e7a7 db3c 46e4 343f 1358 0b3f
000000d0: b653 0a3f 5fcd d23d 05e8 183f 5f47 9fbc
000000e0: 62b8 fc3d 9e8e af3e e7ad 303e db3b 523e
000000f0: e57c e03d 0c04 f13d ca8d 383e 2f59 603e
00000100: e085 243e 5c6a 1e3f 1f7c 073f b485 babc
00000110: 2feb 7f3e ad9a 293f af3f 413e 33ab 063d
00000120: 8e2e af3d b3ec e53d 41e2 033f 021d 0ebd
00000130: 1022 81bd ec2f 023f e060 1e3e 4d55 513c
00000140: 0bce 053c 153d 963d 63a8 e83e 9152 e73d
00000150: ec82 023f 574f d83e e193 123f 727c 203f
00000160: 8035 b9bd 5ea8 80bc 89d9 263e 02c4 073d
00000170: f338 bfbd b61f ab3d bd88 0e3f 4155 1f3e
00000180: 9908 0c3f 9d41 0e3f 95e1 373e 25e7 103f
00000190: 92de 8f3e 93a5 343e aff9 683e ea1f 613e
000001a0: 7233 9d3d e48a 443e c9ce 143f ca23 c5bd
000001b0: dfec 193e 4c99 333e cec3 143f cb0d 083f
000001c0: 4cd9 ec3d e1a9 043f 26fa 193e f7b7 9a3d
000001d0: ad8e a93a 99cf 0a3e 9f39 173e b3f4 383e
000001e0: 87d1 083e f77e 263f f7de 173f 8826 083e
000001f0: d4ea b23e c5b2 1b3e ba6a 163f b9a9 2a3e
00000200: 7d82 a13d 0d56 443e c0bb 2c3e b5a7 463e
00000210: 7984 fc3d 90d3 253d dff0 603c b8a7 6f3e
00000220: d2f3 1f3d 97cb e63e 553f b23e e68d 103e
00000230: 4f87 3b3e 961a 4c3e d97f b93e e316 d63d
00000240: c3e0 d83c e974 df3d 4aeb 9c3d 47eb 3d3e
00000250: eccb 283e 7f50 6c3e f4be 07be 447d 643e
00000260: 19c8 0e3e df6b f53d 03e2 323e f36f 013f
00000270: 52aa ee3e 01b2 543c 2964 d1bb eb9b 213e
00000280: c4d0 ff3d 0bb1 1f3e e86d 623e 6e17 0a3f
00000290: 4877 2cbd 1990 113e 2b39 473e 3b85 8b3b
000002a0: 8a2b 143e 20c8 913d e5de 4c3e 9630 ef3e
000002b0: 81f2 053e 26a1 e93e 0733 073f 4165 1c3f
000002c0: 4b3e d8bc b728 583e a1d3 2b3e e8ae efbc
000002d0: b3a4 df3d 45c2 043e 9743 c8bd 70bc 1a3f
000002e0: 5061 d13d 398d d43d e6ec 1a3f 31a5 0b3f
000002f0: bc9f cebd 04b1 013f 5fef 613d 7269 6cbd
00000300: 1029 733e 8087 373e 12f1 263e 74c3 553e
00000310: 05e0 75bd 55df 513e 553f 0f3e e9f7 863e
0.16264093 -0.03887395 0.5470133 0.19553211 -0.05721366 0.312438 0.2488277 -0.039581172
0.22750613 0.20892797 0.44558612 0.55769795 0.15832548 0.48967677 -0.09094856 0.41015524
-0.0043021454 0.14161454 0.14135489 -0.122600086 -0.098607406 0.18922925 -0.07741579 0.29846293
0.19552657 0.63861305 0.061468635 0.071677506 0.5685003 0.15814784 0.4450782 0.2192421
-0.0012834542 0.1714129 0.5629692 0.44314283 0.61896396 0.18765841 0.11567572 -0.046515264
0.21695048 0.08910344 0.21239072 0.16569822 0.22117186 0.5974726 0.6319786 0.038009565
0.19400643 0.02681346 0.7066082 0.54431266 0.5403398 0.10293078 0.59729034 -0.019443212
0.12339856 0.34288496 0.17253838 0.20530646 0.10961322 0.1176835 0.18022838 0.21909021
0.16066694 0.6188104 0.5292377 -0.022768833 0.24992059 0.6625164 0.1887195 0.032878112
0.085538015 0.112267874 0.5151711 -0.034695633 -0.06305325 0.5085437 0.15466642 0.012776685
0.0081668 0.07335869 0.4544097 0.11295045 0.5098102 0.42248031 0.57256895 0.6268989
-0.090434074 -0.015705284 0.1629392 0.033145912 -0.09337034 0.08355658 0.55677396 0.15559866
0.5470062 0.5556887 0.17957146 0.566027 0.28099495 0.17641287 0.22751497 0.2198483
0.07675828 0.19193608 0.5812803 -0.09625967 0.15031765 0.17538947 0.58111274 0.53146046
0.115648836 0.51821715 0.1503683 0.0755462 0.0012936197 0.13555755 0.14768074 0.18062095
0.13361178 0.6503748 0.5932459 0.13295949 0.34944785 0.15204914 0.587566 0.16666307
0.07886217 0.19173451 0.16868496 0.19399913 0.12329955 0.040484965 0.013729303 0.23403823
0.039050885 0.45077202 0.34813944 0.1411663 0.18313335 0.19932017 0.36230353 0.10453584
0.026474362 0.10910971 0.07662065 0.18546782 0.1648404 0.23077582 -0.13256437 0.2231341
0.13943519 0.119834654 0.17469029 0.50561446 0.4661432 0.012981893 -0.006390114 0.15782134
0.12490991 0.1559488 0.22112238 0.53942 -0.042105943 0.14215125 0.19455402 0.0042578257
0.14469734 0.07118249 0.20006903 0.46716756 0.13080789 0.4563076 0.52812237 0.61092
-0.026396891 0.21109281 0.16779949 -0.029258206 0.10920086 0.12964733 -0.09778517 0.6044378
0.10223639 0.103784986 0.6051773 0.5454894 -0.10089061 0.5066073 0.055159923 -0.057717748
0.23746133 0.17922783 0.16302899 0.2087534 -0.060028095 0.2049535 0.13989003 0.26361015

encoder.2.weight f4 [50, 200]
00000000: 5d19 dd3d f339 913e 8a50 8fbe f9de 8fbc
00000010: 1b6e 153f ea97 53bd 6d17 4bbe d110 24bd
00000020: 6be0 d03b 9e4e ac3e 9088 a23e f668 0d3e
00000030: da1f 72be 036c a3bd 90c5 8cbe 59c6 893e
00000040: 6d17 c03e c5a5 81be ee89 8d3e ec9e 29be
00000050: e9d7 e23e 706a 6d3e ae28 913e dfc4 ee3d
00000060: 784e d3bd c86c 843e a927 abbd 28a8 a5bd
00000070: d974 a43d 0111 2c3e 5b02 fbbd d273 3abf
00000080: 9e84 82be 3f70 683e 3e80 0ebf 6fa8 d0bd
00000090: f8b8 aa3e cf36 d9bd a4dc fdbd ee87 55bd
000000a0: 9635 473f f470 28be b8e0 1fbe 772b 5a3e
000000b0: 12d7 033f b9ec c4be 3670 9dbe d9a4 1b3e
000000c0: 4329 5a3d a35f cbbe 1615 b7be 7f43 e13e
000000d0: 4327 913e 08c0 113f 79c2 0d3e 20f3 8c3e
000000e0: 4a63 9a3b f40c 2d3e 3fcd 1c3f 597d 053d
000000f0: 7190 f43c 40d7 743b 53f9 84bd 0827 3ebe
00000100: 5780 cb3e 28c5 64be b074 9abe bff0 563e
00000110: ac1b 36be 2db6 39be b6db af3d 8f78 563e
00000120: 5f63 8cbd 5559 2d3d e0b6 973e d050 d83d
00000130: 62d6 6fbd 546d 4e3e b95e ab3e 14c5 383e
00000140: a749 0abe 7b88 8bbd ff39 74be e9df 153e
00000150: c12f 86be ac61 a73d cf2b 9d3d 031f 06bd
00000160: d0d0 1cbf 63fd c5bd 78c3 ddbd ffe7 a2bd
00000170: 2000 253e 57da 453d 9a99 a83d 34da 6ebf
00000180: 2ebb 9b3e ae27 a1be 74dd af3e a5b3 cd3c
00000190: 642d 98be 6d9d cbbe 35b4 4dbe 857b 3d3e
000001a0: 583a 1cbe d2a7 f73c 4640 683e a903 4ebd
000001b0: 7ebb 60be b05a 813e 3cda 06bf ec59 d23c
000001c0: 28ce 04bd a9a2 2dbf ad0b 073c b621 3cbe
000001d0: 18cb 603f 9b21 4c3f 4748 c73d af0d 6cbf
000001e0: 6c90 5f3e eb71 8d3e f375 28be a246 b1bd
000001f0: 637c 8a3e a1c0 b63e 4d5d d53e ecae 9abe
00000200: 33c5 89bd 4a0a 13be 87f1 c7be b684 003e
00000210: 7786 c3be 5283 09bf b74b cbbe 083b b93a
00000220: 10bf 96be 13a0 c03d 1402 eebc 2dcd ff3d
00000230: b79a 0cbe 92f1 adbd fd35 dfbd 992a 913d
00000240: d0b1 16bd d244 c9be 5552 663e 4408 d83d
00000250: 599d 153e 4efb db3d 0190 ee3d 20d5 d2bd
00000260: 5443 8bbe 99ad 8e3e 91a1 023f 85fc 043e
00000270: 1aa6 f73e 76e6 20bf 41d7 adbc 0489 f5bd
00000280: b3da 423e 3143 093f a248 17bf 68e6 84be
00000290: 0455 26be 3ec7 babe e2cd 97be 6197 553e
000002a0: b58b da3e 7df4 bebe c17b 5a3e bfe8 dfbd
000002b0: 3560 bebd c7b6 01be f6fd 013f 472d 703e
000002c0: 7d5b 573e 4903 9dbe c537 b53e 1d17 063e
000002d0: ed15 923e aa95 293e 90c9 c23e 102f 7ebe
000002e0: 99ee 993d 09bd f3bd bf5b 603e 7fbc 9b3e
000002f0: 5573 85be 5630 9cbe e592 c3be 54f7 20be
00000300: 7974 773e f3bd ccba 719d 29be 7116 cbbe
00000310: c753 28bf d3c1 b6bb 0e9f 31bd 3bb6 2b3f
00000320: ad0a 1dbe e3ac ce3e 2782 923e 6a64 ef3e
00000330: e3a4 8fbe 61a0 13bf d20e 653e 49b7 06bf
00000340: e881 7ebe 55b3 41bd e379 40be 89f1 adbe
00000350: c800 ae3d be64 8abe 7de8 c6bd feb5 f73d
00000360: d91f 2e3e dca0 29be ecf7 993e de34 573c
00000370: 0421 dd3e c849 383d 3cd0 00be 00bd e93d
00000380: aa74 a7bc 7412 083f 99bf 20bf a775 c73d
00000390: c98f cbbe abda 2bbe bdad 733e e79d 1a3f
000003a0: ba15 5ebe e789 d33e 68d3 eabe 3404 403e
000003b0: ee45 023f 1f7e fd3d c2f2 d5bd 555d be3d
000003c0: cd25 d23d da80 57be 2288 153e 84cd 033d
000003d0: 59f5 b03e b434 ac3e 774d a23e d960 76bd
000003e0: 1c01 91ba 19fd 8a3e f3bd 403d d024 9cbe
000003f0: 3849 24bf ed67 d3be c918 8c3e be72 50be
0.10795853 0.28364524 -0.27991134 -0.017562376 0.5837113 -0.05165855 -0.19833155 -0.0400551
0.006374409 0.3365373 0.31744814 0.1380957 -0.23644963 -0.07979586 -0.27494478 0.2690914
0.37517872 -0.25321785 0.27644295 -0.1656453 0.4430535 0.23185134 0.2835135 0.11658644
-0.10317701 0.25864244 -0.08357174 -0.08088714 0.080300994 0.16803361 -0.12256309 -0.7283298
-0.25491804 0.22699068 -0.5566443 -0.10188376 0.33344245 -0.10606157 -0.123955995 -0.052131586
0.7781614 -0.16449338 -0.15613067 0.21305643 0.51500046 -0.38461855 -0.30749673 0.15199603
0.053262006 -0.39721403 -0.35758275 0.43996808 0.28350267 0.5693364 0.13843717 0.2752924
0.004711543 0.16899472 0.6125068 0.032590244 0.029854031 0.0037359744 -0.06492867 -0.18569577
0.39746353 -0.22340834 -0.3016715 0.20990275 -0.17783993 -0.18135901 0.085868284 0.20944427
-0.06854891 0.04232152 0.2963171 0.10562289 -0.05855406 0.20158893 0.33470705 0.1804393
-0.13504659 -0.06813141 -0.23850249 0.14636196 -0.26208308 0.08172926 0.076743715 -0.03274442
-0.6125612 -0.0966747 -0.10828298 -0.07954406 0.16113329 0.04830393 0.08232422 -0.933017
0.30416244 -0.31475586 0.34348643 0.025110075 -0.2972213 -0.39768544 -0.20088275 0.1850415
-0.15256631 0.03023139 0.22680768 -0.05029646 -0.21946523 0.25264502 -0.5267675 0.025677644
-0.03242317 -0.67826325 0.00824253 -0.18372235 0.87809896 0.7973878 0.09730583 -0.9220838
0.21832436 0.27625975 -0.16451244 -0.0865605 0.27048025 0.3569384 0.41672745 -0.3021158
-0.06727066 -0.14359394 -0.39051458 0.12550625 -0.38188526 -0.53716004 -0.39706203 0.0014131973
-0.29442644 0.09405532 -0.029053725 0.12490306 -0.13730894 -0.084933415 -0.10898969 0.07088203
-0.03679067 -0.39310318 0.22492345 0.105484515 0.14610805 0.10741292 0.1164856 -0.102945566
-0.27199805 0.2786682 0.5102778 0.12986954 0.48368913 -0.62851655 -0.021220805 -0.11989024
0.1902874 0.5361815 -0.59095204 -0.25957036 -0.16243368 -0.36480135 -0.29649264 0.20858528
0.42684713 -0.37295905 0.21336271 -0.10933065 -0.09295694 -0.1266738 0.5077814 0.23454772
0.21030994 -0.3066657 0.3539411 0.13094755 0.28532353 0.16560999 0.38044405 -0.2482264
0.07516212 -0.1190129 0.21909998 0.3041725 -0.26064554 -0.30505627 -0.3819801 -0.15719348
0.24165525 -0.0015620574 -0.16563965 -0.3966556 -0.65752834 -0.005577305 -0.043364577 0.67074937
-0.15336104 0.40366277 0.28614923 0.46756297 -0.28055486 -0.57666594 0.22368935 -0.5262342
-0.24854243 -0.047290165 -0.18796496 -0.3397334 0.08496243 -0.27029985 -0.09712312 0.12095259
0.17004336 -0.16565269 0.30071962 0.013135163 0.4318925 0.04499224 -0.12579435 0.11413002
-0.020441372 0.5315316 -0.62792355 0.09739237 -0.39758137 -0.16782634 0.23796745 0.6039719
-0.21687976 0.4131615 -0.45864415 0.18751603 0.50887954 0.12377571 -0.10446693 0.092951454
0.10261116 -0.21045247 0.14602712 0.032178417 0.34562185 0.3363396 0.31699726 -0.060150955
-0.0011062953 0.27146223 0.04705615 -0.30496836 -0.6417422 -0.41290227 0.2736266 -0.2035627

encoder.2.bias f4 [50]
00000000: 1777 80bd a307 25bd 993a 65bc f61f 033d
00000010: 04f5 f8bb 8e12 283c 643d 34bc 5fe0 e13c
00000020: 8ffb 04bd 22b8 3b3d 61ae ba3c 9c01 9e3c
00000030: 6928 17bd baca 13bc fd08 79bd bd4c 8b3c
00000040: 7e3d c4bc eb7d a0bd 09d5 15bd 8dc7 183d
00000050: 28ef 4a3c 7bb0 03bd 7d9e 2abc 6ae3 c83c
00000060: 2022 8d3b 95c6 fcbc 190d 26bc 9e25 06bd
00000070: 2e0f 76bc 449d b2bc d310 01bc f54c 8f3b
00000080: 7de5 16bd 053b 913c fbd4 c0bc 3c72 3abc
00000090: 5c33 aebd e90e 543d 4b3a 33bd 6c1e 663c
000000a0: b128 393c 475d e53b e323 673d b3f2 11bd
000000b0: 754f 3b3d c135 3bbd 8934 2f3d 8574 babb
000000c0: 52e2 3a3d 4acd 693c
-0.062727146 -0.040290486 -0.013991022 0.032012902 -0.0075975675 0.01025833 -0.011000965 0.027572809
-0.032466467 0.0458299 0.022788228 0.019287877 -0.036903773 -0.009020502 -0.060799588 0.017004365
-0.023955103 -0.07836517 -0.03658012 0.03729968 0.012386121 -0.032150727 -0.010413763 0.024522502
0.0043070465 -0.03085641 -0.010134959 -0.03275072 -0.015018268 -0.021803506 -0.007877546 0.0043731877
-0.03683995 0.017728338 -0.023539057 -0.011379775 -0.0850589 0.051772032 -0.043756764 0.014045339
0.0113012055 0.006999645 0.05643071 -0.035631847 0.045730073 -0.04570556 0.04277471 -0.0056901597
0.045625992 0.014270136

decoder.0.weight f4 [200, 50]
00000000: 5208 ee3d 5673 8dbd 2abf 26be 5696 4dbe
00000010: e276 54be 32f7 62bd bf7f 143e e74d 8b3d
00000020: 3a14 1bbe 7f9b d6be f9d2 ad3d 640b 60be
00000030: 5860 babe baa8 87be 3a7e 96bc 273b e33d
00000040: 7714 2b3e 8254 463e 5b92 55bd 1599 ac3d
00000050: 2cdd 683e b715 9b3b 17a9 1ebe 0e6b a5be
00000060: a84f 5f3e 714c 7b3c 82c0 8d3e 395d 623e
00000070: 8084 a0bd 1719 aa3e edcd 693e ef56 c6be
00000080: 0edb 35be a6a8 343e ee51 38be d314 363d
00000090: b601 4fbe 4025 fabb 7389 8fbd 8d57 a13e
000000a0: b834 b43e c543 1abe 373a a9be 0017 c83c
000000b0: fd17 963e 5b3b ac3e 684a eabc d5ce d5be
000000c0: 46a6 5a3e 19d9 3e3e 63a1 e63e c485 513d
000000d0: 210b 183e 787f a4be 440d b8bc b458 753e
000000e0: 9ab6 ecbc 2732 9c3e d9f0 6cbf 87d0 173e
000000f0: 43e5 563e 03e8 0e3f 06de 9dbe b1e5 c53e
00000100: f556 9f3b d8c7 ae3e 307c 82bd 02cc a73e
00000110: fd37 b5be 5b96 613f ab6b 20bf 9384 a7be
00000120: 0895 483f 5604 683d b8a5 c13e 4212 19bd
00000130: 46b2 dbbc 6dd0 03bf 8ce4 7d3e 31c2 2a3f
00000140: fc95 a13e 7062 a13e 6738 98be afab a23e
00000150: f859 72bf ad49 89bf 62aa 1f3e cb46 533f
00000160: b3ba 323e 5cd6 46b9 6a34 efbe 4e31 ebbe
00000170: 3ae4 293e d415 0ebe 81ba 1b3d 951b 253f
00000180: bd8e e73e ea97 28be b8d9 01be fc77 9f3e
00000190: 3f9c b93d 9626 c1be b6a3 043e 97d2 76be
000001a0: 1dbe b83e 8d25 923e f20e 423e 65cb f13c
000001b0: dca1 aabb 1bc8 ab3e 00c4 7fbe 046d 33be
000001c0: aa98 4ebe 9de4 143e 5dc8 cebc d091 5f3e
000001d0: 6e21 a43e e318 e1bd 710f f53e ce79 933e
000001e0: b0ba 52be 2776 21be 1f35 51bd 8bc3 4ebd
000001f0: 94d8 113e 4d94 04be 1754 6cbd 3cb3 0cbe
00000200: 36f6 7abe b23d 18bd d76a a83d f457 dbbd
00000210: 9173 b7bd b278 6dbe e445 a73e cecc 20bd
00000220: efa1 ce3d eabe 0e3f 5442 433e 070d fa3d
00000230: d359 3c3e 583d 04bd e772 febd 8544 20bd
00000240: 668b 033d 311b 933e d9b1 febe 7844 10bf
00000250: a282 c33e d304 be3d 6255 8ebc 92df cb3e
00000260: 6d52 c4bc f280 25be c85f 823e c948 58bd
00000270: 4481 cf3c fc67 02bd e042 713d b1df a1bd
00000280: aba9 093e 1a5d 03be c3b2 633e 2b63 813c
00000290: e4a8 793e 3ef8 893e d2b4 cb3d 3da3 99be
000002a0: a8dc 923e bbd2 b0be ede4 523e ccda 083f
000002b0: 55fb 8abe e588 aa3d 1381 f53d 5c2f 053e
000002c0: 4b64 cbbe dfc7 d8be 7082 2ebe e47b a53c
000002d0: d9f2 3ebc efe9 e7bd d6d9 813e 5fc8 18be
000002e0: 7df8 febd 4768 643d 19d2 67be 0f3e 1fbe
000002f0: f9e3 66be d161 093e 2f03 2ebe 1109 42bc
00000300: 4371 803d 3bcd 273d 5a50 763e d22e f83d
00000310: 28e8 c23e a052 12bd 8e20 bf3d 6fcb 923e
00000320: fa5d 9e3e dd17 3ebf 6d2f 26bf 0fda bf3e
00000330: 53f6 483d 91bc 55bf 7ae4 fb3e 2b18 5cbf
00000340: bcf5 a3be dea9 ecbd cd6a 8d3e f0ae ae3d
00000350: 83df 85bf 654f 5e3f 0ca7 283e 5824 583f
00000360: 01e0 1ebf 7b78 803e fdc2 e5bd 856e 85be
00000370: a89a 863d 6efd b53e 7296 113f 5aa8 33be
00000380: 768a e3bd ec47 b2be 8d81 dc3e 6c1c 173f
00000390: 3e02 59bc 35d9 2abc d524 e0bd b17b 88be
000003a0: 02bc c23d 4faa 09bf d31d 4e3e 542d d0be
000003b0: a383 98bc 5f20 4ebf c508 24bf cfc4 02bf
000003c0: 992d 133f d39f c33e 3150 603e 3d6f a03e
000003d0: 2911 92be 43b1 b23e 9cd6 843e 82b6 1dbf
000003e0: 9107 9fbe 2679 f93e 43f2 fab9 10c0 a4be
000003f0: 5073 9c3e daa2 6fbe 5697 8b3e a639 d3bd
0.11622681 -0.06906764 -0.16283861 -0.2007688 -0.20748475 -0.055411525 0.14501856 0.06801968
-0.15144435 -0.4191551 0.084875055 -0.21879345 -0.3640163 -0.26495916 -0.018370736 0.11095267
0.16707025 0.19368175 -0.05214153 0.084276356 0.2274062 0.004732813 -0.1549419 -0.3230824
0.2180773 0.015338049 0.27685934 0.22105874 -0.07837772 0.33222267 0.2283246 -0.387382
-0.17759344 0.1764246 -0.18000004 0.044453453 -0.20215496 -0.007633835 -0.07008638 0.31512108
0.3519647 -0.15064915 -0.33052227 0.02442503 0.29315177 0.33639035 -0.028599933 -0.41759363
0.21352491 0.18637504 0.45045003 0.05115296 0.14847995 -0.321285 -0.022467263 0.23959619
-0.028895665 0.30507013 -0.92555004 0.1482564 0.20985894 0.5582277 -0.30833453 0.38651803
0.004862661 0.34136844 -0.06371343 0.32772833 -0.35394278 0.8812005 -0.6266429 -0.32718334
0.78352404 0.05664476 0.37821746 -0.037370928 -0.026818406 -0.5148991 0.24794215 0.6670256
0.31559741 0.31520414 -0.29730532 0.3177161 -0.9466853 -1.0725609 0.1559234 0.82529896
0.17454033 -0.00018962607 -0.46719676 -0.45936054 0.16590968 -0.13875514 0.03801966 0.6449521
0.45226088 -0.164642 -0.1268071 0.31146228 0.09063005 -0.3772475 0.12953076 -0.24103771
0.36082545 0.28544274 0.18951014 0.029515931 -0.0052072834 0.33551106 -0.24977112 -0.17522055
-0.20175424 0.14540334 -0.025242025 0.21832967 0.32056755 -0.10991075 0.47863343 0.28803867
-0.20579028 -0.15767728 -0.05107605 -0.050479453 0.14242774 -0.12947197 -0.05769738 -0.13740247
-0.24507985 -0.037168212 0.08223503 -0.10710135 -0.089575894 -0.23190573 0.3267051 -0.039257817
0.1008948 0.5576006 0.19068271 0.12209516 0.1839364 -0.032285064 -0.1242426 -0.039127845
0.032115363 0.28731683 -0.49745062 -0.56354475 0.38185602 0.09278264 -0.017374698 0.39819008
-0.023965085 -0.1616247 0.254637 -0.05280379 0.025330193 -0.03183745 0.058901668 -0.07903994
0.1344363 -0.12828484 0.22236161 0.015794357 0.24380833 0.26947206 0.09946598 -0.30007353
0.28683972 -0.34535775 0.20595141 0.5345886 -0.27144876 0.08326892 0.119875096 0.13006347
-0.39724955 -0.4233999 -0.17041945 0.020200677 -0.011654579 -0.11323916 0.25361508 -0.14920186
-0.12449739 0.05576351 -0.2263874 -0.15551017 -0.22547902 0.1341622 -0.16993402 -0.011842982
0.06271603 0.040967207 0.24054089 0.12118305 0.38067746 -0.03572333 0.09332381 0.28670833
0.30931073 -0.7425516 -0.64916116 0.37471053 0.049063038 -0.83490855 0.4919775 -0.8597438
-0.32023418 -0.11555837 0.27620545 0.085294604 -1.0458835 0.86839896 0.16469973 0.84430456
-0.6206055 0.2509192 -0.11218832 -0.26060882 0.06572467 0.35544914 0.56870186 -0.1754469
-0.11110394 -0.34820497 0.4306759 0.59027743 -0.0132451635 -0.010427763 -0.10944525 -0.2665687
0.09508516 -0.53775495 0.20128565 -0.40659583 -0.018617457 -0.80518144 -0.6407588 -0.51081556
0.5749145 0.38207874 0.2190559 0.31334868 -0.28528717 0.34900865 0.25944984 -0.6160661
-0.3106046 0.4872524 -0.00047864215 -0.32177782 0.30556726 -0.23401967 0.27263898 -0.1031373

decoder.0.bias f4 [200]
00000000: 969d 933f e5e4 543e c12d db3e e52b fe3f
00000010: 3e59 2b3e 9775 133e 4734 533e ddbc 9f3f
00000020: a9d4 8c3e 0414 863c 3ce2 c03e 7b6d bf3e
00000030: 4de8 80be 3b0d 193e 9db6 17bf cd7c 4c3e
00000040: fcbd a5bf 9c3f a03f 9588 a13d 3dff 2dbf
00000050: c284 7d3e 9b99 d1bd 6b1c 233d 5006 a1be
00000060: 4949 96bd bf54 05be 2d04 35be ea18 1fbe
00000070: 6ebc 95bd f569 06be 99e5 07be cb77 d7be
00000080: 6a61 c4be 4be7 6fbe fd12 913f 81b6 253e
00000090: b73f c23e fdeb 5e3e 852c 973e cbf1 4e3e
000000a0: 052f 133f 6a30 6d3f ef8b fbbc 5eff dc3d
000000b0: 7f6c c73e 64dc 273e a9e1 77bf d9ba 8a3e
000000c0: fa63 c73f 7370 823d 157a b73e da92 54bf
000000d0: 2dd7 533d cd88 1d3e 6f84 d3bc 601f 993d
000000e0: 3eb2 643e 65d1 943b 4be3 223e a2c2 ae3d
000000f0: 63d0 0bbf a3b2 45be 2870 dbbd 75d6 a53e
00000100: 8fa1 c33d ad93 84be 9d07 463f b5fd adbd
00000110: 7f84 18bf afec 52be 52c2 8dbe 8669 083d
00000120: 046e de3f fa2f 4bbf 4331 dc3d 9db2 1a3f
00000130: 2d33 cc3d 2a4f d3bc f1ae a63d a953 f33d
00000140: 9d6e 74bc d886 b0be 429e bd3e 21bd b13e
00000150: 3758 76bf d4e7 e83e 9e4e 81be 2084 12bf
00000160: c437 ee3e da1f 8a3c dddf 183e d357 32be
00000170: 2d29 e83e 465d 363f bc44 16be 6d3e 3cbf
00000180: 8087 28bc 9cea 10bd 68a1 27be fd0a f43a
00000190: c170 c2be bd91 d9be a848 0fbb d980 3f3e
000001a0: 54ae 02bc b0d6 943f af05 763e 435d 893e
000001b0: e519 2ebd 4b65 91be 2567 ea3e 2048 aebe
000001c0: eb84 f13e 9e7f ce3d b7db b73d 6d40 b93e
000001d0: 6f5c ac3d ddfc 1fbf cd0b 033f 8ff1 203e
000001e0: a703 49be f4f4 d53d 31d8 85be bfff 1f3e
000001f0: 62c0 8c3e 6dcc 653f d714 663d 2067 14be
00000200: fd00 1b3e 1b1f 05bf afc8 aa3e c934 2bb7
00000210: 57f6 11bf cf3e e73e 2489 e83e 5f39 683f
00000220: 3c26 ea3e 3c37 68ad 7183 373f 944d 0abe
00000230: 6f62 263e 31dc 0e3f a005 f0bc 5db0 a23f
00000240: ce3d 8d3f 6cca f53d 10c3 313e baaa 583d
00000250: 3a8f 1dbc 171f 153f f2bf c7be d8f4 41be
00000260: a6fd 1e3f eb60 ae3f 0e61 243f a5ef 663d
00000270: d861 a7be e166 c4be 4b3e 503f 9170 6d3f
00000280: 7b29 76bd eee6 91bd 69f0 8b3d f271 043d
00000290: 0acc c93d f820 553e c093 8e3e 7d25 843e
000002a0: 68b9 373e ff8c 07bd 9d71 fabf dfd4 b53f
000002b0: 641c ef3e 99b9 793e 3e2f e4be b9b4 56be
000002c0: 1185 1a3e 83d7 ec3d 0ae3 09be c820 27bf
000002d0: ab1c 9fbe 7149 b63d cb00 7a3d d2be 723d
000002e0: 27cb 28be 7568 b3bd a372 18be 1f5c 4ebf
000002f0: e8dd 8e3d 4dc2 953e 011f f9be e2f0 dcbd
00000300: 2676 2cbf 0b54 04be 68dc 1dbf e3cf 003e
00000310: bcf6 aabe ae6e 1b3f ef96 7a3d 13b9 91be
1.1532466 0.20790441 0.42808345 1.9857146 0.16733262 0.14400326 0.20625411 1.2479511
0.27505997 0.016366966 0.37672603 0.37388214 -0.2517723 0.14946453 -0.5926302 0.19969483
-1.2948604 1.2519412 0.07887379 -0.6796759 0.24757674 -0.10234376 0.039822023 -0.3145013
-0.07338197 -0.1302061 -0.17677374 -0.15536848 -0.07311331 -0.13126357 -0.13271178 -0.42083582
-0.3835557 -0.23428075 1.133392 0.16182901 0.37939236 0.2176971 0.29526153 0.20209424
0.5749362 0.92652 -0.030706374 0.10790895 0.38949963 0.16392666 -0.96828705 0.27095678
1.5577385 0.06369104 0.3583533 -0.8303658 0.05171888 0.15384217 -0.025819985 0.074766874
0.22333619 0.0045415633 0.15907018 0.08533217 -0.5461485 -0.19306426 -0.107147515 0.3239018
0.09552299 -0.25893918 0.77355367 -0.084956564 -0.59577173 -0.205981 -0.27687317 0.03330376
1.7377324 -0.7937008 0.107515834 0.6042879 0.099706985 -0.025794584 0.08138836 0.11881191
-0.01491895 -0.34477878 0.37034804 0.34714606 -0.96228355 0.4548937 -0.25255293 -0.57232857
0.4652692 0.016860891 0.14929147 -0.17416315 0.45343915 0.71236074 -0.14674658 -0.73532754
-0.010286212 -0.03537999 -0.16370165 0.0018618997 -0.3797665 -0.42494002 -0.0021863375 0.18701495
-0.007976133 1.1628017 0.24025606 0.26828966 -0.042505164 -0.28397593 0.45781818 -0.34039402
0.4717172 0.10082935 0.08977454 0.36181965 0.08416068 -0.62495214 0.5118988 0.15717147
-0.196303 0.10447112 -0.26141503 0.15624903 0.27490526 0.89765054 0.05617222 -0.14492464
0.15137096 -0.5200059 0.33356234 -1.0204684e-05 -0.5701651 0.45165107 0.4541713 0.9071254
0.45732296 -1.3199938e-11 0.7168494 -0.13506156 0.16248487 0.55804735 -0.029299557 1.2710072
1.1034486 0.120014995 0.17359567 0.052897193 -0.009616667 0.58250564 -0.3901363 -0.18941057
0.62105787 1.3623327 0.64210594 0.056380887 -0.32691836 -0.3835974 0.8134505 0.9274989
-0.060098153 -0.071241245 0.06832964 0.03233523 0.098533705 0.20813358 0.278471 0.2580985
0.1794182 -0.03309345 -1.9565922 1.4205588 0.46701348 0.24387206 -0.44567293 -0.20967378
0.15089823 0.11564543 -0.13465515 -0.65284395 -0.3107656 0.089007266 0.061035912 0.05926401
-0.16483746 -0.08760158 -0.1488748 -0.80609316 0.06975919 0.29249802 -0.48656467 -0.10788132
-0.6736778 -0.12922685 -0.6166444 0.12579302 -0.33391368 0.6071576 0.061179098 -0.28461513

decoder.2.weight f4 [227, 200]
00000000: 67dd 3dbd e450 ba3d 1028 2bbc 9558 c8bd
00000010: ede5 8f3d 1573 433d 1ac3 b3bc 9cb6 4fbd
00000020: 3893 183c 10ea ddbe 2ec4 01be bdee 6e3e
00000030: 5fa6 073e 2e2a 3bbe 93b7 913c 4365 b4bd
00000040: c261 383d 8d71 23bc 15fc dbbe 03d5 1f3c
00000050: 0b81 f9bd df32 5dbe 1cdd 27be 32d7 1f3e
00000060: 5072 6f3d 2f85 9cbd 9490 c5b9 6c89 e53d
00000070: 5605 c7be 82ef 993d 1009 aebe fd84 efbb
00000080: b98d 323e 7833 29bb 73d8 293e 6e6f 1abe
00000090: c086 c7bc 84bd 913e ff54 4b3d 58dc 8abe
000000a0: 6da0 c6bb 5e6f 2f3d 8e06 97be 5be0 123e
000000b0: d7cd d1be 103f 08be aee1 383d 9fed 91bc
000000c0: 6a7e a9bd 2814 273d 30e7 bfbc 668f 9d3d
000000d0: 58a2 833e f5ca 3b3e 9b9a d8bd 7b3c 1f3e
000000e0: ccf4 2c3e 823e 35bc bcae fe3d eb52 5d3e
000000f0: 0f48 52be 891e e03c 3a9d f8bc 060a 13be
00000100: 5929 8f3e f81d 2dbd 0bc2 a53d a8ad 4e3e
00000110: 5b1e 953d 2915 88bd c1b2 cf3d 7a4e 95bd
00000120: da33 26bc 8848 503e f762 1ebe 3154 96bd
00000130: 4ccb 143e abb1 7d3d 2ad6 30bd 35fa 84bd
00000140: d135 e73d 3d53 273d c770 6f3d 48e5 35bd
00000150: d27c 60bd a204 bbbc 7de5 083c 1e96 8dbe
00000160: ef5e fbbd dd83 be3d d25c 44be 8885 9cbc
00000170: cd5e 6abd a559 b5bc 6670 31be c4a4 273e
00000180: 9628 c03e 63ab d9bd dc7f 88be 9a40 69be
00000190: 33c1 323c 4cd3 2a3c d91c 333e 33ca 703e
000001a0: 4c0a fb3c bdc4 f6bd 837a 33bd 5b16 0d3d
000001b0: e80a ed3e 8633 e3bd 25da 64be 079b 1b3e
000001c0: 119e 9dbd 60b4 103b 12b7 02bf 404f 0f3e
000001d0: f373 733d 3901 a63d 6d3f 823e c003 73bd
000001e0: fa2e 1c3e 0201 0ebd 2392 533e 13b8 17bd
000001f0: fa04 903d 1ad1 e43d e02d f23d ef22 a43d
00000200: c7db 56bd e549 5dbc 3d01 a3bd aba4 1a95
00000210: e666 ab3d 6c8e f4bc 95c3 163e 23aa fdbd
00000220: 0f62 d0bc 4d49 8d83 d0c3 57be 8428 583e
00000230: 5633 7fbe 2036 94bc 5263 a2bc 8efb 22bd
00000240: 275c 90bd 9d9f febb 498d 2abe 033e 7e3e
00000250: fd71 8a3d 2ba3 f8bc ff37 f93d 12ee c8bd
00000260: 8b59 763c c55b 9ebd 6e38 febd 517f bb3d
00000270: 714a b73d d9bb 983d f968 2ebe 17f0 abbd
00000280: 6c42 fdbe 4cbd 163e 5f07 89be c763 82be
00000290: 9586 34bd 760f 033e 5d9e f1bb d41d 23be
000002a0: e5bc b3bc c01c b9bd 75fa 8c3e c3fd 4c3d
000002b0: b40d 18be 3f72 003d a7a4 613c 39be a9bc
000002c0: acd2 4cbe 3848 afbe 66e1 993d a238 eebd
000002d0: db66 58be 9e70 84bc 20d7 bd3d 6e90 2f3e
000002e0: b708 1abd 5dbc a7bc eb4d 0fbf a906 cf3d
000002f0: 3e9c af3e cf13 9d3e e168 31be 5679 6c3c
00000300: 3d92 ec3d 79d5 203e 19fa 35bd 3d36 7039
00000310: 8371 413e 7750 23be 292a 4bb6 0ed2 103d
00000320: cf6e a5bd f828 a1be 2ade d6bd 6993 873e
00000330: e99a 2f3d bcdf 2abe 1e71 5dbd 48b3 823d
00000340: 14cd 3ebe 1b74 1bbe ca84 ab3d 38e5 ba3d
00000350: c4f9 383e 6957 b5bd 05d7 c5bd e595 2ebe
00000360: f397 9e3d 2dec 25bd 693b fdbd 8776 803c
00000370: 45c2 f33d e126 8c3d 42f3 d4bd 0d03 1d3e
00000380: ed6e 4e3c 2bc1 c9bd b640 ca3c 2d76 de3d
00000390: d9ba 36be 2ad4 34bd 7c6c e1bc e69e 373c
000003a0: b366 74bd fa85 8d3d 90d4 1ebe c4a8 99bd
000003b0: c312 e7bd b84d 1ebe 45f8 2d3e eec6 8c3b
000003c0: 5df6 6bbd 8e8f 813e 9aa9 dabd 7151 aabd
000003d0: 2be0 41be 6091 153d e7ed 58bd d4b7 bebd
000003e0: 0f73 81bd 2ae4 83be 628a ea3c afa6 fe3c
000003f0: 90f6 65bb be85 2d3d 6be8 713c 4147 2bbd
-0.046353724 0.0909746 -0.010446563 -0.09782521 0.07026277 0.047717173 -0.021943618 -0.05071126
0.009312443 -0.43342638 -0.12672493 0.23333259 0.1324706 -0.18277809 0.01778773 -0.08808377
0.045015104 -0.009975803 -0.4296576 0.009755376 -0.12182816 -0.21601437 -0.1639294 0.15609434
0.058458626 -0.0764259 -0.00037682487 0.11207852 -0.38871258 0.075163856 -0.3399129 -0.0073095546
0.17436875 -0.0025818031 0.16586475 -0.1508157 -0.024356246 0.284649 0.049641605 -0.27121234
-0.0060616047 0.042830817 -0.29497188 0.14343397 -0.40977356 -0.13305306 0.0451371 -0.017813502
-0.08276065 0.040790707 -0.023425668 0.07693367 0.25709796 0.1833914 -0.10576364 0.15550415
0.16890258 -0.011062266 0.12435672 0.21613662 -0.205353 0.02735831 -0.030348409 -0.14359292
0.27961233 -0.04226491 0.080936514 0.20183432 0.072811805 -0.06644661 0.101415165 -0.07290359
-0.010144198 0.20340168 -0.1546744 -0.07340277 0.14530677 0.061937016 -0.043172993 -0.06493036
0.112895615 0.040850867 0.058457162 -0.044408113 -0.054806538 -0.022829358 0.0083554955 -0.27653593
-0.122739665 0.09302495 -0.19176033 -0.019106641 -0.057219315 -0.022137472 -0.17328033 0.16371447
0.37530965 -0.106283925 -0.2666005 -0.2277855 0.01091032 0.010426354 0.17491473 0.23514633
0.030644558 -0.120492436 -0.04381801 0.034445148 0.46297383 -0.11093812 -0.2234884 0.15195857
-0.076961644 0.0022080168 -0.51060593 0.13995075 0.05943675 0.08105702 0.25439015 -0.05932975
0.15252295 -0.03466893 0.20661215 -0.03704078 0.07032199 0.111726955 0.11825156 0.080144756
-0.05245569 -0.013506387 -0.079592206 -3.1229952e-26 0.08369236 -0.029853068 0.14723046 -0.12385967
-0.025437383 -8.304064e-37 -0.2107079 0.21109205 -0.24921927 -0.018092215 -0.01982275 -0.039790682
-0.07048827 -0.007770492 -0.16655459 0.24828343 0.06760023 -0.030351242 0.121688835 -0.09811033
0.015035997 -0.077323474 -0.12413107 0.09155143 0.089497454 0.07457704 -0.17032231 -0.08395403
-0.49464738 0.14720649 -0.26763436 -0.2546675 -0.04407366 0.12798867 -0.0073736147 -0.15929347
-0.021940658 -0.09038687 0.27534834 0.050046694 -0.14848977 0.031358954 0.013772166 -0.020720588
-0.2000224 -0.34234786 0.075136945 -0.116318956 -0.21132986 -0.016166981 0.092695475 0.1714494
-0.037605967 -0.02047556 -0.5597827 0.10108692 0.3429889 0.30679175 -0.17325164 0.014433226
0.1155133 0.15706433 -0.044427965 0.00022908389 0.18890958 -0.15948664 -3.0273898e-06 0.035356574
-0.08077776 -0.3147657 -0.10491593 0.26479653 0.042872343 -0.1668691 -0.054062955 0.063818514
-0.18632919 -0.1518101 0.08374937 0.09125751 0.18064028 -0.08854563 -0.09660152 -0.17049368
0.07743826 -0.040508438 -0.12364847 0.015681518 0.11902288 0.06843353 -0.1039796 0.15333195
0.012599689 -0.09851297 0.02468906 0.10862384 -0.17844714 -0.044147648 -0.02751755 0.011207318
-0.059668254 0.069103196 -0.15510774 -0.075028926 -0.112828754 -0.15459335 0.16989239 0.004296175
-0.057607997 0.25304836 -0.1067688 -0.08316315 -0.1893317 0.036515594 -0.052961256 -0.09312406
-0.06320774 -0.25760013 0.02863044 0.03108534 -0.003508959 0.042363875 0.014764885 -0.041816

decoder.2.bias f4 [227]
00000000: 2906 f8bc 50de 30bc 5536 75bd 6863 933d
00000010: 2826 29bd 2fe0 f53d d550 5bbd e8ab b6bd
00000020: 3d28 92bd 4513 f0bc a6e5 b8bc 61f3 9fbd
00000030: b5e2 41bd 90c7 f1bd 8322 f13c c895 a8bc
00000040: 24a5 a73d 5d0f 92bc 504f 0dbc ad51 c6bd
00000050: 0387 8bbd 4ea6 89bd 5c8d a3bd d818 eeba
00000060: aa1a 03be 5d58 943b 7c9b b0bc 7404 02be
00000070: 1ec3 d33c 79ff a7bd fd15 87bd b1f3 87bd
00000080: 03c1 003d 8947 5a3b 37fc 1cbd 2cf4 c1bd
00000090: b61f 743d f072 67bc ab04 7dbd 8326 babc
000000a0: 7c5f a4bd 792a 79bd 5b90 fbbb b13b 07bc
000000b0: 0af5 003e d6b7 fabc bd19 51bd f4ed fe3d
000000c0: 7af9 31bd 87af 2ebc cd0c 78bd 3aa2 d13b
000000d0: 185b 663c d685 04bd 2970 a2bb 93ed 8cbc
000000e0: 5ab6 0abe 81b8 41bd 8ae4 573d 36ee 4abd
000000f0: 8c48 fc3b 7729 a13d 1193 16bb 0595 6fbb
00000100: 28d5 42bc f3e8 983a c7f2 90bc edb1 79bd
00000110: 1fde 74bd c763 37bc 7fe2 29bd 40d9 a4bb
00000120: 6da1 7bbd c304 25bd ab84 16bc c150 ba3b
00000130: 84a7 b0bc 9ec3 aa3c fcf4 0cbc a775 8ebd
00000140: 4699 a7bd 22ee aabc 4524 1e3d f38c 733b
00000150: dea3 91bc c42d d1bd e7b4 bdbc 75e7 acbd
00000160: 3f02 a53d 4608 39bd 972a d1bc d749 693d
00000170: 781b 57bd a6b0 583c f8d0 d43c 2ded dcba
00000180: 4a70 1b3c d4f3 a83d 11ef 2bbd bca4 e93c
00000190: 12e3 3b3c 7fc3 05bc c6b7 0b3d 08fe 90bd
000001a0: 3272 103e 7896 bbbd ba7b 5bbd c318 eeba
000001b0: e9f7 0bbd f0f5 45bc c797 2fbd 57d7 693c
000001c0: d6dc bcbc 1c1a b0bd 274d 1abd 66d4 aabc
000001d0: 4ae6 a43c df1e 88bd 5dcf 3c3b 84f7 05bd
000001e0: b631 21bb 636c 73bd b024 b8bd 416d f8bd
000001f0: 1684 ab3d 4884 eabc 3262 b83c ff71 3abc
00000200: 6455 2abc 07f8 fdbb 75a6 ffbd 3c31 57bd
00000210: 3001 af3c 1775 83bd 0752 6dbd a965 463d
00000220: d418 eeba 2a5e ef3c e841 a9bd 807d bebd
00000230: 0637 b4bc fbf3 fabc 573f e7bc d97f 27bc
00000240: 6cce 5cbb d21d b038 6399 263d 3247 833d
00000250: 3908 3bbc bcf8 13bd 88c6 2dbd 561e 44bd
00000260: 5afd 5bbd 5d90 f9bc de67 28bd ed3c 0fbc
00000270: 542a 5bbd a1a0 84bd 953c 8cbd 9231 143b
00000280: 0e36 09bd 5040 62bd 8a7d adbd 52e1 fabc
00000290: ebbe fb3d 6886 edbd 425e 77bd 2df5 1dbd
000002a0: 4046 31bd 3f37 d23c a874 84bd 5217 c63d
000002b0: d2f8 963d 2348 dc3c f45e 29be a2f7 67bc
000002c0: d117 b33c ea8a 39bd 3ee6 393d bbe9 9ebd
000002d0: 2906 dfbc 6be5 a9bc 8501 f6bd 4e04 adbd
000002e0: 0916 89bc 13b8 88bd ba3e 47bd 0bd6 d1bd
000002f0: cbe9 dbbd 3338 463c 83af e03c 64e6 96bc
00000300: c938 0dbd 92a1 81ba fa40 c6bb 1885 d23c
00000310: 1420 b8bd 5d08 1fbc b232 cdbc 73de c7bd
00000320: a909 8fbd c1e0 b13d d9f0 123e fe72 6e3e
00000330: 3b24 58bc 5c87 babc 0055 7dbc 293b 203d
00000340: 6cd4 0b3b 8ed7 c1bd bd30 8ebc ecb2 07bd
00000350: 3701 08be 9464 c3bd 316b 71bd f195 153d
00000360: 43a5 a4bc e4d9 b6bb 60e2 cdbb ffef 97bd
00000370: df18 eeba 3d23 a63d c977 5abd 5c5f 3bbc
00000380: 099e 933b 2076 793e b119 003d
-0.030276375 -0.010795191 -0.05986627 0.071966946 -0.041296154 0.1200565 -0.053543884 -0.08919507
-0.07136581 -0.029306063 -0.022570442 -0.07810093 -0.047335345 -0.11805642 0.029435402 -0.020579234
0.08185795 -0.017829591 -0.008624867 -0.09683547 -0.06812861 -0.06721173 -0.079859465 -0.0018165363
-0.1280314 0.0045271353 -0.021558516 -0.12697011 0.025849875 -0.082030244 -0.06595991 -0.06638277
0.03143407 0.0033306798 -0.03832647 -0.094704 0.059600554 -0.014126524 -0.06177203 -0.022723442
-0.08026025 -0.06083152 -0.0076771206 -0.008253978 0.12593475 -0.030605238 -0.051049937 0.1244773
-0.04345081 -0.010661966 -0.060559083 0.0063975127 0.014059804 -0.0323542 -0.004957218 -0.017203128
-0.13546124 -0.047295097 0.052708186 -0.049543582 0.007699078 0.07869237 -0.0022975842 -0.0036557328
-0.011891641 0.0011666104 -0.01769389 -0.0609607 -0.059782144 -0.011193222 -0.04147577 -0.005030781
-0.061433244 -0.040287744 -0.009186904 0.005685896 -0.021564253 0.02084523 -0.008603331 -0.06956034
-0.081835315 -0.020865504 0.038608808 0.003716287 -0.017778333 -0.10213807 -0.02315755 -0.084425844
0.08057069 -0.045173906 -0.025533004 0.056955185 -0.05251643 0.01322571 0.02597855 -0.0016855352
0.009487221 0.082496315 -0.04197604 0.028520934 0.011467712 -0.008164286 0.034110807 -0.070797026
0.14106062 -0.09159559 -0.05358479 -0.0018165339 -0.034171972 -0.012082562 -0.042869356 0.014272532
-0.023054522 -0.0859873 -0.037671234 -0.020853233 0.020129342 -0.06646513 0.0028810122 -0.032706752
-0.002459628 -0.059429538 -0.089913726 -0.121302135 0.08374803 -0.02862753 0.02250776 -0.011379718
-0.010396335 -0.0077505144 -0.12482921 -0.052537188 0.021362871 -0.064188175 -0.057939555 0.048436794
-0.0018165358 0.029219706 -0.08264524 -0.09301281 -0.021998893 -0.030633917 -0.028228445 -0.010223352
-0.0033692373 8.3978885e-05 0.040673625 0.06410064 -0.011415535 -0.036125883 -0.042425662 -0.047880493
-0.05370841 -0.030464346 -0.04111468 -0.008742553 -0.053507164 -0.0647595 -0.068474926 0.0022612554
-0.033498816 -0.055237114 -0.0847121 -0.03062502 0.12292274 -0.115979016 -0.060392626 -0.038563896
-0.043279886 0.025661109 -0.06467563 0.09672417 0.073716775 0.026889866 -0.16540128 -0.014158161
0.021861942 -0.045298494 0.04538559 -0.07759424 -0.027224617 -0.020739278 -0.120120086 -0.08448087
-0.01673414 -0.06675734 -0.048643805 -0.102459036 -0.10737952 0.01209836 0.02742744 -0.018420406
-0.034477983 -0.0009890071 -0.0060502263 0.02569823 -0.089904934 -0.009706584 -0.025048587 -0.09759226
-0.069842644 0.086854465 0.14349689 0.23286054 -0.013192232 -0.022769623 -0.01546216 0.03911892
0.002133633 -0.09464942 -0.017357225 -0.033129618 -0.13281713 -0.09540668 -0.058940116 0.03651995
-0.020098334 -0.005580174 -0.0062830895 -0.074188225 -0.0018165371 0.0811219 -0.053336892 -0.01143631
0.0045049232 0.24361467 0.0312745
