algorithms/SemiAutoEncoder/Semi_AutoEncoder_200-100-50_all_IO_noleave_VH_ratio_10.pt (torch_old, 568570 bytes, 12 tensors)

encoder.0.weight f4 [200, 226]
0.06422253 0.03798422 -0.09129222 -0.13436879 -0.0034883895 0.23324992 0.08718324 0.05466231
0.096391365 -0.0038700618 0.11210321 -0.033710163 0.0675175 0.26243034 -0.06385647 -0.06496927
-0.0038470845 -0.13652529 0.059142422 -0.08433761 -0.119821824 0.044169094 -0.016439082 1.327854e-39
0.03587318 0.09521292 -0.057035476 -0.15526004 -0.11430855 -0.021864347 -0.027310966 -0.056554824
-0.115773074 -0.088677905 0.07838863 0.09756828 -0.1216155 -0.11786557 0.03052577 0.057902854
-0.040087506 -0.045456406 0.031480163 -0.01910303 -0.089115314 0.056319788 -0.07058584 0.008705832
-0.14558314 0.011270069 0.020162513 0.13470283 0.05786385 -0.08037879 0.23400784 0.01567113
-0.16609837 -0.14666231 -0.12783653 -0.08470232 -0.05114102 -0.012527294 -0.19628572 0.097428046
0.04573676 -0.12385755 0.060319576 0.30400828 0.05397634 -0.08026227 -0.022420414 -0.041063614
-0.1588179 -0.05280401 -0.04172398 0.09537705 0.027403135 -0.16035171 -0.055308368 -0.014980872
-0.1823329 -0.15793148 -0.0957505 -0.22785448 -0.20487913 -0.0033290754 0.22690202 0.06267816
-0.031294476 0.05754632 -0.015041444 -0.20420748 -0.042697158 -0.19695392 -0.26075432 -0.021915572
0.11356134 -0.015253302 -0.020170894 0.15468648 0.07300309 -0.042816598 0.04981459 -0.059981953
-0.036634378 0.035541914 0.11483901 1.268151e-39 -0.33748224 0.014198872 0.105844215 0.0581045
0.17774153 0.16363281 -0.26594847 -0.0037451088 -0.15418111 -0.032696668 0.012967317 -0.07010811
0.089986704 -0.031339332 -0.05998752 0.17197451 -0.08043465 -0.08900148 0.0012687802 -0.21450604
-0.052488156 -0.1221105 0.08175462 0.08223332 -0.11841833 0.030560337 -0.037601717 -0.0034586636
8.011e-40 -0.06070939 0.062727295 0.0062311725 0.10154076 -0.0020563367 0.02497129 0.03248522
0.209513 0.013226217 -0.017380206 -0.1307968 -0.03690537 0.011243317 0.11144976 -0.10090308
-0.21747418 -0.15978624 0.03606889 -0.0274172 0.04489174 -0.01789427 -0.025050655 0.048180982
-0.14801186 0.0039713853 0.04495164 0.08928597 -0.056294765 0.010368026 0.1075507 0.08512419
-0.0176663 -0.028057212 0.16227238 0.12291321 0.016574558 0.0011080756 0.014469024 -0.0035387154
-0.061072893 0.0008573402 -0.028247425 0.17929177 0.09478444 0.14938198 -0.03577999 0.12471966
0.017985474 -0.28038836 0.1596288 0.060829893 -0.06839187 0.12543039 -0.1267639 0.008858545
0.031364318 -0.06790666 -0.17200598 -0.21223447 -0.19168372 -0.07985459 -0.0023185324 0.25206247
-0.04622864 -0.27985603 -0.046025228 -0.20210257 -0.09261906 -0.06387084 -0.1898448 0.07574424
-0.118141554 0.17382981 0.04690479 -0.02377553 -0.049962897 -0.024389625 -0.110731244 -0.19924341
0.072959624 0.18027078 0.24476974 -0.032920916 1.658388e-39 0.040780485 0.16527501 0.07790517
-0.08948001 -0.23910838 0.09581341 0.07305189 0.029642036 -0.045366906 0.08535665 0.043977845
0.06786502 0.06494843 0.08496975 -0.072654985 0.071834244 0.024923025 0.058303926 0.0896512
0.11852336 0.09152678 0.061471444 0.106458955 0.07478797 0.09712864 0.038096685 0.124236025
-0.032805063 -5.8578e-40 0.08040733 0.06601409 0.04058546 0.118524365 0.0024405909 -1.0041966
00000000: 1a87 833d 5795 1b3d 6af7 babd f997 09be
00000010: 779d 64bb 11d9 6e3e 208d b23d 96e5 5f3d
00000020: d668 c53d dda0 7dbb 5e96 e53d ab13 0abd
00000030: 9d46 8a3d 455d 863e 2ec7 82bd 9c0e 85bd
00000040: 5e1f 7cbb 49cd 0bbe 533f 723d 32b9 acbd
00000050: 2565 f5bd a7ea 343d 41ab 86bc 8475 0e00
00000060: c1ef 123d fefe c23d 089e 69bd 7dfc 1ebe
00000070: 9a1a eabd dc1c b3bc 3fbb dfbc 08a6 67bd
00000080: 6f1a edbd c39c b5bd 388a a03d e1d1 c73d
00000090: 8c11 f9bd 8163 f1bd 2e11 fa3c 8b2b 6d3d
000000a0: cc32 24bd 7f30 3abd 58f1 003d f57d 9cbc
000000b0: 1782 b6bd 94af 663d 4f8f 90bd e8a2 0e3c
000000c0: bf13 15be 18a6 383c db2b a53c 8aef 093e
000000d0: a502 6d3d a39d a4bd c09f 6f3e be60 803c
000000e0: b115 2abe a52e 16be 94e7 02be 6978 adbd
000000f0: 3f79 51bd 483f 4dbc 20ff 48be 5b88 c73d
00000100: 7856 3b3d 07a9 fdbd a911 773d f9a6 9b3e
00000110: 4b16 5d3d 8c60 a4bd 04ab b7bc 5232 28bd
00000120: 29a1 22be 0549 58bd c4e6 2abd 0b55 c33d
00000130: 8a7c e03c 3d33 24be 078b 62bd 5572 75bc
00000140: 7ab5 3abe cab8 21be d718 c4bd af52 69be
00000150: d6cb 51be 9e2c 5abb 0159 683e 685d 803d
00000160: a32e 00bd b1b5 6b3d 6470 76bc c41b 51be
00000170: 37e3 2ebd 4aae 49be 9781 85be 4988 b3bc
00000180: d992 e83d fce8 79bc 6e3d a5bc 2266 1e3e
00000190: a582 953d 7560 2fbd 620a 4c3d a3af 75bd
000001a0: ee0d 16bd 6694 113d b730 eb3d 17cf 0d00
000001b0: 79ca acbe 63a2 683c dac4 d83d fcfe 6d3d
000001c0: e001 363e 5c8f 273e 662a 88be 8070 75bb
000001d0: a7e1 1dbe f1ec 05bd df74 543c d794 8fbd
000001e0: f34a b83d ac5d 00bd 79b5 75bd 161a 303e
000001f0: ecba a4bd 6846 b6bd 334d a63a 79a7 5bbe
00000200: d2fd 56bd 1215 fabd f76e a73d f169 a83d
00000210: 4f85 f2bd ac59 fa3c 4204 1abd bfaa 62bb
00000220: 24b9 0800 69aa 78bd 2b77 803d dd2e cc3b
00000230: 9af4 cf3d 9bc3 06bb 9790 cc3c 390f 053d
00000240: 938a 563e c6b2 583c ef60 8ebc 99ef 05be
00000250: 162a 17bd e435 383c c63f e43d 46a6 cebd
00000260: 8db1 5ebe 019f 23be f9bc 133d 099a e0bc
00000270: 67e0 373d 0197 92bc 0837 cdbc 6c59 453d
00000280: 6c90 17be 6522 823b 361f 383d 90db b63d
00000290: 5795 66bd a7de 293c 8b43 dc3d 9755 ae3d
000002a0: ebb8 90bc 3dd8 e5bc bb2a 263e ecb9 fb3d
000002b0: 5ec7 873c d93c 913a 7c0f 6d3c cbe9 67bb
000002c0: 9227 7abd 20bf 603a 2567 e7bc 4398 373e
000002d0: 581e c23d 97f7 183e 0a8e 12bd 056d ff3d
000002e0: 4656 933c 108f 8fbe bb75 233e c428 793d
000002f0: 0911 8cbd d370 003e 65ce 01be 6e23 113c
00000300: df77 003d a612 8bbd 5622 30be fe53 59be
00000310: bd48 44be ce8a a3bd 85f2 17bb 550e 813e
00000320: 3e5a 3dbd 4a49 8fbe f384 3cbd faf3 4ebe
00000330: 10af bdbd b7ce 82bd ad66 42be cc1f 9b3d
00000340: 33f4 f1bd 7100 323e 3d1f 403d e6c4 c2bc
00000350: e5a5 4cbd c0cc c7bc 10c7 e2bd 7706 4cbe
00000360: db6b 953d e798 383e eba4 7a3e 15d8 06bd
00000370: e90e 1200 7009 273d da3d 293e bf8c 9f3d
00000380: 4c41 b7bd d4d8 74be d239 c43d 3b9c 953d
00000390: dbd3 f23c a6d2 39bd 78cf ae3d 1d22 343d
000003a0: d1fc 8a3d af03 853d 9f04 ae3d 23cc 94bd
000003b0: d51d 933d 5f2b cc3c 19d0 6e3d 0c9b b73d
000003c0: 60bc f23d 6472 bb3d 7bc9 7b3d 2707 da3d
000003d0: 6f2a 993d 61eb c63d 450b 1c3d 756f fe3d
000003e0: 9a5e 06bd eb60 0680 99ac a43d 6532 873d
000003f0: f03c 263d e7bc f23d 52f2 1f3b 8489 80bf

encoder.0.bias f4 [200]
-0.00055372866 0.04424868 -0.047948275 -0.25133216 0.26587066 -0.23680522 0.05190163 0.059719328
0.04081677 -0.040475603 -0.091488 -0.36397985 0.0045726663 0.019746572 0.009897982 -0.050564844
-0.13989866 0.17222182 -0.20675647 -0.043330584 -0.08693802 -0.03417642 -0.033936378 0.23087879
0.091113545 -0.113598295 0.0005612373 -0.046605222 0.053282235 0.1701504 -0.044791996 -0.013120744
-0.21235141 0.035192993 -0.01107014 -0.01177256 -0.021278892 -0.41153345 -0.01881889 0.048254367
-0.092525564 -0.07538893 -0.05355322 0.00921585 -0.08888487 -0.5651443 -0.02767603 -0.023837404
-0.03114273 -0.0027391256 -0.13282481 0.1005155 0.08983114 0.05145349 -0.18857071 0.0058879633
-0.15249977 0.16468225 0.062632374 -0.51208097 0.029055825 0.10430015 -0.06262296 -0.21083367
-0.038445015 0.146352 0.1182664 -0.008113918 -0.42350927 0.04228699 0.2731116 -0.005904184
0.122467756 0.06975745 0.04090105 -0.0035210724 -0.022488406 0.1844773 0.0341788 0.059694573
0.12335818 0.0012894635 -0.014235324 0.24521986 -0.10292463 0.08024399 0.12975767 0.006116784
0.0013141938 -0.012535074 0.029792832 0.08121373 -0.43498868 0.06689814 -0.036304176 -0.1167322
-0.03264087 0.01942037 -0.040978435 0.131879 0.030973028 -0.02047827 0.011603609 0.02823336
-0.1253224 -0.018713206 0.004465262 0.028884111 -0.028618481 0.03253524 -0.026829824 0.2355659
0.021898324 -0.22078875 0.034781937 -0.03899159 -0.5458509 0.009812766 -0.087515555 -0.044248644
0.09286228 0.0058943974 -0.00025080878 0.088702396 0.03139875 0.22000122 0.0856527 -0.006394973
0.029039023 -0.111442976 0.02422733 0.091822185 0.05153905 0.002149049 -0.01846823 -0.2677528
-0.15967226 -0.0584265 0.08287865 -0.01667826 0.17296536 -0.06660472 -0.19686845 -0.008902416
-0.028195243 -0.010021317 0.08164219 -0.06554303 0.03228281 -0.07898522 -0.08083827 0.26478833
-0.030660577 0.032038007 0.026154405 0.021939889 0.012709799 -0.010489514 -0.09299734 -0.020069592
0.31319195 -0.01929893 0.0133308 -0.05401969 -0.03490583 0.06553937 -0.055020753 -0.007770928
0.18861294 -0.04688605 -0.020832067 -0.22328052 0.21294163 0.22259809 0.053228956 0.028712407
0.056743618 0.04197182 -0.05178801 0.041625056 -0.013558699 -0.09967327 -0.035096955 0.14271829
0.06551504 -0.03679853 -0.26143864 0.04613139 0.061422646 0.018166076 -0.015218946 -0.39835873
0.07806592 -0.1034851 0.056101788 0.12540895 0.011153925 0.004707847 0.041452374 0.08289452
00000000: 1a28 11ba 1b3e 353d 6965 44bd 9cae 80be
00000010: 3320 883e 117d 72be ce96 543d 419c 743d
00000020: 7c2f 273d bfc9 25bd 0f5e bbbd 915b babe
00000030: 4ed6 953b 90c3 a13c 252b 223c 151d 4fbd
00000040: 9841 0fbe eb5a 303e f8b7 53be 697b 31bd
00000050: 900c b2bd 93fc 0bbd df00 0bbd 7d6b 6c3e
00000060: bd99 ba3d 39a6 e8bd ff1f 133a 1ee5 3ebd
00000070: 793e 5a3d e83b 2e3e d077 37bd 64f8 56bc
00000080: a672 59be 8726 103d 885f 35bc b2e1 40bc
00000090: 1251 aebc 83b4 d2be 132a 9abc 5fa6 453d
000000a0: 0b7e bdbd 8365 9abd 9f5a 5bbd 14fe 163c
000000b0: 4509 b6bd 4cad 10bf d7b8 e2bc a946 c3bc
000000c0: 0a1f ffbc e782 33bb 3a03 08be 12db cd3d
000000d0: 64f9 b73d e5c0 523d ae18 41be d1ef c03b
000000e0: e628 1cbe 77a2 283e 6745 803d bd17 03bf
000000f0: 7b06 ee3c 519b d53d 7740 80bd c8e4 57be
00000100: 8578 1dbd 4cdd 153e a835 f23d 3df0 04bc
00000110: 35d6 d8be 1f35 2d3d 49d5 8b3e e377 c1bb
00000120: 60d0 fa3d fedc 8e3d dc87 273d cbc1 66bb
00000130: 9b39 b8bc 9ee7 3c3e 12ff 0b3d 4c82 743d
00000140: 37a3 fc3d 3703 a93a 473b 69bc ea1a 7b3e
00000150: 26ca d2bd f656 a43d 32df 043e 4e6f c83b
00000160: 0741 ac3a e95f 4dbc 1910 f43c 6253 a63d
00000170: d6b6 debe e401 893d b0b3 14bd 4b11 efbd
00000180: 6fb2 05bd 7817 9f3c 01d9 27bd 4a0b 073e
00000190: 26bb fd3c 0bc2 a7bc 101d 3e3c a649 e73c
000001a0: 8454 00be 704c 99bc 5551 923b 5f9e ec3c
000001b0: 4e71 eabc ac43 053d 38ca dbbc 3038 713e
000001c0: 1d64 b33c 7216 62be 8177 0e3d a5b5 1fbd
000001d0: e2bc 0bbf b9c5 203c 5b3b b3bd 113e 35bd
000001e0: 942e be3d ca25 c13b fc7e 83b9 9aa9 b53d
000001f0: fa9b 003d 0048 613e af6a af3d ec8c d1bb
00000200: 3fe3 ed3c 373c e4bd 6578 c63c 450d bc3d
00000210: 9c1a 533d 0fd7 0c3b af4a 97bc e516 89be
00000220: 2081 23be a050 6fbd 48bc a93d d9a0 88bc
00000230: d51d 313e 0e68 88bd e297 49be 70db 11bc
00000240: b6f9 e6bc 7330 24bc 0534 a73d 6d3b 86bd
00000250: fb3a 043d 01c3 a1bd 898e a5bd 5692 873e
00000260: e42b fbbc 493a 033d c341 d63c 48bb b33c
00000270: c33c 503c 36dc 2bbc 6475 bebd fc68 a4bc
00000280: b25a a03e ca18 9ebc 6e69 5a3c c043 5dbd
00000290: 6af9 0ebd 8139 863d 715d 61bd 45a3 febb
000002a0: c023 413e 960b 40bd 03a8 aabc a6a3 64be
000002b0: 5f0d 5a3e c1f0 633e 9b06 5a3d 4836 eb3c
000002c0: ff6b 683d a5ea 2b3d aa1f 54bd 097f 2a3d
000002d0: 4e25 5ebc 8021 ccbd d3c1 0fbd be24 123e
000002e0: c02c 863d 0eba 16bd 49db 85be 45f4 3c3d
000002f0: 5096 7b3d 06d1 943c e358 79bc adf5 cbbe
00000300: 06e1 9f3d ffef d3bd fdca 653d 346b 003e
00000310: f4be 363c 4844 9a3b f7c9 293d 9ac4 a93d

encoder.2.weight f4 [100, 200]
-0.07448431 0.09480607 -0.052451346 0.21386325 0.033696387 0.22065555 -0.3570873 -0.055445265
-0.11047034 -0.08925399 0.10285896 -0.16467275 0.10958578 0.11192259 -0.026659861 0.13744189
-0.071709186 -0.094502375 0.0052790334 0.060891017 -0.030252 0.041497685 0.15010239 0.19492503
0.13745588 0.03757654 0.0906852 -0.17624286 -0.11292208 -0.007876212 0.009238161 -0.11404072
-0.34633678 0.10317196 -0.06588025 0.014925931 -0.13254108 -0.022722611 0.10200891 0.097586036
-0.07585339 -0.14879492 0.049468815 0.13643138 -0.045020077 -0.16692777 -0.12702784 -0.114208795
0.1123606 -0.05585076 0.17979048 -0.05663288 0.24671051 -0.124629885 0.1283512 0.08958011
-0.0933485 0.08506426 0.11694817 0.29798543 0.12550734 0.03687227 0.120292425 0.094613455
-0.040342916 -0.10699394 0.21698865 0.0069026207 0.09875426 -0.00034494235 -0.045452986 0.015929773
-0.23130324 0.04510543 0.2020554 0.17632914 -0.06233527 -0.011263018 -0.032851834 0.08683711
0.058085084 0.13811494 -0.12268485 0.01950737 -0.10012744 0.22172253 0.027324945 -0.090653025
0.13485669 0.02810934 -0.076386705 0.13372864 -0.09472461 0.12196674 0.14510246 -0.026517889
-0.06672111 -0.029280845 -0.09515851 -0.10208922 0.100864165 0.014746212 -0.0052057314 -0.059675507
-0.083913565 0.121116884 -0.09459277 0.07240033 -0.040480953 0.12112754 -0.06726351 0.1461506
0.010922353 -0.1265522 0.10773285 -0.02434853 0.24597521 -0.16052938 0.16075437 -0.009158817
-0.14962475 -0.045295022 0.081667215 0.06244997 -0.08207444 0.20006086 -0.01492429 0.19887479
-0.21117313 -0.12980409 -0.13350548 0.030058382 0.016312217 -0.091722585 0.009551876 0.07536838
-0.08134671 -0.09551981 0.081321344 -0.15317792 0.10559703 0.053185713 0.047337435 0.13313562
0.055442665 0.15715505 0.03956408 -0.11686424 -0.10870131 0.24052288 0.118826546 0.04079818
-0.07724557 0.15628432 0.06731717 0.10768418 0.06156252 -0.023885984 0.10995797 0.086932056
-0.1223672 0.10255224 -0.029781612 0.15714963 -0.08238988 0.04367783 -0.111930385 -0.09913531
0.094004676 0.029381076 -0.09840117 0.28687263 0.12106196 0.04782293 0.19470696 -0.10487656
-0.15373886 0.10464133 -0.07317219 0.25905523 -0.11378548 -0.31670487 0.117761455 -0.024142455
0.12094659 -0.14965266 0.052552845 0.15506451 0.07638185 -0.0816516 0.023812678 -0.19849353
-0.1284018 0.04152468 -0.08470527 0.05290172 0.12509368 0.048240606 -0.08913551 0.05073612
-0.21544042 0.053982794 -0.09418515 -0.07064209 -0.14905211 0.2013016 -0.25511843 -0.11370862
-0.019362554 0.08745278 0.11391501 -0.33583137 0.06991077 -0.061864167 -0.21423241 0.034255452
0.2307343 0.115252614 -0.07176177 -0.20123301 -0.21952234 0.05953572 0.2671887 0.22230151
-0.037059717 -0.18848391 -0.03655626 -0.08997273 -0.06608266 0.03045284 -0.045061905 -0.024553226
-0.18040448 0.08465034 0.05094899 -0.013608784 -0.13394687 0.45053783 -0.017091738 0.015189409
-0.09387651 0.22663711 0.090927266 0.3235651 -0.02346357 0.30385774 -0.13269801 -0.04052926
0.033897825 0.1324148 0.0039489428 -0.0030832011 0.34521925 -0.010489205 0.043269403 0.027566452
00000000: 3b8b 98bd af29 c23d 39d7 56bd f8fe 5a3e
00000010: 3905 0a3d 87f3 613e 26d4 b6be 931a 63bd
00000020: 463e e2bd ccca b6bd b8a7 d23d f99f 28be
00000030: 826e e03d ac37 e53d c865 dabc 91bd 0c3e
00000040: 44dc 92bd 768a c1bd befb ac3b dc68 793d
00000050: 0bd3 f7bc 7af9 293d 71b4 193e 6d9a 473e
00000060: 3cc1 0c3e dce9 193d 2ab9 b93d 0279 34be
00000070: b143 e7bd 3a0b 01bc a85b 173c 2e8e e9bd
00000080: 0e53 b1be d24b d33d 39ec 86bd e48b 743c
00000090: d9b8 07be c524 babc 0cea d03d 30db c73d
000000a0: 0659 9bbd b25d 18be d09f 4a3d abb4 0b3e
000000b0: f966 38bd 1def 2abe 9613 02be 4de6 e9bd
000000c0: 501d e63d c4c3 64bd ff1a 383e e1f7 67bd
000000d0: aea1 7c3e f43d ffbd 7f6e 033e c775 b73d
000000e0: 802d bfbd 2c36 ae3d 8682 ef3d 8c91 983e
000000f0: ff84 003e 6107 173d e05b f63d b3c4 c13d
00000100: 9d3e 25bd a41f dbbd 4632 5e3e 612f e23b
00000110: ac3f ca3d 61d9 b4b9 e92c 3abd 287f 823c
00000120: c2da 6cbe 79c0 383d 9ce7 4e3e a08f 343e
00000130: 4553 7fbd 8588 38bc a58f 06bd a8d7 b13d
00000140: a0ea 6d3d 016e 0d3e 3242 fbbd eccd 9f3c
00000150: 9e0f cdbd 3b0b 633e 90d8 df3c 4ba8 b9bd
00000160: df17 0a3e 8f45 e63c a270 9cbd 29f0 083e
00000170: fafe c1bd b3c9 f93d bd95 143e 0b3c d9bc
00000180: 14a5 88bd 62de efbc 77e2 c2bd 2714 d1bd
00000190: df91 ce3d 199a 713c d794 aabb 4e6e 74bd
000001a0: e0da abbd 210c f83d dbb9 c1bd a046 943d
000001b0: 5bcf 25bd b711 f83d 73c1 89bd 81a8 153e
000001c0: abf3 323c e696 01be 0aa3 dc3d 9276 c7bc
000001d0: ede0 7b3e d061 24be cb9c 243e dd0e 16bc
000001e0: 3b37 19be 4687 39bd 2441 a73d 8acb 7f3d
000001f0: a516 a8bd c1dc 4c3e 0285 74bc d5a5 4b3e
00000200: c53d 58be 5deb 04be a9b5 08be ff3c f63c
00000210: 33a1 853c 0dd9 bbbd 797f 1c3c bd5a 9a3d
00000220: 1b99 a6bd e49f c3bd ce8b a63d acda 1cbe
00000230: 4143 d83d 43d9 593d e6e4 413d b454 083e
00000240: d917 633d 41ed 203e f20d 223d 8556 efbd
00000250: cb9e debd a14b 763e 555b f33d fe1b 273d
00000260: ed32 9ebd ff08 203e 96dd 893d 8689 dc3d
00000270: fb28 7c3d 8aac c3bc a531 e13d 6f09 b23d
00000280: a89b fabd e906 d23d 91f8 f3bc d5eb 203e
00000290: 07bc a8bd 86e7 323d c23b e5bd 7407 cbbd
000002a0: 8685 c03d 95b0 f03c 8d86 c9bd f8e0 923e
000002b0: 55ef f73d fae1 433d 4361 473e 86c9 d6bd
000002c0: b86d 1dbe 324e d63d 4ddb 95bd e3a2 843e
000002d0: 5d08 e9bd 2427 a2be eb2c f13d 66c6 c5bc
000002e0: d9b2 f73d 8c3e 19be a741 573d 3bc9 1e3e
000002f0: 166e 9c3d f438 a7bd ce12 c33c e341 4bbe
00000300: c37b 03be c815 2a3d f579 adbd 79af 583d
00000310: 8f18 003e f197 453d ae8c b6bd aed0 4f3d
00000320: 6a9c 5cbe 101d 5d3d 25e4 c0bd cdac 90bd
00000330: 1ea1 18be 0222 4e3e e29e 82be 11e0 e8bd
00000340: 389e 9ebc 711a b33d 464c e93d 17f2 abbe
00000350: 612d 8f3d 4865 7dbd be5f 5bbe 724f 0c3d
00000360: 9d45 6c3e 9009 ec3d d6f7 92bd 0710 4ebe
00000370: 77ca 60be badb 733d f5cc 883e 02a3 633e
00000380: eecb 17bd ed01 41be 04bc 15bd 9f43 b8bd
00000390: 5856 87bd 3c78 f93c d592 38bd d923 c9bc
000003a0: f4bb 38be 285d ad3d e3af 503d 61f7 5ebc
000003b0: 5e29 09be e5ac e63e f903 8cbc 00dd 783c
000003c0: 5442 c0bd 8f13 683e 1338 ba3d 53aa a53e
000003d0: ac36 c0bc 3e93 9b3e fde1 07be 0202 26bd
000003e0: 72d8 0a3d bf97 073e 2266 813b 880f 4abb
000003f0: 94c0 b03e eada 2bbc 423b 313d 0ad3 e13c

encoder.2.bias f4 [100]
-0.056642696 0.096807 0.06803523 0.12913458 -1.0877886e-15 0.12532565 9.32641e-40 -3.3612728e-12
0.057829756 0.031964302 -0.034161035 0.10102108 -4.579432e-09 0.037129994 -0.038363356 0.05290872
0.018467411 -0.045730382 -0.122889645 0.025722208 0.011962446 0.052264504 0.039803036 -0.032496914
-5.0335602e-05 -1.431405e-39 -0.0011960494 0.22285695 0.037375223 0.11171115 -0.020757405 -0.04773501
0.021798873 -7.1245483e-07 0.0400253 0.08136004 0.01841657 -0.031026945 0.029554337 0.098954365
0.017454457 -0.0091787 -5.5456096e-26 -0.09654502 -2.4686653e-18 0.0034475762 -0.04984478 -0.06769565
-0.13217191 -0.01891958 0.02595049 -0.163045 -0.10737155 0.09089371 0.11802152 0.050147202
-0.03711939 0.037814397 -0.0066946936 -0.007479428 0.01897814 -0.061472494 0.06868887 0.06969135
0.09342327 0.010016478 -0.1366273 -0.08993107 0.08903754 0.1195117 -0.07319614 0.013826894
0.053308114 0.012837567 0.039635263 0.016748523 -0.2388636 -0.024934677 0.057650503 0.0327899
0.04286625 0.008269318 0.015040565 -0.061090212 0.0053700544 0.07922617 0.15023793 0.15141262
-0.03528537 0.10325958 -0.018858993 -0.023329185 -0.03531223 0.0979037 0.046666086 0.037684087
0.093097515 0.0827967 0.03220903 -0.31709182
00000000: 2c02 68bd c042 c63d 0e56 8b3d db3b 043e
00000010: 51c4 9ca6 5e55 003e d327 0a00 4f87 6cac
00000020: e5de 6c3d 00ed 023d 71ec 0bbd 24e4 ce3d
00000030: 1c59 9db1 9f15 183d e522 1dbd d0b6 583d
00000040: f848 973c c84f 3bbd 91ad fbbd 61b7 d23c
00000050: 23fe 433c 4e13 563d 8208 233d 7c1b 05bd
00000060: 711f 53b8 2d96 0f80 c2c4 9cba 9d34 643e
00000070: c316 193d d1c8 e43d 6f0b aabc c985 43bd
00000080: 8d93 b23c 863f 3fb5 92f1 233d 18a0 a63d
00000090: 59de 963c 382c febc f01b f23c 96a8 ca3d
000000a0: a6fc 8e3c 4262 16bc 7a4d 8995 65b9 c5bd
000000b0: c527 36a2 bbf0 613b 0a2a 4cbd 04a4 8abd
000000c0: 1358 07be 3cfd 9abc 1f96 d43c 45f5 26be
000000d0: 9de5 dbbd 7b26 ba3d 44b5 f13d 2767 4d3d
000000e0: 800a 18bd 45e3 1a3d 295f dbbb fd15 f5bb
000000f0: 0b78 9b3c 95ca 7bbd c0ac 8c3d 57ba 8e3d
00000100: b354 bf3d 271c 243c 07e8 0bbe c82d b8bd
00000110: 5059 b63d 8dc2 f43d dce7 95bd 328a 623c
00000120: 9c59 5a3d a954 523c 9658 223d 3334 893c
00000130: a998 74be cf43 ccbc ef22 6c3d b44e 063d
00000140: 8594 2f3d 097c 073c b46c 763c bb39 7abd
00000150: 48f7 af3b 5541 a23d f9d7 193e e90b 1b3e
00000160: 6487 10bd c279 d33d 2d7e 9abc d91c bfbc
00000170: 8fa3 10bd bc81 c83d f024 3f3d a15a 1a3d
00000180: e9a9 be3d 5191 a93d 9eed 033d dc59 a2be

encoder.4.weight f4 [50, 100]
-0.27076688 -0.017929656 0.11571042 1.0063847 -2.0415428e-20 0.0032049527 -4.718417e-39 -1.5888595e-13
0.00818975 -0.13165593 0.05861729 0.09649487 -0.0010139841 0.08842875 -0.06588017 -0.1110292
-0.12935407 -0.11798132 -0.06598521 -0.10095233 -0.16180328 0.2544647 0.10601714 0.07331176
-0.0023581567 5.354733e-39 0.0002029201 -0.0024175795 0.106631905 0.21121761 -0.08733606 -0.022598289
0.009756341 -5.454301e-14 -0.0837088 0.039826594 0.18490902 -0.0030380897 -0.1277636 0.105860375
0.13603464 -0.09340193 -1.815823e-25 0.00075017684 9.306688e-19 -0.1377513 -0.14659484 -0.15315215
0.29064992 -0.00075601734 0.012196416 0.08901326 -0.05021288 -0.023302196 0.15615149 -0.030038219
0.07799907 0.23959339 0.018481443 0.11010066 -0.033809893 -0.10442114 0.056076597 0.040452365
-0.096210346 0.18383875 -0.090576 0.15220729 -0.09046894 0.16454852 -0.055408537 -0.033800274
0.16901194 0.19409576 -0.012493735 -0.029300462 0.24390902 0.00924547 0.067059435 -0.046335526
-0.09171934 0.076318756 0.21901157 -0.12241534 -0.026740167 0.15771145 0.025405603 0.09938967
0.16580892 -0.08018585 0.15136747 -0.0057262075 -0.14314093 0.16163628 -0.2135895 0.05849711
0.2066469 0.20367217 0.052439716 -0.13649909 -0.00095908873 -0.060193483 0.12049435 0.48228905
-7.433787e-23 -0.07178444 4.057528e-39 1.25059805e-05 0.09926367 -0.036728185 -0.12056853 -0.39691478
-8.401524e-10 -0.0010052958 -0.061313614 -0.5179669 -0.30187932 -0.11229788 -0.00044087 -0.2974805
0.18238902 -0.23169957 0.21528472 0.06516923 -0.00012880968 -3.702e-40 -0.0020518485 -0.12423719
0.19007555 -0.35628414 -0.184584 -0.22545066 -0.34309223 -2.5228028e-08 -0.025775224 0.18702617
-0.216155 -0.29175898 -0.3165039 -0.09407879 0.001130708 -0.10373791 5.0177908e-26 0.17336623
-5.98747e-40 -0.39104417 0.20121887 -0.2972462 0.07961628 -0.3959737 -0.13742067 -0.029807989
-0.1368165 -0.04983636 -0.053782925 -0.4024901 -0.07059408 0.2610165 -0.16218004 -0.3455386
-0.17275931 -0.06579051 -0.21120006 0.17622752 -0.14321224 0.0461785 -0.44652316 -0.11007462
0.053930055 0.18234049 -0.34300116 -0.26917928 -0.20648836 0.026333686 0.08874501 0.3224075
0.16928385 0.31303874 -0.032868657 0.2073892 0.29226413 0.09769876 -0.20109047 0.19676772
-0.10299349 0.10582108 -0.38517645 0.44016373 -0.22300367 -0.087653846 0.20246527 1.0206836e-06
-0.17905615 -0.17583616 -0.13285294 0.5411103 0.025539195 0.46480978 -0.45573956 0.0137864305
-0.2338371 -0.24331485 0.23724961 0.56250906 4.1721665e-12 0.12897664 7.18744e-40 3.8298845e-13
0.19513461 -0.1636212 0.19813727 0.17799826 -3.908893e-06 0.02645499 -0.060025703 -0.17195621
0.114273585 -0.13567972 -0.11570298 -0.16340609 0.18203898 0.120973244 -0.024520284 0.09530351
-0.00066148624 2.6255162e-38 -0.0032063148 -0.29463077 -0.18019594 0.07837934 -0.36507136 -0.15490815
0.14945343 2.7183033e-08 0.3085903 -0.12552205 0.12570314 -0.16826625 -0.22801091 0.17471245
-0.090937026 0.056819353 -7.7588944e-26 0.31623536 2.554587e-39 -0.18606475 0.00942421 -0.15606831
-0.08673899 0.06824391 -0.069880396 -0.080460206 -0.013822518 0.14498192 -0.13933294 0.061456155
00000000: f5a1 8abe 37e1 92bc 96f9 ec3d 37d1 803f
00000010: 7ad1 c09e 2f0a 523b 0761 3380 c2e3 32aa
00000020: 4d2e 063c d0d0 06be af18 703d 1a9f c53d
00000030: a9e7 84ba 221a b53d 2fec 86bd 4763 e3bd
00000040: 6575 04be 31a0 f1bd 4123 87bd 18c0 cebd
00000050: c2af 25be 3249 823e 841f d93d 7a24 963d
00000060: 4e8b 1abb d14e 3a00 f3c6 5439 4170 1ebb
00000070: d461 da3d 6e49 583e 40dd b2bd 0c20 b9bc
00000080: 0fd9 1f3c cfa3 75a9 856f abbd 3621 233d
00000090: ca58 3d3e b01a 47bb 76d4 02be 53cd d83d
000000a0: aa4c 0b3e 8349 bfbd bac9 6096 84a7 443a
000000b0: ac57 8921 ad0e 0dbe f51c 16be ebd3 1cbe
000000c0: 11d0 943e 772f 46ba 7ad3 473c 964c b63d
000000d0: 05ac 4dbd 3fe4 bebc 2de6 1f3e b612 f6bc
000000e0: fabd 9f3d f857 753e 6566 973c 747c e13d
000000f0: 3e7c 0abd c0da d5bd 93b0 653d 61b1 253d
00000100: ee09 c5bd 3a40 3c3e e97f b9bd 3adc 1b3e
00000110: c847 b9bd 687f 283e 10f4 62bd 2872 0abd
00000120: 7711 2d3e 0ac1 463e 86b2 4cbc 8607 f0bc
00000130: 49c3 793e 507a 173c 7556 893d 52ca 3dbd
00000140: 59d7 bbbd 024d 9c3d 9244 603e e5b4 fabd
00000150: 320e dbbc 1c7f 213e 691f d03c d08c cb3d
00000160: d0c9 293e 7b38 a4bd 1300 1b3e e9a2 bbbb
00000170: 8993 12be fb83 253e 35b7 5abe aa9a 6f3d
00000180: 3f9b 533e 708f 503e 07cb 563d 6bc6 0bbe
00000190: 5b6b 7bba 718d 76bd bec5 f63d 97ee f63e
000001a0: eabc b39a b803 93bd bd2e 2c00 c7d0 5137
000001b0: c04a cb3d 4b70 16bd a2ec f6bd 6a38 cbbe
000001c0: 78f0 66b0 21c4 83ba fc23 7bbd 7b99 04bf
000001d0: ed8f 9abe 6efc e5bd 9224 e7b9 5d4f 98be
000001e0: 30c4 3a3e a742 6dbe 9973 5c3e 7277 853d
000001f0: 1611 07b9 f807 0480 4e78 06bb 1170 febd
00000200: 2aa3 423e e06a b6be 9703 3dbe 8adc 66be
00000210: c9a9 afbe 05b5 d8b2 9026 d3bc ca83 3f3e
00000220: bc57 5dbe 6f61 95be cd0c a2be 61ac c0bd
00000230: 4434 943a 8b74 d4bd 0e78 7815 eb86 313e
00000240: 1085 0680 f136 c8be 520c 4e3e a730 98be
00000250: dc0d a33d 11bd cabe 01b8 0cbe e22f f4bc
00000260: a019 0cbe 3621 4cbd 7c4b 5cbd 2f13 cebe
00000270: a193 90bd f4a3 853e 8612 26be 6fea b0be
00000280: d1e7 30be 2dbd 86bd d444 58be fd74 343e
00000290: 3ba6 12be ab25 3d3d af9e e4be cd6e e1bd
000002a0: c3e5 5c3d 77b7 3a3e d99d afbe ded1 89be
000002b0: af71 53be beb9 d73c f2bf b53d 9912 a53e
000002c0: bf58 2d3e 9d46 a03e 49a1 06bd d65d 543e
000002d0: a5a3 953e 4a16 c83d a9ea 4dbe 7a7d 493e
000002e0: 40ee d2bd b9b8 d83d d935 c5be 245d e13e
000002f0: 135b 64be dc83 b3bd 0e53 4f3e 6cfe 8835
00000300: 7f5a 37be 650e 34be 9a0a 08be 3486 0a3f
00000310: 9337 d13c 8cfb ed3e b256 e9be 7be0 613c
00000320: fe72 6fbe 8727 79be 90f1 723e 9800 103f
00000330: 89cb 922c 7412 043e 91d3 0700 749a d72a
00000340: 5ed1 473e 518c 27be 7fe4 4a3e 2d45 363e
00000350: 2329 83b6 23b8 d83c 83dd 75bd 4a15 30be
00000360: 4508 ea3d a0ef 0abe aff5 ecbd ed53 27be
00000370: 6d68 3a3e d2c0 f73d c3de c8bc 7d2e c33d
00000380: 9767 2dba 5bf2 0e01 0921 52bb d8d9 96be
00000390: 4985 38be 5985 a03d a2ea babe 3ea0 1ebe
000003a0: 520a 193e 1f80 e932 8cff 9d3e da88 00be
000003b0: 53b8 003e fd4d 2cbe b17b 69be d2e7 323e
000003c0: 313d babd 69bb 683d d619 c095 9ae9 a13e
000003d0: 26d1 1b00 c287 3ebe 0068 1a3c 5fd0 1fbe
000003e0: 36a4 b1bd 77c3 8b3d 741d 8fbd 52c8 a4bd
000003f0: d877 62bc 2476 143e 4bad 0ebe 73b9 7b3d

encoder.4.bias f4 [50]
0.10468503 0.34370086 -8.796774e-05 -0.13388428 0.0585629 0.2622434 -0.092061654 -0.107092775
-0.28586692 -0.021814564 -0.06687187 0.063860044 0.09199614 0.036335584 0.23969103 0.29414603
0.07079939 0.035619725 0.18330072 0.010048219 -0.00016642467 0.117879234 0.01940541 -0.041233733
-0.069054246 0.13972795 0.032114435 0.24005027 -0.11247621 0.08167459 -0.19614065 -0.017504768
0.059386533 -0.07237692 0.13454841 -0.13657197 -0.13986205 0.025409382 0.048381075 -0.029740069
0.07104459 -0.065110624 -0.107622996 0.07042893 -0.13729602 0.05228394 0.066982396 -0.08842352
-0.12710416 -0.028529791
00000000: 1b65 d63d 8ff9 af3e 527b b8b8 f618 09be
00000010: a7df 6f3d c444 863e d28a bcbd 7553 dbbd
00000020: 265d 92be 75b4 b2bc 1ef4 88bd 0ec9 823d
00000030: 7968 bc3d 9fd4 143d 9171 753e 4f9a 963e
00000040: 45ff 903d fde5 113d 2fb3 3b3e 49a1 243c
00000050: 4882 2eb9 ab6a f13d 18f8 9e3c b4e4 28bd
00000060: 506c 8dbd d814 0f3e 6d8a 033d bdcf 753e
00000070: ed59 e6bd 0245 a73d 18d9 48be 2966 8fbc
00000080: 4b3f 733d 5a3a 94bd 0fc7 093e 86d9 0bbe
00000090: ff37 0fbe 5627 d03c 3c2b 463d 72a1 f3bc
000000a0: d37f 913d b858 85bd 7269 dcbd 0b3d 903d
000000b0: 5497 0cbe af27 563d 112e 893d 6417 b5bd
000000c0: 9827 02be 4fb7 e9bc

decoder.0.weight f4 [100, 50]
0.25038913 0.06396337 0.09052375 0.502943 -0.27918512 -0.41492084 0.44086954 -0.18057588
-0.038906198 -0.04600547 0.066017136 0.04225144 -0.34757927 -0.12576084 -0.00013108656 0.053747848
-0.3642364 -0.10823794 0.3452263 -0.3057805 -0.09881571 0.0926873 0.5976251 -0.054059923
0.26327407 -0.032464504 -0.14425306 -0.23713888 -0.13926701 -0.01665862 -0.14408362 0.21236655
-0.02098171 -0.074947424 0.21572135 0.24602553 0.8026777 0.12816645 -0.38857225 -0.26923925
0.037799023 -0.17104842 0.20626087 -0.513524 -0.23392466 -0.64824986 0.031460702 0.16946033
-0.08098287 0.046101492 0.11393031 -0.019306565 -0.077835724 -0.38723582 0.18998288 0.26579857
-0.2296116 0.28137612 0.09050222 0.23294245 0.19338793 0.003150339 -0.3380014 0.12993978
-0.13497862 0.1697705 -0.31144542 0.19611864 0.44078714 -0.022471497 0.32765448 -0.17786764
-0.41256902 -0.19346048 0.20452857 -0.06398393 -0.0038155261 -0.067292534 -0.3318647 0.11096814
0.10298067 -0.1310016 0.21241985 0.24580362 0.12860315 -0.28191102 0.29931188 0.026654959
0.20126958 0.35735467 0.25603643 0.09959166 0.05665316 -0.3149922 0.12509781 -0.64493924
0.1627108 0.016308203 -0.015720818 0.09219842 -0.2283273 -0.066490956 -0.21227583 -0.30039194
0.39830914 -0.17290235 -0.16403046 -0.34082723 -0.2762961 0.087832555 0.331108 -0.30404714
0.034226418 0.6639597 -0.11528028 -0.1043643 -0.04047786 0.055289 0.0063435594 0.4123136
-0.37074906 0.0039812657 0.29743993 0.033593073 0.13177042 -0.12127237 -0.06415575 0.118161134
0.04762713 0.1426541 -0.18270157 0.26061496 -0.4504181 0.20518257 -0.09813368 -0.878684
0.47143275 -0.38418335 0.19183078 0.8152157 -0.66629577 -0.44857055 0.36818594 0.2704124
-0.754024 0.4529682 -0.15323433 -0.15077849 -0.032875948 0.1257043 0.14082873 -0.11095708
0.15971449 -0.6464391 -0.3783316 -0.4196455 -0.047092047 -0.38133514 -0.18692784 -0.25931796
-0.167913 -0.33782896 -0.3428658 0.055467106 -0.019935085 0.22959836 -0.15731716 0.14532976
0.4120224 0.7286556 -0.059570402 -0.22954725 0.12041019 -0.10029056 0.25758243 0.13819878
-0.28903148 -0.10154651 0.28254858 0.3391843 0.4048502 -0.41669443 -0.49183297 0.43903124
-0.13343549 -0.07413111 -0.011777966 0.15918155 -0.09955251 -0.05169879 0.28292784 -0.3329266
0.43723637 0.66409737 0.3432412 -0.5879648 -0.14571986 -0.054001413 -0.052884713 0.040318124
0.09738076 -0.24398486 0.03350628 0.13027108 -0.36877102 0.059373844 0.26685435 -0.18253745
0.20515579 -0.10324984 -0.138365 -0.039035827 -0.44633695 0.04478197 -0.03178099 -0.45688447
-0.08348562 -0.024052218 -0.3611106 -0.82776994 -0.12319249 -0.13491887 -0.49372324 0.20044477
0.031282905 -0.17507416 -0.18944581 -0.17618993 -0.23980552 0.25908017 -0.0846778 0.01065406
-0.25367314 0.28016397 0.2316893 0.19180799 0.79789144 0.0366142 0.097005986 -0.13725235
0.57446724 -0.29294488 0.13800465 -0.20661283 -0.27462146 0.22285232 0.4326445 0.078866646
0.033264562 0.05660993 -8.2305843e-07 0.00035868242 0.00043780205 -1.5708146e-14 1.3376826e-12 2.3118775e-05
00000000: 0133 803e 3aff 823d 8464 b93d dfc0 003f
00000010: 5af1 8ebe 8170 d4be a7b9 e13e e2e8 38be
00000020: 1b5c 1fbd 3b70 3cbd fe33 873d d90f 2d3d
00000030: e9f5 b1be 73c7 00be 4874 09b9 b426 5c3d
00000040: 327d babe daab ddbd 80c1 b03e 438f 9cbe
00000050: e45f cabd d7d2 bd3d f5fd 183f f06d 5dbd
00000060: dccb 863e 80f9 04bd 13b7 13be 89d4 72be
00000070: 039c 0ebe a977 88bc a88a 13be 9e76 593e
00000080: d6e1 abbc 097e 99bd 0fe6 5c3e 1eee 7b3e
00000090: 497c 4d3f 113e 033e f1f2 c6be bad9 89be
000000a0: 26d3 1a3d 5127 2fbe 0d36 533e 4f76 03bf
000000b0: f289 6fbe b4f3 25bf f0dc 003d 0287 2d3e
000000c0: 59da a5bd ebd4 3c3d 4b54 e93d cd28 9ebc
000000d0: 5668 9fbd c643 c6be df8a 423e c016 883e
000000e0: 4e1f 6bbe 8810 903e 3a59 b93d 7788 6e3e
000000f0: 7c07 463e eb75 4e3b 850e adbe ef0e 053e
00000100: d637 0abe 51d8 2d3e c675 9fbe 53d3 483e
00000110: daae e13e 2516 b8bc 54c2 a73e ef22 36be
00000120: 3f3c d3be 811a 46be f06f 513e 020a 83bd
00000130: e80d 7abb abd0 89bd 2cea a9be 4443 e33d
00000140: 88e7 d23d 4925 06be 9784 593e f2b3 7b3e
00000150: 8bb0 033e a456 90be 683f 993e 805b da3c
00000160: 9d19 4e3e 31f7 b63e 3517 833e b6f6 cb3d
00000170: 250d 683d a846 a1be a419 003e bd1a 25bf
00000180: a99d 263e c898 853c f2c8 80bc 86d2 bc3d
00000190: a2ce 69be 692c 88bd d65e 59be f9cc 99be
000001a0: 2def cb3e 500d 31be 9af7 27be e880 aebe
000001b0: af76 8dbe 8ee1 b33d fd86 a93e 11ac 9bbe
000001c0: 0031 0c3d 43f9 293f 1118 ecbd f3bc d5bd
000001d0: 1dcc 25bd b876 623d a2dd cf3b c51a d33e
000001e0: d2d2 bdbe 4775 823b 0c4a 983e e498 093d
000001f0: d3ee 063e a65d f8bd 1764 83bd 77fe f13d
00000200: aa14 433d eb13 123e 1f16 3bbe 536f 853e
00000210: 349d e6be 611b 523e 50fa c8bd 6ff1 60bf
00000220: a25f f13e aeb3 c4be 4a6f 443e fab1 503f
00000230: 5c92 2abf 0aab e5be de82 bc3e 7e73 8a3e
00000240: b807 41bf 73eb e73e 76e9 1cbe ad65 1abe
00000250: eea8 06bd a1b8 003e 6835 103e 773d e3bd
00000260: 328c 233e 087d 25bf aeb4 c1be c6db d6be
00000270: 97e3 40bd 5c3e c3be 036a 3fbe 53c5 84be
00000280: 63f1 2bbe ebf7 acbe 1b8c afbe 7a31 633d
00000290: e74e a3bc d51b 6b3e c017 21be 53d1 143e
000002a0: 9af4 d23e 2c89 3a3f 1800 74bd 6f0e 6bbe
000002b0: 9e99 f63d 2365 cdbd d8e1 833e fb83 0d3e
000002c0: effb 93be 9ef7 cfbd 35aa 903e 91a9 ad3e
000002d0: 8748 cf3e f958 d5be 88d1 fbbe b4c8 e03e
000002e0: 50a3 08be 0dd2 97bd 5ff8 40bc 7d00 233e
000002f0: 30e2 cbbd 1cc2 53bd ebdb 903e 5b75 aabe
00000300: 72dd df3e 4902 2a3f 50bd af3e dc84 16bf
00000310: 9637 15be 9630 5dbd a49d 58bd 9e24 253d
00000320: 906f c73d 2bd7 79be e23d 093d c865 053e
00000330: 8ecf bcbe fd31 733d 22a1 883e 19eb 3abe
00000340: 5c14 523e a774 d3bd 8eaf 0dbe 08e4 1fbd
00000350: 4786 e4be 4d6d 373d c92c 02bd c3ec e9be
00000360: 82fa aabd 2809 c5bc 7de3 b8be bbe8 53bf
00000370: 584c fcbd 2c28 0abe 4bc9 fcbe 6541 4d3e
00000380: 8122 003d a446 33be 15fe 41be 226b 34be
00000390: 948f 75be 28a6 843e 8e6b adbd 5e8e 2e3c
000003a0: 72e1 81be a771 8f3e f63f 6d3e 5069 443e
000003b0: 9d42 4c3f c5f8 153d 13ab c63d e18b 0cbe
000003c0: 4910 133f dffc 95be 1751 0d3e 5092 53be
000003d0: 2f9b 8cbe 6633 643e 9483 dd3e d684 a13d
000003e0: 6c40 083d d0df 673d 25f0 5cb5 8a0d bc39
000003f0: cc88 e539 857c 8da8 1843 bc2b 31ef c137

decoder.0.bias f4 [100]
0.08868607 0.13829735 -0.17894797 -0.6046365 -0.64893854 -1.8210747e-10 0.48025623 0.0010639415
7.69492e-40 0.2073873 0.18141246 -0.2429319 0.289458 0.07596323 0.16717245 0.2767291
-0.42227972 7.15919e-40 0.48611206 0.2430926 0.065747224 -0.016911337 0.25997266 -0.15838987
-0.04799385 0.12526 -0.086123385 6.53846e-40 3.52704e-40 -0.33143312 -0.012333394 -0.107479155
0.18165052 0.111134835 0.52358586 -0.21378517 4.7498e-40 -0.02441854 0.0736527 -0.8720204
-0.2435911 3.2111e-40 -0.018482298 -0.7876212 0.60706276 -0.57445186 0.1763623 0.4163961
0.62676865 -0.0019270703 0.15640135 0.066107705 3.91472e-40 -0.8858994 -0.03259098 -0.8208039
0.47365418 -0.15119836 2.35572e-40 0.27083904 0.024864653 -0.06726347 0.4740581 -0.46005943
0.57504654 -0.3138078 0.035616428 0.50478286 0.5441709 0.23398699 -0.07652824 0.16416956
0.15821981 -0.17462379 -0.6177932 -0.86611235 -6.42867e-40 0.3472136 0.03536691 0.22096711
0.66979396 6.388e-40 -0.50536096 0.12608255 0.044385932 0.17320213 0.13597845 0.20936097
-0.00020794701 -0.2263323 -0.14840865 1.4339072e-07 0.34626788 0.31914115 0.23983216 -0.20681676
0.048306152 0.39411712 0.34512064 9.12971e-40
00000000: 0ba1 b53d d29d 0d3e 233e 37be 75c9 1abf
00000010: d620 26bf b23a 48af 25e4 f53e f473 8b3a
00000020: 0861 0800 565d 543e 30c4 393e 24c3 78be
00000030: d733 943e 9c92 9b3d 412f 2b3e 70af 8d3e
00000040: 0c35 d8be b1cb 0700 aee3 f83e 44ed 783e
00000050: 7ba6 863d a589 8abc 231b 853e f430 22be
00000060: 3395 44bd 2844 003e 7561 b0bd a81e 0700
00000070: 32d7 0300 9ab1 a9be 0112 4abc 081e dcbd
00000080: 9802 3a3e a99a e33d b909 063f 80ea 5abe
00000090: 0d2c 0500 6409 c8bc 3ad7 963d bb3c 5fbf
000000a0: f26f 79be 207f 0300 3068 97bc 8ba1 49bf
000000b0: 7768 1b3f 470f 13bf 5298 343e df31 d53e
000000c0: e973 203f c095 fcba ad27 203e 7a63 873d
000000d0: 4443 0400 4eca 62bf 1f7e 05bd 3420 52bf
000000e0: cd82 f23e bed3 1abe ae90 0200 6aab 8a3e
000000f0: f5b0 cb3c 6ec1 89bd beb7 f23e e98c ebbe
00000100: 4036 133f 6aab a0be 88e2 113d 7339 013f
00000110: c94e 0b3f 499a 6f3e d7ba 9cbd 111c 283e
00000120: 6004 223e 94d0 32be b227 1ebf 8ab9 5dbf
00000130: 0d00 0780 fbc5 b13e e5dc 103d 3445 623e
00000140: 9e77 2b3f b7f4 0600 565f 01bf c91b 013e
00000150: 06ce 353d e65b 313e ef3d 0b3e b962 563e
00000160: 5a0c 5ab9 a8c3 67be 70f8 17be f1f6 1934
00000170: 064a b13e 7866 a33e 9096 753e c6c7 53be
00000180: acdc 453d b8c9 c93e a7b3 b03e fef0 0900

decoder.2.weight f4 [200, 100]
0.048032742 0.13004352 -0.1567123 -0.09141003 -0.012160527 1.0816102e-11 0.0981886 0.078938626
4.10341e-40 -0.019463448 0.1928008 -0.07451375 -0.09717971 0.07807374 -0.019760353 0.015305158
-0.23545463 9.8986e-41 -0.05553157 0.16452038 -0.006637852 0.029194348 0.14152478 -0.17217821
-0.009516746 0.014203087 0.05630198 -1.14835e-40 5.89878e-40 0.30522707 0.07725133 -0.08830094
0.08847531 -0.029408466 -0.1795893 0.15706353 -7.04305e-40 -0.027450386 0.11338726 0.0032653653
0.04551067 -5.86116e-40 0.11302486 -0.09131317 0.15979853 0.0009995564 0.01238801 -0.06846827
0.031203544 0.07257843 -0.021204015 -0.07759201 1.57387e-40 -0.008551604 0.055553127 -0.110131726
-0.03136803 0.04264306 4.55488e-40 -0.10829023 0.004805076 0.043446284 0.15613027 0.021569744
-0.0925519 0.0918378 0.15653175 -0.17492598 0.010863388 -0.07128504 -0.017675765 0.03794534
0.15196235 -0.024578145 0.03585458 -0.0063771177 5.93018e-40 -0.10105415 -0.111880824 0.03013211
-0.085899696 -6.99224e-40 0.20258883 0.07461639 0.047761716 0.08843366 -0.20745909 -0.04547687
-1.5526452e-05 0.048570212 -0.037342235 -1.9731783e-07 0.16253659 -0.27923504 0.046830554 0.07729916
0.20511077 -0.07995213 0.019357594 -4.48067e-40 0.06615381 -0.04056962 0.2667389 0.0969174
0.126157 3.0489432e-13 -0.11632474 0.14538719 2.56858e-40 -0.19062646 0.10645677 0.13939992
-0.27448717 -0.079825364 0.06617278 -0.02628423 0.05913216 -8.00398e-40 0.17135744 0.07137476
-0.11656491 0.13048632 -0.052879423 -0.20068356 0.09688277 -0.017706506 -0.023231937 -3.0929e-40
-7.97643e-40 -0.31371176 0.038737524 -0.028100513 0.15255548 0.03924961 0.011761763 0.04409926
7.49689e-40 0.02042054 -0.020606626 -0.1660607 -0.09108102 3.40954e-40 -0.006818519 0.034854226
0.065898985 -0.054513473 0.048376523 -0.07186188 0.027552715 -0.04638789 0.05078068 0.18433239
-1.482669e-39 0.0039544925 0.061792925 -0.09998932 0.1693784 0.05744047 6.7065e-41 0.13531297
-0.078642964 -0.1366359 -0.01602953 -0.06193727 -0.052613553 0.044468265 0.10305091 0.10876178
0.073785484 -0.032353304 -0.02924948 -0.020140925 0.022522345 0.08805351 -0.015306656 -0.007531391
-5.78466e-40 0.11685048 -0.087098055 -0.13913454 0.14350669 7.91229e-40 0.07905077 -0.096281365
-0.029445618 0.010214915 0.0051220204 -0.04585122 1.5380787e-05 0.16759437 -0.0987072 2.903068e-07
0.1391612 0.18959093 0.016143039 0.08886705 0.043630246 0.046710726 0.03589637 7.32812e-40
-0.038146414 0.13383484 -0.039130867 0.06531464 -0.040216025 -1.12956556e-07 0.042440593 -0.023907978
-1.39429e-40 -0.0638902 0.17716454 0.021703377 -0.039422274 -0.03831965 -0.023228822 0.012129484
-0.025180763 -2.4734e-41 -0.064096 -0.08284131 -0.09277141 0.011037102 -0.08032777 0.039066773
0.017244311 0.11151944 0.1140986 3.4299435e-11 -4.02576e-40 0.26548925 0.1442425 -0.13667867
0.11254781 0.06676801 -0.017339505 0.032340225 9.074e-41 0.02873341 -0.054962326 -0.11761417
-0.027385585 -1.19591e-40 -0.037084676 -0.0711639 -0.008853072 0.18483947 0.10602656 -0.12857172
-0.018909218 0.08866139 0.02643678 0.09044045 -6.92014e-40 -0.06980372 0.047397304 0.03262
00000000: fbbd 443d 212a 053e 3079 20be 2f35 bbbd
00000010: f23c 47bc 6547 3e2d 1b17 c93d 93aa a13d
00000020: dd77 0400 cf71 9fbc 936d 453e aa9a 98bd
00000030: 2806 c7bd 20e5 9f3d 77e0 a1bc 7cc2 7a3c
00000040: 051b 71be ef13 0100 1275 63bd 0878 283e
00000050: 5782 d9bb fc28 ef3c dfeb 103e 7c4f 30be
00000060: 20ec 1bbc 11b4 683c e89c 663d 1d40 0180
00000070: 576c 0600 b946 9c3e f235 9e3d 20d7 b4bd
00000080: 8b32 b53d 06ea f0bc 42e6 37be 43d5 203e
00000090: 51ab 0780 a2df e0bc 9437 e83d bdff 553b
000000a0: 6569 3a3d da61 0680 9479 e73d 6602 bbbd
000000b0: 3aa2 233e 8c03 833a 14f7 4a3c 1839 8cbd
000000c0: 939e ff3c 00a4 943d 0bb4 adbc 8fe8 9ebd
000000d0: bbb6 0100 071c 0cbc ad8b 633d be8c e1bd
000000e0: c37b 00bd 7daa 2e3d b7f5 0400 45c7 ddbd
000000f0: e673 9d3b bbf4 313d 9de0 1f3e 08b3 b03c
00000100: da8b bdbd 7515 bc3d dc49 203e cc1f 33be
00000110: 5afc 313c e4fd 91bd c4cc 90bc 936c 1b3d
00000120: 059c 1b3e 1b58 c9bc 41dc 123d 24f7 d0bb
00000130: 1875 0600 7af5 cebd c621 e5bd 9dd7 f63c
00000140: 2eec afbd 279d 0780 7273 4f3e 7ad0 983d
00000150: caa1 433d b51c b53d 2870 54be f445 3abd
00000160: cd3e 82b7 8ff1 463d 2cf4 18bd 50de 53b4
00000170: fe6f 263e e5f7 8ebe 65d1 3f3d 064f 9e3d
00000180: 8f08 523e f1bd a3bd d193 9e3c 07e1 0480
00000190: a67b 873d 542c 26bd 0092 883e a17c c63d
000001a0: 4d2f 013e e7a3 ab2a aa3b eebd 61e0 143e
000001b0: 04cc 0200 9533 43be 0206 da3d dabe 0e3e
000001c0: 9589 8cbe 7b7b a3bd 9885 873d 0752 d7bc
000001d0: 9034 723d 2fb7 0880 5378 2f3e ee2c 923d
000001e0: 95b9 eebd 359e 053e 1898 58bd fe7f 4dbe
000001f0: 796a c63d 3c0d 91bc e750 bebc 2d5e 0380
00000200: 81af 0880 d49e a0be 3dab 1e3d 0c33 e6bc
00000210: 8137 1c3e 33c4 203d 69b4 403c 6da1 343d
00000220: d429 0800 fa48 a73c 3acf a8bc d10b 2abe
00000230: b088 babd 71b6 0300 e26d dfbb 4ec3 0e3d
00000240: 0cf6 863d 8549 5fbd 7626 463d 522c 93bd
00000250: 3bb6 e13c 3a01 3ebd 67ff 4f3d a1c1 3c3e
00000260: 1425 1080 b094 813b 941a 7d3d 33c7 ccbd
00000270: 8871 2d3e b346 6b3d f3ba 0000 7c8f 0a3e
00000280: 900f a1bd 48ea 0bbe 5c50 83bc efb1 7dbd
00000290: 4f81 57bd 5b24 363d 5b0c d33d 7fbe de3d
000002a0: d81c 973d e684 04bd 9b9c efbc 95fe a4bc
000002b0: c880 b83c 6655 b43d c5c8 7abc e3c9 f6bb
000002c0: 874c 0680 4e4f ef3d 7760 b2bd 4979 0ebe
000002d0: 6bf3 123e a09d 0800 5fe5 a13d 2a2f c5bd
000002e0: f037 f1bc 755c 273c 9fd6 a73b 7dce 3bbd
000002f0: fd05 8137 dc9d 2b3e 0027 cabd 76db 9b34
00000300: 4680 0e3e 2024 423e 683e 843c eeff b53d
00000310: a1b5 323d bf53 3f3d 1208 133d c8fa 0700
00000320: 6a3f 1cbd 000c 093e b047 20bd afc3 853d
00000330: 8fb9 24bd 8692 f2b3 30d6 2d3d aada c3bc
00000340: ac84 0180 ddd8 82bd 9f6a 353e 48cb b13c
00000350: 4079 21bd 11f5 1cbd 5f4a bebc beba 463c
00000360: e347 cebc f344 0080 c344 83bd b4a8 a9bd
00000370: f0fe bdbd f6d4 343c e382 a4bd 7b04 203d
00000380: f143 8d3c 4e64 e43d 87ac e93d bbd9 162e
00000390: 3862 0480 35ee 873e 4eb4 133e 7ef5 0bbe
000003a0: 777f e63d abbd 883d 940b 8ebc 2f77 043d
000003b0: f2fc 0000 5462 eb3c 2d20 61bd b3df f0bd
000003c0: bc57 e0bc 5f4d 0180 1ae6 17bd 61be 91bd
000003d0: 7a0c 11bc 8f46 3d3e 7424 d93d 4ea8 03be
000003e0: 81e7 9abc 1a94 b53d f291 d83c d838 b93d
000003f0: 0e89 0780 41f5 8ebd ad23 423d 8d9c 053d

decoder.2.bias f4 [200]
-0.058229174 -0.23513448 -0.80571634 -0.4111728 0.40636852 0.5834498 0.247836 1.21598e-40
5.86753e-40 0.2899709 -4.31572e-40 -0.17824319 -0.44030413 -0.09942608 -3.9507023e-18 0.123374775
-0.000342896 -3.54551e-40 -1.8496431 -0.14961278 -0.42524585 1.088248e-39 0.83064926 0.77375096
-0.5100805 -0.19352905 0.048919603 1.7628e-40 -2.0587058e-07 0.67335385 -0.25449878 -1.26893e-40
-1.1529024 -0.09168527 4.43057e-40 0.27811328 0.18944256 0.15037018 0.49452868 -0.63534766
4.05362e-40 0.18268783 -8.7983025e-30 -2.3420505e-05 0.27915338 -1.0961 -0.8001869 -0.24415028
0.9317067 -0.0019871285 -2.48192e-40 -0.7054029 -0.68763226 0.2513392 -0.26273203 -9.5871466e-05
0.7248971 -0.61817914 -6.51465e-40 -0.28617653 -0.40550733 0.055467013 0.93888336 0.15058425
2.5952e-41 0.61560506 -2.9024843e-22 -0.53320616 0.10769416 2.4731615e-35 -0.56739515 0.66798943
0.33603394 -1.6743418 -0.31774005 -0.0012608104 -7.64623e-40 -0.07912581 6.47261e-40 -0.2557147
0.3235017 0.24431813 7.86966e-40 -1.466898e-34 0.5288196 0.21446365 -2.3424e-40 -2.7836683e-15
9.15671e-40 -0.5399603 -1.43883655e-11 0.00013509736 -0.7933974 -4.18732e-40 0.05332253 -6.26413e-40
-1.8166707e-12 0.14323467 0.20535842 -0.012753209 0.15727793 0.5399219 -1.7687e-40 0.1963903
-5.5228876e-34 0.7064446 4.36116e-40 -4.14637e-40 0.17455626 0.14215334 -5.892047e-13 1.6369798
0.680699 1.1697317 -0.53887475 1.1491088 -1.15785e-40 6.97608e-40 -4.78308e-40 -6.44767e-40
-0.643609 0.46644124 -0.19648446 -0.93925726 -1.1546265 -4.67147e-40 -0.015357017 0.48475564
0.59061533 0.5408767 7.01787e-40 -0.0060512666 -0.00056500523 -0.3916578 -0.6440846 0.16263407
-5.746964e-10 0.4866935 -0.15443498 0.3051557 -0.10744586 -0.3411463 -0.7892268 -0.36378077
-0.31247613 6.0858e-41 -0.7116065 0.269671 0.5370586 -0.22022705 0.044174258 -0.22753957
-4.9955174e-25 0.015003539 -0.20366754 -0.24739844 0.5163602 -0.24454415 0.5338353 0.12044682
0.14379954 -0.6600912 -0.30315015 -0.3554001 0.24231888 -4.4994572e-23 0.7671058 -0.31250328
0.11989505 1.38643e-40 -0.011418158 0.02303302 -0.6405829 -1.6982243 -0.38597634 0.16229342
0.1089575 0.36175877 -0.0055310093 -0.93955576 0.031511877 -0.07743157 0.13141365 0.10921151
-3.724084e-08 0.36378437 -0.0006739587 0.14075832 -3.3746595e-27 -7.9359536e-17 -2.8396013e-31 -5.7109e-41
-0.43311492 -2.901051e-06 0.2431954 0.34141007 3.30237e-40 0.00010937103 7.58252e-40 -0.3100629
00000000: b781 6ebd 18c7 70be 6d43 4ebf 3e85 d2be
00000010: 890f d03e f75c 153f b8c8 7d3e f752 0100
00000020: a163 0600 1177 943e 0cb3 0480 6285 36be
00000030: 8b6f e1be e79f cbbd 54c1 91a2 eaab fc3d
00000040: b9c6 b3b9 58dc 0380 1bc1 ecbf 1834 19be
00000050: d3b9 d9be 98d9 0b00 6ea5 543f 8b14 463f
00000060: a394 02bf 7b2c 46be ec5f 483d 66eb 0100
00000070: 460d 5db4 eb60 2c3f aa4d 82be ba61 0180
00000080: 4e92 93bf 7dc5 bbbd 10d3 0400 dd64 8e3e
00000090: 3bfd 413e a4fa 193e dd32 fd3e 25a6 22bf
000000a0: fc69 0400 8512 3b3e 6673 328f 2777 c4b7
000000b0: 31ed 8e3e 014d 8cbf 0cd9 4cbf 8802 7abe
000000c0: 5584 6e3f 7c3a 02bb dcb3 0280 4995 34bf
000000d0: ab08 30bf 88af 803e d084 86be 9a0e c9b8
000000e0: db92 393f fd40 1ebf 0518 0780 bb85 92be
000000f0: a89e cfbe 6131 633d a95a 703f c232 1a3e
00000100: 5848 0000 4b98 1d3f c571 af9b 3380 08bf
00000110: c18e dc3d ee7e 0306 cf40 11bf 5b01 2b3f
00000120: a40c ac3e d550 d6bf d3ae a2be c741 a5ba
00000130: 7553 0880 b60c a2bd 4d0c 0700 0aed 82be
00000140: 04a2 a53e 882e 7a3e be91 0800 f4fb 4287
00000150: b960 073f 5c9c 5b3e f78c 0280 9e95 48a7
00000160: 85f8 0900 d73a 0abf 701f 7dad eca8 0d39
00000170: 181c 4bbf 418f 0480 ba68 5a3d 2fd2 0680
00000180: 76ac ffab 1cac 123e 7a49 523e d6f2 50bc
00000190: 770d 213e 5238 0a3f 0bed 0180 8a1a 493e
000001a0: 8887 3788 8ed9 343f b7bf 0400 d783 0480
000001b0: e0be 323e a590 113e acd8 25ab 8e88 d13f
000001c0: 4a42 2e3f c5b9 953f b2f3 09bf ff15 933f
000001d0: c342 0180 a698 0700 5435 0580 5905 0780
000001e0: 8fc3 24bf 63d1 ee3e 3933 49be 2a73 70bf
000001f0: cdca 93bf 3716 0580 ff9b 7bbc e431 f83e
00000200: 9132 173f e576 0a3f 4ca4 0700 b449 c6bb
00000210: dc1c 14ba 5f87 c8be bae2 24bf 8c89 263e
00000220: aaf8 1db0 e42f f93e 3424 1ebe 5e3d 9c3e
00000230: 930c dcbd baaa aebe c40a 4abf 7941 babe
00000240: dffc 9fbe a6a9 0000 d82b 36bf 5112 8a3e
00000250: ac7c 093f 3383 61be 11f0 343d 2200 69be
00000260: 919a 1a97 67d1 753c 398e 50be 0456 7dbe
00000270: 2f30 043f c869 7abe 6ea9 083f d3ac f63d
00000280: 3040 133e bdfb 28bf 7f36 9bbe 00f7 b5be
00000290: 7122 783e 9594 599a 0c61 443f 6e00 a0be
000002a0: 898b f53d 7b82 0100 3a13 3bbc beaf bc3c
000002b0: 3efd 23bf 6a5f d9bf b19e c5be 3f30 263e
000002c0: 1c25 df3d 7238 b93e 783d b5bb ba86 70bf
000002d0: 9912 013d 7194 9ebd 4d91 063e 49aa df3d
000002e0: bdf2 1fb3 f241 ba3e 9aac 30ba f322 103e
000002f0: 1daf 8593 9afd b6a4 f84c b88c 329f 0080
00000300: 3dc1 ddbe adaf 42b6 3708 793e 4dcd ae3e
00000310: 9198 0300 205e e538 b341 0800 90c0 9ebe
