algorithms/SemiAutoEncoder/Semi_AutoEncoder_300-100_all_IO_noleave_N_ratio_2.pt (torch_old, 789425 bytes, 8 tensors)

encoder.0.weight f4 [300, 226]
0	0x3e062684	0.1310063
1	0xbce611e0	-0.028084695
2	0x3c8ce529	0.017199116
3	0x3e146a4f	0.14493679
4	0xbdb25c52	-0.08709015
5	0x3d80d8f8	0.062913835
6	0x3ddf5aee	0.10906015
7	0x3c04f38a	0.008114705
8	0x3cb85e5c	0.022505932
9	0xbdbd4b5d	-0.0924289
10	0xbd9e7e06	-0.07738881
11	0x3e1b34e9	0.15156902
12	0x3dbd8456	0.09253757
13	0x3e367e90	0.17821717
14	0x3e6f9755	0.23397572
15	0xbe0365d6	-0.12831816
16	0x3d725ef6	0.059172593
17	0x3cb32a7e	0.021870848
18	0x3c6c7992	0.0144332815
19	0xbd388dfc	-0.04505728
20	0x3d6930cc	0.056931302
21	0xbce861fe	-0.028367039
22	0xbdba6789	-0.09101779
23	0x0004ee37	4.52797e-40
24	0xbd47c500	-0.04877186
25	0x3d965e14	0.07342163
26	0x3e271121	0.16315128
27	0xbd9899d3	-0.07451215
28	0xbd39e33c	-0.045382723
29	0xbdb462c4	-0.088079005
30	0x3d278b5d	0.04090439
31	0x3dc11844	0.094284564
32	0xbd1f293c	-0.038857684
33	0x3e25ee4a	0.16204181
34	0xbd843507	-0.06455427
35	0x3cab5f1e	0.020919379
36	0x3b816ae7	0.0039495113
37	0xbd46db20	-0.048548818
38	0xbd439f76	-0.047759496
39	0x3d62efac	0.05540435
40	0xbd9bc59c	-0.0760605
41	0xbd86157d	-0.06547067
42	0x3d0bf490	0.03416878
43	0x3d6bd5ac	0.05757682
44	0x3dbd9cbb	0.092584096
45	0x3987b232	0.00025881972
46	0x3e75dfcf	0.24011157
47	0x3e15b2d9	0.14619006
48	0x3d94ea0f	0.07271206
49	0xbd7a1f5e	-0.06106507
50	0x3e1dc351	0.15406539
51	0xbdf7c636	-0.120983526
52	0x3e328ff5	0.17437728
53	0xbddc8023	-0.10766628
54	0xbdf9055f	-0.121592276
55	0xbd9aa0a4	-0.07550171
56	0x3e08088e	0.13284513
57	0x3d464d05	0.048413295
58	0xbb416286	-0.0029508187
59	0x3d6cfba7	0.057857182
60	0xbe1f3445	-0.15547283
61	0x3dea78d1	0.11448825
62	0xbca919a1	-0.020642104
63	0xbcc6cd4f	-0.02426782
64	0x3cb7d610	0.02244094
65	0xbd6d866d	-0.057989527
66	0x3e16e35d	0.1473517
67	0x3de375a2	0.11106421
68	0x3e250c03	0.16117863
69	0xbd0ff43a	-0.035145022
70	0xbd70d700	-0.05879879
71	0xbd93a6ab	-0.07209524
72	0xbd8d1b5b	-0.06889983
73	0x3b04c590	0.0020259358
74	0x3d6f8058	0.058472008
75	0xbcab6861	-0.020923795
76	0xbc3e7ddc	-0.011626687
77	0x3d83e184	0.06439498
78	0xbd1c6d81	-0.03819037
79	0x3c9cec68	0.019155696
80	0x3e6c998c	0.23105448
81	0x3d28e00b	0.04122929
82	0x3e04b618	0.12960088
83	0x3d9babdf	0.07601141
84	0xbcbecedb	-0.023291996
85	0xbd7862ef	-0.060641225
86	0x3b48b352	0.0030624461
87	0x3cb1cb33	0.021703338
88	0xbd472cf1	-0.048626844
89	0xbde575c5	-0.112041034
90	0xbbec1265	-0.0072043412
91	0x3e2b663d	0.1673822
92	0xbd472d7a	-0.048627354
93	0xbda35d53	-0.079767846
94	0x3d5eb51e	0.054371946
95	0xbdd84905	-0.10560802
96	0x3d7586c9	0.059942994
97	0xbcba0c79	-0.022711026
98	0xbca87577	-0.020563824
99	0x3d72e2e3	0.059298407
100	0x3d559a58	0.052149147
101	0x3d365558	0.044514984
102	0x3c931ea4	0.017958947
103	0xbbe22d6a	-0.0069023864
104	0xbd28a924	-0.04117693
105	0xbdc756bc	-0.0973334
106	0x3c822058	0.015884563
107	0x8004decc	-4.47266e-40
108	0x3d729377	0.059222665
109	0x3da9780d	0.08274851
110	0x3bb43301	0.005499244
111	0xbc306be4	-0.010767911
112	0x3e8aad99	0.2708557
113	0xbd91e387	-0.071234755
114	0x3d4f1834	0.05056019
115	0x3d390dd0	0.04517919
116	0xbdecc151	-0.1156031
117	0x3e0eaf38	0.13934028
118	0xbca3d7e0	-0.020000398
119	0xbd3d9a6c	-0.046289846
120	0x3d3eb9c4	0.04656388
121	0x3d818f16	0.063261196
122	0x3e1e95c9	0.15486826
123	0x3e1225dc	0.14272255
124	0xbdeb710a	-0.1149617
125	0xbd533c8b	-0.05157141
126	0xbdb809b0	-0.08986223
127	0xbe32eacf	-0.17472385
128	0x3e32b2fb	0.17451088
129	0xbce7b9d8	-0.02828686
130	0xbb2896bf	-0.0025724617
131	0x3c82d63b	0.015971294
132	0x3dacb0b2	0.084321395
133	0xbcbfd2fb	-0.023416033
134	0x3d274f55	0.04084714
135	0x3e1849ef	0.14871953
136	0x800a811b	-9.64669e-40
137	0x3da26303	0.07929041
138	0xbcfab885	-0.030605564
139	0xbdb1e462	-0.08686139
140	0x3df8d654	0.12150255
141	0x3db70aaf	0.089375846
142	0x3e154fb6	0.14581189
143	0x3c4d9c74	0.012549508
144	0xbd856d5a	-0.06514998
145	0x3db9d4d3	0.09073796
146	0xbd7d4abe	-0.061838858
147	0x3e1a3ac2	0.15061477
148	0x3c16788c	0.009184014
149	0x3c12e977	0.008966795
150	0x3e000892	0.1250327
151	0x3e06a66b	0.13149421
152	0xbc74e903	-0.014948132
153	0x3e202232	0.15638044
154	0x3de24ccb	0.11049803
155	0xbc961377	-0.018319828
156	0xbc6a72bf	-0.014309584
157	0xbd5db6e4	-0.054129496
158	0x3d8ea0e7	0.069642834
159	0xbe204e1f	-0.15654801
160	0xbda57eec	-0.08080849
161	0xbd2cd3dd	-0.042194236
162	0x3dc7cb0e	0.097555265
163	0xbdcd4ba8	-0.10024196
164	0x3e1cde24	0.15319115
165	0xbdd491b5	-0.10379354
166	0x3e0e65e0	0.1390605
167	0x3e44875d	0.19192262
168	0x3e04a948	0.129552
169	0xbdbecc51	-0.09316314
170	0xbcd87438	-0.026422605
171	0x3d611db0	0.054959953
172	0xbcdfaa11	-0.027302774
173	0x3c372678	0.011178605
174	0xbd64d6c1	-0.055868868
175	0x3daeaa5b	0.085285865
176	0x3d4d27ed	0.050086904
177	0x3c91f031	0.017814728
178	0x3d98ed5e	0.07467149
179	0xbdbad490	-0.09122574
180	0xbd53b406	-0.051685356
181	0xbe044a62	-0.12919
182	0x3e05731d	0.13032193
183	0x3da45b07	0.080251746
184	0x3e0f2383	0.1397839
185	0x3dedcea0	0.11611676
186	0x3ca28129	0.019836979
187	0xbc8806d5	-0.01660482
188	0x3d67cb93	0.056590628
189	0x3db2a755	0.08723322
190	0xbdbdb5f5	-0.09263221
191	0x3cc65129	0.024208622
192	0xbd79b188	-0.060960323
193	0xbe42236f	-0.1895883
194	0x3daa4dfd	0.08315656
195	0xbdb4c5ab	-0.08826765
196	0xbcaa73a7	-0.0208071
197	0x3d6bfbbe	0.057613127
198	0x3dc4eb7c	0.096152276
199	0x3d3089b7	0.043100085
200	0xbc401b61	-0.011725278
201	0xbdcab447	-0.098976664
202	0x3e1cf2ef	0.15327047
203	0x3c6b1494	0.014348168
204	0x3dbc7fa2	0.092040315
205	0x3d9dad79	0.07699103
206	0x3e10a9b2	0.14127234
207	0x3b5a32e0	0.0033294484
208	0x3e0231e3	0.12714343
209	0xbd3d3443	-0.04619242
210	0x3d889022	0.06668116
211	0x3d7f28ff	0.062294956
212	0xbdd6a01f	-0.104797594
213	0x3acbe6ee	0.0015556493
214	0x3d420035	0.04736348
215	0x3cf69c83	0.030103927
216	0x3d23c09c	0.03997861
217	0xbd75c4f5	-0.060002286
218	0x3e36dc27	0.17857419
219	0x3ca0cf69	0.01963015
220	0x000af1a2	1.005036e-39
221	0xbc7e2e4f	-0.0155139705
222	0xbcf13fab	-0.029449305
223	0xbc3ba395	-0.011452575
224	0x3d0b2a09	0.033975635
225	0xbe788371	-0.24268891
226	0x3e10491d	0.1409039
227	0x3e1eef5e	0.15520999
228	0xbe193042	-0.14959815
229	0xbda641c5	-0.08118013
230	0xbc15afbd	-0.009136138
231	0x3e071467	0.13191377
232	0x3e33b4e3	0.17549472
233	0xbd6dc623	-0.058050286
234	0x3e207536	0.15669712
235	0xbdb5c4c4	-0.08875421
236	0x3d915c49	0.0709768
237	0x3cdd4597	0.027010722
238	0x3e3a6e35	0.18206103
239	0x3d54ac8f	0.051922377
240	0x3d7bcccc	0.061474606
241	0xbc69d4fd	-0.014271972
242	0x3da4f418	0.0805437
243	0x3d577f1b	0.05261145
244	0xbdfe068f	-0.12403595
245	0xbce59059	-0.028022932
246	0x3e637293	0.22211675
247	0xbd2f2db4	-0.042768195
248	0xbce0af59	-0.027427362
249	0x800a631a	-9.53906e-40
250	0x3e9c36e4	0.30510628
251	0x3e1cf676	0.15328392
252	0xbd00e3fd	-0.031467427
253	0xbd1f36d6	-0.038870655
254	0x3db951f0	0.090488315
255	0x3cfc2542	0.030779485

encoder.0.bias f4 [300]
0	0x3e93ac93	0.288426
1	0x3ec67c04	0.3876649
2	0x3e6905c6	0.22756109
3	0x3ea3d0f2	0.3199535
4	0x3dcc7b61	0.0998447
5	0x3e4c882d	0.19973822
6	0x3ecbeb1c	0.39827812
7	0x3ea2746a	0.31729442
8	0x3e998c67	0.2998993
9	0x3cac48b2	0.021030758
10	0x3e29f7d6	0.16598448
11	0x3e0a16ee	0.1348531
12	0x3eb66c95	0.35629717
13	0x3eb42553	0.35184726
14	0x3eb4d2f5	0.35317197
15	0x3eaafde9	0.33396843
16	0x3e940da9	0.28916672
17	0x3e462066	0.19348297
18	0x3e350ae8	0.17679942
19	0x3e5787b6	0.21047863
20	0x3eaa5e4c	0.33275068
21	0x3e351c8a	0.17686668
22	0x3e968f6e	0.29406303
23	0x3e41ec7b	0.18937866
24	0x3ea65e01	0.32493594
25	0x3e519b8a	0.2046949
26	0x3e963ed4	0.2934481
27	0x3eab66d2	0.33476883
28	0x3eb156e9	0.3463662
29	0x3dfe2bde	0.12410711
30	0x3e89746d	0.26846638
31	0x3ebc2f97	0.36755058
32	0x3e9763ea	0.29568416
33	0x3e919eb6	0.284414
34	0x3e293008	0.16522229
35	0x3ddd7e01	0.10815049
36	0x3ea4caba	0.32185918
37	0x3ea72def	0.32652232
38	0x3e5c05cd	0.21486588
39	0x3e8c0758	0.27349353
40	0x3e13f718	0.14449728
41	0x3e52f430	0.20600963
42	0x3e27474c	0.16335791
43	0x3e66451a	0.22487298
44	0x3ea29686	0.31755465
45	0x3d244a85	0.04011013
46	0x3d1d0d52	0.03834278
47	0x3e5069c7	0.20352851
48	0x3eaef58b	0.3417171
49	0x3e967f92	0.29394203
50	0x3eb28c52	0.3487268
51	0x3e131c2e	0.14366218
52	0x3e998861	0.2998686
53	0x3e88945a	0.26675683
54	0x3e87f035	0.2655045
55	0x3eb9b3d9	0.36270025
56	0x3e48b19e	0.19599006
57	0x3e2207cb	0.15823285
58	0x3e8fe316	0.2810294
59	0x3ea40c33	0.32040557
60	0x3ea4aac5	0.32161537
61	0x3e82866f	0.2549319
62	0x3d9798d3	0.07402196
63	0x3e124b17	0.14286457
64	0x3e3092ca	0.17243496
65	0x3e9be7a3	0.30450162
66	0x3ea2df82	0.31811148
67	0x3e36d409	0.17854322
68	0x3e86dea9	0.2634175
69	0x3e513196	0.20429072
70	0x3e8ee3a4	0.2790805
71	0x3e551ee8	0.20812571
72	0x3eb3f4b1	0.35147622
73	0x3eb7a13c	0.358652
74	0x3ea7e2d2	0.32790238
75	0x3e073621	0.13204242
76	0x3eb68af0	0.35652876
77	0x3ea4ef4f	0.32213828
78	0x3cbf1628	0.023325995
79	0x3e3de754	0.18545276
80	0x3e561a75	0.2090853
81	0x3eadf7fe	0.33978266
82	0x3dd673e8	0.10471326
83	0x3e8ff85a	0.28119165
84	0x3ea36e00	0.3191986
85	0x3e8a0c9d	0.26962748
86	0x3ead7ccc	0.33884275
87	0x3e450129	0.19238724
88	0x3e98f3d2	0.2987352
89	0x3e14c4ad	0.14528151
90	0x3e80aba9	0.25130966
91	0x3ea280c2	0.3173886
92	0x3e3ff2dd	0.18744989
93	0x3ec073a0	0.37588215
94	0x3ea5667c	0.32304752
95	0x3e940be0	0.2891531
96	0x3e68bd9f	0.22728585
97	0x3e9f6ef8	0.3113935
98	0x3d11761c	0.03551303
99	0x3ea93d0d	0.3305439
100	0x3ec3a6a8	0.38213086
101	0x3e8c1902	0.2736283
102	0x3d4badda	0.049726345
103	0x3ea06f2b	0.31334814
104	0x3e44defb	0.19225685
105	0x3e9f0a9c	0.31062782
106	0x3eaf4998	0.34235835
107	0x3dac212b	0.08404764
108	0x3e86bd7b	0.26316437
109	0x3ea056c7	0.31316206
110	0x3dfdf3f1	0.12400044
111	0x3eb76bee	0.3582453
112	0x3e96b051	0.29431394
113	0x3e6c2be5	0.2306362
114	0x3e887f26	0.26659507
115	0x3eaef2f9	0.34169748
116	0x3e042b23	0.1290708
117	0x3e0dbd6c	0.1384179
118	0x3e9a8fc1	0.301878
119	0x3e2ba84b	0.16763417
120	0x3e2ece81	0.17070962
121	0x3df14f9d	0.11782763
122	0x3e2876dc	0.16451591
123	0x3e5a30be	0.21307656
124	0x3ebdb43a	0.37051564
125	0x3deb28ce	0.11482392
126	0x3e2700cd	0.16308899
127	0x3eae2ddf	0.34019372
128	0x3e8e31f2	0.2777248
129	0x3eb6a964	0.3567611
130	0x3e56d4b3	0.20979576
131	0x3e8551d1	0.26038983
132	0x3e87fe7c	0.26561344
133	0x3eb2817d	0.34864417
134	0x3e516754	0.20449573
135	0x3ecaca1b	0.3960732
136	0x3e8e7a67	0.2782776
137	0x3e88ddef	0.26731822
138	0x3ea128cf	0.31476447
139	0x3e071adb	0.13193838
140	0x3eac40b5	0.33643118
141	0x3ea6de40	0.32591438
142	0x3e735677	0.23763452
143	0x3e8ff6ac	0.28117883
144	0x3ea548f2	0.32282215
145	0x3e80645a	0.25076562
146	0x3eada3f8	0.3391416
147	0x3eac96af	0.33708712
148	0x3e87f20a	0.2655185
149	0x3e93d734	0.28875124
150	0x3e7c1455	0.24617131
151	0x3d56ba5b	0.052423816
152	0x3e2236eb	0.15841262
153	0x3e97320d	0.29530373
154	0x3d41afe7	0.047286894
155	0x3e080800	0.13284302
156	0x3e4f6e04	0.20256811
157	0x3e71a19a	0.23596802
158	0x3eb16fbd	0.34655562
159	0x3e965264	0.29359734
160	0x3d84e70f	0.064893834
161	0x3dc2ed3d	0.09517906
162	0x3e656235	0.22400744
163	0x3e8c87d6	0.27447385
164	0x3ea3a6ad	0.319631
165	0xbc593497	-0.013257167
166	0x3e8b4edb	0.272086
167	0x3e6d1f4a	0.23156467
168	0x3e24b894	0.16086036
169	0x3e832400	0.25613403
170	0x3da8d479	0.08243651
171	0x3e9d2057	0.30688736
172	0x3ea6d5c6	0.3258497
173	0x3e105d87	0.14098178
174	0x3e2a03b4	0.16602975
175	0x3ea8b22c	0.32948434
176	0xbc831e04	-0.016005524
177	0x3ec678f6	0.3876416
178	0x3ea139a1	0.3148928
179	0x3e75639c	0.23963779
180	0x3e6b6bc0	0.22990322
181	0x3e69462c	0.22780675
182	0x3ea63bb4	0.32467425
183	0x3e96bc11	0.29440358
184	0x3e9c6248	0.30543733
185	0x3e9a0602	0.3008271
186	0x3e9d1ff7	0.3068845
187	0x3e66b2db	0.22529165
188	0x3e3de771	0.18545319
189	0x3e3e50c0	0.18585491
190	0x3e88dba1	0.26730064
191	0x3e94a91c	0.2903527
192	0x3e70323e	0.23456666
193	0x3e9b45a6	0.30326575
194	0x3e55b81c	0.20871013
195	0x3e02f0fc	0.1278724
196	0x3ea5f1d0	0.3241105
197	0x3e696415	0.22792085
198	0x3e4dd3ff	0.20100401
199	0x3e937494	0.2879988
200	0x3e34c92b	0.17654864
201	0x3eccc8b0	0.39996862
202	0x3dd78a5f	0.10524439
203	0x3e33f71d	0.17574735
204	0x3e8bbbfa	0.27291852
205	0x3e25fdb3	0.1621006
206	0x3e8b0be5	0.27157512
207	0x3e9395c7	0.2882521
208	0x3ddffa9f	0.10936474
209	0x3e940339	0.2890871
210	0x3eba1fe5	0.3635246
211	0x3e748872	0.23880175
212	0x3ea41826	0.32049674
213	0x3e2be6f2	0.16787317
214	0x3e14fb53	0.14548998
215	0x3eb34453	0.35013065
216	0x3ebf89ac	0.37409723
217	0x3d9a56d5	0.07536093
218	0x3e00c359	0.12574519
219	0x3e95d1d5	0.29261652
220	0x3e3cb8b8	0.1842984
221	0x3ea59cf0	0.32346296
222	0x3e52347c	0.20527834
223	0x3e0ea933	0.13931732
224	0x3e662a83	0.22477154
225	0x3deaf4be	0.11472462
226	0x3ea08eb6	0.3135888
227	0x3eac50cb	0.3365539
228	0x3ea0c184	0.3139764
229	0x3e7647ca	0.24050823
230	0x3e9b0c1c	0.30282676
231	0x3e5d4509	0.21608366
232	0x3e0df13e	0.13861558
233	0x3e904275	0.28175703
234	0x3ea52e1a	0.32261735
235	0x3dee5b9a	0.11638565
236	0x3d7ac5ec	0.06122391
237	0x3e994132	0.29932553
238	0x3e824829	0.2544568
239	0x3e9d23a6	0.3069126
240	0x3b161ba1	0.0022904652
241	0x3eb34600	0.35014343
242	0x3e3ac07f	0.18237494
243	0x3e3ddc27	0.18541013
244	0x3e29dc38	0.16587913
245	0xbc2f627e	-0.010704635
246	0x3e75e18d	0.24011822
247	0x3e82caf9	0.2554548
248	0x3e1f19a0	0.15537119
249	0x3dafdbc2	0.08586837
250	0x3ecf0107	0.4043047
251	0x3e2ae945	0.16690548
252	0x3e9f4810	0.31109667
253	0x3e7be709	0.24599852
254	0x3eaa22e5	0.33229747
255	0x3e0a8170	0.13525939

encoder.2.weight f4 [100, 300]
0	0x3cc72406	0.02430917
1	0xbd33f30c	-0.04393296
2	0x3e460819	0.19339027
3	0x3e47a6f9	0.19497289
4	0x3e128dda	0.14311925
5	0xbe6cda3e	-0.23130128
6	0x3e422aca	0.18961635
7	0xbe550ff5	-0.20806868
8	0xbd8e012b	-0.069338165
9	0x3da524a3	0.080636285
10	0x3e40e2f2	0.18836573
11	0x3e158cc3	0.14604478
12	0xbd73c83a	-0.059517123
13	0xbe1419bb	-0.1446294
14	0x3e902ade	0.28157705
15	0xbe685498	-0.2268852
16	0xbe5f05fe	-0.2177963
17	0x3ead9d15	0.33908907
18	0x3dee97e7	0.11650067
19	0x3d255f00	0.040373802
20	0xbdeda96b	-0.116045795
21	0xbe5726cc	-0.21010894
22	0xbe8038bf	-0.25043294
23	0xbd4e7f09	-0.05041412
24	0x3e8ca67d	0.2747077
25	0xbcd53302	-0.026025299
26	0x3cee19e9	0.02906509
27	0xbe3b3636	-0.18282399
28	0xbe36e5e3	-0.17861132
29	0x3c1f88c2	0.009737195
30	0xbe1e1937	-0.15439306
31	0x3dbc67f9	0.09199519
32	0x3dbdcb30	0.092672706
33	0xbdf31a2e	-0.11870228
34	0x3eaedcfa	0.34152967
35	0xbda413c6	-0.08011584
36	0xbe5a1305	-0.21296318
37	0x3dfc142f	0.12308537
38	0xbd423681	-0.04741526
39	0x3e073d6b	0.13207023
40	0xbd81c930	-0.063372016
41	0xbd979f93	-0.07403483
42	0xbcc696aa	-0.024241764
43	0x3e38bef6	0.18041596
44	0x3df673a3	0.12033775
45	0x3e2eeeac	0.17083234
46	0x3da70650	0.08155501
47	0xbd08dad5	-0.03341182
48	0xbdcc382d	-0.09971652
49	0xbdf58c38	-0.11989635
50	0x3d9ab72d	0.07554469
51	0x3dbb9fc5	0.09161333
52	0x3e5e71c7	0.2172309
53	0x3e142c8d	0.1447012
54	0x3b4c4433	0.003116858
55	0xbe682a50	-0.22672391
56	0xbc607631	-0.013700054
57	0x3d50add8	0.05094704
58	0xbd9951b8	-0.0748629
59	0x3d9add7d	0.07561777
60	0x3de47f97	0.11157148
61	0xbe31fe89	-0.17382254
62	0x3e2b67ca	0.16738811
63	0xbd5d6f38	-0.054061145
64	0x3e159017	0.14605747
65	0x3dc9f3fb	0.09860989
66	0xbe2e5cd5	-0.170276
67	0xbdc3bd9b	-0.09557649
68	0x3e27bbd0	0.16380239
69	0xbdf87da4	-0.12133339
70	0x3d986428	0.07440978
71	0x3d8766a8	0.06611377
72	0xbdd2800f	-0.102783315
73	0x3e10e0b4	0.14148217
74	0xbe7fd7ae	-0.24984619
75	0x3e3eeaeb	0.18644302
76	0xbe6f04ec	-0.23341721
77	0x3e5b3b67	0.21409379
78	0x3c3accd3	0.011401373
79	0xbe44cc66	-0.19218597
80	0x3e067bd0	0.13133168
81	0xbdc01417	-0.09378832
82	0xbde7f5ea	-0.11326201
83	0xbe8b3141	-0.27186015
84	0xbe766c24	-0.2406469
85	0xbd4681c4	-0.048463598
86	0xbe4ebdc0	-0.20189571
87	0x3e350962	0.1767936
88	0x3c40ed89	0.011775383
89	0xbe00787f	-0.12545966
90	0xbe75a7fa	-0.23989859
91	0x3a6233e4	0.0008628948
92	0x3e67494b	0.22586553
93	0x3e349fa7	0.17639028
94	0x3db42162	0.0879543
95	0xbe65d390	-0.22443986
96	0x3e26031d	0.16212125
97	0x3ca221fa	0.019791592
98	0xbe12a96f	-0.14322446
99	0xbd9ebad5	-0.07750479
100	0x3e01d015	0.12677033
101	0xbe0e7311	-0.13911082
102	0xbdd762a4	-0.10516861
103	0x3d4268a5	0.047463078
104	0xbe150988	-0.14554417
105	0x3e3fbc33	0.18724136
106	0x3d365a75	0.04451986
107	0x3dad5c2e	0.084648475
108	0xbc669a53	-0.01407488
109	0xbdfa5411	-0.12223066
110	0x3e8f29f6	0.279617
111	0x3e921e78	0.2853887
112	0xbd8f473f	-0.06996011
113	0x3db2ecb0	0.08736551
114	0xbe23b42c	-0.15986699
115	0x3e241e64	0.16027218
116	0xbd6f07b4	-0.058356956
117	0x3e527557	0.20552574
118	0x3e7127b4	0.23550302
119	0x3e5b2bd9	0.21403445
120	0x3de5bd31	0.11217726
121	0xbdbfa70f	-0.09358036
122	0xbe429f4d	-0.19006081
123	0x3e3311cd	0.17487259
124	0xbe01cd30	-0.12675929
125	0xbd384497	-0.044987287
126	0xbdc928cd	-0.09822235
127	0xbde8e6c4	-0.1137214
128	0xbe15853b	-0.14601605
129	0x3dca0c4b	0.09865626
130	0x3d430ac8	0.047617704
131	0xbe8d83c3	-0.2763959
132	0x3d8444e7	0.064584546
133	0xbd7904f1	-0.060795728
134	0xbe076588	-0.13222325
135	0xbdc4e5fb	-0.09614178
136	0xbd8f1d56	-0.06988017
137	0x3e195206	0.14972696
138	0x39ef7533	0.00045672953
139	0x3dcbbf81	0.09948636
140	0xbd980ee7	-0.074247174
141	0x3e3a04ca	0.1816589
142	0xbdaff930	-0.085924506
143	0xbe098f26	-0.13433513
144	0xbdaccfb7	-0.08438056
145	0xbc501300	-0.012699842
146	0x3bf1ec70	0.007382922
147	0xbe0141da	-0.12622777
148	0x3debb631	0.1150936
149	0x3e52c086	0.20581254
150	0x3ca0af5e	0.019614872
151	0xbe441d0f	-0.1915171
152	0x3e63eb18	0.2225765
153	0x3c3f5edb	0.01168033
154	0x3dcc7891	0.09983934
155	0xbe1af685	-0.15133102
156	0xbbf04f28	-0.007333655
157	0x3c4feb55	0.012690385
158	0xbe551932	-0.20810392
159	0xbe30ced4	-0.17266399
160	0xbd9efe40	-0.07763338
161	0x3d55b50a	0.052174605
162	0xbc0a385f	-0.0084362915
163	0xbe5f9855	-0.21835454
164	0xbe2e5ddc	-0.17027992
165	0xbe1ba740	-0.1520052
166	0xbd351a5a	-0.044214584
167	0xbe1d0603	-0.15334325
168	0xbc2c59fa	-0.010519499
169	0xbd19d00b	-0.03755192
170	0xbdc4f9ec	-0.09617981
171	0xbde9fafb	-0.11424824
172	0x3e06b395	0.13154443
173	0x3cd243b8	0.025667056
174	0x3e2ac815	0.16677888
175	0x3e178bfa	0.1479949
176	0x3cd23b00	0.025662899
177	0xbe3f4ef9	-0.1868247
178	0x3df46da3	0.11934974
179	0xbd27731e	-0.04088127
180	0x3cd55779	0.026042687
181	0xbe00d062	-0.12579492
182	0xbe8be0ea	-0.27320033
183	0xbe679c62	-0.22618249
184	0x3cb46555	0.022020975
185	0x3e150918	0.1455425
186	0xbb9b2b13	-0.0047353595
187	0x3de9c37c	0.11414239
188	0x3e6ef078	0.23333919
189	0x3df0b417	0.117530994
190	0xbd10f881	-0.03539324
191	0xbcc98846	-0.024601113
192	0xbe4822bc	-0.195445
193	0x3d435b29	0.04769436
194	0xbe1b66c4	-0.1517592
195	0x3d55decd	0.052214433
196	0xbe6be2df	-0.23035763
197	0xbbb7aa3d	-0.005605011
198	0xbe2ff244	-0.17182261
199	0x3d44dfc9	0.04806498
200	0x3de2b1bc	0.110690564
201	0xbd875123	-0.066072725
202	0xbd5cd53a	-0.053914286
203	0xbdcc0672	-0.09962167
204	0x3da8e455	0.08246676
205	0xbd9ddcf7	-0.07708161
206	0x3e5c72fc	0.21528238
207	0xbd4ac524	-0.049504414
208	0x3d800fe3	0.0625303
209	0x3ea1a7a9	0.31573227
210	0x3e771f89	0.24133123
211	0xbe97259b	-0.29520878
212	0x3d175365	0.036944766
213	0x3db3cb0a	0.08778961
214	0x3e6375be	0.22212884
215	0x3da4e5cd	0.080516435
216	0x3e86a6c3	0.26299104
217	0xbcd88479	-0.026430355
218	0xbe09a97e	-0.13443562
219	0xbe021a3c	-0.1270532
220	0x3ea6be26	0.32566947
221	0xbe648485	-0.22316177
222	0xbdea7cb3	-0.11449566
223	0xbe80223d	-0.25026122
224	0xbe3220b4	-0.17395288
225	0xbdaada91	-0.083424695
226	0xbe804db1	-0.25059274
227	0x3e940990	0.28913546
228	0xbd476861	-0.048683528
229	0x3e826248	0.25465608
230	0x3e2699c0	0.16269588
231	0xbe1a3dcd	-0.15062638
232	0x3c837ebb	0.01605164
233	0x3e939a60	0.28828716
234	0xbdb40de7	-0.08791714
235	0xbda5b2aa	-0.08090718
236	0xbe54623d	-0.207406
237	0xbca3b7ec	-0.019985162
238	0x3de4c6ff	0.11170768
239	0xbe0ce331	-0.13758542
240	0xbd80208c	-0.06256208
241	0x3e951e2c	0.29124582
242	0x3ca6c48a	0.020357389
243	0x3e393289	0.18085684
244	0xbd4a3f59	-0.04937682
245	0x3ddb859b	0.107188426
246	0x3e5924ff	0.21205519
247	0x3e332f42	0.17498496
248	0x3e97e04f	0.2966332
249	0xbe7f8b1d	-0.24955411
250	0x3dbf92f7	0.09354203
251	0x3dc0b55c	0.094095916
252	0x3e4ceb1f	0.20011567
253	0xbe15e02a	-0.14636293
254	0x3d59a72f	0.053137954
255	0x3e05a814	0.13052398

encoder.2.bias f4 [100]
0	0xbc801cb7	-0.015638692
1	0xbc42ad09	-0.011882075
2	0x3c87dd53	0.016585028
3	0x3c8fd64a	0.017558236
4	0xbbae4b1a	-0.0053190114
5	0xbc4ecb36	-0.012621691
6	0xbcd12bef	-0.025533644
7	0x3b1cec53	0.002394457
8	0xbc875ddd	-0.01652425
9	0xbd1141e5	-0.035463233
10	0x3d43838c	0.047732875
11	0xbc94228e	-0.018082883
12	0x3c82ae95	0.015952388
13	0x3cce6dc4	0.025198825
14	0xbd77cd81	-0.06049872
15	0x3da33c56	0.079704925
16	0x3bedfdbc	0.0072629135
17	0xbbd403e9	-0.0064701927
18	0x3beb8a63	0.007188128
19	0x3c07cbf3	0.008288371
20	0x3b13e155	0.0022564728
21	0xbc564417	-0.013077757
22	0xbbae4e43	-0.005319388
23	0x3d08175f	0.033225413
24	0xbd069ff2	-0.03286738
25	0xbcbc905a	-0.023018051
26	0x3d474f95	0.04865988
27	0x3d059b48	0.03261879
28	0xbc970421	-0.018434586
29	0x3be4117e	0.006960093
30	0xbd19d7f5	-0.03755947
31	0xbc2f384d	-0.0106945755
32	0xbd0d4fb4	-0.03449984
33	0xbcb4d448	-0.02207388
34	0xbc0a7026	-0.00844959
35	0xbc84190b	-0.016125223
36	0x3cb176ef	0.021663157
37	0xbb09b48c	-0.0021012155
38	0xbd331438	-0.043720454
39	0xbc06fe64	-0.008239362
40	0x3c95fa47	0.018307818
41	0xbab70e9b	-0.0013966145
42	0xbc04d826	-0.008108174
43	0x3b227a94	0.00247923
44	0xbcc42f25	-0.023948262
45	0xbd21dab0	-0.039515197
46	0x3d478493	0.048710417
47	0x3a8fcf31	0.0010971782
48	0x3ce916aa	0.02845319
49	0x3cf41577	0.029795391
50	0x3b516d7a	0.0031956122
51	0xbc8d0f12	-0.0172191
52	0x3c950b91	0.018193992
53	0xbcf91daf	-0.030409662
54	0xbd292475	-0.041294534
55	0x3d8828ad	0.06648383
56	0xbc012687	-0.007882721
57	0xbd1946a4	-0.037420884
58	0xbd34a518	-0.04410276
59	0xbc89a3ce	-0.016801741
60	0x3b2eb2df	0.0026656908
61	0x3d595234	0.05305691
62	0x3cd0f7c8	0.025508776
63	0xbd169c98	-0.036770433
64	0xbc301cda	-0.010749066
65	0xbcd9ce90	-0.026587754
66	0xbcd1e3f9	-0.025621401
67	0xbbcbeae4	-0.0062230695
68	0xbbd8fd2d	-0.006621978
69	0xbd1f0f69	-0.038833056
70	0xbc19a703	-0.009378198
71	0x3d0cf460	0.03441274
72	0xbd4c50c0	-0.049881697
73	0x3d02d925	0.031945366
74	0xba8ee677	-0.0010902424
75	0x3c539d40	0.012915909
76	0x3d7b5544	0.061360613
77	0x3cd22a23	0.025654858
78	0xbcd7e213	-0.026352918
79	0xba3412b5	-0.00068692426
80	0xbd8717af	-0.06596314
81	0x3c593add	0.013258663
82	0xbc747456	-0.014920315
83	0xbd23ec48	-0.040020257
84	0x3c85d4d3	0.016336834
85	0x3c077cd7	0.00826951
86	0xbd8d646d	-0.0690392
87	0xbd884647	-0.06654029
88	0x3ca04a4c	0.019566678
89	0x3d5dcb05	0.054148693
90	0xb9267f24	-0.00015878357
91	0xbd83c4d1	-0.06434024
92	0x3c20fee8	0.009826399
93	0x3d254d2f	0.04035681
94	0x3c291b31	0.010321424
95	0x3d2f7896	0.04283961
96	0x3d18f9da	0.037347652
97	0x3cbd5657	0.02311246
98	0xbc8e4ba5	-0.017370054
99	0xbc184ab0	-0.009295151

decoder.0.weight f4 [300, 100]
0	0x3db72fd5	0.0894467
1	0xbe3ca747	-0.18423186
2	0xbe18e843	-0.14932351
3	0x3d28c1a4	0.041200295
4	0x3d81076f	0.06300246
5	0xbeac22ab	-0.336202
6	0xbded6c0f	-0.11592876
7	0x3e842dd7	0.25816223
8	0xbe95ec75	-0.29281965
9	0x3e87206e	0.2639193
10	0x3e5e524f	0.21711086
11	0x3e5a7754	0.21334583
12	0xbd8a46e3	-0.06751802
13	0xba92156b	-0.0011145299
14	0x3e1b4ece	0.1516678
15	0xbe6d5e54	-0.23180515
16	0xbe51746a	-0.20454565
17	0x3c6d01ff	0.014465808
18	0xbdedebb0	-0.116172194
19	0x3d6ceb5a	0.057841636
20	0xbe1a4a56	-0.1506742
21	0x3dff1ac5	0.12456278
22	0xbe9f6b72	-0.31136662
23	0x3deb302a	0.11483796
24	0x3e83537d	0.25649634
25	0x3d5e0a4a	0.05420903
26	0xbcca3861	-0.024685087
27	0x3ced6684	0.028979547
28	0x3e38bd6b	0.18041007
29	0xbe0d9cff	-0.1382942
30	0x3d98971e	0.07450698
31	0x3d97aae1	0.074056394
32	0xbd826f73	-0.063689135
33	0x3d355bae	0.044276886
34	0xbd8d40e4	-0.068971425
35	0xbe297820	-0.1654973
36	0x3dc14315	0.09436623
37	0x3e2603b0	0.16212344
38	0xbe271008	-0.16314709
39	0xbe7d374b	-0.24728124
40	0xbd836a58	-0.06416768
41	0xbd43d905	-0.047814388
42	0x3d21ceb0	0.039503753
43	0x3db495d4	0.0881764
44	0x3ed24309	0.4106677
45	0xbe00963a	-0.12557307
46	0xbd89cd14	-0.06728569
47	0x3e53f76c	0.20699853
48	0x3e0b282b	0.13589542
49	0x3e71ca27	0.23612271
50	0xbdabd6c0	-0.0839057
51	0xbd49df43	-0.049285185
52	0x3e5f1d63	0.21788554
53	0xbeaca414	-0.33718932
54	0x3e084152	0.13306168
55	0x3dc9d350	0.09854758
56	0xbe97f5be	-0.29679674
57	0xbe98d4f3	-0.29849967
58	0xbe8c64c1	-0.2742062
59	0x3e35f167	0.17767869
60	0xbe5b77f5	-0.21432479
61	0x3e60dd78	0.21959484
62	0xbe404087	-0.18774615
63	0x3db6fd36	0.08935015
64	0xbd96ec7c	-0.073693246
65	0xbda2412a	-0.07922585
66	0x3e8318cf	0.25604865
67	0xbd26e5ec	-0.040746614
68	0xbd82f5cc	-0.06394538
69	0xbe7b75b5	-0.2455662
70	0xbc479536	-0.012181571
71	0x3cbe3509	0.023218649
72	0xbd8d3a15	-0.06895844
73	0xbe3ee1a9	-0.1864077
74	0x3d9aa3bd	0.07550762
75	0x3dffc67c	0.1248903
76	0xbc3ebbca	-0.011641452
77	0xbe56a2e1	-0.20960571
78	0x3e3b7f67	0.18310319
79	0xbe8dc1dd	-0.27686968
80	0x3dbe0bcf	0.09279596
81	0x3ce90b10	0.028447658
82	0x3e59162f	0.21199869
83	0x3d259206	0.040422462
84	0xbe34b6a4	-0.17647797
85	0xbe921a0f	-0.28535506
86	0xbc87dd89	-0.016585128
87	0xbd25f884	-0.040520206
88	0xbdcdd0ce	-0.10049592
89	0x3d386970	0.045022428
90	0x3e78f287	0.24311267
91	0x3c48d450	0.0122576505
92	0x3e8ccb1e	0.27498716
93	0xbda5e023	-0.08099391
94	0x3e0cfc71	0.13768174
95	0x3deb4d50	0.114893556
96	0x3ef7179d	0.48260203
97	0x3e57224e	0.2100918
98	0xbe20430d	-0.15650578
99	0xbd8f583b	-0.069992505
100	0xbb0a6fe6	-0.0021123826
101	0xbdd10a4b	-0.10207041
102	0x3e56d7ba	0.2098073
103	0x3ea2f731	0.31829217
104	0x3ebb8afc	0.36629474
105	0x3e4b79f7	0.19870745
106	0x3e88844d	0.26663437
107	0x3de8e361	0.11371494
108	0xbd3a2f0f	-0.045455035
109	0x3d7d6c1e	0.061870687
110	0xbdaf378a	-0.08555515
111	0x3e559435	0.20857318
112	0x3bdd845c	0.006760163
113	0x3deba4f3	0.11506071
114	0x3d3b55e3	0.045736205
115	0xbcb33fd4	-0.021881022
116	0x3df0f87f	0.11766147
117	0xbde74d4c	-0.1129404
118	0x3d3440fa	0.04400728
119	0x3b9f545c	0.0048623513
120	0x3e605370	0.21906829
121	0x3e4ef021	0.2020879
122	0x3e01bc65	0.12669523
123	0xbdcacf5b	-0.09902831
124	0x3db435c3	0.08799317
125	0x3d8a7dd9	0.06762285
126	0xbd91818b	-0.071047865
127	0x3db32395	0.08747021
128	0xbe4bda3b	-0.19907467
129	0xbe060ec9	-0.13091578
130	0x3c57446e	0.0131388735
131	0x3d9fdf00	0.07806206
132	0xbe3fab05	-0.18717583
133	0x3e175a5b	0.14780562
134	0xbbf1eb9d	-0.0073828236
135	0x3d245f6f	0.040130075
136	0x3a41d9a6	0.0007394798
137	0xbd65a8af	-0.056069072
138	0xbda83e58	-0.08215016
139	0x3c234e99	0.00996747
140	0x3d6275c4	0.05528809
141	0x3e21fd8c	0.15819377
142	0x3e57a96f	0.21060728
143	0xbca5cfad	-0.02024063
144	0xbd5aae4c	-0.05338888
145	0xbd9cbe7a	-0.07653518
146	0x3dfacc67	0.12246018
147	0x3dc84e90	0.097806096
148	0xbdf39b04	-0.11894801
149	0x3c7199c5	0.014746134
150	0x3d2661d4	0.04062064
151	0x3d2c3c1a	0.042049505
152	0xbc50e2a9	-0.0127493525
153	0xbdd6b5af	-0.10483872
154	0x3e169b00	0.14707565
155	0x3dd38d34	0.10329667
156	0xbdfefcf3	-0.1245059
157	0xbd8aea15	-0.06782929
158	0x3d3cbf91	0.04608113
159	0x3e76bacb	0.24094693
160	0xbe28d9b6	-0.164893
161	0x3e035eb6	0.12829098
162	0xbe18bbd7	-0.14915405
163	0x3e217f45	0.15771206
164	0x3ceecf79	0.029151665
165	0xbe7338d8	-0.23752153
166	0xbe54912c	-0.20758504
167	0x3dcbe675	0.099560656
168	0xbe6c6354	-0.23084766
169	0x3e7b8ec0	0.24566174
170	0xbc652ff0	-0.01398848
171	0xbe23a766	-0.15981826
172	0x3e6657eb	0.22494476
173	0xbd9e614c	-0.07733402
174	0xbe3486e1	-0.17629577
175	0x3ba2d398	0.0049690716
176	0x3debb2b9	0.11508698
177	0x3dded5da	0.10880633
178	0x3d1a5f0b	0.037688296
179	0xbd811aae	-0.06303917
180	0xbe032fdb	-0.12811224
181	0xbe15c5e1	-0.14626266
182	0x3ea4a54b	0.3215736
183	0xbe5782bb	-0.21045963
184	0xbcabf9f3	-0.020993209
185	0x3e51657e	0.20448872
186	0x3d98223c	0.07428405
187	0xbd8b0a1a	-0.06789036
188	0x3dd93642	0.10606052
189	0xbd8d43a9	-0.06897671
190	0xbddd2422	-0.107979074
191	0xbe808aa9	-0.2510579
192	0xbe44c38f	-0.19215225
193	0xbe867a76	-0.26265305
194	0xbe64ea5b	-0.22355025
195	0xbd4b3c69	-0.04961816
196	0xbd06e2c9	-0.032931123
197	0xbd86e6e1	-0.065870054
198	0x3db579e1	0.08861137
199	0xbd85f649	-0.06541116
200	0xbaf677cf	-0.0018804016
201	0x3e8e9f1f	0.27855775
202	0xbdf41ae8	-0.119191945
203	0x3e18a42f	0.14906381
204	0x3dbdd400	0.092689514
205	0x3db15b30	0.08659971
206	0x3ddad837	0.10685771
207	0x3dc2e0f4	0.09515563
208	0xba0ae685	-0.00052986323
209	0x3e62a042	0.22131446
210	0x3e176e5d	0.14788194
211	0xbe5d2dc7	-0.21599494
212	0x3e93478e	0.2876553
213	0xbe53a285	-0.20667465
214	0xbd80621d	-0.062687136
215	0x3da53784	0.080672294
216	0x3d0c5d4e	0.03426867
217	0x3ddc4be9	0.10756666
218	0xbd8caaa5	-0.06868485
219	0x3db34c7b	0.08754822
220	0xbe1cf4d1	-0.15327765
221	0x3e091c90	0.13389802
222	0x3d98f7cc	0.074691385
223	0x3da10234	0.07861748
224	0xbd8cfef9	-0.0688457
225	0xbd96f2c0	-0.0737052
226	0xbde5fd50	-0.11229956
227	0xbd92857b	-0.07154366
228	0x3b42e5e3	0.0029739074
229	0xbd88d6c5	-0.06681589
230	0xbdb991f7	-0.09061044
231	0xbb68c458	-0.003551742
232	0x3d821e3d	0.06353424
233	0x3e5ad90c	0.2137186
234	0xbdab31af	-0.08359086
235	0xbcf63081	-0.030052425
236	0xbe7bb68a	-0.24581352
237	0x3c7492c9	0.014927574
238	0xbd6cf404	-0.0578499
239	0xbd9ae03e	-0.07562302
240	0xbc8db742	-0.017299298
241	0x3d9eb5d2	0.07749523
242	0xbe8082dc	-0.25099838
243	0x3ebe007a	0.3710974
244	0x3bd48cb6	0.0064865006
245	0x3c02a3cb	0.007973622
246	0x3d8bdb2c	0.06828913
247	0x3e4c468b	0.19948785
248	0x3e1dffb9	0.15429582
249	0x3e57b0ca	0.21063533
250	0xbb6fe3cc	-0.0036604283
251	0xbe31d797	-0.17367397
252	0xbd07d724	-0.03316416
253	0x3dbcc71b	0.09217664
254	0xbccb99dd	-0.024853641
255	0x3dc46b31	0.09590758

decoder.0.bias f4 [300]
0	0x3c8e9b34	0.017407991
1	0x3d7e716a	0.06211988
2	0xbc7d1ea2	-0.015449198
3	0x3d2379e4	0.039911166
4	0x3d4ad75f	0.0495218
5	0x3c8b5828	0.01700981
6	0x3da2067f	0.07911395
7	0x3d172d90	0.036908686
8	0x3d9d5705	0.07682613
9	0xbcea5df1	-0.028609248
10	0x3852194a	5.0091454e-05
11	0x3d943110	0.072359204
12	0x3ce64758	0.028110191
13	0x3b6b492e	0.0035901773
14	0xbcb9cdcf	-0.022681145
15	0x3c8f76b8	0.017512664
16	0x3d7b4fff	0.061355587
17	0x3d51a7db	0.05118547
18	0xbd0ac0fc	-0.03387545
19	0x3d077f56	0.03308042
20	0x3d688761	0.056769732
21	0x3d95c61c	0.07313177
22	0x3d30c318	0.043154806
23	0x3c9e3590	0.01931265
24	0x3d7d096d	0.061776567
25	0x3ace7f65	0.0015754519
26	0x3c912d64	0.01772184
27	0x3cc3e8ce	0.02391472
28	0x3caba354	0.020951904
29	0x3d5d8f48	0.05409172
30	0x3cc10399	0.023561286
31	0x3ccf8210	0.025330573
32	0x3d6dfdce	0.058103375
33	0x3c4b1377	0.0123947775
34	0x3bb78470	0.0056005046
35	0x3d7dc96c	0.06195967
36	0x3c06ac67	0.008219815
37	0xbbf77e70	-0.0075529143
38	0x3c51e76c	0.012811523
39	0x3ca222f2	0.019792054
40	0xba91b067	-0.0011115194
41	0x3d5d2ae6	0.05399599
42	0x3ca16555	0.01970164
43	0x3c606be5	0.013697599
44	0x3c34593b	0.011007602
45	0x3c64402f	0.013931318
46	0x3c6c4bfd	0.014422414
47	0x3d9a701d	0.07540915
48	0x3d98d8ac	0.07463202
49	0x3c8244b4	0.0159019
50	0xbc94731f	-0.0181213
51	0x3d353d15	0.044247705
52	0x3d235289	0.039873634
53	0xbcc1dfe7	-0.023666335
54	0x3c20456e	0.009782178
55	0x3cab3d35	0.02090321
56	0x3c8cd5e4	0.017191835
57	0x3b80081c	0.0039072167
58	0x3d49411f	0.04913437
59	0x3cabc71f	0.020968972
60	0x3d7faa89	0.062418494
61	0x3ac44859	0.0014975175
62	0x3cd33670	0.025782794
63	0x3d47ee9c	0.04881154
64	0x3c9ad104	0.018898495
65	0x3b88adab	0.0041710935
66	0xbd18f50a	-0.037343062
67	0x3c966a67	0.018361283
68	0x3c852e5c	0.016257457
69	0x3d0e398a	0.034722842
70	0x3c3fdb6f	0.011710032
71	0x3c3a709b	0.011379386
72	0x3cc9c536	0.02463017
73	0x3d8e2e6a	0.069424465
74	0x3d4f58e6	0.05062189
75	0x3c8b57b4	0.017009594
76	0xbc01dc04	-0.007925991
77	0x3cbd5672	0.02311251
78	0x3d9469e4	0.072467595
79	0x35841206	9.840012e-07
80	0x3c17bc67	0.009261227
81	0x3d53295c	0.051553115
82	0x3c84c05b	0.016205003
83	0xbc89eba5	-0.016835997
84	0x3c7dc3e7	0.015488601
85	0x3c7f032e	0.015564723
86	0xbba17132	-0.004926824
87	0x3d4c5ac4	0.04989125
88	0x3c46aef7	0.012126676
89	0x3d5e6fc6	0.054305814
90	0x3c955d2e	0.018232908
91	0x3c955ae7	0.018231822
92	0x3be24b70	0.0069059655
93	0xb88240fd	-6.210988e-05
94	0xbbcac08a	-0.006187503
95	0x3c820821	0.015873017
96	0xbc80eacb	-0.015736958
97	0xb20f2ac0	-8.333416e-09
98	0x3cc41e0f	0.023940114
99	0x3d5e839f	0.054324742
100	0x3ca8f7b1	0.020625921
101	0x3c37c63b	0.011216695
102	0x3c75e37b	0.015007849
103	0x3c9e8eb4	0.019355156
104	0x3d6db5b6	0.05803462
105	0x3c39c3a6	0.01133815
106	0xbb9508ab	-0.0045481524
107	0x3c0eb9bc	0.008711275
108	0x3cb8ecaf	0.022573797
109	0xbca5af0e	-0.020225074
110	0x3c695172	0.0142406095
111	0x3bbad958	0.005702179
112	0x3c819a55	0.015820662
113	0xbc8b5b9a	-0.017011452
114	0x3be83508	0.0070864
115	0x3c954851	0.01822296
116	0x3bbf0dd2	0.005830505
117	0xbb87c614	-0.004143486
118	0x3caabfc4	0.020843394
119	0x3cd9b235	0.026574234
120	0xbd0abc64	-0.03387107
121	0x3c9fcba5	0.019506285
122	0x3cc43871	0.023952695
123	0xbc074936	-0.008257201
124	0x3d4efc64	0.050533667
125	0xbb37c548	-0.0028041173
126	0x3cd02128	0.025406435
127	0x3d55bd0c	0.052182242
128	0x3c631273	0.013859379
129	0x3ca8afab	0.020591578
130	0xb7f02478	-2.8627212e-05
131	0xbc72cae6	-0.014818883
132	0x3cb8bccd	0.022550965
133	0x3c1b8628	0.009492435
134	0x3b15c495	0.0022852768
135	0x3a68de67	0.0008883238
136	0x3d156660	0.036474586
137	0x3ca905eb	0.020632705
138	0x3c8a8257	0.016907854
139	0x3caaa4cf	0.02083054
140	0x3c3929c8	0.011301465
141	0x3c91b52b	0.017786583
142	0x3cb25f48	0.02177395
143	0x3c7ad19e	0.015308766
144	0x3d40601b	0.046966653
145	0x3bbbcbdc	0.005731089
146	0xbca81625	-0.020518372
147	0x3d445a1a	0.04793749
148	0x3c865b77	0.016401036
149	0x3d0fdce4	0.035122767
150	0x3caf34b9	0.021387445
151	0x3d2e220f	0.04251295
152	0x3cca600f	0.024704007
153	0xbd8d3e60	-0.06896663
154	0x3c6ee7b9	0.014581614
155	0x3dac7f84	0.08422759
156	0xb298c9ff	-1.7786986e-08
157	0x3cc5a1d6	0.024125021
158	0x3c7a66c7	0.015283293
159	0x3d008a86	0.031382106
160	0x3d8bb6aa	0.0682195
161	0x3c96f873	0.018429017
162	0x3d669dd9	0.05630288
163	0x3d85f798	0.065413654
164	0x3c9ee2ac	0.019395195
165	0x3c742d9c	0.014903452
166	0x3c6f4389	0.014603504
167	0x3dc75773	0.097334765
168	0x3c9603dc	0.018312387
169	0x3d988d73	0.07448854
170	0x3c83970a	0.016063232
171	0x3cc31334	0.023812868
172	0x3c99dd91	0.018782409
173	0x3d343108	0.043992072
174	0xb899ef44	-7.340175e-05
175	0x3c334212	0.010941045
176	0xbbc41ad2	-0.0059846425
177	0x3ce11cd7	0.027479572
178	0xba8e6f61	-0.0010866934
179	0x3c24d7d7	0.010061226
180	0xbc15f33a	-0.009152228
181	0x3d3149d6	0.043283306
182	0x3c7489c7	0.014925427
183	0x3d47c8fc	0.048775658
184	0x3c62e731	0.013849066
185	0x3d182a21	0.037149552
186	0xbc2fd11a	-0.010731006
187	0x3d424a2e	0.047434025
188	0x3d40360d	0.046926547
189	0x3d97e72b	0.07417139
190	0x3d6120c9	0.054962907
191	0x3c8f0c47	0.017461909
192	0xbcbf21fd	-0.023331637
193	0xbc33f233	-0.010983038
194	0x3ca938b2	0.020656917
195	0x3caa286b	0.020771226
196	0x3c5637e1	0.013074846
197	0x3c77e8cc	0.015131187
198	0xbd0558a0	-0.032555223
199	0xbcad00dd	-0.021118576
200	0x3d0f7348	0.03502205
201	0x3d892257	0.06696003
202	0x3c8e7c0d	0.017393136
203	0x3c6c3aa3	0.014418277
204	0x3c8d4be2	0.017248098
205	0xbc7965b3	-0.015222001
206	0x3c910475	0.01770232
207	0x3d6408b5	0.055672366
208	0x3ca2bbdd	0.01986497
209	0x3d2b3b47	0.04180458
210	0x3d00ea26	0.0314733
211	0xa5b98299	-3.218088e-16
212	0x3d1bedbe	0.038068525
213	0x3c996388	0.018724218
214	0x3cc36a9d	0.023854548
215	0x3d44433d	0.047915686
216	0x3cf24c01	0.029577257
217	0x3d181e43	0.037138235
218	0x3c8ec416	0.017427485
219	0x3ce80c44	0.028326161
220	0x3c8c09eb	0.017094573
221	0x3d1c59ba	0.038171507
222	0x3d920f24	0.07131794
223	0x3c33bacc	0.010969829
224	0xbceaf7dc	-0.028682642
225	0x3d4a2bf8	0.049358338
226	0x3b6a4176	0.0035744584
227	0x3c369d3c	0.011145886
228	0x3cec93bd	0.02887904
229	0x3d509e8c	0.050932452
230	0xbc7cc6a6	-0.015428221
231	0x3cb86c62	0.022512618
232	0x3cfa7329	0.03057249
233	0x3ca9209f	0.020645438
234	0x3d0880fa	0.033326127
235	0x3d765b91	0.06014592
236	0x3c9961fd	0.018723482
237	0x3d7114f3	0.05885787
238	0x3c643360	0.013928264
239	0x3c85fabc	0.016354911
240	0x3cc54f42	0.024085645
241	0xbd073593	-0.033010077
242	0x3d0e6083	0.03476001
243	0x3d96a0a1	0.07354856
244	0x3c35a19a	0.011085892
245	0xbc42ccb7	-0.011889628
246	0x3cafaf27	0.021445824
247	0x3d2edd64	0.042691603
248	0x3d44c480	0.04803896
249	0x3cddecbd	0.027090425
250	0x3d3685b8	0.044561118
251	0x3d6f33ab	0.058398884
252	0x3cee2cbf	0.029074071
253	0x3c146a47	0.009058542
254	0x3bd6a3bb	0.00655028
255	0x3cd27ce0	0.02569431

decoder.2.weight f4 [227, 300]
0	0xbd8154d5	-0.063150086
1	0x3b62aba3	0.0034587167
2	0x3dc1d453	0.09464326
3	0xbe193da6	-0.14964923
4	0xbcafab8c	-0.021444105
5	0xbd585a78	-0.052820653
6	0xbd207976	-0.039178334
7	0xbbe5efe0	-0.0070171207
8	0xbe2356ed	-0.15951128
9	0x3c834da5	0.016028235
10	0x31afe15a	5.11879e-09
11	0xbc99db27	-0.018781258
12	0x3d82fb5d	0.063956
13	0xbe0a8d98	-0.13530576
14	0xbd763fa5	-0.06011929
15	0xbc94a04f	-0.018142847
16	0xbddfc66e	-0.10926519
17	0x3dfa8e91	0.12234224
18	0xbdc3b30a	-0.09555633
19	0x3c139a67	0.00900898
20	0xbd31161a	-0.04323397
21	0xbd7a7114	-0.061142996
22	0xbe2b1500	-0.1670723
23	0x3d0fcecc	0.035109326
24	0xbd8de89e	-0.06929134
25	0x3df07faa	0.117431
26	0xbd5d68f0	-0.054055154
27	0xbdae0568	-0.08497125
28	0x3df7758e	0.12082969
29	0xba8fa768	-0.0010959925
30	0xbe20f4e4	-0.15718418
31	0x3e07e876	0.1327227
32	0x3c1b240d	0.009469044
33	0x3dbe691e	0.09297393
34	0xbda5f385	-0.08103088
35	0xbe355b30	-0.17710567
36	0x3d70a1b9	0.05874798
37	0x3db5e6f1	0.08881939
38	0x3e310c24	0.17289788
39	0x3d2fcdcf	0.042920884
40	0xbdd9e73c	-0.106398076
41	0xbda4afa0	-0.0804131
42	0xbe04305f	-0.12909077
43	0xbe12d3d7	-0.14338623
44	0x3dc1efc9	0.094695635
45	0x3e2bbda3	0.1677156
46	0xbde96a03	-0.11397173
47	0x3d981dde	0.07427572
48	0xbe010cb8	-0.12602508
49	0xbdc344a6	-0.09534578
50	0xbd2f217f	-0.042756554
51	0xbe0c011a	-0.13672295
52	0xbd733bc5	-0.059383173
53	0xbe3c8d95	-0.18413384
54	0xbd814531	-0.06312025
55	0x3e10d8a1	0.14145137
56	0x3cd8485d	0.026401693
57	0xbc8be510	-0.017076999
58	0xbe021770	-0.12704253
59	0x3e05ab96	0.13053736
60	0x3d83cf33	0.064360045
61	0xbe1ee2b9	-0.15516175
62	0x3d356d1f	0.04429352
63	0x3d51f0ff	0.051255222
64	0x3d1444f4	0.03619857
65	0x3b9fc533	0.004875803
66	0xbd4e8724	-0.05042185
67	0xbd1b0792	-0.037849016
68	0x3cbf06c5	0.023318658
69	0x3c5ab629	0.013349094
70	0x3cc92976	0.024555903
71	0x3e738a4b	0.23783223
72	0xbb8561cc	-0.004070496
73	0xbd2b3e96	-0.041807733
74	0xbdbb1103	-0.09134104
75	0x3e19ab56	0.15006766
76	0x3e0a3b50	0.13499188
77	0xbe30aff5	-0.17254622
78	0x3e0c7d61	0.13719703
79	0x2ff41d37	4.44041e-10
80	0x3dd909fa	0.10597606
81	0xbd02268f	-0.031775054
82	0xbe62c8f0	-0.22146964
83	0xbd14b004	-0.036300674
84	0x3c6aac3c	0.01432329
85	0x3df32121	0.11871553
86	0x3debc3f6	0.11511986
87	0xbdd48705	-0.103773154
88	0x3d894e2c	0.06704363
89	0x3d6accd0	0.05732423
90	0x3d951df8	0.07281107
91	0xbd273539	-0.04082224
92	0xbdd645b5	-0.10462514
93	0x81319f4f	-3.2624064e-38
94	0xbe051b19	-0.12998618
95	0x3dc2f154	0.09518686
96	0xbe61d200	-0.22052765
97	0x80011fad	-1.03199e-40
98	0x3debe089	0.11517436
99	0x3daa2091	0.08306993
100	0xbd551895	-0.052025396
101	0x3e1d2234	0.15345079
102	0xbccd0027	-0.025024487
103	0xbd28ff5e	-0.041259162
104	0xbad2040d	-0.0016022936
105	0xbe0086a9	-0.12551369
106	0x3d28664c	0.041113183
107	0xbccbaae1	-0.024861755
108	0xbc482a22	-0.0122170765
109	0x3d871fd3	0.06597867
110	0xbdb29fdc	-0.08721897
111	0x3dbc8d0e	0.092065915
112	0xbdefc118	-0.117067516
113	0xbdda1014	-0.10647598
114	0x3d56c0b5	0.052429873
115	0x3e26613c	0.1624803
116	0x3dace407	0.0844193
117	0xbcbeb78c	-0.023280881
118	0x3e5240c2	0.20532516
119	0x3e157b26	0.14597759
120	0x3e40dee8	0.18835032
121	0xbde80e5b	-0.11330863
122	0x3c2dfb3c	0.010618981
123	0xbddff6c3	-0.10935738
124	0x3cbde1fc	0.023179047
125	0x3dc51f59	0.0962512
126	0xbd3497d7	-0.04409012
127	0x3e072ae2	0.13199952
128	0xbe098cb9	-0.13432588
129	0x3d57dd13	0.052701067
130	0xbd28712b	-0.04112355
131	0xbd015a22	-0.031580098
132	0x3e202f70	0.15643096
133	0x3d21747f	0.03941774
134	0x3e4f47af	0.20242189
135	0xbccf2dd8	-0.025290415
136	0xbde817cb	-0.11332663
137	0xbe5b6115	-0.21423753
138	0xbd1fbb73	-0.038997125
139	0x3d18aece	0.03727608
140	0xbca0982d	-0.019603813
141	0xbd8183bd	-0.06323955
142	0xbe42dc9e	-0.19029471
143	0xbd7f8e3e	-0.062391512
144	0xbcbf3d1e	-0.023344573
145	0xbe01ca6e	-0.12674877
146	0x3dc679b9	0.096911855
147	0xbc68b302	-0.014202835
148	0x3c833a56	0.016019028
149	0x3e0a9985	0.13535126
150	0xbc0aa93d	-0.008463201
151	0x3da0c219	0.07849521
152	0xbe6a9752	-0.22909287
153	0x3ccdca80	0.025120974
154	0xbd62755b	-0.0552877
155	0x3d9ecf85	0.07754425
156	0x8005f391	-5.46553e-40
157	0xbc973fcf	-0.018463043
158	0xbd89d525	-0.06730107
159	0x3dc115cb	0.09427985
160	0x3e39a461	0.18129112
161	0x3c89e1ee	0.016831364
162	0x3e065437	0.13118063
163	0x3e331ad2	0.174907
164	0x3e468f37	0.1939057
165	0xbd4681f6	-0.048463784
166	0xbd2f1f27	-0.04275432
167	0xbe007805	-0.12545784
168	0xbd300d0d	-0.042981196
169	0xbdea3b62	-0.114371076
170	0xbe5ee8d3	-0.21768503
171	0x3d9f4352	0.07776512
172	0x3a09860e	0.0005246111
173	0xbd9d31c1	-0.076755054
174	0xbe60b3b7	-0.21943556
175	0xbddf9839	-0.10917706
176	0x3d416148	0.047211915
177	0xbe212593	-0.1573699
178	0x3d42c59e	0.047551744
179	0xbd82c12c	-0.06384501
180	0xbbf8c6bc	-0.0075920504
181	0x3df76e8c	0.12081632
182	0x3cdd5434	0.02701769
183	0xbb9fd18b	-0.0048772744
184	0xbd9c1a9c	-0.07622263
185	0x3d9319de	0.07182668
186	0xbe07df00	-0.13268661
187	0xbdc4684b	-0.09590205
188	0xbd555a34	-0.052087978
189	0x3e2b8073	0.16748218
190	0x3ce89b99	0.028394507
191	0xbd850e55	-0.06496874
192	0xbd90c210	-0.070682645
193	0xbbbaca51	-0.0057003875
194	0xbcb99778	-0.022655234
195	0xbd00622c	-0.031343624
196	0x3e73c1b5	0.23804362
197	0x3db9d861	0.09074474
198	0xbda1e399	-0.07904739
199	0xbd7e5c5d	-0.062099803
200	0xbc9fec2a	-0.019521791
201	0xbd8edf86	-0.069762275
202	0x3e9812d8	0.29701877
203	0xbcd665a1	-0.026171507
204	0x3c772e56	0.015086731
205	0x3c5996c0	0.0132805705
206	0xbcf0354a	-0.029322285
207	0xbd8a93e2	-0.06766488
208	0x3e15e353	0.14637499
209	0x3dfcc4a0	0.12342191
210	0xbce5a555	-0.028032938
211	0x1f104656	3.0551367e-20
212	0xbe8ce1a7	-0.2751591
213	0xbe122116	-0.14270434
214	0x392ccdc9	0.00016479859
215	0xbe41cb7b	-0.18925278
216	0x3dfff4c2	0.12497856
217	0xbe0e0678	-0.13869655
218	0x3e84c5d3	0.25932178
219	0xbd71bacb	-0.05901603
220	0x3bb5c289	0.005546872
221	0x3e5465fb	0.20742027
222	0xbdedaef8	-0.11605638
223	0xbd86fc6a	-0.06591113
224	0xbd1bb643	-0.038015615
225	0xbd0de871	-0.0346455
226	0x3b9af9b4	0.004729474
227	0xbd0aecd7	-0.033917274
228	0x3d7326e2	0.059363253
229	0xbd858fcc	-0.06521568
230	0xbda226c3	-0.079175495
231	0xbe0368e8	-0.12832987
232	0x3de243bb	0.11048075
233	0x3da80aa3	0.08205154
234	0x3da9b40d	0.08286295
235	0xbe070da2	-0.13188794
236	0xbe95b900	-0.29242706
237	0xbe03ca5b	-0.12870161
238	0x3d237d54	0.039914444
239	0x3d8b9bd5	0.06816832
240	0x3e01e46a	0.1268479
241	0x3a1199f5	0.00055542524
242	0xbcffd454	-0.031229176
243	0xbd621b23	-0.05520166
244	0x3e19e100	0.15027237
245	0xbd1e2f23	-0.03861917
246	0xbc582762	-0.013192983
247	0xbdc3f5ef	-0.095683925
248	0xbd29c90f	-0.04145151
249	0xbe06fe09	-0.13182844
250	0x3abe515a	0.0014520094
251	0x3d939ad4	0.072072655
252	0xbdac2c42	-0.08406879
253	0x3e1dc7a1	0.15408184
254	0x3e386e5b	0.18010847
255	0xbde79254	-0.11307207

decoder.2.bias f4 [227]
0	0xbb91e5e2	-0.004452453
1	0xbc31529d	-0.010822919
2	0xbabc7e9e	-0.0014380997
3	0xbbb48d16	-0.005509983
4	0xbba7361a	-0.005102885
5	0xba95c7b0	-0.0011427309
6	0xbbe17009	-0.0068798107
7	0xbc3963e8	-0.011315323
8	0xbc2143c9	-0.009842821
9	0xbc1bae3b	-0.009501989
10	0xbb9040e4	-0.004402267
11	0xb91078ac	-0.00013777864
12	0xbc114486	-0.008866435
13	0xbb67543e	-0.0035298015
14	0xbb9475d0	-0.004530646
15	0xbbcd5bc5	-0.0062670433
16	0xba9dba04	-0.0012033586
17	0xbbde8f63	-0.0067919954
18	0xbc00d833	-0.007864046
19	0xbbfe0bbe	-0.0077528646
20	0xbc0c636b	-0.008568625
21	0xbba7150f	-0.005098946
22	0xb89a2f3c	-7.35209e-05
23	0xbb302c48	-0.0026881862
24	0xbb8154fb	-0.003946898
25	0xbc164727	-0.0091722375
26	0xbb865b6c	-0.004100254
27	0xbc0535db	-0.008130516
28	0xbc31bd98	-0.010848425
29	0xbba9cc60	-0.005181834
30	0xbbef41bd	-0.007301538
31	0x3a1804c2	0.0005799049
32	0xba9eb1cb	-0.001210743
33	0xbb44ab13	-0.0030009195
34	0xbba14bdb	-0.0049223728
35	0xbbb94ab4	-0.0056546573
36	0xbadf538f	-0.0017038452
37	0x3c98a943	0.018635398
38	0xbb94c7f0	-0.004540436
39	0x3b6e7442	0.0036385213
40	0xbba1fdab	-0.0049435697
41	0xbbe2307e	-0.0069027534
42	0xbb82b6d5	-0.0039890804
43	0xbba9ebf4	-0.0051855985
44	0x39520784	0.0002002996
45	0xbb8139ed	-0.003943673
46	0xbb73f07b	-0.0037222195
47	0xbbb38d37	-0.0054794806
48	0xbb82642b	-0.003979226
49	0xbbf16540	-0.0073668063
50	0xbb5ee1cb	-0.0034009095
51	0x3bacd060	0.0052738637
52	0xbb94d24b	-0.0045416704
53	0xbb2b14ec	-0.0026105
54	0x390f4faf	0.00013667227
55	0xbb97c92e	-0.004632137
56	0xbb72310b	-0.0036955501
57	0xbb0a1a2a	-0.0021072724
58	0xbb73d855	-0.0037207801
59	0xbad524fd	-0.0016261634
60	0x3c8e56ec	0.017375432
61	0xbbda3a65	-0.006659793
62	0xbbae1ee5	-0.0053137415
63	0xbbafb53d	-0.0053621815
64	0x3b53d6c0	0.0032324046
65	0x3c40989c	0.011755135
66	0xbbb010e8	-0.005373109
67	0xbad4d5b3	-0.0016238004
68	0xbbc4efbf	-0.0060100253
69	0xbba53d9b	-0.0050427443
70	0xbbd761db	-0.0065729446
71	0x3acf5bca	0.0015820202
72	0xbbbd9699	-0.005785775
73	0xbbe35579	-0.0069376794
74	0xbbbcae29	-0.005758066
75	0xbb9375cd	-0.004500127
76	0xbb29cc1c	-0.0025909012
77	0x3c7a9bdf	0.015295952
78	0x3b8140b1	0.0039444794
79	0x3c94e457	0.018175287
80	0xbbb7081a	-0.0055856826
81	0x3c7955e9	0.0152182365
82	0xbaee884d	-0.001819858
83	0xb88e7a67	-6.793887e-05
84	0xbb7397b0	-0.003716927
85	0xbb9e2efd	-0.004827379
86	0xbb72b568	-0.0037034396
87	0xbb9bbb67	-0.0047525647
88	0x3cc82884	0.024433382
89	0xbb91d7c9	-0.0044507724
90	0x3b8df1fe	0.004331826
91	0x3c88ab39	0.016683208
92	0xbbc1fc7f	-0.0059199925
93	0xbb9e88b7	-0.004838075
94	0xbb8e6d5a	-0.004346532
95	0xbb4224a7	-0.0029623897
96	0xbbe2562c	-0.006907245
97	0xbc2da718	-0.01059892
98	0xbc2eb821	-0.010664017
99	0x3c0dacbb	0.008647139
100	0xbc028d74	-0.007968295
101	0xbad02037	-0.0015878741
102	0x3b9ef682	0.0048511634
103	0x3a1ce326	0.00059847755
104	0x3c7d8db3	0.015475678
105	0xba917c73	-0.0011099711
106	0x3cb016f6	0.021495324
107	0xbb033b13	-0.0020024225
108	0x3b36bdb1	0.002788406
109	0xbbb802f3	-0.005615586
110	0xbaed16e5	-0.0018088488
111	0x3a94235f	0.0011302045
112	0x3a956cb7	0.0011400197
113	0xbbafb40e	-0.0053620404
114	0xbadbfe76	-0.0016784209
115	0xbba26f63	-0.004957126
116	0xbb386093	-0.0028133735
117	0xbc13a074	-0.009010423
118	0xbbe2f8b6	-0.0069266213
119	0xbc1dab40	-0.009623349
120	0xbb0eb26e	-0.0021773833
121	0xbb583817	-0.0032992417
122	0x39d77775	0.00041096998
123	0xbc0fa986	-0.008768445
124	0xbbaddb04	-0.0053056497
125	0x3a6b69a5	0.0008980281
126	0xba5a279b	-0.0008321942
127	0xbad6d839	-0.0016391344
128	0xbba12e33	-0.0049188375
129	0xbbe8f447	-0.0071091983
130	0xbb750d49	-0.0037391952
131	0xbb384515	-0.0028117348
132	0xbb4059dc	-0.0029350435
133	0xbb95770b	-0.00456131
134	0xbbccd78b	-0.0062512807
135	0xbc01ead2	-0.007929521
136	0xbb484b40	-0.003056243
137	0xbbd5644a	-0.0065121995
138	0xbbad5ae4	-0.005290376
139	0xbbb3d93d	-0.0054885433
140	0xbba2b8e6	-0.0049658893
141	0xbaf553ef	-0.0018717031
142	0xbbda6146	-0.006664428
143	0xba2df948	-0.0006636572
144	0xbc264d9d	-0.01015034
145	0xbba6c3b2	-0.0050892467
146	0xbb8e7c49	-0.004348312
147	0xbbdaec8f	-0.006681032
148	0xbbe0896e	-0.0068523204
149	0xbb4c2f93	-0.0031156286
150	0x3c4a3919	0.012342715
151	0xbbced920	-0.0063125044
152	0xbc3c2227	-0.011482752
153	0xbb8a92ea	-0.0042289393
154	0xbb12ad2d	-0.0022381053
155	0x39832260	0.00025011878
156	0xbb9d7d62	-0.0048062066
157	0xbba4d109	-0.0050298017
158	0xbae3ccc2	-0.0017379748
159	0xbbb7ed9b	-0.0056130416
160	0xb9bbe3e8	-0.00035837223
161	0xbbea4c17	-0.007150184
162	0xbbb3eeaf	-0.0054911
163	0xbb8fe60c	-0.0043914374
164	0xb9f5f066	-0.00046909152
165	0xbba633bb	-0.0050720847
166	0xbbf74db3	-0.0075471043
167	0xbb68f83c	-0.003554835
168	0xbb86509f	-0.0040989663
169	0xbc04e6ff	-0.008111714
170	0xbb396b74	-0.0028292807
171	0xbba6861d	-0.0050819055
172	0xbba3dfc6	-0.005001041
173	0x3c745b7c	0.01491439
174	0xbbb4f555	-0.00552241
175	0xbb2f0dde	-0.0026711146
176	0xbab5e12b	-0.0013876309
177	0xbad13eef	-0.001596419
178	0x3c5e36e3	0.013562891
179	0xbc0c8b71	-0.008578167
180	0xbb8f8b3b	-0.0043806112
181	0xb8445a9e	-4.6814435e-05
182	0xbbadb955	-0.0053016343
183	0xbbe780a7	-0.007064897
184	0xbc203590	-0.009778395
185	0xbba3a5eb	-0.004994144
186	0xbb57d3c3	-0.0032932616
187	0xbbabac4b	-0.005239045
188	0xbbbd543c	-0.005777864
189	0x3b19776f	0.0023417135
190	0x3c784c6f	0.015154942
191	0x3b226aa2	0.0024782796
192	0x3c72d8ac	0.014822166
193	0xbb25a7f6	-0.0025277114
194	0x3c829f5a	0.015945125
195	0xbb6db5d8	-0.0036271717
196	0xbc5a98fa	-0.0133421365
197	0xbba16346	-0.0049251644
198	0xbbdd7ccf	-0.006759263
199	0xbb8759f4	-0.0041305963
200	0xbb83ed55	-0.004026095
201	0x3c86b774	0.0164449
202	0x3b91f68c	0.0044544395
203	0x3c1f4357	0.009720645
204	0x3c8b98c9	0.017040627
205	0xbb8e738d	-0.004347271
206	0xbbaf2936	-0.005345489
207	0xbb5b5ad7	-0.0033470893
208	0xbbe6ee55	-0.0070474544
209	0xba6c3a01	-0.0009011329
210	0x3baa9aa2	0.005206422
211	0xbb254cc1	-0.002522275
212	0x3c143650	0.009046152
213	0xba2cb546	-0.0006588291
214	0xb8968857	-7.177953e-05
215	0xb8a5e732	-7.9108766e-05
216	0xbc022001	-0.007942201
217	0x3c1236eb	0.008924226
218	0xbc1c6cbb	-0.009547408
219	0x3c8c0bbd	0.017095441
220	0xbb43f4ec	-0.0029900623
221	0x3a3c863d	0.0007191634
222	0x3b1c9f65	0.0023898717
223	0x3c25146d	0.010075671
224	0xbb12f4b5	-0.0022423689
225	0x38cb7234	9.701066e-05
226	0xbb41a0bb	-0.0029545266
